<?xml version="1.0" ?>
<net name="PVANet + R-FCN" version="11">
	<layers>
		<layer id="12" name="data" type="Parameter" version="opset1">
			<data element_type="f32" shape="1,3,544,992"/>
			<rt_info>
				<attribute name="fused_names" value="data" version="0"/>
				<attribute name="old_api_map_element_type" value="f16" version="0"/>
			</rt_info>
			<output>
				<port id="0" names="data" precision="FP32">
					<dim>1</dim>
					<dim>3</dim>
					<dim>544</dim>
					<dim>992</dim>
					<rt_info>
						<attribute layout="[N,C,H,W]" name="layout" version="0"/>
					</rt_info>
				</port>
			</output>
		</layer>
		<layer id="1741" name="im_info" type="Parameter" version="opset1">
			<data element_type="f32" shape="1,6"/>
			<rt_info>
				<attribute name="fused_names" value="im_info" version="0"/>
				<attribute name="old_api_map_element_type" value="f16" version="0"/>
			</rt_info>
			<output>
				<port id="0" names="im_info,im_info:0" precision="FP32">
					<dim>1</dim>
					<dim>6</dim>
					<rt_info>
						<attribute layout="[H,W]" name="layout" version="0"/>
					</rt_info>
				</port>
			</output>
		</layer>
		<layer id="0" name="6010601419420" type="Const" version="opset1">
			<data element_type="f32" offset="0" shape="" size="4"/>
			<output>
				<port id="0" precision="FP32"/>
			</output>
		</layer>
		<layer id="1" name="6011601521028" type="Const" version="opset1">
			<data element_type="f32" offset="4" shape="" size="4"/>
			<output>
				<port id="0" precision="FP32"/>
			</output>
		</layer>
		<layer id="2" name="6012601622093" type="Const" version="opset1">
			<data element_type="f32" offset="0" shape="" size="4"/>
			<output>
				<port id="0" precision="FP32"/>
			</output>
		</layer>
		<layer id="3" name="6013601720701" type="Const" version="opset1">
			<data element_type="f32" offset="4" shape="" size="4"/>
			<output>
				<port id="0" precision="FP32"/>
			</output>
		</layer>
		<layer id="4" name="5990599422090" type="Const" version="opset1">
			<data element_type="f32" offset="8" shape="" size="4"/>
			<output>
				<port id="0" precision="FP32"/>
			</output>
		</layer>
		<layer id="5" name="5991599519936" type="Const" version="opset1">
			<data element_type="f32" offset="12" shape="" size="4"/>
			<output>
				<port id="0" precision="FP32"/>
			</output>
		</layer>
		<layer id="6" name="5992599621091" type="Const" version="opset1">
			<data element_type="f32" offset="8" shape="" size="4"/>
			<output>
				<port id="0" precision="FP32"/>
			</output>
		</layer>
		<layer id="7" name="5993599721868" type="Const" version="opset1">
			<data element_type="f32" offset="12" shape="" size="4"/>
			<output>
				<port id="0" precision="FP32"/>
			</output>
		</layer>
		<layer id="8" name="2539254320011" type="Const" version="opset1">
			<data element_type="f32" offset="16" shape="" size="4"/>
			<output>
				<port id="0" precision="FP32"/>
			</output>
		</layer>
		<layer id="9" name="2540254421007" type="Const" version="opset1">
			<data element_type="f32" offset="20" shape="" size="4"/>
			<output>
				<port id="0" precision="FP32"/>
			</output>
		</layer>
		<layer id="10" name="2541254521517" type="Const" version="opset1">
			<data element_type="f32" offset="16" shape="" size="4"/>
			<output>
				<port id="0" precision="FP32"/>
			</output>
		</layer>
		<layer id="11" name="2542254620983" type="Const" version="opset1">
			<data element_type="f32" offset="20" shape="" size="4"/>
			<output>
				<port id="0" precision="FP32"/>
			</output>
		</layer>
		<layer id="13" name="data/mean_input_port_1/value17411560576221262" type="Const" version="opset1">
			<data element_type="f16" offset="24" shape="1,3,1,1" size="6"/>
			<output>
				<port id="0" precision="FP16">
					<dim>1</dim>
					<dim>3</dim>
					<dim>1</dim>
					<dim>1</dim>
				</port>
			</output>
		</layer>
		<layer id="14" name="data/mean_input_port_1/value17411560576211201/restored_convert" type="Convert" version="opset1">
			<data destination_type="f32"/>
			<rt_info>
				<attribute name="decompression" version="0"/>
				<attribute name="fused_names" value="data/mean_input_port_1/value174115605" version="0"/>
			</rt_info>
			<input>
				<port id="0">
					<dim>1</dim>
					<dim>3</dim>
					<dim>1</dim>
					<dim>1</dim>
				</port>
			</input>
			<output>
				<port id="1" precision="FP32">
					<dim>1</dim>
					<dim>3</dim>
					<dim>1</dim>
					<dim>1</dim>
				</port>
			</output>
		</layer>
		<layer id="15" name="data/mean" type="Add" version="opset1">
			<data auto_broadcast="numpy"/>
			<rt_info>
				<attribute name="fused_names" value="data/mean" version="0"/>
			</rt_info>
			<input>
				<port id="0">
					<dim>1</dim>
					<dim>3</dim>
					<dim>544</dim>
					<dim>992</dim>
				</port>
				<port id="1">
					<dim>1</dim>
					<dim>3</dim>
					<dim>1</dim>
					<dim>1</dim>
				</port>
			</input>
			<output>
				<port id="2" precision="FP32">
					<dim>1</dim>
					<dim>3</dim>
					<dim>544</dim>
					<dim>992</dim>
				</port>
			</output>
		</layer>
		<layer id="16" name="conv1_1/conv/WithoutBiases/fq_input_0" type="FakeQuantize" version="opset1">
			<data auto_broadcast="numpy" levels="256"/>
			<input>
				<port id="0">
					<dim>1</dim>
					<dim>3</dim>
					<dim>544</dim>
					<dim>992</dim>
				</port>
				<port id="1"/>
				<port id="2"/>
				<port id="3"/>
				<port id="4"/>
			</input>
			<output>
				<port id="5" precision="FP32">
					<dim>1</dim>
					<dim>3</dim>
					<dim>544</dim>
					<dim>992</dim>
				</port>
			</output>
		</layer>
		<layer id="17" name="28076511202/restored_convert/quantized1273321115" type="Const" version="opset1">
			<data element_type="i8" offset="30" shape="16,3,7,7" size="2352"/>
			<output>
				<port id="0" precision="I8">
					<dim>16</dim>
					<dim>3</dim>
					<dim>7</dim>
					<dim>7</dim>
				</port>
			</output>
		</layer>
		<layer id="18" name="28076511202/restored_convert/quantized/to_f32" type="Convert" version="opset1">
			<data destination_type="f32"/>
			<input>
				<port id="0">
					<dim>16</dim>
					<dim>3</dim>
					<dim>7</dim>
					<dim>7</dim>
				</port>
			</input>
			<output>
				<port id="1" precision="FP32">
					<dim>16</dim>
					<dim>3</dim>
					<dim>7</dim>
					<dim>7</dim>
				</port>
			</output>
		</layer>
		<layer id="19" name="conv1_1/conv/WithoutBiases/fq_weights_1/zero_point1275221703" type="Const" version="opset1">
			<data element_type="f32" offset="2382" shape="16,1,1,1" size="64"/>
			<output>
				<port id="0" precision="FP32">
					<dim>16</dim>
					<dim>1</dim>
					<dim>1</dim>
					<dim>1</dim>
				</port>
			</output>
		</layer>
		<layer id="20" name="conv1_1/conv/WithoutBiases/fq_weights_1/minus_zp" type="Subtract" version="opset1">
			<data auto_broadcast="numpy"/>
			<input>
				<port id="0">
					<dim>16</dim>
					<dim>3</dim>
					<dim>7</dim>
					<dim>7</dim>
				</port>
				<port id="1">
					<dim>16</dim>
					<dim>1</dim>
					<dim>1</dim>
					<dim>1</dim>
				</port>
			</input>
			<output>
				<port id="2" precision="FP32">
					<dim>16</dim>
					<dim>3</dim>
					<dim>7</dim>
					<dim>7</dim>
				</port>
			</output>
		</layer>
		<layer id="21" name="conv1_1/conv/WithoutBiases/fq_weights_1/scale1274122024" type="Const" version="opset1">
			<data element_type="f32" offset="2446" shape="16,1,1,1" size="64"/>
			<output>
				<port id="0" precision="FP32">
					<dim>16</dim>
					<dim>1</dim>
					<dim>1</dim>
					<dim>1</dim>
				</port>
			</output>
		</layer>
		<layer id="22" name="conv1_1/conv/WithoutBiases/fq_weights_1/mulpiply_by_scale" type="Multiply" version="opset1">
			<data auto_broadcast="numpy"/>
			<input>
				<port id="0">
					<dim>16</dim>
					<dim>3</dim>
					<dim>7</dim>
					<dim>7</dim>
				</port>
				<port id="1">
					<dim>16</dim>
					<dim>1</dim>
					<dim>1</dim>
					<dim>1</dim>
				</port>
			</input>
			<output>
				<port id="2" precision="FP32">
					<dim>16</dim>
					<dim>3</dim>
					<dim>7</dim>
					<dim>7</dim>
				</port>
			</output>
		</layer>
		<layer id="23" name="conv1_1/conv/WithoutBiases" type="Convolution" version="opset1">
			<data auto_pad="explicit" dilations="1,1" pads_begin="3,3" pads_end="3,3" strides="2,2"/>
			<rt_info>
				<attribute name="fused_names" value="conv1_1/conv/WithoutBiases" version="0"/>
			</rt_info>
			<input>
				<port id="0">
					<dim>1</dim>
					<dim>3</dim>
					<dim>544</dim>
					<dim>992</dim>
				</port>
				<port id="1">
					<dim>16</dim>
					<dim>3</dim>
					<dim>7</dim>
					<dim>7</dim>
				</port>
			</input>
			<output>
				<port id="2" precision="FP32">
					<dim>1</dim>
					<dim>16</dim>
					<dim>272</dim>
					<dim>496</dim>
				</port>
			</output>
		</layer>
		<layer id="24" name="conv1_1/conv/Dims399276819603" type="Const" version="opset1">
			<data element_type="f16" offset="2510" shape="1,16,1,1" size="32"/>
			<output>
				<port id="0" precision="FP16">
					<dim>1</dim>
					<dim>16</dim>
					<dim>1</dim>
					<dim>1</dim>
				</port>
			</output>
		</layer>
		<layer id="25" name="conv1_1/conv/Dims399276811203/restored_convert" type="Convert" version="opset1">
			<data destination_type="f32"/>
			<rt_info>
				<attribute name="decompression" version="0"/>
				<attribute name="fused_names" value="conv1_1/conv/Dims3992" version="0"/>
			</rt_info>
			<input>
				<port id="0">
					<dim>1</dim>
					<dim>16</dim>
					<dim>1</dim>
					<dim>1</dim>
				</port>
			</input>
			<output>
				<port id="1" precision="FP32">
					<dim>1</dim>
					<dim>16</dim>
					<dim>1</dim>
					<dim>1</dim>
				</port>
			</output>
		</layer>
		<layer id="26" name="conv1_1/conv" type="Add" version="opset1">
			<data auto_broadcast="numpy"/>
			<rt_info>
				<attribute name="fused_names" value="conv1_1/conv" version="0"/>
			</rt_info>
			<input>
				<port id="0">
					<dim>1</dim>
					<dim>16</dim>
					<dim>272</dim>
					<dim>496</dim>
				</port>
				<port id="1">
					<dim>1</dim>
					<dim>16</dim>
					<dim>1</dim>
					<dim>1</dim>
				</port>
			</input>
			<output>
				<port id="2" names="conv1_1/conv" precision="FP32">
					<dim>1</dim>
					<dim>16</dim>
					<dim>272</dim>
					<dim>496</dim>
				</port>
			</output>
		</layer>
		<layer id="27" name="conv1_1/concat/fq_input_0" type="FakeQuantize" version="opset1">
			<data auto_broadcast="numpy" levels="256"/>
			<input>
				<port id="0">
					<dim>1</dim>
					<dim>16</dim>
					<dim>272</dim>
					<dim>496</dim>
				</port>
				<port id="1"/>
				<port id="2"/>
				<port id="3"/>
				<port id="4"/>
			</input>
			<output>
				<port id="5" precision="FP32">
					<dim>1</dim>
					<dim>16</dim>
					<dim>272</dim>
					<dim>496</dim>
				</port>
			</output>
		</layer>
		<layer id="28" name="6000600420569" type="Const" version="opset1">
			<data element_type="f32" offset="8" shape="" size="4"/>
			<output>
				<port id="0" precision="FP32"/>
			</output>
		</layer>
		<layer id="29" name="6001600519780" type="Const" version="opset1">
			<data element_type="f32" offset="12" shape="" size="4"/>
			<output>
				<port id="0" precision="FP32"/>
			</output>
		</layer>
		<layer id="30" name="6002600620326" type="Const" version="opset1">
			<data element_type="f32" offset="8" shape="" size="4"/>
			<output>
				<port id="0" precision="FP32"/>
			</output>
		</layer>
		<layer id="31" name="6003600721688" type="Const" version="opset1">
			<data element_type="f32" offset="12" shape="" size="4"/>
			<output>
				<port id="0" precision="FP32"/>
			</output>
		</layer>
		<layer id="32" name="44577111204/restored_convert/quantized1471320896" type="Const" version="opset1">
			<data element_type="i8" offset="2542" shape="1,1,1,1" size="1"/>
			<output>
				<port id="0" precision="I8">
					<dim>1</dim>
					<dim>1</dim>
					<dim>1</dim>
					<dim>1</dim>
				</port>
			</output>
		</layer>
		<layer id="33" name="44577111204/restored_convert/quantized/to_f32" type="Convert" version="opset1">
			<data destination_type="f32"/>
			<input>
				<port id="0">
					<dim>1</dim>
					<dim>1</dim>
					<dim>1</dim>
					<dim>1</dim>
				</port>
			</input>
			<output>
				<port id="1" precision="FP32">
					<dim>1</dim>
					<dim>1</dim>
					<dim>1</dim>
					<dim>1</dim>
				</port>
			</output>
		</layer>
		<layer id="34" name="conv1_1/neg/mul_/fq_input_1/zero_point1473220026" type="Const" version="opset1">
			<data element_type="f32" offset="2543" shape="1,1,1,1" size="4"/>
			<output>
				<port id="0" precision="FP32">
					<dim>1</dim>
					<dim>1</dim>
					<dim>1</dim>
					<dim>1</dim>
				</port>
			</output>
		</layer>
		<layer id="35" name="conv1_1/neg/mul_/fq_input_1/minus_zp" type="Subtract" version="opset1">
			<data auto_broadcast="numpy"/>
			<input>
				<port id="0">
					<dim>1</dim>
					<dim>1</dim>
					<dim>1</dim>
					<dim>1</dim>
				</port>
				<port id="1">
					<dim>1</dim>
					<dim>1</dim>
					<dim>1</dim>
					<dim>1</dim>
				</port>
			</input>
			<output>
				<port id="2" precision="FP32">
					<dim>1</dim>
					<dim>1</dim>
					<dim>1</dim>
					<dim>1</dim>
				</port>
			</output>
		</layer>
		<layer id="36" name="conv1_1/neg/mul_/fq_input_1/scale1472119756" type="Const" version="opset1">
			<data element_type="f32" offset="2547" shape="1,1,1,1" size="4"/>
			<output>
				<port id="0" precision="FP32">
					<dim>1</dim>
					<dim>1</dim>
					<dim>1</dim>
					<dim>1</dim>
				</port>
			</output>
		</layer>
		<layer id="37" name="conv1_1/neg/mul_/fq_input_1/mulpiply_by_scale" type="Multiply" version="opset1">
			<data auto_broadcast="numpy"/>
			<input>
				<port id="0">
					<dim>1</dim>
					<dim>1</dim>
					<dim>1</dim>
					<dim>1</dim>
				</port>
				<port id="1">
					<dim>1</dim>
					<dim>1</dim>
					<dim>1</dim>
					<dim>1</dim>
				</port>
			</input>
			<output>
				<port id="2" precision="FP32">
					<dim>1</dim>
					<dim>1</dim>
					<dim>1</dim>
					<dim>1</dim>
				</port>
			</output>
		</layer>
		<layer id="38" name="conv1_1/neg/mul_" type="Multiply" version="opset1">
			<data auto_broadcast="numpy"/>
			<rt_info>
				<attribute name="fused_names" value="conv1_1/neg/mul_" version="0"/>
			</rt_info>
			<input>
				<port id="0">
					<dim>1</dim>
					<dim>16</dim>
					<dim>272</dim>
					<dim>496</dim>
				</port>
				<port id="1">
					<dim>1</dim>
					<dim>1</dim>
					<dim>1</dim>
					<dim>1</dim>
				</port>
			</input>
			<output>
				<port id="2" names="conv1_1/neg" precision="FP32">
					<dim>1</dim>
					<dim>16</dim>
					<dim>272</dim>
					<dim>496</dim>
				</port>
			</output>
		</layer>
		<layer id="39" name="conv1_1/concat/fq_input_1" type="FakeQuantize" version="opset1">
			<data auto_broadcast="numpy" levels="256"/>
			<input>
				<port id="0">
					<dim>1</dim>
					<dim>16</dim>
					<dim>272</dim>
					<dim>496</dim>
				</port>
				<port id="1"/>
				<port id="2"/>
				<port id="3"/>
				<port id="4"/>
			</input>
			<output>
				<port id="5" precision="FP32">
					<dim>1</dim>
					<dim>16</dim>
					<dim>272</dim>
					<dim>496</dim>
				</port>
			</output>
		</layer>
		<layer id="40" name="conv1_1/concat" type="Concat" version="opset1">
			<data axis="1"/>
			<rt_info>
				<attribute name="fused_names" value="conv1_1/concat" version="0"/>
			</rt_info>
			<input>
				<port id="0">
					<dim>1</dim>
					<dim>16</dim>
					<dim>272</dim>
					<dim>496</dim>
				</port>
				<port id="1">
					<dim>1</dim>
					<dim>16</dim>
					<dim>272</dim>
					<dim>496</dim>
				</port>
			</input>
			<output>
				<port id="2" names="conv1_1" precision="FP32">
					<dim>1</dim>
					<dim>32</dim>
					<dim>272</dim>
					<dim>496</dim>
				</port>
			</output>
		</layer>
		<layer id="41" name="23977521487" type="Const" version="opset1">
			<data element_type="f16" offset="2551" shape="1,32,1,1" size="64"/>
			<output>
				<port id="0" precision="FP16">
					<dim>1</dim>
					<dim>32</dim>
					<dim>1</dim>
					<dim>1</dim>
				</port>
			</output>
		</layer>
		<layer id="42" name="23977511205/restored_convert" type="Convert" version="opset1">
			<data destination_type="f32"/>
			<rt_info>
				<attribute name="decompression" version="0"/>
				<attribute name="fused_names" value="239" version="0"/>
			</rt_info>
			<input>
				<port id="0">
					<dim>1</dim>
					<dim>32</dim>
					<dim>1</dim>
					<dim>1</dim>
				</port>
			</input>
			<output>
				<port id="1" precision="FP32">
					<dim>1</dim>
					<dim>32</dim>
					<dim>1</dim>
					<dim>1</dim>
				</port>
			</output>
		</layer>
		<layer id="43" name="conv1_1/scale/Mul_" type="Multiply" version="opset1">
			<data auto_broadcast="numpy"/>
			<rt_info>
				<attribute name="fused_names" value="conv1_1/scale/Mul_" version="0"/>
			</rt_info>
			<input>
				<port id="0">
					<dim>1</dim>
					<dim>32</dim>
					<dim>272</dim>
					<dim>496</dim>
				</port>
				<port id="1">
					<dim>1</dim>
					<dim>32</dim>
					<dim>1</dim>
					<dim>1</dim>
				</port>
			</input>
			<output>
				<port id="2" precision="FP32">
					<dim>1</dim>
					<dim>32</dim>
					<dim>272</dim>
					<dim>496</dim>
				</port>
			</output>
		</layer>
		<layer id="44" name="24077819858" type="Const" version="opset1">
			<data element_type="f16" offset="2615" shape="1,32,1,1" size="64"/>
			<output>
				<port id="0" precision="FP16">
					<dim>1</dim>
					<dim>32</dim>
					<dim>1</dim>
					<dim>1</dim>
				</port>
			</output>
		</layer>
		<layer id="45" name="24077811206/restored_convert" type="Convert" version="opset1">
			<data destination_type="f32"/>
			<rt_info>
				<attribute name="decompression" version="0"/>
				<attribute name="fused_names" value="240" version="0"/>
			</rt_info>
			<input>
				<port id="0">
					<dim>1</dim>
					<dim>32</dim>
					<dim>1</dim>
					<dim>1</dim>
				</port>
			</input>
			<output>
				<port id="1" precision="FP32">
					<dim>1</dim>
					<dim>32</dim>
					<dim>1</dim>
					<dim>1</dim>
				</port>
			</output>
		</layer>
		<layer id="46" name="conv1_1/scale/Add_" type="Add" version="opset1">
			<data auto_broadcast="numpy"/>
			<rt_info>
				<attribute name="fused_names" value="conv1_1/scale/Add_" version="0"/>
			</rt_info>
			<input>
				<port id="0">
					<dim>1</dim>
					<dim>32</dim>
					<dim>272</dim>
					<dim>496</dim>
				</port>
				<port id="1">
					<dim>1</dim>
					<dim>32</dim>
					<dim>1</dim>
					<dim>1</dim>
				</port>
			</input>
			<output>
				<port id="2" names="conv1_1" precision="FP32">
					<dim>1</dim>
					<dim>32</dim>
					<dim>272</dim>
					<dim>496</dim>
				</port>
			</output>
		</layer>
		<layer id="47" name="conv1_1/relu" type="ReLU" version="opset1">
			<rt_info>
				<attribute name="fused_names" value="conv1_1/relu" version="0"/>
			</rt_info>
			<input>
				<port id="0">
					<dim>1</dim>
					<dim>32</dim>
					<dim>272</dim>
					<dim>496</dim>
				</port>
			</input>
			<output>
				<port id="1" names="conv1_1" precision="FP32">
					<dim>1</dim>
					<dim>32</dim>
					<dim>272</dim>
					<dim>496</dim>
				</port>
			</output>
		</layer>
		<layer id="48" name="pool1/fq_input_0" type="FakeQuantize" version="opset1">
			<data auto_broadcast="numpy" levels="256"/>
			<input>
				<port id="0">
					<dim>1</dim>
					<dim>32</dim>
					<dim>272</dim>
					<dim>496</dim>
				</port>
				<port id="1"/>
				<port id="2"/>
				<port id="3"/>
				<port id="4"/>
			</input>
			<output>
				<port id="5" precision="FP32">
					<dim>1</dim>
					<dim>32</dim>
					<dim>272</dim>
					<dim>496</dim>
				</port>
			</output>
		</layer>
		<layer id="49" name="pool1" type="MaxPool" version="opset8">
			<data auto_pad="explicit" axis="0" dilations="1,1" index_element_type="i64" kernel="3,3" pads_begin="0,0" pads_end="0,0" rounding_type="ceil" strides="2,2"/>
			<rt_info>
				<attribute name="fused_names" value="pool1" version="0"/>
			</rt_info>
			<input>
				<port id="0">
					<dim>1</dim>
					<dim>32</dim>
					<dim>272</dim>
					<dim>496</dim>
				</port>
			</input>
			<output>
				<port id="1" names="pool1" precision="FP32">
					<dim>1</dim>
					<dim>32</dim>
					<dim>136</dim>
					<dim>248</dim>
				</port>
				<port id="2" precision="FP32">
					<dim>1</dim>
					<dim>32</dim>
					<dim>136</dim>
					<dim>248</dim>
					<rt_info/>
				</port>
			</output>
		</layer>
		<layer id="51" name="6100610419615" type="Const" version="opset1">
			<data element_type="f32" offset="2679" shape="" size="4"/>
			<output>
				<port id="0" precision="FP32"/>
			</output>
		</layer>
		<layer id="52" name="6101610520824" type="Const" version="opset1">
			<data element_type="f32" offset="2683" shape="" size="4"/>
			<output>
				<port id="0" precision="FP32"/>
			</output>
		</layer>
		<layer id="53" name="6102610621673" type="Const" version="opset1">
			<data element_type="f32" offset="2679" shape="" size="4"/>
			<output>
				<port id="0" precision="FP32"/>
			</output>
		</layer>
		<layer id="54" name="6103610720836" type="Const" version="opset1">
			<data element_type="f32" offset="2683" shape="" size="4"/>
			<output>
				<port id="0" precision="FP32"/>
			</output>
		</layer>
		<layer id="55" name="2959296321949" type="Const" version="opset1">
			<data element_type="f32" offset="2687" shape="" size="4"/>
			<output>
				<port id="0" precision="FP32"/>
			</output>
		</layer>
		<layer id="56" name="2960296419939" type="Const" version="opset1">
			<data element_type="f32" offset="2691" shape="" size="4"/>
			<output>
				<port id="0" precision="FP32"/>
			</output>
		</layer>
		<layer id="57" name="2961296521562" type="Const" version="opset1">
			<data element_type="f32" offset="2687" shape="" size="4"/>
			<output>
				<port id="0" precision="FP32"/>
			</output>
		</layer>
		<layer id="58" name="2962296620788" type="Const" version="opset1">
			<data element_type="f32" offset="2691" shape="" size="4"/>
			<output>
				<port id="0" precision="FP32"/>
			</output>
		</layer>
		<layer id="59" name="4249425321745" type="Const" version="opset1">
			<data element_type="f32" offset="2695" shape="" size="4"/>
			<output>
				<port id="0" precision="FP32"/>
			</output>
		</layer>
		<layer id="60" name="4250425419681" type="Const" version="opset1">
			<data element_type="f32" offset="2699" shape="" size="4"/>
			<output>
				<port id="0" precision="FP32"/>
			</output>
		</layer>
		<layer id="61" name="4251425521205" type="Const" version="opset1">
			<data element_type="f32" offset="2695" shape="" size="4"/>
			<output>
				<port id="0" precision="FP32"/>
			</output>
		</layer>
		<layer id="62" name="4252425620962" type="Const" version="opset1">
			<data element_type="f32" offset="2699" shape="" size="4"/>
			<output>
				<port id="0" precision="FP32"/>
			</output>
		</layer>
		<layer id="63" name="6050605421529" type="Const" version="opset1">
			<data element_type="f32" offset="2703" shape="" size="4"/>
			<output>
				<port id="0" precision="FP32"/>
			</output>
		</layer>
		<layer id="64" name="6051605521484" type="Const" version="opset1">
			<data element_type="f32" offset="2707" shape="" size="4"/>
			<output>
				<port id="0" precision="FP32"/>
			</output>
		</layer>
		<layer id="65" name="6052605619474" type="Const" version="opset1">
			<data element_type="f32" offset="2703" shape="" size="4"/>
			<output>
				<port id="0" precision="FP32"/>
			</output>
		</layer>
		<layer id="66" name="6053605720920" type="Const" version="opset1">
			<data element_type="f32" offset="2707" shape="" size="4"/>
			<output>
				<port id="0" precision="FP32"/>
			</output>
		</layer>
		<layer id="67" name="2459246320005" type="Const" version="opset1">
			<data element_type="f32" offset="2695" shape="" size="4"/>
			<output>
				<port id="0" precision="FP32"/>
			</output>
		</layer>
		<layer id="68" name="2460246419606" type="Const" version="opset1">
			<data element_type="f32" offset="2711" shape="" size="4"/>
			<output>
				<port id="0" precision="FP32"/>
			</output>
		</layer>
		<layer id="69" name="2461246519960" type="Const" version="opset1">
			<data element_type="f32" offset="2695" shape="" size="4"/>
			<output>
				<port id="0" precision="FP32"/>
			</output>
		</layer>
		<layer id="70" name="2462246620764" type="Const" version="opset1">
			<data element_type="f32" offset="2711" shape="" size="4"/>
			<output>
				<port id="0" precision="FP32"/>
			</output>
		</layer>
		<layer id="71" name="3599360319789" type="Const" version="opset1">
			<data element_type="f32" offset="2715" shape="" size="4"/>
			<output>
				<port id="0" precision="FP32"/>
			</output>
		</layer>
		<layer id="72" name="3600360421373" type="Const" version="opset1">
			<data element_type="f32" offset="2719" shape="" size="4"/>
			<output>
				<port id="0" precision="FP32"/>
			</output>
		</layer>
		<layer id="73" name="3601360520797" type="Const" version="opset1">
			<data element_type="f32" offset="2715" shape="" size="4"/>
			<output>
				<port id="0" precision="FP32"/>
			</output>
		</layer>
		<layer id="74" name="3602360620239" type="Const" version="opset1">
			<data element_type="f32" offset="2719" shape="" size="4"/>
			<output>
				<port id="0" precision="FP32"/>
			</output>
		</layer>
		<layer id="75" name="3739374320794" type="Const" version="opset1">
			<data element_type="f32" offset="2723" shape="" size="4"/>
			<output>
				<port id="0" precision="FP32"/>
			</output>
		</layer>
		<layer id="76" name="3740374421250" type="Const" version="opset1">
			<data element_type="f32" offset="2727" shape="" size="4"/>
			<output>
				<port id="0" precision="FP32"/>
			</output>
		</layer>
		<layer id="77" name="3741374519732" type="Const" version="opset1">
			<data element_type="f32" offset="2723" shape="" size="4"/>
			<output>
				<port id="0" precision="FP32"/>
			</output>
		</layer>
		<layer id="78" name="3742374621541" type="Const" version="opset1">
			<data element_type="f32" offset="2727" shape="" size="4"/>
			<output>
				<port id="0" precision="FP32"/>
			</output>
		</layer>
		<layer id="79" name="3819382320455" type="Const" version="opset1">
			<data element_type="f32" offset="2695" shape="" size="4"/>
			<output>
				<port id="0" precision="FP32"/>
			</output>
		</layer>
		<layer id="80" name="3820382421532" type="Const" version="opset1">
			<data element_type="f32" offset="2731" shape="" size="4"/>
			<output>
				<port id="0" precision="FP32"/>
			</output>
		</layer>
		<layer id="81" name="3821382521049" type="Const" version="opset1">
			<data element_type="f32" offset="2695" shape="" size="4"/>
			<output>
				<port id="0" precision="FP32"/>
			</output>
		</layer>
		<layer id="82" name="3822382619729" type="Const" version="opset1">
			<data element_type="f32" offset="2731" shape="" size="4"/>
			<output>
				<port id="0" precision="FP32"/>
			</output>
		</layer>
		<layer id="83" name="6020602420278" type="Const" version="opset1">
			<data element_type="f32" offset="2735" shape="" size="4"/>
			<output>
				<port id="0" precision="FP32"/>
			</output>
		</layer>
		<layer id="84" name="6021602520941" type="Const" version="opset1">
			<data element_type="f32" offset="2739" shape="" size="4"/>
			<output>
				<port id="0" precision="FP32"/>
			</output>
		</layer>
		<layer id="85" name="6022602621994" type="Const" version="opset1">
			<data element_type="f32" offset="2735" shape="" size="4"/>
			<output>
				<port id="0" precision="FP32"/>
			</output>
		</layer>
		<layer id="86" name="6023602721856" type="Const" version="opset1">
			<data element_type="f32" offset="2739" shape="" size="4"/>
			<output>
				<port id="0" precision="FP32"/>
			</output>
		</layer>
		<layer id="87" name="3049305320191" type="Const" version="opset1">
			<data element_type="f32" offset="2695" shape="" size="4"/>
			<output>
				<port id="0" precision="FP32"/>
			</output>
		</layer>
		<layer id="88" name="3050305420176" type="Const" version="opset1">
			<data element_type="f32" offset="2743" shape="" size="4"/>
			<output>
				<port id="0" precision="FP32"/>
			</output>
		</layer>
		<layer id="89" name="3051305520572" type="Const" version="opset1">
			<data element_type="f32" offset="2695" shape="" size="4"/>
			<output>
				<port id="0" precision="FP32"/>
			</output>
		</layer>
		<layer id="90" name="3052305621160" type="Const" version="opset1">
			<data element_type="f32" offset="2743" shape="" size="4"/>
			<output>
				<port id="0" precision="FP32"/>
			</output>
		</layer>
		<layer id="91" name="36878311207/restored_convert/quantized1336320653" type="Const" version="opset1">
			<data element_type="i8" offset="2747" shape="24,32,1,1" size="768"/>
			<output>
				<port id="0" precision="I8">
					<dim>24</dim>
					<dim>32</dim>
					<dim>1</dim>
					<dim>1</dim>
				</port>
			</output>
		</layer>
		<layer id="92" name="36878311207/restored_convert/quantized/to_f32" type="Convert" version="opset1">
			<data destination_type="f32"/>
			<input>
				<port id="0">
					<dim>24</dim>
					<dim>32</dim>
					<dim>1</dim>
					<dim>1</dim>
				</port>
			</input>
			<output>
				<port id="1" precision="FP32">
					<dim>24</dim>
					<dim>32</dim>
					<dim>1</dim>
					<dim>1</dim>
				</port>
			</output>
		</layer>
		<layer id="93" name="conv2_1/1/conv/WithoutBiases/fq_weights_1/zero_point1338221451" type="Const" version="opset1">
			<data element_type="f32" offset="3515" shape="24,1,1,1" size="96"/>
			<output>
				<port id="0" precision="FP32">
					<dim>24</dim>
					<dim>1</dim>
					<dim>1</dim>
					<dim>1</dim>
				</port>
			</output>
		</layer>
		<layer id="94" name="conv2_1/1/conv/WithoutBiases/fq_weights_1/minus_zp" type="Subtract" version="opset1">
			<data auto_broadcast="numpy"/>
			<input>
				<port id="0">
					<dim>24</dim>
					<dim>32</dim>
					<dim>1</dim>
					<dim>1</dim>
				</port>
				<port id="1">
					<dim>24</dim>
					<dim>1</dim>
					<dim>1</dim>
					<dim>1</dim>
				</port>
			</input>
			<output>
				<port id="2" precision="FP32">
					<dim>24</dim>
					<dim>32</dim>
					<dim>1</dim>
					<dim>1</dim>
				</port>
			</output>
		</layer>
		<layer id="95" name="conv2_1/1/conv/WithoutBiases/fq_weights_1/scale1337120050" type="Const" version="opset1">
			<data element_type="f32" offset="3611" shape="24,1,1,1" size="96"/>
			<output>
				<port id="0" precision="FP32">
					<dim>24</dim>
					<dim>1</dim>
					<dim>1</dim>
					<dim>1</dim>
				</port>
			</output>
		</layer>
		<layer id="96" name="conv2_1/1/conv/WithoutBiases/fq_weights_1/mulpiply_by_scale" type="Multiply" version="opset1">
			<data auto_broadcast="numpy"/>
			<input>
				<port id="0">
					<dim>24</dim>
					<dim>32</dim>
					<dim>1</dim>
					<dim>1</dim>
				</port>
				<port id="1">
					<dim>24</dim>
					<dim>1</dim>
					<dim>1</dim>
					<dim>1</dim>
				</port>
			</input>
			<output>
				<port id="2" precision="FP32">
					<dim>24</dim>
					<dim>32</dim>
					<dim>1</dim>
					<dim>1</dim>
				</port>
			</output>
		</layer>
		<layer id="97" name="conv2_1/1/conv/WithoutBiases" type="Convolution" version="opset1">
			<data auto_pad="explicit" dilations="1,1" pads_begin="0,0" pads_end="0,0" strides="1,1"/>
			<rt_info>
				<attribute name="fused_names" value="conv2_1/1/conv/WithoutBiases" version="0"/>
			</rt_info>
			<input>
				<port id="0">
					<dim>1</dim>
					<dim>32</dim>
					<dim>136</dim>
					<dim>248</dim>
				</port>
				<port id="1">
					<dim>24</dim>
					<dim>32</dim>
					<dim>1</dim>
					<dim>1</dim>
				</port>
			</input>
			<output>
				<port id="2" precision="FP32">
					<dim>1</dim>
					<dim>24</dim>
					<dim>136</dim>
					<dim>248</dim>
				</port>
			</output>
		</layer>
		<layer id="98" name="conv2_1/1/conv/Dims407078621202" type="Const" version="opset1">
			<data element_type="f16" offset="3707" shape="1,24,1,1" size="48"/>
			<output>
				<port id="0" precision="FP16">
					<dim>1</dim>
					<dim>24</dim>
					<dim>1</dim>
					<dim>1</dim>
				</port>
			</output>
		</layer>
		<layer id="99" name="conv2_1/1/conv/Dims407078611208/restored_convert" type="Convert" version="opset1">
			<data destination_type="f32"/>
			<rt_info>
				<attribute name="decompression" version="0"/>
				<attribute name="fused_names" value="conv2_1/1/conv/Dims4070" version="0"/>
			</rt_info>
			<input>
				<port id="0">
					<dim>1</dim>
					<dim>24</dim>
					<dim>1</dim>
					<dim>1</dim>
				</port>
			</input>
			<output>
				<port id="1" precision="FP32">
					<dim>1</dim>
					<dim>24</dim>
					<dim>1</dim>
					<dim>1</dim>
				</port>
			</output>
		</layer>
		<layer id="100" name="conv2_1/1/conv" type="Add" version="opset1">
			<data auto_broadcast="numpy"/>
			<rt_info>
				<attribute name="fused_names" value="conv2_1/1/conv" version="0"/>
			</rt_info>
			<input>
				<port id="0">
					<dim>1</dim>
					<dim>24</dim>
					<dim>136</dim>
					<dim>248</dim>
				</port>
				<port id="1">
					<dim>1</dim>
					<dim>24</dim>
					<dim>1</dim>
					<dim>1</dim>
				</port>
			</input>
			<output>
				<port id="2" names="conv2_1/1" precision="FP32">
					<dim>1</dim>
					<dim>24</dim>
					<dim>136</dim>
					<dim>248</dim>
				</port>
			</output>
		</layer>
		<layer id="101" name="conv2_1/1/relu" type="ReLU" version="opset1">
			<rt_info>
				<attribute name="fused_names" value="conv2_1/1/relu" version="0"/>
			</rt_info>
			<input>
				<port id="0">
					<dim>1</dim>
					<dim>24</dim>
					<dim>136</dim>
					<dim>248</dim>
				</port>
			</input>
			<output>
				<port id="1" names="conv2_1/1" precision="FP32">
					<dim>1</dim>
					<dim>24</dim>
					<dim>136</dim>
					<dim>248</dim>
				</port>
			</output>
		</layer>
		<layer id="102" name="conv2_1/2/conv/WithoutBiases/fq_input_0" type="FakeQuantize" version="opset1">
			<data auto_broadcast="numpy" levels="256"/>
			<input>
				<port id="0">
					<dim>1</dim>
					<dim>24</dim>
					<dim>136</dim>
					<dim>248</dim>
				</port>
				<port id="1"/>
				<port id="2"/>
				<port id="3"/>
				<port id="4"/>
			</input>
			<output>
				<port id="5" precision="FP32">
					<dim>1</dim>
					<dim>24</dim>
					<dim>136</dim>
					<dim>248</dim>
				</port>
			</output>
		</layer>
		<layer id="103" name="34279011209/restored_convert/quantized1357321121" type="Const" version="opset1">
			<data element_type="i8" offset="3755" shape="24,24,3,3" size="5184"/>
			<output>
				<port id="0" precision="I8">
					<dim>24</dim>
					<dim>24</dim>
					<dim>3</dim>
					<dim>3</dim>
				</port>
			</output>
		</layer>
		<layer id="104" name="34279011209/restored_convert/quantized/to_f32" type="Convert" version="opset1">
			<data destination_type="f32"/>
			<input>
				<port id="0">
					<dim>24</dim>
					<dim>24</dim>
					<dim>3</dim>
					<dim>3</dim>
				</port>
			</input>
			<output>
				<port id="1" precision="FP32">
					<dim>24</dim>
					<dim>24</dim>
					<dim>3</dim>
					<dim>3</dim>
				</port>
			</output>
		</layer>
		<layer id="105" name="conv2_1/2/conv/WithoutBiases/fq_weights_1/zero_point1359221574" type="Const" version="opset1">
			<data element_type="f32" offset="8939" shape="24,1,1,1" size="96"/>
			<output>
				<port id="0" precision="FP32">
					<dim>24</dim>
					<dim>1</dim>
					<dim>1</dim>
					<dim>1</dim>
				</port>
			</output>
		</layer>
		<layer id="106" name="conv2_1/2/conv/WithoutBiases/fq_weights_1/minus_zp" type="Subtract" version="opset1">
			<data auto_broadcast="numpy"/>
			<input>
				<port id="0">
					<dim>24</dim>
					<dim>24</dim>
					<dim>3</dim>
					<dim>3</dim>
				</port>
				<port id="1">
					<dim>24</dim>
					<dim>1</dim>
					<dim>1</dim>
					<dim>1</dim>
				</port>
			</input>
			<output>
				<port id="2" precision="FP32">
					<dim>24</dim>
					<dim>24</dim>
					<dim>3</dim>
					<dim>3</dim>
				</port>
			</output>
		</layer>
		<layer id="107" name="conv2_1/2/conv/WithoutBiases/fq_weights_1/scale1358119702" type="Const" version="opset1">
			<data element_type="f32" offset="9035" shape="24,1,1,1" size="96"/>
			<output>
				<port id="0" precision="FP32">
					<dim>24</dim>
					<dim>1</dim>
					<dim>1</dim>
					<dim>1</dim>
				</port>
			</output>
		</layer>
		<layer id="108" name="conv2_1/2/conv/WithoutBiases/fq_weights_1/mulpiply_by_scale" type="Multiply" version="opset1">
			<data auto_broadcast="numpy"/>
			<input>
				<port id="0">
					<dim>24</dim>
					<dim>24</dim>
					<dim>3</dim>
					<dim>3</dim>
				</port>
				<port id="1">
					<dim>24</dim>
					<dim>1</dim>
					<dim>1</dim>
					<dim>1</dim>
				</port>
			</input>
			<output>
				<port id="2" precision="FP32">
					<dim>24</dim>
					<dim>24</dim>
					<dim>3</dim>
					<dim>3</dim>
				</port>
			</output>
		</layer>
		<layer id="109" name="conv2_1/2/conv/WithoutBiases" type="Convolution" version="opset1">
			<data auto_pad="explicit" dilations="1,1" pads_begin="1,1" pads_end="1,1" strides="1,1"/>
			<rt_info>
				<attribute name="fused_names" value="conv2_1/2/conv/WithoutBiases" version="0"/>
			</rt_info>
			<input>
				<port id="0">
					<dim>1</dim>
					<dim>24</dim>
					<dim>136</dim>
					<dim>248</dim>
				</port>
				<port id="1">
					<dim>24</dim>
					<dim>24</dim>
					<dim>3</dim>
					<dim>3</dim>
				</port>
			</input>
			<output>
				<port id="2" precision="FP32">
					<dim>1</dim>
					<dim>24</dim>
					<dim>136</dim>
					<dim>248</dim>
				</port>
			</output>
		</layer>
		<layer id="110" name="conv2_1/2/conv/Dims419079320929" type="Const" version="opset1">
			<data element_type="f16" offset="9131" shape="1,24,1,1" size="48"/>
			<output>
				<port id="0" precision="FP16">
					<dim>1</dim>
					<dim>24</dim>
					<dim>1</dim>
					<dim>1</dim>
				</port>
			</output>
		</layer>
		<layer id="111" name="conv2_1/2/conv/Dims419079311210/restored_convert" type="Convert" version="opset1">
			<data destination_type="f32"/>
			<rt_info>
				<attribute name="decompression" version="0"/>
				<attribute name="fused_names" value="conv2_1/2/conv/Dims4190" version="0"/>
			</rt_info>
			<input>
				<port id="0">
					<dim>1</dim>
					<dim>24</dim>
					<dim>1</dim>
					<dim>1</dim>
				</port>
			</input>
			<output>
				<port id="1" precision="FP32">
					<dim>1</dim>
					<dim>24</dim>
					<dim>1</dim>
					<dim>1</dim>
				</port>
			</output>
		</layer>
		<layer id="112" name="conv2_1/2/conv" type="Add" version="opset1">
			<data auto_broadcast="numpy"/>
			<rt_info>
				<attribute name="fused_names" value="conv2_1/2/conv" version="0"/>
			</rt_info>
			<input>
				<port id="0">
					<dim>1</dim>
					<dim>24</dim>
					<dim>136</dim>
					<dim>248</dim>
				</port>
				<port id="1">
					<dim>1</dim>
					<dim>24</dim>
					<dim>1</dim>
					<dim>1</dim>
				</port>
			</input>
			<output>
				<port id="2" names="conv2_1/2/conv" precision="FP32">
					<dim>1</dim>
					<dim>24</dim>
					<dim>136</dim>
					<dim>248</dim>
				</port>
			</output>
		</layer>
		<layer id="113" name="conv2_1/2/concat/fq_input_0" type="FakeQuantize" version="opset1">
			<data auto_broadcast="numpy" levels="256"/>
			<input>
				<port id="0">
					<dim>1</dim>
					<dim>24</dim>
					<dim>136</dim>
					<dim>248</dim>
				</port>
				<port id="1"/>
				<port id="2"/>
				<port id="3"/>
				<port id="4"/>
			</input>
			<output>
				<port id="5" precision="FP32">
					<dim>1</dim>
					<dim>24</dim>
					<dim>136</dim>
					<dim>248</dim>
				</port>
			</output>
		</layer>
		<layer id="114" name="6030603420530" type="Const" version="opset1">
			<data element_type="f32" offset="2735" shape="" size="4"/>
			<output>
				<port id="0" precision="FP32"/>
			</output>
		</layer>
		<layer id="115" name="6031603521727" type="Const" version="opset1">
			<data element_type="f32" offset="2739" shape="" size="4"/>
			<output>
				<port id="0" precision="FP32"/>
			</output>
		</layer>
		<layer id="116" name="6032603619990" type="Const" version="opset1">
			<data element_type="f32" offset="2735" shape="" size="4"/>
			<output>
				<port id="0" precision="FP32"/>
			</output>
		</layer>
		<layer id="117" name="6033603720875" type="Const" version="opset1">
			<data element_type="f32" offset="2739" shape="" size="4"/>
			<output>
				<port id="0" precision="FP32"/>
			</output>
		</layer>
		<layer id="118" name="43979611211/restored_convert/quantized1426320989" type="Const" version="opset1">
			<data element_type="i8" offset="2542" shape="1,1,1,1" size="1"/>
			<output>
				<port id="0" precision="I8">
					<dim>1</dim>
					<dim>1</dim>
					<dim>1</dim>
					<dim>1</dim>
				</port>
			</output>
		</layer>
		<layer id="119" name="43979611211/restored_convert/quantized/to_f32" type="Convert" version="opset1">
			<data destination_type="f32"/>
			<input>
				<port id="0">
					<dim>1</dim>
					<dim>1</dim>
					<dim>1</dim>
					<dim>1</dim>
				</port>
			</input>
			<output>
				<port id="1" precision="FP32">
					<dim>1</dim>
					<dim>1</dim>
					<dim>1</dim>
					<dim>1</dim>
				</port>
			</output>
		</layer>
		<layer id="120" name="conv2_1/2/neg/mul_/fq_input_1/zero_point1428220245" type="Const" version="opset1">
			<data element_type="f32" offset="9179" shape="1,1,1,1" size="4"/>
			<output>
				<port id="0" precision="FP32">
					<dim>1</dim>
					<dim>1</dim>
					<dim>1</dim>
					<dim>1</dim>
				</port>
			</output>
		</layer>
		<layer id="121" name="conv2_1/2/neg/mul_/fq_input_1/minus_zp" type="Subtract" version="opset1">
			<data auto_broadcast="numpy"/>
			<input>
				<port id="0">
					<dim>1</dim>
					<dim>1</dim>
					<dim>1</dim>
					<dim>1</dim>
				</port>
				<port id="1">
					<dim>1</dim>
					<dim>1</dim>
					<dim>1</dim>
					<dim>1</dim>
				</port>
			</input>
			<output>
				<port id="2" precision="FP32">
					<dim>1</dim>
					<dim>1</dim>
					<dim>1</dim>
					<dim>1</dim>
				</port>
			</output>
		</layer>
		<layer id="122" name="conv2_1/2/neg/mul_/fq_input_1/scale1427119894" type="Const" version="opset1">
			<data element_type="f32" offset="2547" shape="1,1,1,1" size="4"/>
			<output>
				<port id="0" precision="FP32">
					<dim>1</dim>
					<dim>1</dim>
					<dim>1</dim>
					<dim>1</dim>
				</port>
			</output>
		</layer>
		<layer id="123" name="conv2_1/2/neg/mul_/fq_input_1/mulpiply_by_scale" type="Multiply" version="opset1">
			<data auto_broadcast="numpy"/>
			<input>
				<port id="0">
					<dim>1</dim>
					<dim>1</dim>
					<dim>1</dim>
					<dim>1</dim>
				</port>
				<port id="1">
					<dim>1</dim>
					<dim>1</dim>
					<dim>1</dim>
					<dim>1</dim>
				</port>
			</input>
			<output>
				<port id="2" precision="FP32">
					<dim>1</dim>
					<dim>1</dim>
					<dim>1</dim>
					<dim>1</dim>
				</port>
			</output>
		</layer>
		<layer id="124" name="conv2_1/2/neg/mul_" type="Multiply" version="opset1">
			<data auto_broadcast="numpy"/>
			<rt_info>
				<attribute name="fused_names" value="conv2_1/2/neg/mul_" version="0"/>
			</rt_info>
			<input>
				<port id="0">
					<dim>1</dim>
					<dim>24</dim>
					<dim>136</dim>
					<dim>248</dim>
				</port>
				<port id="1">
					<dim>1</dim>
					<dim>1</dim>
					<dim>1</dim>
					<dim>1</dim>
				</port>
			</input>
			<output>
				<port id="2" names="conv2_1/2/neg" precision="FP32">
					<dim>1</dim>
					<dim>24</dim>
					<dim>136</dim>
					<dim>248</dim>
				</port>
			</output>
		</layer>
		<layer id="125" name="conv2_1/2/concat/fq_input_1" type="FakeQuantize" version="opset1">
			<data auto_broadcast="numpy" levels="256"/>
			<input>
				<port id="0">
					<dim>1</dim>
					<dim>24</dim>
					<dim>136</dim>
					<dim>248</dim>
				</port>
				<port id="1"/>
				<port id="2"/>
				<port id="3"/>
				<port id="4"/>
			</input>
			<output>
				<port id="5" precision="FP32">
					<dim>1</dim>
					<dim>24</dim>
					<dim>136</dim>
					<dim>248</dim>
				</port>
			</output>
		</layer>
		<layer id="126" name="conv2_1/2/concat" type="Concat" version="opset1">
			<data axis="1"/>
			<rt_info>
				<attribute name="fused_names" value="conv2_1/2/concat" version="0"/>
			</rt_info>
			<input>
				<port id="0">
					<dim>1</dim>
					<dim>24</dim>
					<dim>136</dim>
					<dim>248</dim>
				</port>
				<port id="1">
					<dim>1</dim>
					<dim>24</dim>
					<dim>136</dim>
					<dim>248</dim>
				</port>
			</input>
			<output>
				<port id="2" names="conv2_1/2" precision="FP32">
					<dim>1</dim>
					<dim>48</dim>
					<dim>136</dim>
					<dim>248</dim>
				</port>
			</output>
		</layer>
		<layer id="127" name="23180019867" type="Const" version="opset1">
			<data element_type="f16" offset="9183" shape="1,48,1,1" size="96"/>
			<output>
				<port id="0" precision="FP16">
					<dim>1</dim>
					<dim>48</dim>
					<dim>1</dim>
					<dim>1</dim>
				</port>
			</output>
		</layer>
		<layer id="128" name="23180011212/restored_convert" type="Convert" version="opset1">
			<data destination_type="f32"/>
			<rt_info>
				<attribute name="decompression" version="0"/>
				<attribute name="fused_names" value="231" version="0"/>
			</rt_info>
			<input>
				<port id="0">
					<dim>1</dim>
					<dim>48</dim>
					<dim>1</dim>
					<dim>1</dim>
				</port>
			</input>
			<output>
				<port id="1" precision="FP32">
					<dim>1</dim>
					<dim>48</dim>
					<dim>1</dim>
					<dim>1</dim>
				</port>
			</output>
		</layer>
		<layer id="129" name="conv2_1/2/scale/Mul_" type="Multiply" version="opset1">
			<data auto_broadcast="numpy"/>
			<rt_info>
				<attribute name="fused_names" value="conv2_1/2/scale/Mul_" version="0"/>
			</rt_info>
			<input>
				<port id="0">
					<dim>1</dim>
					<dim>48</dim>
					<dim>136</dim>
					<dim>248</dim>
				</port>
				<port id="1">
					<dim>1</dim>
					<dim>48</dim>
					<dim>1</dim>
					<dim>1</dim>
				</port>
			</input>
			<output>
				<port id="2" precision="FP32">
					<dim>1</dim>
					<dim>48</dim>
					<dim>136</dim>
					<dim>248</dim>
				</port>
			</output>
		</layer>
		<layer id="130" name="23280319885" type="Const" version="opset1">
			<data element_type="f16" offset="9279" shape="1,48,1,1" size="96"/>
			<output>
				<port id="0" precision="FP16">
					<dim>1</dim>
					<dim>48</dim>
					<dim>1</dim>
					<dim>1</dim>
				</port>
			</output>
		</layer>
		<layer id="131" name="23280311213/restored_convert" type="Convert" version="opset1">
			<data destination_type="f32"/>
			<rt_info>
				<attribute name="decompression" version="0"/>
				<attribute name="fused_names" value="232" version="0"/>
			</rt_info>
			<input>
				<port id="0">
					<dim>1</dim>
					<dim>48</dim>
					<dim>1</dim>
					<dim>1</dim>
				</port>
			</input>
			<output>
				<port id="1" precision="FP32">
					<dim>1</dim>
					<dim>48</dim>
					<dim>1</dim>
					<dim>1</dim>
				</port>
			</output>
		</layer>
		<layer id="132" name="conv2_1/2/scale/Add_" type="Add" version="opset1">
			<data auto_broadcast="numpy"/>
			<rt_info>
				<attribute name="fused_names" value="conv2_1/2/scale/Add_" version="0"/>
			</rt_info>
			<input>
				<port id="0">
					<dim>1</dim>
					<dim>48</dim>
					<dim>136</dim>
					<dim>248</dim>
				</port>
				<port id="1">
					<dim>1</dim>
					<dim>48</dim>
					<dim>1</dim>
					<dim>1</dim>
				</port>
			</input>
			<output>
				<port id="2" names="conv2_1/2" precision="FP32">
					<dim>1</dim>
					<dim>48</dim>
					<dim>136</dim>
					<dim>248</dim>
				</port>
			</output>
		</layer>
		<layer id="133" name="conv2_1/2/relu" type="ReLU" version="opset1">
			<rt_info>
				<attribute name="fused_names" value="conv2_1/2/relu" version="0"/>
			</rt_info>
			<input>
				<port id="0">
					<dim>1</dim>
					<dim>48</dim>
					<dim>136</dim>
					<dim>248</dim>
				</port>
			</input>
			<output>
				<port id="1" names="conv2_1/2" precision="FP32">
					<dim>1</dim>
					<dim>48</dim>
					<dim>136</dim>
					<dim>248</dim>
				</port>
			</output>
		</layer>
		<layer id="134" name="conv2_1/3/conv/WithoutBiases/fq_input_0" type="FakeQuantize" version="opset1">
			<data auto_broadcast="numpy" levels="256"/>
			<input>
				<port id="0">
					<dim>1</dim>
					<dim>48</dim>
					<dim>136</dim>
					<dim>248</dim>
				</port>
				<port id="1"/>
				<port id="2"/>
				<port id="3"/>
				<port id="4"/>
			</input>
			<output>
				<port id="5" precision="FP32">
					<dim>1</dim>
					<dim>48</dim>
					<dim>136</dim>
					<dim>248</dim>
				</port>
			</output>
		</layer>
		<layer id="135" name="40680711214/restored_convert/quantized1360320638" type="Const" version="opset1">
			<data element_type="i8" offset="9375" shape="64,48,1,1" size="3072"/>
			<output>
				<port id="0" precision="I8">
					<dim>64</dim>
					<dim>48</dim>
					<dim>1</dim>
					<dim>1</dim>
				</port>
			</output>
		</layer>
		<layer id="136" name="40680711214/restored_convert/quantized/to_f32" type="Convert" version="opset1">
			<data destination_type="f32"/>
			<input>
				<port id="0">
					<dim>64</dim>
					<dim>48</dim>
					<dim>1</dim>
					<dim>1</dim>
				</port>
			</input>
			<output>
				<port id="1" precision="FP32">
					<dim>64</dim>
					<dim>48</dim>
					<dim>1</dim>
					<dim>1</dim>
				</port>
			</output>
		</layer>
		<layer id="137" name="conv2_1/3/conv/WithoutBiases/fq_weights_1/zero_point1362220992" type="Const" version="opset1">
			<data element_type="f32" offset="12447" shape="64,1,1,1" size="256"/>
			<output>
				<port id="0" precision="FP32">
					<dim>64</dim>
					<dim>1</dim>
					<dim>1</dim>
					<dim>1</dim>
				</port>
			</output>
		</layer>
		<layer id="138" name="conv2_1/3/conv/WithoutBiases/fq_weights_1/minus_zp" type="Subtract" version="opset1">
			<data auto_broadcast="numpy"/>
			<input>
				<port id="0">
					<dim>64</dim>
					<dim>48</dim>
					<dim>1</dim>
					<dim>1</dim>
				</port>
				<port id="1">
					<dim>64</dim>
					<dim>1</dim>
					<dim>1</dim>
					<dim>1</dim>
				</port>
			</input>
			<output>
				<port id="2" precision="FP32">
					<dim>64</dim>
					<dim>48</dim>
					<dim>1</dim>
					<dim>1</dim>
				</port>
			</output>
		</layer>
		<layer id="139" name="conv2_1/3/conv/WithoutBiases/fq_weights_1/scale1361120023" type="Const" version="opset1">
			<data element_type="f32" offset="12703" shape="64,1,1,1" size="256"/>
			<output>
				<port id="0" precision="FP32">
					<dim>64</dim>
					<dim>1</dim>
					<dim>1</dim>
					<dim>1</dim>
				</port>
			</output>
		</layer>
		<layer id="140" name="conv2_1/3/conv/WithoutBiases/fq_weights_1/mulpiply_by_scale" type="Multiply" version="opset1">
			<data auto_broadcast="numpy"/>
			<input>
				<port id="0">
					<dim>64</dim>
					<dim>48</dim>
					<dim>1</dim>
					<dim>1</dim>
				</port>
				<port id="1">
					<dim>64</dim>
					<dim>1</dim>
					<dim>1</dim>
					<dim>1</dim>
				</port>
			</input>
			<output>
				<port id="2" precision="FP32">
					<dim>64</dim>
					<dim>48</dim>
					<dim>1</dim>
					<dim>1</dim>
				</port>
			</output>
		</layer>
		<layer id="141" name="conv2_1/3/conv/WithoutBiases" type="Convolution" version="opset1">
			<data auto_pad="explicit" dilations="1,1" pads_begin="0,0" pads_end="0,0" strides="1,1"/>
			<rt_info>
				<attribute name="fused_names" value="conv2_1/3/conv/WithoutBiases" version="0"/>
			</rt_info>
			<input>
				<port id="0">
					<dim>1</dim>
					<dim>48</dim>
					<dim>136</dim>
					<dim>248</dim>
				</port>
				<port id="1">
					<dim>64</dim>
					<dim>48</dim>
					<dim>1</dim>
					<dim>1</dim>
				</port>
			</input>
			<output>
				<port id="2" precision="FP32">
					<dim>1</dim>
					<dim>64</dim>
					<dim>136</dim>
					<dim>248</dim>
				</port>
			</output>
		</layer>
		<layer id="142" name="conv2_1/3/conv/Dims440681019972" type="Const" version="opset1">
			<data element_type="f16" offset="12959" shape="1,64,1,1" size="128"/>
			<output>
				<port id="0" precision="FP16">
					<dim>1</dim>
					<dim>64</dim>
					<dim>1</dim>
					<dim>1</dim>
				</port>
			</output>
		</layer>
		<layer id="143" name="conv2_1/3/conv/Dims440681011215/restored_convert" type="Convert" version="opset1">
			<data destination_type="f32"/>
			<rt_info>
				<attribute name="decompression" version="0"/>
				<attribute name="fused_names" value="conv2_1/3/conv/Dims4406" version="0"/>
			</rt_info>
			<input>
				<port id="0">
					<dim>1</dim>
					<dim>64</dim>
					<dim>1</dim>
					<dim>1</dim>
				</port>
			</input>
			<output>
				<port id="1" precision="FP32">
					<dim>1</dim>
					<dim>64</dim>
					<dim>1</dim>
					<dim>1</dim>
				</port>
			</output>
		</layer>
		<layer id="144" name="conv2_1/3/conv" type="Add" version="opset1">
			<data auto_broadcast="numpy"/>
			<rt_info>
				<attribute name="fused_names" value="conv2_1/3/conv" version="0"/>
			</rt_info>
			<input>
				<port id="0">
					<dim>1</dim>
					<dim>64</dim>
					<dim>136</dim>
					<dim>248</dim>
				</port>
				<port id="1">
					<dim>1</dim>
					<dim>64</dim>
					<dim>1</dim>
					<dim>1</dim>
				</port>
			</input>
			<output>
				<port id="2" names="conv2_1/3" precision="FP32">
					<dim>1</dim>
					<dim>64</dim>
					<dim>136</dim>
					<dim>248</dim>
				</port>
			</output>
		</layer>
		<layer id="145" name="conv2_1/fq_input_0" type="FakeQuantize" version="opset1">
			<data auto_broadcast="numpy" levels="256"/>
			<input>
				<port id="0">
					<dim>1</dim>
					<dim>64</dim>
					<dim>136</dim>
					<dim>248</dim>
				</port>
				<port id="1"/>
				<port id="2"/>
				<port id="3"/>
				<port id="4"/>
			</input>
			<output>
				<port id="5" precision="FP32">
					<dim>1</dim>
					<dim>64</dim>
					<dim>136</dim>
					<dim>248</dim>
				</port>
			</output>
		</layer>
		<layer id="146" name="3749375321610" type="Const" version="opset1">
			<data element_type="f32" offset="13087" shape="" size="4"/>
			<output>
				<port id="0" precision="FP32"/>
			</output>
		</layer>
		<layer id="147" name="3750375420734" type="Const" version="opset1">
			<data element_type="f32" offset="13091" shape="" size="4"/>
			<output>
				<port id="0" precision="FP32"/>
			</output>
		</layer>
		<layer id="148" name="3751375521874" type="Const" version="opset1">
			<data element_type="f32" offset="13087" shape="" size="4"/>
			<output>
				<port id="0" precision="FP32"/>
			</output>
		</layer>
		<layer id="149" name="3752375620857" type="Const" version="opset1">
			<data element_type="f32" offset="13091" shape="" size="4"/>
			<output>
				<port id="0" precision="FP32"/>
			</output>
		</layer>
		<layer id="150" name="33881311216/restored_convert/quantized1342319555" type="Const" version="opset1">
			<data element_type="i8" offset="13095" shape="64,32,1,1" size="2048"/>
			<output>
				<port id="0" precision="I8">
					<dim>64</dim>
					<dim>32</dim>
					<dim>1</dim>
					<dim>1</dim>
				</port>
			</output>
		</layer>
		<layer id="151" name="33881311216/restored_convert/quantized/to_f32" type="Convert" version="opset1">
			<data destination_type="f32"/>
			<input>
				<port id="0">
					<dim>64</dim>
					<dim>32</dim>
					<dim>1</dim>
					<dim>1</dim>
				</port>
			</input>
			<output>
				<port id="1" precision="FP32">
					<dim>64</dim>
					<dim>32</dim>
					<dim>1</dim>
					<dim>1</dim>
				</port>
			</output>
		</layer>
		<layer id="152" name="conv2_1/proj/WithoutBiases/fq_weights_1/zero_point1344220911" type="Const" version="opset1">
			<data element_type="f32" offset="15143" shape="64,1,1,1" size="256"/>
			<output>
				<port id="0" precision="FP32">
					<dim>64</dim>
					<dim>1</dim>
					<dim>1</dim>
					<dim>1</dim>
				</port>
			</output>
		</layer>
		<layer id="153" name="conv2_1/proj/WithoutBiases/fq_weights_1/minus_zp" type="Subtract" version="opset1">
			<data auto_broadcast="numpy"/>
			<input>
				<port id="0">
					<dim>64</dim>
					<dim>32</dim>
					<dim>1</dim>
					<dim>1</dim>
				</port>
				<port id="1">
					<dim>64</dim>
					<dim>1</dim>
					<dim>1</dim>
					<dim>1</dim>
				</port>
			</input>
			<output>
				<port id="2" precision="FP32">
					<dim>64</dim>
					<dim>32</dim>
					<dim>1</dim>
					<dim>1</dim>
				</port>
			</output>
		</layer>
		<layer id="154" name="conv2_1/proj/WithoutBiases/fq_weights_1/scale1343121481" type="Const" version="opset1">
			<data element_type="f32" offset="15399" shape="64,1,1,1" size="256"/>
			<output>
				<port id="0" precision="FP32">
					<dim>64</dim>
					<dim>1</dim>
					<dim>1</dim>
					<dim>1</dim>
				</port>
			</output>
		</layer>
		<layer id="155" name="conv2_1/proj/WithoutBiases/fq_weights_1/mulpiply_by_scale" type="Multiply" version="opset1">
			<data auto_broadcast="numpy"/>
			<input>
				<port id="0">
					<dim>64</dim>
					<dim>32</dim>
					<dim>1</dim>
					<dim>1</dim>
				</port>
				<port id="1">
					<dim>64</dim>
					<dim>1</dim>
					<dim>1</dim>
					<dim>1</dim>
				</port>
			</input>
			<output>
				<port id="2" precision="FP32">
					<dim>64</dim>
					<dim>32</dim>
					<dim>1</dim>
					<dim>1</dim>
				</port>
			</output>
		</layer>
		<layer id="156" name="conv2_1/proj/WithoutBiases" type="Convolution" version="opset1">
			<data auto_pad="explicit" dilations="1,1" pads_begin="0,0" pads_end="0,0" strides="1,1"/>
			<rt_info>
				<attribute name="fused_names" value="conv2_1/proj/WithoutBiases" version="0"/>
			</rt_info>
			<input>
				<port id="0">
					<dim>1</dim>
					<dim>32</dim>
					<dim>136</dim>
					<dim>248</dim>
				</port>
				<port id="1">
					<dim>64</dim>
					<dim>32</dim>
					<dim>1</dim>
					<dim>1</dim>
				</port>
			</input>
			<output>
				<port id="2" precision="FP32">
					<dim>1</dim>
					<dim>64</dim>
					<dim>136</dim>
					<dim>248</dim>
				</port>
			</output>
		</layer>
		<layer id="157" name="conv2_1/proj/Dims390881619567" type="Const" version="opset1">
			<data element_type="f16" offset="15655" shape="1,64,1,1" size="128"/>
			<output>
				<port id="0" precision="FP16">
					<dim>1</dim>
					<dim>64</dim>
					<dim>1</dim>
					<dim>1</dim>
				</port>
			</output>
		</layer>
		<layer id="158" name="conv2_1/proj/Dims390881611217/restored_convert" type="Convert" version="opset1">
			<data destination_type="f32"/>
			<rt_info>
				<attribute name="decompression" version="0"/>
				<attribute name="fused_names" value="conv2_1/proj/Dims3908" version="0"/>
			</rt_info>
			<input>
				<port id="0">
					<dim>1</dim>
					<dim>64</dim>
					<dim>1</dim>
					<dim>1</dim>
				</port>
			</input>
			<output>
				<port id="1" precision="FP32">
					<dim>1</dim>
					<dim>64</dim>
					<dim>1</dim>
					<dim>1</dim>
				</port>
			</output>
		</layer>
		<layer id="159" name="conv2_1/proj" type="Add" version="opset1">
			<data auto_broadcast="numpy"/>
			<rt_info>
				<attribute name="fused_names" value="conv2_1/proj" version="0"/>
			</rt_info>
			<input>
				<port id="0">
					<dim>1</dim>
					<dim>64</dim>
					<dim>136</dim>
					<dim>248</dim>
				</port>
				<port id="1">
					<dim>1</dim>
					<dim>64</dim>
					<dim>1</dim>
					<dim>1</dim>
				</port>
			</input>
			<output>
				<port id="2" names="conv2_1/proj" precision="FP32">
					<dim>1</dim>
					<dim>64</dim>
					<dim>136</dim>
					<dim>248</dim>
				</port>
			</output>
		</layer>
		<layer id="160" name="conv2_1/fq_input_1" type="FakeQuantize" version="opset1">
			<data auto_broadcast="numpy" levels="256"/>
			<input>
				<port id="0">
					<dim>1</dim>
					<dim>64</dim>
					<dim>136</dim>
					<dim>248</dim>
				</port>
				<port id="1"/>
				<port id="2"/>
				<port id="3"/>
				<port id="4"/>
			</input>
			<output>
				<port id="5" precision="FP32">
					<dim>1</dim>
					<dim>64</dim>
					<dim>136</dim>
					<dim>248</dim>
				</port>
			</output>
		</layer>
		<layer id="161" name="conv2_1" type="Add" version="opset1">
			<data auto_broadcast="numpy"/>
			<rt_info>
				<attribute name="fused_names" value="conv2_1" version="0"/>
			</rt_info>
			<input>
				<port id="0">
					<dim>1</dim>
					<dim>64</dim>
					<dim>136</dim>
					<dim>248</dim>
				</port>
				<port id="1">
					<dim>1</dim>
					<dim>64</dim>
					<dim>136</dim>
					<dim>248</dim>
				</port>
			</input>
			<output>
				<port id="2" names="conv2_1" precision="FP32">
					<dim>1</dim>
					<dim>64</dim>
					<dim>136</dim>
					<dim>248</dim>
				</port>
			</output>
		</layer>
		<layer id="162" name="conv2_2/1/conv/WithoutBiases/fq_input_0" type="FakeQuantize" version="opset1">
			<data auto_broadcast="numpy" levels="256"/>
			<input>
				<port id="0">
					<dim>1</dim>
					<dim>64</dim>
					<dim>136</dim>
					<dim>248</dim>
				</port>
				<port id="1"/>
				<port id="2"/>
				<port id="3"/>
				<port id="4"/>
			</input>
			<output>
				<port id="5" precision="FP32">
					<dim>1</dim>
					<dim>64</dim>
					<dim>136</dim>
					<dim>248</dim>
				</port>
			</output>
		</layer>
		<layer id="163" name="26282011218/restored_convert/quantized1519321163" type="Const" version="opset1">
			<data element_type="i8" offset="15783" shape="24,64,1,1" size="1536"/>
			<output>
				<port id="0" precision="I8">
					<dim>24</dim>
					<dim>64</dim>
					<dim>1</dim>
					<dim>1</dim>
				</port>
			</output>
		</layer>
		<layer id="164" name="26282011218/restored_convert/quantized/to_f32" type="Convert" version="opset1">
			<data destination_type="f32"/>
			<input>
				<port id="0">
					<dim>24</dim>
					<dim>64</dim>
					<dim>1</dim>
					<dim>1</dim>
				</port>
			</input>
			<output>
				<port id="1" precision="FP32">
					<dim>24</dim>
					<dim>64</dim>
					<dim>1</dim>
					<dim>1</dim>
				</port>
			</output>
		</layer>
		<layer id="165" name="conv2_2/1/conv/WithoutBiases/fq_weights_1/zero_point1521220101" type="Const" version="opset1">
			<data element_type="f32" offset="17319" shape="24,1,1,1" size="96"/>
			<output>
				<port id="0" precision="FP32">
					<dim>24</dim>
					<dim>1</dim>
					<dim>1</dim>
					<dim>1</dim>
				</port>
			</output>
		</layer>
		<layer id="166" name="conv2_2/1/conv/WithoutBiases/fq_weights_1/minus_zp" type="Subtract" version="opset1">
			<data auto_broadcast="numpy"/>
			<input>
				<port id="0">
					<dim>24</dim>
					<dim>64</dim>
					<dim>1</dim>
					<dim>1</dim>
				</port>
				<port id="1">
					<dim>24</dim>
					<dim>1</dim>
					<dim>1</dim>
					<dim>1</dim>
				</port>
			</input>
			<output>
				<port id="2" precision="FP32">
					<dim>24</dim>
					<dim>64</dim>
					<dim>1</dim>
					<dim>1</dim>
				</port>
			</output>
		</layer>
		<layer id="167" name="conv2_2/1/conv/WithoutBiases/fq_weights_1/scale1520120104" type="Const" version="opset1">
			<data element_type="f32" offset="17415" shape="24,1,1,1" size="96"/>
			<output>
				<port id="0" precision="FP32">
					<dim>24</dim>
					<dim>1</dim>
					<dim>1</dim>
					<dim>1</dim>
				</port>
			</output>
		</layer>
		<layer id="168" name="conv2_2/1/conv/WithoutBiases/fq_weights_1/mulpiply_by_scale" type="Multiply" version="opset1">
			<data auto_broadcast="numpy"/>
			<input>
				<port id="0">
					<dim>24</dim>
					<dim>64</dim>
					<dim>1</dim>
					<dim>1</dim>
				</port>
				<port id="1">
					<dim>24</dim>
					<dim>1</dim>
					<dim>1</dim>
					<dim>1</dim>
				</port>
			</input>
			<output>
				<port id="2" precision="FP32">
					<dim>24</dim>
					<dim>64</dim>
					<dim>1</dim>
					<dim>1</dim>
				</port>
			</output>
		</layer>
		<layer id="169" name="conv2_2/1/conv/WithoutBiases" type="Convolution" version="opset1">
			<data auto_pad="explicit" dilations="1,1" pads_begin="0,0" pads_end="0,0" strides="1,1"/>
			<rt_info>
				<attribute name="fused_names" value="conv2_2/1/conv/WithoutBiases" version="0"/>
			</rt_info>
			<input>
				<port id="0">
					<dim>1</dim>
					<dim>64</dim>
					<dim>136</dim>
					<dim>248</dim>
				</port>
				<port id="1">
					<dim>24</dim>
					<dim>64</dim>
					<dim>1</dim>
					<dim>1</dim>
				</port>
			</input>
			<output>
				<port id="2" precision="FP32">
					<dim>1</dim>
					<dim>24</dim>
					<dim>136</dim>
					<dim>248</dim>
				</port>
			</output>
		</layer>
		<layer id="170" name="conv2_2/1/conv/Dims413682321379" type="Const" version="opset1">
			<data element_type="f16" offset="17511" shape="1,24,1,1" size="48"/>
			<output>
				<port id="0" precision="FP16">
					<dim>1</dim>
					<dim>24</dim>
					<dim>1</dim>
					<dim>1</dim>
				</port>
			</output>
		</layer>
		<layer id="171" name="conv2_2/1/conv/Dims413682311219/restored_convert" type="Convert" version="opset1">
			<data destination_type="f32"/>
			<rt_info>
				<attribute name="decompression" version="0"/>
				<attribute name="fused_names" value="conv2_2/1/conv/Dims4136" version="0"/>
			</rt_info>
			<input>
				<port id="0">
					<dim>1</dim>
					<dim>24</dim>
					<dim>1</dim>
					<dim>1</dim>
				</port>
			</input>
			<output>
				<port id="1" precision="FP32">
					<dim>1</dim>
					<dim>24</dim>
					<dim>1</dim>
					<dim>1</dim>
				</port>
			</output>
		</layer>
		<layer id="172" name="conv2_2/1/conv" type="Add" version="opset1">
			<data auto_broadcast="numpy"/>
			<rt_info>
				<attribute name="fused_names" value="conv2_2/1/conv" version="0"/>
			</rt_info>
			<input>
				<port id="0">
					<dim>1</dim>
					<dim>24</dim>
					<dim>136</dim>
					<dim>248</dim>
				</port>
				<port id="1">
					<dim>1</dim>
					<dim>24</dim>
					<dim>1</dim>
					<dim>1</dim>
				</port>
			</input>
			<output>
				<port id="2" names="conv2_2/1" precision="FP32">
					<dim>1</dim>
					<dim>24</dim>
					<dim>136</dim>
					<dim>248</dim>
				</port>
			</output>
		</layer>
		<layer id="173" name="conv2_2/1/relu" type="ReLU" version="opset1">
			<rt_info>
				<attribute name="fused_names" value="conv2_2/1/relu" version="0"/>
			</rt_info>
			<input>
				<port id="0">
					<dim>1</dim>
					<dim>24</dim>
					<dim>136</dim>
					<dim>248</dim>
				</port>
			</input>
			<output>
				<port id="1" names="conv2_2/1" precision="FP32">
					<dim>1</dim>
					<dim>24</dim>
					<dim>136</dim>
					<dim>248</dim>
				</port>
			</output>
		</layer>
		<layer id="174" name="conv2_2/2/conv/WithoutBiases/fq_input_0" type="FakeQuantize" version="opset1">
			<data auto_broadcast="numpy" levels="256"/>
			<input>
				<port id="0">
					<dim>1</dim>
					<dim>24</dim>
					<dim>136</dim>
					<dim>248</dim>
				</port>
				<port id="1"/>
				<port id="2"/>
				<port id="3"/>
				<port id="4"/>
			</input>
			<output>
				<port id="5" precision="FP32">
					<dim>1</dim>
					<dim>24</dim>
					<dim>136</dim>
					<dim>248</dim>
				</port>
			</output>
		</layer>
		<layer id="175" name="28282711220/restored_convert/quantized1501319588" type="Const" version="opset1">
			<data element_type="i8" offset="17559" shape="24,24,3,3" size="5184"/>
			<output>
				<port id="0" precision="I8">
					<dim>24</dim>
					<dim>24</dim>
					<dim>3</dim>
					<dim>3</dim>
				</port>
			</output>
		</layer>
		<layer id="176" name="28282711220/restored_convert/quantized/to_f32" type="Convert" version="opset1">
			<data destination_type="f32"/>
			<input>
				<port id="0">
					<dim>24</dim>
					<dim>24</dim>
					<dim>3</dim>
					<dim>3</dim>
				</port>
			</input>
			<output>
				<port id="1" precision="FP32">
					<dim>24</dim>
					<dim>24</dim>
					<dim>3</dim>
					<dim>3</dim>
				</port>
			</output>
		</layer>
		<layer id="177" name="conv2_2/2/conv/WithoutBiases/fq_weights_1/zero_point1503219630" type="Const" version="opset1">
			<data element_type="f32" offset="22743" shape="24,1,1,1" size="96"/>
			<output>
				<port id="0" precision="FP32">
					<dim>24</dim>
					<dim>1</dim>
					<dim>1</dim>
					<dim>1</dim>
				</port>
			</output>
		</layer>
		<layer id="178" name="conv2_2/2/conv/WithoutBiases/fq_weights_1/minus_zp" type="Subtract" version="opset1">
			<data auto_broadcast="numpy"/>
			<input>
				<port id="0">
					<dim>24</dim>
					<dim>24</dim>
					<dim>3</dim>
					<dim>3</dim>
				</port>
				<port id="1">
					<dim>24</dim>
					<dim>1</dim>
					<dim>1</dim>
					<dim>1</dim>
				</port>
			</input>
			<output>
				<port id="2" precision="FP32">
					<dim>24</dim>
					<dim>24</dim>
					<dim>3</dim>
					<dim>3</dim>
				</port>
			</output>
		</layer>
		<layer id="179" name="conv2_2/2/conv/WithoutBiases/fq_weights_1/scale1502120056" type="Const" version="opset1">
			<data element_type="f32" offset="22839" shape="24,1,1,1" size="96"/>
			<output>
				<port id="0" precision="FP32">
					<dim>24</dim>
					<dim>1</dim>
					<dim>1</dim>
					<dim>1</dim>
				</port>
			</output>
		</layer>
		<layer id="180" name="conv2_2/2/conv/WithoutBiases/fq_weights_1/mulpiply_by_scale" type="Multiply" version="opset1">
			<data auto_broadcast="numpy"/>
			<input>
				<port id="0">
					<dim>24</dim>
					<dim>24</dim>
					<dim>3</dim>
					<dim>3</dim>
				</port>
				<port id="1">
					<dim>24</dim>
					<dim>1</dim>
					<dim>1</dim>
					<dim>1</dim>
				</port>
			</input>
			<output>
				<port id="2" precision="FP32">
					<dim>24</dim>
					<dim>24</dim>
					<dim>3</dim>
					<dim>3</dim>
				</port>
			</output>
		</layer>
		<layer id="181" name="conv2_2/2/conv/WithoutBiases" type="Convolution" version="opset1">
			<data auto_pad="explicit" dilations="1,1" pads_begin="1,1" pads_end="1,1" strides="1,1"/>
			<rt_info>
				<attribute name="fused_names" value="conv2_2/2/conv/WithoutBiases" version="0"/>
			</rt_info>
			<input>
				<port id="0">
					<dim>1</dim>
					<dim>24</dim>
					<dim>136</dim>
					<dim>248</dim>
				</port>
				<port id="1">
					<dim>24</dim>
					<dim>24</dim>
					<dim>3</dim>
					<dim>3</dim>
				</port>
			</input>
			<output>
				<port id="2" precision="FP32">
					<dim>1</dim>
					<dim>24</dim>
					<dim>136</dim>
					<dim>248</dim>
				</port>
			</output>
		</layer>
		<layer id="182" name="conv2_2/2/conv/Dims399883020686" type="Const" version="opset1">
			<data element_type="f16" offset="22935" shape="1,24,1,1" size="48"/>
			<output>
				<port id="0" precision="FP16">
					<dim>1</dim>
					<dim>24</dim>
					<dim>1</dim>
					<dim>1</dim>
				</port>
			</output>
		</layer>
		<layer id="183" name="conv2_2/2/conv/Dims399883011221/restored_convert" type="Convert" version="opset1">
			<data destination_type="f32"/>
			<rt_info>
				<attribute name="decompression" version="0"/>
				<attribute name="fused_names" value="conv2_2/2/conv/Dims3998" version="0"/>
			</rt_info>
			<input>
				<port id="0">
					<dim>1</dim>
					<dim>24</dim>
					<dim>1</dim>
					<dim>1</dim>
				</port>
			</input>
			<output>
				<port id="1" precision="FP32">
					<dim>1</dim>
					<dim>24</dim>
					<dim>1</dim>
					<dim>1</dim>
				</port>
			</output>
		</layer>
		<layer id="184" name="conv2_2/2/conv" type="Add" version="opset1">
			<data auto_broadcast="numpy"/>
			<rt_info>
				<attribute name="fused_names" value="conv2_2/2/conv" version="0"/>
			</rt_info>
			<input>
				<port id="0">
					<dim>1</dim>
					<dim>24</dim>
					<dim>136</dim>
					<dim>248</dim>
				</port>
				<port id="1">
					<dim>1</dim>
					<dim>24</dim>
					<dim>1</dim>
					<dim>1</dim>
				</port>
			</input>
			<output>
				<port id="2" names="conv2_2/2/conv" precision="FP32">
					<dim>1</dim>
					<dim>24</dim>
					<dim>136</dim>
					<dim>248</dim>
				</port>
			</output>
		</layer>
		<layer id="185" name="conv2_2/2/concat/fq_input_0" type="FakeQuantize" version="opset1">
			<data auto_broadcast="numpy" levels="256"/>
			<input>
				<port id="0">
					<dim>1</dim>
					<dim>24</dim>
					<dim>136</dim>
					<dim>248</dim>
				</port>
				<port id="1"/>
				<port id="2"/>
				<port id="3"/>
				<port id="4"/>
			</input>
			<output>
				<port id="5" precision="FP32">
					<dim>1</dim>
					<dim>24</dim>
					<dim>136</dim>
					<dim>248</dim>
				</port>
			</output>
		</layer>
		<layer id="186" name="6060606419924" type="Const" version="opset1">
			<data element_type="f32" offset="2703" shape="" size="4"/>
			<output>
				<port id="0" precision="FP32"/>
			</output>
		</layer>
		<layer id="187" name="6061606519978" type="Const" version="opset1">
			<data element_type="f32" offset="2707" shape="" size="4"/>
			<output>
				<port id="0" precision="FP32"/>
			</output>
		</layer>
		<layer id="188" name="6062606620398" type="Const" version="opset1">
			<data element_type="f32" offset="2703" shape="" size="4"/>
			<output>
				<port id="0" precision="FP32"/>
			</output>
		</layer>
		<layer id="189" name="6063606719843" type="Const" version="opset1">
			<data element_type="f32" offset="2707" shape="" size="4"/>
			<output>
				<port id="0" precision="FP32"/>
			</output>
		</layer>
		<layer id="190" name="44783311222/restored_convert/quantized1339320818" type="Const" version="opset1">
			<data element_type="i8" offset="2542" shape="1,1,1,1" size="1"/>
			<output>
				<port id="0" precision="I8">
					<dim>1</dim>
					<dim>1</dim>
					<dim>1</dim>
					<dim>1</dim>
				</port>
			</output>
		</layer>
		<layer id="191" name="44783311222/restored_convert/quantized/to_f32" type="Convert" version="opset1">
			<data destination_type="f32"/>
			<input>
				<port id="0">
					<dim>1</dim>
					<dim>1</dim>
					<dim>1</dim>
					<dim>1</dim>
				</port>
			</input>
			<output>
				<port id="1" precision="FP32">
					<dim>1</dim>
					<dim>1</dim>
					<dim>1</dim>
					<dim>1</dim>
				</port>
			</output>
		</layer>
		<layer id="192" name="conv2_2/2/neg/mul_/fq_input_1/zero_point1341221109" type="Const" version="opset1">
			<data element_type="f32" offset="9179" shape="1,1,1,1" size="4"/>
			<output>
				<port id="0" precision="FP32">
					<dim>1</dim>
					<dim>1</dim>
					<dim>1</dim>
					<dim>1</dim>
				</port>
			</output>
		</layer>
		<layer id="193" name="conv2_2/2/neg/mul_/fq_input_1/minus_zp" type="Subtract" version="opset1">
			<data auto_broadcast="numpy"/>
			<input>
				<port id="0">
					<dim>1</dim>
					<dim>1</dim>
					<dim>1</dim>
					<dim>1</dim>
				</port>
				<port id="1">
					<dim>1</dim>
					<dim>1</dim>
					<dim>1</dim>
					<dim>1</dim>
				</port>
			</input>
			<output>
				<port id="2" precision="FP32">
					<dim>1</dim>
					<dim>1</dim>
					<dim>1</dim>
					<dim>1</dim>
				</port>
			</output>
		</layer>
		<layer id="194" name="conv2_2/2/neg/mul_/fq_input_1/scale1340120719" type="Const" version="opset1">
			<data element_type="f32" offset="2547" shape="1,1,1,1" size="4"/>
			<output>
				<port id="0" precision="FP32">
					<dim>1</dim>
					<dim>1</dim>
					<dim>1</dim>
					<dim>1</dim>
				</port>
			</output>
		</layer>
		<layer id="195" name="conv2_2/2/neg/mul_/fq_input_1/mulpiply_by_scale" type="Multiply" version="opset1">
			<data auto_broadcast="numpy"/>
			<input>
				<port id="0">
					<dim>1</dim>
					<dim>1</dim>
					<dim>1</dim>
					<dim>1</dim>
				</port>
				<port id="1">
					<dim>1</dim>
					<dim>1</dim>
					<dim>1</dim>
					<dim>1</dim>
				</port>
			</input>
			<output>
				<port id="2" precision="FP32">
					<dim>1</dim>
					<dim>1</dim>
					<dim>1</dim>
					<dim>1</dim>
				</port>
			</output>
		</layer>
		<layer id="196" name="conv2_2/2/neg/mul_" type="Multiply" version="opset1">
			<data auto_broadcast="numpy"/>
			<rt_info>
				<attribute name="fused_names" value="conv2_2/2/neg/mul_" version="0"/>
			</rt_info>
			<input>
				<port id="0">
					<dim>1</dim>
					<dim>24</dim>
					<dim>136</dim>
					<dim>248</dim>
				</port>
				<port id="1">
					<dim>1</dim>
					<dim>1</dim>
					<dim>1</dim>
					<dim>1</dim>
				</port>
			</input>
			<output>
				<port id="2" names="conv2_2/2/neg" precision="FP32">
					<dim>1</dim>
					<dim>24</dim>
					<dim>136</dim>
					<dim>248</dim>
				</port>
			</output>
		</layer>
		<layer id="197" name="conv2_2/2/concat/fq_input_1" type="FakeQuantize" version="opset1">
			<data auto_broadcast="numpy" levels="256"/>
			<input>
				<port id="0">
					<dim>1</dim>
					<dim>24</dim>
					<dim>136</dim>
					<dim>248</dim>
				</port>
				<port id="1"/>
				<port id="2"/>
				<port id="3"/>
				<port id="4"/>
			</input>
			<output>
				<port id="5" precision="FP32">
					<dim>1</dim>
					<dim>24</dim>
					<dim>136</dim>
					<dim>248</dim>
				</port>
			</output>
		</layer>
		<layer id="198" name="conv2_2/2/concat" type="Concat" version="opset1">
			<data axis="1"/>
			<rt_info>
				<attribute name="fused_names" value="conv2_2/2/concat" version="0"/>
			</rt_info>
			<input>
				<port id="0">
					<dim>1</dim>
					<dim>24</dim>
					<dim>136</dim>
					<dim>248</dim>
				</port>
				<port id="1">
					<dim>1</dim>
					<dim>24</dim>
					<dim>136</dim>
					<dim>248</dim>
				</port>
			</input>
			<output>
				<port id="2" names="conv2_2/2" precision="FP32">
					<dim>1</dim>
					<dim>48</dim>
					<dim>136</dim>
					<dim>248</dim>
				</port>
			</output>
		</layer>
		<layer id="199" name="35483720974" type="Const" version="opset1">
			<data element_type="f16" offset="22983" shape="1,48,1,1" size="96"/>
			<output>
				<port id="0" precision="FP16">
					<dim>1</dim>
					<dim>48</dim>
					<dim>1</dim>
					<dim>1</dim>
				</port>
			</output>
		</layer>
		<layer id="200" name="35483711223/restored_convert" type="Convert" version="opset1">
			<data destination_type="f32"/>
			<rt_info>
				<attribute name="decompression" version="0"/>
				<attribute name="fused_names" value="354" version="0"/>
			</rt_info>
			<input>
				<port id="0">
					<dim>1</dim>
					<dim>48</dim>
					<dim>1</dim>
					<dim>1</dim>
				</port>
			</input>
			<output>
				<port id="1" precision="FP32">
					<dim>1</dim>
					<dim>48</dim>
					<dim>1</dim>
					<dim>1</dim>
				</port>
			</output>
		</layer>
		<layer id="201" name="conv2_2/2/scale/Mul_" type="Multiply" version="opset1">
			<data auto_broadcast="numpy"/>
			<rt_info>
				<attribute name="fused_names" value="conv2_2/2/scale/Mul_" version="0"/>
			</rt_info>
			<input>
				<port id="0">
					<dim>1</dim>
					<dim>48</dim>
					<dim>136</dim>
					<dim>248</dim>
				</port>
				<port id="1">
					<dim>1</dim>
					<dim>48</dim>
					<dim>1</dim>
					<dim>1</dim>
				</port>
			</input>
			<output>
				<port id="2" precision="FP32">
					<dim>1</dim>
					<dim>48</dim>
					<dim>136</dim>
					<dim>248</dim>
				</port>
			</output>
		</layer>
		<layer id="202" name="35584020314" type="Const" version="opset1">
			<data element_type="f16" offset="23079" shape="1,48,1,1" size="96"/>
			<output>
				<port id="0" precision="FP16">
					<dim>1</dim>
					<dim>48</dim>
					<dim>1</dim>
					<dim>1</dim>
				</port>
			</output>
		</layer>
		<layer id="203" name="35584011224/restored_convert" type="Convert" version="opset1">
			<data destination_type="f32"/>
			<rt_info>
				<attribute name="decompression" version="0"/>
				<attribute name="fused_names" value="355" version="0"/>
			</rt_info>
			<input>
				<port id="0">
					<dim>1</dim>
					<dim>48</dim>
					<dim>1</dim>
					<dim>1</dim>
				</port>
			</input>
			<output>
				<port id="1" precision="FP32">
					<dim>1</dim>
					<dim>48</dim>
					<dim>1</dim>
					<dim>1</dim>
				</port>
			</output>
		</layer>
		<layer id="204" name="conv2_2/2/scale/Add_" type="Add" version="opset1">
			<data auto_broadcast="numpy"/>
			<rt_info>
				<attribute name="fused_names" value="conv2_2/2/scale/Add_" version="0"/>
			</rt_info>
			<input>
				<port id="0">
					<dim>1</dim>
					<dim>48</dim>
					<dim>136</dim>
					<dim>248</dim>
				</port>
				<port id="1">
					<dim>1</dim>
					<dim>48</dim>
					<dim>1</dim>
					<dim>1</dim>
				</port>
			</input>
			<output>
				<port id="2" names="conv2_2/2" precision="FP32">
					<dim>1</dim>
					<dim>48</dim>
					<dim>136</dim>
					<dim>248</dim>
				</port>
			</output>
		</layer>
		<layer id="205" name="conv2_2/2/relu" type="ReLU" version="opset1">
			<rt_info>
				<attribute name="fused_names" value="conv2_2/2/relu" version="0"/>
			</rt_info>
			<input>
				<port id="0">
					<dim>1</dim>
					<dim>48</dim>
					<dim>136</dim>
					<dim>248</dim>
				</port>
			</input>
			<output>
				<port id="1" names="conv2_2/2" precision="FP32">
					<dim>1</dim>
					<dim>48</dim>
					<dim>136</dim>
					<dim>248</dim>
				</port>
			</output>
		</layer>
		<layer id="206" name="conv2_2/3/conv/WithoutBiases/fq_input_0" type="FakeQuantize" version="opset1">
			<data auto_broadcast="numpy" levels="256"/>
			<input>
				<port id="0">
					<dim>1</dim>
					<dim>48</dim>
					<dim>136</dim>
					<dim>248</dim>
				</port>
				<port id="1"/>
				<port id="2"/>
				<port id="3"/>
				<port id="4"/>
			</input>
			<output>
				<port id="5" precision="FP32">
					<dim>1</dim>
					<dim>48</dim>
					<dim>136</dim>
					<dim>248</dim>
				</port>
			</output>
		</layer>
		<layer id="207" name="37284411225/restored_convert/quantized1414319966" type="Const" version="opset1">
			<data element_type="i8" offset="23175" shape="64,48,1,1" size="3072"/>
			<output>
				<port id="0" precision="I8">
					<dim>64</dim>
					<dim>48</dim>
					<dim>1</dim>
					<dim>1</dim>
				</port>
			</output>
		</layer>
		<layer id="208" name="37284411225/restored_convert/quantized/to_f32" type="Convert" version="opset1">
			<data destination_type="f32"/>
			<input>
				<port id="0">
					<dim>64</dim>
					<dim>48</dim>
					<dim>1</dim>
					<dim>1</dim>
				</port>
			</input>
			<output>
				<port id="1" precision="FP32">
					<dim>64</dim>
					<dim>48</dim>
					<dim>1</dim>
					<dim>1</dim>
				</port>
			</output>
		</layer>
		<layer id="209" name="conv2_2/3/conv/WithoutBiases/fq_weights_1/zero_point1416220890" type="Const" version="opset1">
			<data element_type="f32" offset="26247" shape="64,1,1,1" size="256"/>
			<output>
				<port id="0" precision="FP32">
					<dim>64</dim>
					<dim>1</dim>
					<dim>1</dim>
					<dim>1</dim>
				</port>
			</output>
		</layer>
		<layer id="210" name="conv2_2/3/conv/WithoutBiases/fq_weights_1/minus_zp" type="Subtract" version="opset1">
			<data auto_broadcast="numpy"/>
			<input>
				<port id="0">
					<dim>64</dim>
					<dim>48</dim>
					<dim>1</dim>
					<dim>1</dim>
				</port>
				<port id="1">
					<dim>64</dim>
					<dim>1</dim>
					<dim>1</dim>
					<dim>1</dim>
				</port>
			</input>
			<output>
				<port id="2" precision="FP32">
					<dim>64</dim>
					<dim>48</dim>
					<dim>1</dim>
					<dim>1</dim>
				</port>
			</output>
		</layer>
		<layer id="211" name="conv2_2/3/conv/WithoutBiases/fq_weights_1/scale1415121976" type="Const" version="opset1">
			<data element_type="f32" offset="26503" shape="64,1,1,1" size="256"/>
			<output>
				<port id="0" precision="FP32">
					<dim>64</dim>
					<dim>1</dim>
					<dim>1</dim>
					<dim>1</dim>
				</port>
			</output>
		</layer>
		<layer id="212" name="conv2_2/3/conv/WithoutBiases/fq_weights_1/mulpiply_by_scale" type="Multiply" version="opset1">
			<data auto_broadcast="numpy"/>
			<input>
				<port id="0">
					<dim>64</dim>
					<dim>48</dim>
					<dim>1</dim>
					<dim>1</dim>
				</port>
				<port id="1">
					<dim>64</dim>
					<dim>1</dim>
					<dim>1</dim>
					<dim>1</dim>
				</port>
			</input>
			<output>
				<port id="2" precision="FP32">
					<dim>64</dim>
					<dim>48</dim>
					<dim>1</dim>
					<dim>1</dim>
				</port>
			</output>
		</layer>
		<layer id="213" name="conv2_2/3/conv/WithoutBiases" type="Convolution" version="opset1">
			<data auto_pad="explicit" dilations="1,1" pads_begin="0,0" pads_end="0,0" strides="1,1"/>
			<rt_info>
				<attribute name="fused_names" value="conv2_2/3/conv/WithoutBiases" version="0"/>
			</rt_info>
			<input>
				<port id="0">
					<dim>1</dim>
					<dim>48</dim>
					<dim>136</dim>
					<dim>248</dim>
				</port>
				<port id="1">
					<dim>64</dim>
					<dim>48</dim>
					<dim>1</dim>
					<dim>1</dim>
				</port>
			</input>
			<output>
				<port id="2" precision="FP32">
					<dim>1</dim>
					<dim>64</dim>
					<dim>136</dim>
					<dim>248</dim>
				</port>
			</output>
		</layer>
		<layer id="214" name="conv2_2/3/conv/Dims392084721619" type="Const" version="opset1">
			<data element_type="f16" offset="26759" shape="1,64,1,1" size="128"/>
			<output>
				<port id="0" precision="FP16">
					<dim>1</dim>
					<dim>64</dim>
					<dim>1</dim>
					<dim>1</dim>
				</port>
			</output>
		</layer>
		<layer id="215" name="conv2_2/3/conv/Dims392084711226/restored_convert" type="Convert" version="opset1">
			<data destination_type="f32"/>
			<rt_info>
				<attribute name="decompression" version="0"/>
				<attribute name="fused_names" value="conv2_2/3/conv/Dims3920" version="0"/>
			</rt_info>
			<input>
				<port id="0">
					<dim>1</dim>
					<dim>64</dim>
					<dim>1</dim>
					<dim>1</dim>
				</port>
			</input>
			<output>
				<port id="1" precision="FP32">
					<dim>1</dim>
					<dim>64</dim>
					<dim>1</dim>
					<dim>1</dim>
				</port>
			</output>
		</layer>
		<layer id="216" name="conv2_2/3/conv" type="Add" version="opset1">
			<data auto_broadcast="numpy"/>
			<rt_info>
				<attribute name="fused_names" value="conv2_2/3/conv" version="0"/>
			</rt_info>
			<input>
				<port id="0">
					<dim>1</dim>
					<dim>64</dim>
					<dim>136</dim>
					<dim>248</dim>
				</port>
				<port id="1">
					<dim>1</dim>
					<dim>64</dim>
					<dim>1</dim>
					<dim>1</dim>
				</port>
			</input>
			<output>
				<port id="2" names="conv2_2/3" precision="FP32">
					<dim>1</dim>
					<dim>64</dim>
					<dim>136</dim>
					<dim>248</dim>
				</port>
			</output>
		</layer>
		<layer id="217" name="conv2_2/fq_input_0" type="FakeQuantize" version="opset1">
			<data auto_broadcast="numpy" levels="256"/>
			<input>
				<port id="0">
					<dim>1</dim>
					<dim>64</dim>
					<dim>136</dim>
					<dim>248</dim>
				</port>
				<port id="1"/>
				<port id="2"/>
				<port id="3"/>
				<port id="4"/>
			</input>
			<output>
				<port id="5" precision="FP32">
					<dim>1</dim>
					<dim>64</dim>
					<dim>136</dim>
					<dim>248</dim>
				</port>
			</output>
		</layer>
		<layer id="218" name="conv2_2" type="Add" version="opset1">
			<data auto_broadcast="numpy"/>
			<rt_info>
				<attribute name="fused_names" value="conv2_2" version="0"/>
			</rt_info>
			<input>
				<port id="0">
					<dim>1</dim>
					<dim>64</dim>
					<dim>136</dim>
					<dim>248</dim>
				</port>
				<port id="1">
					<dim>1</dim>
					<dim>64</dim>
					<dim>136</dim>
					<dim>248</dim>
				</port>
			</input>
			<output>
				<port id="2" names="conv2_2" precision="FP32">
					<dim>1</dim>
					<dim>64</dim>
					<dim>136</dim>
					<dim>248</dim>
				</port>
			</output>
		</layer>
		<layer id="219" name="Pooling_9173/fq_input_0" type="FakeQuantize" version="opset1">
			<data auto_broadcast="numpy" levels="256"/>
			<input>
				<port id="0">
					<dim>1</dim>
					<dim>64</dim>
					<dim>136</dim>
					<dim>248</dim>
				</port>
				<port id="1"/>
				<port id="2"/>
				<port id="3"/>
				<port id="4"/>
			</input>
			<output>
				<port id="5" precision="FP32">
					<dim>1</dim>
					<dim>64</dim>
					<dim>136</dim>
					<dim>248</dim>
				</port>
			</output>
		</layer>
		<layer id="220" name="Pooling_9173" type="MaxPool" version="opset8">
			<data auto_pad="explicit" axis="0" dilations="1,1" index_element_type="i64" kernel="1,1" pads_begin="0,0" pads_end="0,0" rounding_type="floor" strides="2,2"/>
			<rt_info>
				<attribute name="fused_names" value="Pooling_9173" version="0"/>
			</rt_info>
			<input>
				<port id="0">
					<dim>1</dim>
					<dim>64</dim>
					<dim>136</dim>
					<dim>248</dim>
				</port>
			</input>
			<output>
				<port id="1" precision="FP32">
					<dim>1</dim>
					<dim>64</dim>
					<dim>68</dim>
					<dim>124</dim>
				</port>
				<port id="2" precision="FP32">
					<dim>1</dim>
					<dim>64</dim>
					<dim>68</dim>
					<dim>124</dim>
					<rt_info/>
				</port>
			</output>
		</layer>
		<layer id="222" name="6070607422066" type="Const" version="opset1">
			<data element_type="f32" offset="26887" shape="" size="4"/>
			<output>
				<port id="0" precision="FP32"/>
			</output>
		</layer>
		<layer id="223" name="6071607520218" type="Const" version="opset1">
			<data element_type="f32" offset="26891" shape="" size="4"/>
			<output>
				<port id="0" precision="FP32"/>
			</output>
		</layer>
		<layer id="224" name="6072607621055" type="Const" version="opset1">
			<data element_type="f32" offset="26887" shape="" size="4"/>
			<output>
				<port id="0" precision="FP32"/>
			</output>
		</layer>
		<layer id="225" name="6073607720086" type="Const" version="opset1">
			<data element_type="f32" offset="26891" shape="" size="4"/>
			<output>
				<port id="0" precision="FP32"/>
			</output>
		</layer>
		<layer id="226" name="6080608419750" type="Const" version="opset1">
			<data element_type="f32" offset="26895" shape="" size="4"/>
			<output>
				<port id="0" precision="FP32"/>
			</output>
		</layer>
		<layer id="227" name="6081608521391" type="Const" version="opset1">
			<data element_type="f32" offset="26899" shape="" size="4"/>
			<output>
				<port id="0" precision="FP32"/>
			</output>
		</layer>
		<layer id="228" name="6082608620500" type="Const" version="opset1">
			<data element_type="f32" offset="26895" shape="" size="4"/>
			<output>
				<port id="0" precision="FP32"/>
			</output>
		</layer>
		<layer id="229" name="6083608720518" type="Const" version="opset1">
			<data element_type="f32" offset="26899" shape="" size="4"/>
			<output>
				<port id="0" precision="FP32"/>
			</output>
		</layer>
		<layer id="230" name="4199420320881" type="Const" version="opset1">
			<data element_type="f32" offset="26903" shape="" size="4"/>
			<output>
				<port id="0" precision="FP32"/>
			</output>
		</layer>
		<layer id="231" name="4200420420833" type="Const" version="opset1">
			<data element_type="f32" offset="26907" shape="" size="4"/>
			<output>
				<port id="0" precision="FP32"/>
			</output>
		</layer>
		<layer id="232" name="4201420519855" type="Const" version="opset1">
			<data element_type="f32" offset="26903" shape="" size="4"/>
			<output>
				<port id="0" precision="FP32"/>
			</output>
		</layer>
		<layer id="233" name="4202420620611" type="Const" version="opset1">
			<data element_type="f32" offset="26907" shape="" size="4"/>
			<output>
				<port id="0" precision="FP32"/>
			</output>
		</layer>
		<layer id="234" name="26685111227/restored_convert/quantized1435321418" type="Const" version="opset1">
			<data element_type="i8" offset="26911" shape="24,64,1,1" size="1536"/>
			<output>
				<port id="0" precision="I8">
					<dim>24</dim>
					<dim>64</dim>
					<dim>1</dim>
					<dim>1</dim>
				</port>
			</output>
		</layer>
		<layer id="235" name="26685111227/restored_convert/quantized/to_f32" type="Convert" version="opset1">
			<data destination_type="f32"/>
			<input>
				<port id="0">
					<dim>24</dim>
					<dim>64</dim>
					<dim>1</dim>
					<dim>1</dim>
				</port>
			</input>
			<output>
				<port id="1" precision="FP32">
					<dim>24</dim>
					<dim>64</dim>
					<dim>1</dim>
					<dim>1</dim>
				</port>
			</output>
		</layer>
		<layer id="236" name="conv2_3/1/conv/WithoutBiases/fq_weights_1/zero_point1437220689" type="Const" version="opset1">
			<data element_type="f32" offset="28447" shape="24,1,1,1" size="96"/>
			<output>
				<port id="0" precision="FP32">
					<dim>24</dim>
					<dim>1</dim>
					<dim>1</dim>
					<dim>1</dim>
				</port>
			</output>
		</layer>
		<layer id="237" name="conv2_3/1/conv/WithoutBiases/fq_weights_1/minus_zp" type="Subtract" version="opset1">
			<data auto_broadcast="numpy"/>
			<input>
				<port id="0">
					<dim>24</dim>
					<dim>64</dim>
					<dim>1</dim>
					<dim>1</dim>
				</port>
				<port id="1">
					<dim>24</dim>
					<dim>1</dim>
					<dim>1</dim>
					<dim>1</dim>
				</port>
			</input>
			<output>
				<port id="2" precision="FP32">
					<dim>24</dim>
					<dim>64</dim>
					<dim>1</dim>
					<dim>1</dim>
				</port>
			</output>
		</layer>
		<layer id="238" name="conv2_3/1/conv/WithoutBiases/fq_weights_1/scale1436119459" type="Const" version="opset1">
			<data element_type="f32" offset="28543" shape="24,1,1,1" size="96"/>
			<output>
				<port id="0" precision="FP32">
					<dim>24</dim>
					<dim>1</dim>
					<dim>1</dim>
					<dim>1</dim>
				</port>
			</output>
		</layer>
		<layer id="239" name="conv2_3/1/conv/WithoutBiases/fq_weights_1/mulpiply_by_scale" type="Multiply" version="opset1">
			<data auto_broadcast="numpy"/>
			<input>
				<port id="0">
					<dim>24</dim>
					<dim>64</dim>
					<dim>1</dim>
					<dim>1</dim>
				</port>
				<port id="1">
					<dim>24</dim>
					<dim>1</dim>
					<dim>1</dim>
					<dim>1</dim>
				</port>
			</input>
			<output>
				<port id="2" precision="FP32">
					<dim>24</dim>
					<dim>64</dim>
					<dim>1</dim>
					<dim>1</dim>
				</port>
			</output>
		</layer>
		<layer id="240" name="conv2_3/1/conv/WithoutBiases" type="Convolution" version="opset1">
			<data auto_pad="explicit" dilations="1,1" pads_begin="0,0" pads_end="0,0" strides="1,1"/>
			<rt_info>
				<attribute name="fused_names" value="conv2_3/1/conv/WithoutBiases" version="0"/>
			</rt_info>
			<input>
				<port id="0">
					<dim>1</dim>
					<dim>64</dim>
					<dim>136</dim>
					<dim>248</dim>
				</port>
				<port id="1">
					<dim>24</dim>
					<dim>64</dim>
					<dim>1</dim>
					<dim>1</dim>
				</port>
			</input>
			<output>
				<port id="2" precision="FP32">
					<dim>1</dim>
					<dim>24</dim>
					<dim>136</dim>
					<dim>248</dim>
				</port>
			</output>
		</layer>
		<layer id="241" name="conv2_3/1/conv/Dims426885421580" type="Const" version="opset1">
			<data element_type="f16" offset="28639" shape="1,24,1,1" size="48"/>
			<output>
				<port id="0" precision="FP16">
					<dim>1</dim>
					<dim>24</dim>
					<dim>1</dim>
					<dim>1</dim>
				</port>
			</output>
		</layer>
		<layer id="242" name="conv2_3/1/conv/Dims426885411228/restored_convert" type="Convert" version="opset1">
			<data destination_type="f32"/>
			<rt_info>
				<attribute name="decompression" version="0"/>
				<attribute name="fused_names" value="conv2_3/1/conv/Dims4268" version="0"/>
			</rt_info>
			<input>
				<port id="0">
					<dim>1</dim>
					<dim>24</dim>
					<dim>1</dim>
					<dim>1</dim>
				</port>
			</input>
			<output>
				<port id="1" precision="FP32">
					<dim>1</dim>
					<dim>24</dim>
					<dim>1</dim>
					<dim>1</dim>
				</port>
			</output>
		</layer>
		<layer id="243" name="conv2_3/1/conv" type="Add" version="opset1">
			<data auto_broadcast="numpy"/>
			<rt_info>
				<attribute name="fused_names" value="conv2_3/1/conv" version="0"/>
			</rt_info>
			<input>
				<port id="0">
					<dim>1</dim>
					<dim>24</dim>
					<dim>136</dim>
					<dim>248</dim>
				</port>
				<port id="1">
					<dim>1</dim>
					<dim>24</dim>
					<dim>1</dim>
					<dim>1</dim>
				</port>
			</input>
			<output>
				<port id="2" names="conv2_3/1" precision="FP32">
					<dim>1</dim>
					<dim>24</dim>
					<dim>136</dim>
					<dim>248</dim>
				</port>
			</output>
		</layer>
		<layer id="244" name="conv2_3/1/relu" type="ReLU" version="opset1">
			<rt_info>
				<attribute name="fused_names" value="conv2_3/1/relu" version="0"/>
			</rt_info>
			<input>
				<port id="0">
					<dim>1</dim>
					<dim>24</dim>
					<dim>136</dim>
					<dim>248</dim>
				</port>
			</input>
			<output>
				<port id="1" names="conv2_3/1" precision="FP32">
					<dim>1</dim>
					<dim>24</dim>
					<dim>136</dim>
					<dim>248</dim>
				</port>
			</output>
		</layer>
		<layer id="245" name="conv2_3/2/conv/WithoutBiases/fq_input_0" type="FakeQuantize" version="opset1">
			<data auto_broadcast="numpy" levels="256"/>
			<input>
				<port id="0">
					<dim>1</dim>
					<dim>24</dim>
					<dim>136</dim>
					<dim>248</dim>
				</port>
				<port id="1"/>
				<port id="2"/>
				<port id="3"/>
				<port id="4"/>
			</input>
			<output>
				<port id="5" precision="FP32">
					<dim>1</dim>
					<dim>24</dim>
					<dim>136</dim>
					<dim>248</dim>
				</port>
			</output>
		</layer>
		<layer id="246" name="38085811229/restored_convert/quantized1327321154" type="Const" version="opset1">
			<data element_type="i8" offset="28687" shape="24,24,3,3" size="5184"/>
			<output>
				<port id="0" precision="I8">
					<dim>24</dim>
					<dim>24</dim>
					<dim>3</dim>
					<dim>3</dim>
				</port>
			</output>
		</layer>
		<layer id="247" name="38085811229/restored_convert/quantized/to_f32" type="Convert" version="opset1">
			<data destination_type="f32"/>
			<input>
				<port id="0">
					<dim>24</dim>
					<dim>24</dim>
					<dim>3</dim>
					<dim>3</dim>
				</port>
			</input>
			<output>
				<port id="1" precision="FP32">
					<dim>24</dim>
					<dim>24</dim>
					<dim>3</dim>
					<dim>3</dim>
				</port>
			</output>
		</layer>
		<layer id="248" name="conv2_3/2/conv/WithoutBiases/fq_weights_1/zero_point1329219888" type="Const" version="opset1">
			<data element_type="f32" offset="33871" shape="24,1,1,1" size="96"/>
			<output>
				<port id="0" precision="FP32">
					<dim>24</dim>
					<dim>1</dim>
					<dim>1</dim>
					<dim>1</dim>
				</port>
			</output>
		</layer>
		<layer id="249" name="conv2_3/2/conv/WithoutBiases/fq_weights_1/minus_zp" type="Subtract" version="opset1">
			<data auto_broadcast="numpy"/>
			<input>
				<port id="0">
					<dim>24</dim>
					<dim>24</dim>
					<dim>3</dim>
					<dim>3</dim>
				</port>
				<port id="1">
					<dim>24</dim>
					<dim>1</dim>
					<dim>1</dim>
					<dim>1</dim>
				</port>
			</input>
			<output>
				<port id="2" precision="FP32">
					<dim>24</dim>
					<dim>24</dim>
					<dim>3</dim>
					<dim>3</dim>
				</port>
			</output>
		</layer>
		<layer id="250" name="conv2_3/2/conv/WithoutBiases/fq_weights_1/scale1328121853" type="Const" version="opset1">
			<data element_type="f32" offset="33967" shape="24,1,1,1" size="96"/>
			<output>
				<port id="0" precision="FP32">
					<dim>24</dim>
					<dim>1</dim>
					<dim>1</dim>
					<dim>1</dim>
				</port>
			</output>
		</layer>
		<layer id="251" name="conv2_3/2/conv/WithoutBiases/fq_weights_1/mulpiply_by_scale" type="Multiply" version="opset1">
			<data auto_broadcast="numpy"/>
			<input>
				<port id="0">
					<dim>24</dim>
					<dim>24</dim>
					<dim>3</dim>
					<dim>3</dim>
				</port>
				<port id="1">
					<dim>24</dim>
					<dim>1</dim>
					<dim>1</dim>
					<dim>1</dim>
				</port>
			</input>
			<output>
				<port id="2" precision="FP32">
					<dim>24</dim>
					<dim>24</dim>
					<dim>3</dim>
					<dim>3</dim>
				</port>
			</output>
		</layer>
		<layer id="252" name="conv2_3/2/conv/WithoutBiases" type="Convolution" version="opset1">
			<data auto_pad="explicit" dilations="1,1" pads_begin="1,1" pads_end="1,1" strides="1,1"/>
			<rt_info>
				<attribute name="fused_names" value="conv2_3/2/conv/WithoutBiases" version="0"/>
			</rt_info>
			<input>
				<port id="0">
					<dim>1</dim>
					<dim>24</dim>
					<dim>136</dim>
					<dim>248</dim>
				</port>
				<port id="1">
					<dim>24</dim>
					<dim>24</dim>
					<dim>3</dim>
					<dim>3</dim>
				</port>
			</input>
			<output>
				<port id="2" precision="FP32">
					<dim>1</dim>
					<dim>24</dim>
					<dim>136</dim>
					<dim>248</dim>
				</port>
			</output>
		</layer>
		<layer id="253" name="conv2_3/2/conv/Dims393286120185" type="Const" version="opset1">
			<data element_type="f16" offset="34063" shape="1,24,1,1" size="48"/>
			<output>
				<port id="0" precision="FP16">
					<dim>1</dim>
					<dim>24</dim>
					<dim>1</dim>
					<dim>1</dim>
				</port>
			</output>
		</layer>
		<layer id="254" name="conv2_3/2/conv/Dims393286111230/restored_convert" type="Convert" version="opset1">
			<data destination_type="f32"/>
			<rt_info>
				<attribute name="decompression" version="0"/>
				<attribute name="fused_names" value="conv2_3/2/conv/Dims3932" version="0"/>
			</rt_info>
			<input>
				<port id="0">
					<dim>1</dim>
					<dim>24</dim>
					<dim>1</dim>
					<dim>1</dim>
				</port>
			</input>
			<output>
				<port id="1" precision="FP32">
					<dim>1</dim>
					<dim>24</dim>
					<dim>1</dim>
					<dim>1</dim>
				</port>
			</output>
		</layer>
		<layer id="255" name="conv2_3/2/conv" type="Add" version="opset1">
			<data auto_broadcast="numpy"/>
			<rt_info>
				<attribute name="fused_names" value="conv2_3/2/conv" version="0"/>
			</rt_info>
			<input>
				<port id="0">
					<dim>1</dim>
					<dim>24</dim>
					<dim>136</dim>
					<dim>248</dim>
				</port>
				<port id="1">
					<dim>1</dim>
					<dim>24</dim>
					<dim>1</dim>
					<dim>1</dim>
				</port>
			</input>
			<output>
				<port id="2" names="conv2_3/2/conv" precision="FP32">
					<dim>1</dim>
					<dim>24</dim>
					<dim>136</dim>
					<dim>248</dim>
				</port>
			</output>
		</layer>
		<layer id="256" name="conv2_3/2/concat/fq_input_0" type="FakeQuantize" version="opset1">
			<data auto_broadcast="numpy" levels="256"/>
			<input>
				<port id="0">
					<dim>1</dim>
					<dim>24</dim>
					<dim>136</dim>
					<dim>248</dim>
				</port>
				<port id="1"/>
				<port id="2"/>
				<port id="3"/>
				<port id="4"/>
			</input>
			<output>
				<port id="5" precision="FP32">
					<dim>1</dim>
					<dim>24</dim>
					<dim>136</dim>
					<dim>248</dim>
				</port>
			</output>
		</layer>
		<layer id="257" name="6090609420923" type="Const" version="opset1">
			<data element_type="f32" offset="26895" shape="" size="4"/>
			<output>
				<port id="0" precision="FP32"/>
			</output>
		</layer>
		<layer id="258" name="6091609519609" type="Const" version="opset1">
			<data element_type="f32" offset="26899" shape="" size="4"/>
			<output>
				<port id="0" precision="FP32"/>
			</output>
		</layer>
		<layer id="259" name="6092609620680" type="Const" version="opset1">
			<data element_type="f32" offset="26895" shape="" size="4"/>
			<output>
				<port id="0" precision="FP32"/>
			</output>
		</layer>
		<layer id="260" name="6093609722042" type="Const" version="opset1">
			<data element_type="f32" offset="26899" shape="" size="4"/>
			<output>
				<port id="0" precision="FP32"/>
			</output>
		</layer>
		<layer id="261" name="43786411231/restored_convert/quantized1318319918" type="Const" version="opset1">
			<data element_type="i8" offset="2542" shape="1,1,1,1" size="1"/>
			<output>
				<port id="0" precision="I8">
					<dim>1</dim>
					<dim>1</dim>
					<dim>1</dim>
					<dim>1</dim>
				</port>
			</output>
		</layer>
		<layer id="262" name="43786411231/restored_convert/quantized/to_f32" type="Convert" version="opset1">
			<data destination_type="f32"/>
			<input>
				<port id="0">
					<dim>1</dim>
					<dim>1</dim>
					<dim>1</dim>
					<dim>1</dim>
				</port>
			</input>
			<output>
				<port id="1" precision="FP32">
					<dim>1</dim>
					<dim>1</dim>
					<dim>1</dim>
					<dim>1</dim>
				</port>
			</output>
		</layer>
		<layer id="263" name="conv2_3/2/neg/mul_/fq_input_1/zero_point1320220311" type="Const" version="opset1">
			<data element_type="f32" offset="34111" shape="1,1,1,1" size="4"/>
			<output>
				<port id="0" precision="FP32">
					<dim>1</dim>
					<dim>1</dim>
					<dim>1</dim>
					<dim>1</dim>
				</port>
			</output>
		</layer>
		<layer id="264" name="conv2_3/2/neg/mul_/fq_input_1/minus_zp" type="Subtract" version="opset1">
			<data auto_broadcast="numpy"/>
			<input>
				<port id="0">
					<dim>1</dim>
					<dim>1</dim>
					<dim>1</dim>
					<dim>1</dim>
				</port>
				<port id="1">
					<dim>1</dim>
					<dim>1</dim>
					<dim>1</dim>
					<dim>1</dim>
				</port>
			</input>
			<output>
				<port id="2" precision="FP32">
					<dim>1</dim>
					<dim>1</dim>
					<dim>1</dim>
					<dim>1</dim>
				</port>
			</output>
		</layer>
		<layer id="265" name="conv2_3/2/neg/mul_/fq_input_1/scale1319120644" type="Const" version="opset1">
			<data element_type="f32" offset="2547" shape="1,1,1,1" size="4"/>
			<output>
				<port id="0" precision="FP32">
					<dim>1</dim>
					<dim>1</dim>
					<dim>1</dim>
					<dim>1</dim>
				</port>
			</output>
		</layer>
		<layer id="266" name="conv2_3/2/neg/mul_/fq_input_1/mulpiply_by_scale" type="Multiply" version="opset1">
			<data auto_broadcast="numpy"/>
			<input>
				<port id="0">
					<dim>1</dim>
					<dim>1</dim>
					<dim>1</dim>
					<dim>1</dim>
				</port>
				<port id="1">
					<dim>1</dim>
					<dim>1</dim>
					<dim>1</dim>
					<dim>1</dim>
				</port>
			</input>
			<output>
				<port id="2" precision="FP32">
					<dim>1</dim>
					<dim>1</dim>
					<dim>1</dim>
					<dim>1</dim>
				</port>
			</output>
		</layer>
		<layer id="267" name="conv2_3/2/neg/mul_" type="Multiply" version="opset1">
			<data auto_broadcast="numpy"/>
			<rt_info>
				<attribute name="fused_names" value="conv2_3/2/neg/mul_" version="0"/>
			</rt_info>
			<input>
				<port id="0">
					<dim>1</dim>
					<dim>24</dim>
					<dim>136</dim>
					<dim>248</dim>
				</port>
				<port id="1">
					<dim>1</dim>
					<dim>1</dim>
					<dim>1</dim>
					<dim>1</dim>
				</port>
			</input>
			<output>
				<port id="2" names="conv2_3/2/neg" precision="FP32">
					<dim>1</dim>
					<dim>24</dim>
					<dim>136</dim>
					<dim>248</dim>
				</port>
			</output>
		</layer>
		<layer id="268" name="conv2_3/2/concat/fq_input_1" type="FakeQuantize" version="opset1">
			<data auto_broadcast="numpy" levels="256"/>
			<input>
				<port id="0">
					<dim>1</dim>
					<dim>24</dim>
					<dim>136</dim>
					<dim>248</dim>
				</port>
				<port id="1"/>
				<port id="2"/>
				<port id="3"/>
				<port id="4"/>
			</input>
			<output>
				<port id="5" precision="FP32">
					<dim>1</dim>
					<dim>24</dim>
					<dim>136</dim>
					<dim>248</dim>
				</port>
			</output>
		</layer>
		<layer id="269" name="conv2_3/2/concat" type="Concat" version="opset1">
			<data axis="1"/>
			<rt_info>
				<attribute name="fused_names" value="conv2_3/2/concat" version="0"/>
			</rt_info>
			<input>
				<port id="0">
					<dim>1</dim>
					<dim>24</dim>
					<dim>136</dim>
					<dim>248</dim>
				</port>
				<port id="1">
					<dim>1</dim>
					<dim>24</dim>
					<dim>136</dim>
					<dim>248</dim>
				</port>
			</input>
			<output>
				<port id="2" names="conv2_3/2" precision="FP32">
					<dim>1</dim>
					<dim>48</dim>
					<dim>136</dim>
					<dim>248</dim>
				</port>
			</output>
		</layer>
		<layer id="270" name="42886811232/restored_convert/quantized1525319453" type="Const" version="opset1">
			<data element_type="i8" offset="34115" shape="1,48,1,1" size="48"/>
			<output>
				<port id="0" precision="I8">
					<dim>1</dim>
					<dim>48</dim>
					<dim>1</dim>
					<dim>1</dim>
				</port>
			</output>
		</layer>
		<layer id="271" name="42886811232/restored_convert/quantized/to_f32" type="Convert" version="opset1">
			<data destination_type="f32"/>
			<input>
				<port id="0">
					<dim>1</dim>
					<dim>48</dim>
					<dim>1</dim>
					<dim>1</dim>
				</port>
			</input>
			<output>
				<port id="1" precision="FP32">
					<dim>1</dim>
					<dim>48</dim>
					<dim>1</dim>
					<dim>1</dim>
				</port>
			</output>
		</layer>
		<layer id="272" name="conv2_3/2/scale/Mul_/fq_input_1/zero_point1527219408" type="Const" version="opset1">
			<data element_type="f32" offset="34111" shape="1,1,1,1" size="4"/>
			<output>
				<port id="0" precision="FP32">
					<dim>1</dim>
					<dim>1</dim>
					<dim>1</dim>
					<dim>1</dim>
				</port>
			</output>
		</layer>
		<layer id="273" name="conv2_3/2/scale/Mul_/fq_input_1/minus_zp" type="Subtract" version="opset1">
			<data auto_broadcast="numpy"/>
			<input>
				<port id="0">
					<dim>1</dim>
					<dim>48</dim>
					<dim>1</dim>
					<dim>1</dim>
				</port>
				<port id="1">
					<dim>1</dim>
					<dim>1</dim>
					<dim>1</dim>
					<dim>1</dim>
				</port>
			</input>
			<output>
				<port id="2" precision="FP32">
					<dim>1</dim>
					<dim>48</dim>
					<dim>1</dim>
					<dim>1</dim>
				</port>
			</output>
		</layer>
		<layer id="274" name="conv2_3/2/scale/Mul_/fq_input_1/scale1526121940" type="Const" version="opset1">
			<data element_type="f32" offset="34163" shape="1,1,1,1" size="4"/>
			<output>
				<port id="0" precision="FP32">
					<dim>1</dim>
					<dim>1</dim>
					<dim>1</dim>
					<dim>1</dim>
				</port>
			</output>
		</layer>
		<layer id="275" name="conv2_3/2/scale/Mul_/fq_input_1/mulpiply_by_scale" type="Multiply" version="opset1">
			<data auto_broadcast="numpy"/>
			<input>
				<port id="0">
					<dim>1</dim>
					<dim>48</dim>
					<dim>1</dim>
					<dim>1</dim>
				</port>
				<port id="1">
					<dim>1</dim>
					<dim>1</dim>
					<dim>1</dim>
					<dim>1</dim>
				</port>
			</input>
			<output>
				<port id="2" precision="FP32">
					<dim>1</dim>
					<dim>48</dim>
					<dim>1</dim>
					<dim>1</dim>
				</port>
			</output>
		</layer>
		<layer id="276" name="conv2_3/2/scale/Mul_" type="Multiply" version="opset1">
			<data auto_broadcast="numpy"/>
			<rt_info>
				<attribute name="fused_names" value="conv2_3/2/scale/Mul_" version="0"/>
			</rt_info>
			<input>
				<port id="0">
					<dim>1</dim>
					<dim>48</dim>
					<dim>136</dim>
					<dim>248</dim>
				</port>
				<port id="1">
					<dim>1</dim>
					<dim>48</dim>
					<dim>1</dim>
					<dim>1</dim>
				</port>
			</input>
			<output>
				<port id="2" precision="FP32">
					<dim>1</dim>
					<dim>48</dim>
					<dim>136</dim>
					<dim>248</dim>
				</port>
			</output>
		</layer>
		<layer id="277" name="Pooling_/fq_input_0" type="FakeQuantize" version="opset1">
			<data auto_broadcast="numpy" levels="256"/>
			<input>
				<port id="0">
					<dim>1</dim>
					<dim>48</dim>
					<dim>136</dim>
					<dim>248</dim>
				</port>
				<port id="1"/>
				<port id="2"/>
				<port id="3"/>
				<port id="4"/>
			</input>
			<output>
				<port id="5" precision="FP32">
					<dim>1</dim>
					<dim>48</dim>
					<dim>136</dim>
					<dim>248</dim>
				</port>
			</output>
		</layer>
		<layer id="278" name="Pooling_" type="MaxPool" version="opset8">
			<data auto_pad="explicit" axis="0" dilations="1,1" index_element_type="i64" kernel="1,1" pads_begin="0,0" pads_end="0,0" rounding_type="floor" strides="2,2"/>
			<rt_info>
				<attribute name="fused_names" value="Pooling_" version="0"/>
			</rt_info>
			<input>
				<port id="0">
					<dim>1</dim>
					<dim>48</dim>
					<dim>136</dim>
					<dim>248</dim>
				</port>
			</input>
			<output>
				<port id="1" precision="FP32">
					<dim>1</dim>
					<dim>48</dim>
					<dim>68</dim>
					<dim>124</dim>
				</port>
				<port id="2" precision="FP32">
					<dim>1</dim>
					<dim>48</dim>
					<dim>68</dim>
					<dim>124</dim>
					<rt_info/>
				</port>
			</output>
		</layer>
		<layer id="280" name="2999300321907" type="Const" version="opset1">
			<data element_type="f32" offset="34167" shape="" size="4"/>
			<output>
				<port id="0" precision="FP32"/>
			</output>
		</layer>
		<layer id="281" name="3000300422084" type="Const" version="opset1">
			<data element_type="f32" offset="34171" shape="" size="4"/>
			<output>
				<port id="0" precision="FP32"/>
			</output>
		</layer>
		<layer id="282" name="3001300520437" type="Const" version="opset1">
			<data element_type="f32" offset="34167" shape="" size="4"/>
			<output>
				<port id="0" precision="FP32"/>
			</output>
		</layer>
		<layer id="283" name="3002300620461" type="Const" version="opset1">
			<data element_type="f32" offset="34171" shape="" size="4"/>
			<output>
				<port id="0" precision="FP32"/>
			</output>
		</layer>
		<layer id="284" name="4669467320416" type="Const" version="opset1">
			<data element_type="f32" offset="34175" shape="" size="4"/>
			<output>
				<port id="0" precision="FP32"/>
			</output>
		</layer>
		<layer id="285" name="4670467420743" type="Const" version="opset1">
			<data element_type="f32" offset="34179" shape="" size="4"/>
			<output>
				<port id="0" precision="FP32"/>
			</output>
		</layer>
		<layer id="286" name="4671467521256" type="Const" version="opset1">
			<data element_type="f32" offset="34175" shape="" size="4"/>
			<output>
				<port id="0" precision="FP32"/>
			</output>
		</layer>
		<layer id="287" name="4672467619792" type="Const" version="opset1">
			<data element_type="f32" offset="34179" shape="" size="4"/>
			<output>
				<port id="0" precision="FP32"/>
			</output>
		</layer>
		<layer id="288" name="4469447320605" type="Const" version="opset1">
			<data element_type="f32" offset="34183" shape="" size="4"/>
			<output>
				<port id="0" precision="FP32"/>
			</output>
		</layer>
		<layer id="289" name="4470447420491" type="Const" version="opset1">
			<data element_type="f32" offset="34187" shape="" size="4"/>
			<output>
				<port id="0" precision="FP32"/>
			</output>
		</layer>
		<layer id="290" name="4471447520080" type="Const" version="opset1">
			<data element_type="f32" offset="34183" shape="" size="4"/>
			<output>
				<port id="0" precision="FP32"/>
			</output>
		</layer>
		<layer id="291" name="4472447622075" type="Const" version="opset1">
			<data element_type="f32" offset="34187" shape="" size="4"/>
			<output>
				<port id="0" precision="FP32"/>
			</output>
		</layer>
		<layer id="292" name="6170617421511" type="Const" version="opset1">
			<data element_type="f32" offset="34191" shape="" size="4"/>
			<output>
				<port id="0" precision="FP32"/>
			</output>
		</layer>
		<layer id="293" name="6171617522036" type="Const" version="opset1">
			<data element_type="f32" offset="34195" shape="" size="4"/>
			<output>
				<port id="0" precision="FP32"/>
			</output>
		</layer>
		<layer id="294" name="6172617621040" type="Const" version="opset1">
			<data element_type="f32" offset="34191" shape="" size="4"/>
			<output>
				<port id="0" precision="FP32"/>
			</output>
		</layer>
		<layer id="295" name="6173617721148" type="Const" version="opset1">
			<data element_type="f32" offset="34195" shape="" size="4"/>
			<output>
				<port id="0" precision="FP32"/>
			</output>
		</layer>
		<layer id="296" name="4559456321625" type="Const" version="opset1">
			<data element_type="f32" offset="34183" shape="" size="4"/>
			<output>
				<port id="0" precision="FP32"/>
			</output>
		</layer>
		<layer id="297" name="4560456420338" type="Const" version="opset1">
			<data element_type="f32" offset="34199" shape="" size="4"/>
			<output>
				<port id="0" precision="FP32"/>
			</output>
		</layer>
		<layer id="298" name="4561456519903" type="Const" version="opset1">
			<data element_type="f32" offset="34183" shape="" size="4"/>
			<output>
				<port id="0" precision="FP32"/>
			</output>
		</layer>
		<layer id="299" name="4562456620845" type="Const" version="opset1">
			<data element_type="f32" offset="34199" shape="" size="4"/>
			<output>
				<port id="0" precision="FP32"/>
			</output>
		</layer>
		<layer id="300" name="2779278321835" type="Const" version="opset1">
			<data element_type="f32" offset="34203" shape="" size="4"/>
			<output>
				<port id="0" precision="FP32"/>
			</output>
		</layer>
		<layer id="301" name="2780278420353" type="Const" version="opset1">
			<data element_type="f32" offset="34207" shape="" size="4"/>
			<output>
				<port id="0" precision="FP32"/>
			</output>
		</layer>
		<layer id="302" name="2781278520695" type="Const" version="opset1">
			<data element_type="f32" offset="34203" shape="" size="4"/>
			<output>
				<port id="0" precision="FP32"/>
			</output>
		</layer>
		<layer id="303" name="2782278619591" type="Const" version="opset1">
			<data element_type="f32" offset="34207" shape="" size="4"/>
			<output>
				<port id="0" precision="FP32"/>
			</output>
		</layer>
		<layer id="304" name="2819282321910" type="Const" version="opset1">
			<data element_type="f32" offset="34211" shape="" size="4"/>
			<output>
				<port id="0" precision="FP32"/>
			</output>
		</layer>
		<layer id="305" name="2820282420449" type="Const" version="opset1">
			<data element_type="f32" offset="34215" shape="" size="4"/>
			<output>
				<port id="0" precision="FP32"/>
			</output>
		</layer>
		<layer id="306" name="2821282520029" type="Const" version="opset1">
			<data element_type="f32" offset="34211" shape="" size="4"/>
			<output>
				<port id="0" precision="FP32"/>
			</output>
		</layer>
		<layer id="307" name="2822282621283" type="Const" version="opset1">
			<data element_type="f32" offset="34215" shape="" size="4"/>
			<output>
				<port id="0" precision="FP32"/>
			</output>
		</layer>
		<layer id="308" name="3509351320863" type="Const" version="opset1">
			<data element_type="f32" offset="34183" shape="" size="4"/>
			<output>
				<port id="0" precision="FP32"/>
			</output>
		</layer>
		<layer id="309" name="3510351419807" type="Const" version="opset1">
			<data element_type="f32" offset="34219" shape="" size="4"/>
			<output>
				<port id="0" precision="FP32"/>
			</output>
		</layer>
		<layer id="310" name="3511351521457" type="Const" version="opset1">
			<data element_type="f32" offset="34183" shape="" size="4"/>
			<output>
				<port id="0" precision="FP32"/>
			</output>
		</layer>
		<layer id="311" name="3512351619921" type="Const" version="opset1">
			<data element_type="f32" offset="34219" shape="" size="4"/>
			<output>
				<port id="0" precision="FP32"/>
			</output>
		</layer>
		<layer id="312" name="6150615421364" type="Const" version="opset1">
			<data element_type="f32" offset="34223" shape="" size="4"/>
			<output>
				<port id="0" precision="FP32"/>
			</output>
		</layer>
		<layer id="313" name="6151615519777" type="Const" version="opset1">
			<data element_type="f32" offset="34227" shape="" size="4"/>
			<output>
				<port id="0" precision="FP32"/>
			</output>
		</layer>
		<layer id="314" name="6152615620770" type="Const" version="opset1">
			<data element_type="f32" offset="34223" shape="" size="4"/>
			<output>
				<port id="0" precision="FP32"/>
			</output>
		</layer>
		<layer id="315" name="6153615720359" type="Const" version="opset1">
			<data element_type="f32" offset="34227" shape="" size="4"/>
			<output>
				<port id="0" precision="FP32"/>
			</output>
		</layer>
		<layer id="316" name="3149315320377" type="Const" version="opset1">
			<data element_type="f32" offset="34183" shape="" size="4"/>
			<output>
				<port id="0" precision="FP32"/>
			</output>
		</layer>
		<layer id="317" name="3150315420014" type="Const" version="opset1">
			<data element_type="f32" offset="34231" shape="" size="4"/>
			<output>
				<port id="0" precision="FP32"/>
			</output>
		</layer>
		<layer id="318" name="3151315519528" type="Const" version="opset1">
			<data element_type="f32" offset="34183" shape="" size="4"/>
			<output>
				<port id="0" precision="FP32"/>
			</output>
		</layer>
		<layer id="319" name="3152315621514" type="Const" version="opset1">
			<data element_type="f32" offset="34231" shape="" size="4"/>
			<output>
				<port id="0" precision="FP32"/>
			</output>
		</layer>
		<layer id="320" name="4269427320683" type="Const" version="opset1">
			<data element_type="f32" offset="34235" shape="" size="4"/>
			<output>
				<port id="0" precision="FP32"/>
			</output>
		</layer>
		<layer id="321" name="4270427419816" type="Const" version="opset1">
			<data element_type="f32" offset="34239" shape="" size="4"/>
			<output>
				<port id="0" precision="FP32"/>
			</output>
		</layer>
		<layer id="322" name="4271427521010" type="Const" version="opset1">
			<data element_type="f32" offset="34235" shape="" size="4"/>
			<output>
				<port id="0" precision="FP32"/>
			</output>
		</layer>
		<layer id="323" name="4272427620887" type="Const" version="opset1">
			<data element_type="f32" offset="34239" shape="" size="4"/>
			<output>
				<port id="0" precision="FP32"/>
			</output>
		</layer>
		<layer id="324" name="3759376322108" type="Const" version="opset1">
			<data element_type="f32" offset="34243" shape="" size="4"/>
			<output>
				<port id="0" precision="FP32"/>
			</output>
		</layer>
		<layer id="325" name="3760376420374" type="Const" version="opset1">
			<data element_type="f32" offset="34247" shape="" size="4"/>
			<output>
				<port id="0" precision="FP32"/>
			</output>
		</layer>
		<layer id="326" name="3761376520362" type="Const" version="opset1">
			<data element_type="f32" offset="34243" shape="" size="4"/>
			<output>
				<port id="0" precision="FP32"/>
			</output>
		</layer>
		<layer id="327" name="3762376620077" type="Const" version="opset1">
			<data element_type="f32" offset="34247" shape="" size="4"/>
			<output>
				<port id="0" precision="FP32"/>
			</output>
		</layer>
		<layer id="328" name="4099410320854" type="Const" version="opset1">
			<data element_type="f32" offset="34183" shape="" size="4"/>
			<output>
				<port id="0" precision="FP32"/>
			</output>
		</layer>
		<layer id="329" name="4100410421742" type="Const" version="opset1">
			<data element_type="f32" offset="34251" shape="" size="4"/>
			<output>
				<port id="0" precision="FP32"/>
			</output>
		</layer>
		<layer id="330" name="4101410520329" type="Const" version="opset1">
			<data element_type="f32" offset="34183" shape="" size="4"/>
			<output>
				<port id="0" precision="FP32"/>
			</output>
		</layer>
		<layer id="331" name="4102410619846" type="Const" version="opset1">
			<data element_type="f32" offset="34251" shape="" size="4"/>
			<output>
				<port id="0" precision="FP32"/>
			</output>
		</layer>
		<layer id="332" name="6130613420305" type="Const" version="opset1">
			<data element_type="f32" offset="34255" shape="" size="4"/>
			<output>
				<port id="0" precision="FP32"/>
			</output>
		</layer>
		<layer id="333" name="6131613521682" type="Const" version="opset1">
			<data element_type="f32" offset="34259" shape="" size="4"/>
			<output>
				<port id="0" precision="FP32"/>
			</output>
		</layer>
		<layer id="334" name="6132613620134" type="Const" version="opset1">
			<data element_type="f32" offset="34255" shape="" size="4"/>
			<output>
				<port id="0" precision="FP32"/>
			</output>
		</layer>
		<layer id="335" name="6133613720137" type="Const" version="opset1">
			<data element_type="f32" offset="34259" shape="" size="4"/>
			<output>
				<port id="0" precision="FP32"/>
			</output>
		</layer>
		<layer id="336" name="4359436320713" type="Const" version="opset1">
			<data element_type="f32" offset="34183" shape="" size="4"/>
			<output>
				<port id="0" precision="FP32"/>
			</output>
		</layer>
		<layer id="337" name="4360436419699" type="Const" version="opset1">
			<data element_type="f32" offset="34263" shape="" size="4"/>
			<output>
				<port id="0" precision="FP32"/>
			</output>
		</layer>
		<layer id="338" name="4361436521259" type="Const" version="opset1">
			<data element_type="f32" offset="34183" shape="" size="4"/>
			<output>
				<port id="0" precision="FP32"/>
			</output>
		</layer>
		<layer id="339" name="4362436620071" type="Const" version="opset1">
			<data element_type="f32" offset="34263" shape="" size="4"/>
			<output>
				<port id="0" precision="FP32"/>
			</output>
		</layer>
		<layer id="340" name="3579358319531" type="Const" version="opset1">
			<data element_type="f32" offset="34267" shape="" size="4"/>
			<output>
				<port id="0" precision="FP32"/>
			</output>
		</layer>
		<layer id="341" name="3580358419516" type="Const" version="opset1">
			<data element_type="f32" offset="34271" shape="" size="4"/>
			<output>
				<port id="0" precision="FP32"/>
			</output>
		</layer>
		<layer id="342" name="3581358519582" type="Const" version="opset1">
			<data element_type="f32" offset="34267" shape="" size="4"/>
			<output>
				<port id="0" precision="FP32"/>
			</output>
		</layer>
		<layer id="343" name="3582358621697" type="Const" version="opset1">
			<data element_type="f32" offset="34271" shape="" size="4"/>
			<output>
				<port id="0" precision="FP32"/>
			</output>
		</layer>
		<layer id="344" name="4079408320485" type="Const" version="opset1">
			<data element_type="f32" offset="34275" shape="" size="4"/>
			<output>
				<port id="0" precision="FP32"/>
			</output>
		</layer>
		<layer id="345" name="4080408421916" type="Const" version="opset1">
			<data element_type="f32" offset="34279" shape="" size="4"/>
			<output>
				<port id="0" precision="FP32"/>
			</output>
		</layer>
		<layer id="346" name="4081408521667" type="Const" version="opset1">
			<data element_type="f32" offset="34275" shape="" size="4"/>
			<output>
				<port id="0" precision="FP32"/>
			</output>
		</layer>
		<layer id="347" name="4082408619840" type="Const" version="opset1">
			<data element_type="f32" offset="34279" shape="" size="4"/>
			<output>
				<port id="0" precision="FP32"/>
			</output>
		</layer>
		<layer id="348" name="4319432319570" type="Const" version="opset1">
			<data element_type="f32" offset="34183" shape="" size="4"/>
			<output>
				<port id="0" precision="FP32"/>
			</output>
		</layer>
		<layer id="349" name="4320432421037" type="Const" version="opset1">
			<data element_type="f32" offset="34283" shape="" size="4"/>
			<output>
				<port id="0" precision="FP32"/>
			</output>
		</layer>
		<layer id="350" name="4321432521499" type="Const" version="opset1">
			<data element_type="f32" offset="34183" shape="" size="4"/>
			<output>
				<port id="0" precision="FP32"/>
			</output>
		</layer>
		<layer id="351" name="4322432619411" type="Const" version="opset1">
			<data element_type="f32" offset="34283" shape="" size="4"/>
			<output>
				<port id="0" precision="FP32"/>
			</output>
		</layer>
		<layer id="352" name="6110611420647" type="Const" version="opset1">
			<data element_type="f32" offset="34287" shape="" size="4"/>
			<output>
				<port id="0" precision="FP32"/>
			</output>
		</layer>
		<layer id="353" name="6111611520899" type="Const" version="opset1">
			<data element_type="f32" offset="34291" shape="" size="4"/>
			<output>
				<port id="0" precision="FP32"/>
			</output>
		</layer>
		<layer id="354" name="6112611620758" type="Const" version="opset1">
			<data element_type="f32" offset="34287" shape="" size="4"/>
			<output>
				<port id="0" precision="FP32"/>
			</output>
		</layer>
		<layer id="355" name="6113611721403" type="Const" version="opset1">
			<data element_type="f32" offset="34291" shape="" size="4"/>
			<output>
				<port id="0" precision="FP32"/>
			</output>
		</layer>
		<layer id="356" name="3659366320785" type="Const" version="opset1">
			<data element_type="f32" offset="34183" shape="" size="4"/>
			<output>
				<port id="0" precision="FP32"/>
			</output>
		</layer>
		<layer id="357" name="3660366419705" type="Const" version="opset1">
			<data element_type="f32" offset="34295" shape="" size="4"/>
			<output>
				<port id="0" precision="FP32"/>
			</output>
		</layer>
		<layer id="358" name="3661366520704" type="Const" version="opset1">
			<data element_type="f32" offset="34183" shape="" size="4"/>
			<output>
				<port id="0" precision="FP32"/>
			</output>
		</layer>
		<layer id="359" name="3662366620212" type="Const" version="opset1">
			<data element_type="f32" offset="34295" shape="" size="4"/>
			<output>
				<port id="0" precision="FP32"/>
			</output>
		</layer>
		<layer id="360" name="3979398321421" type="Const" version="opset1">
			<data element_type="f32" offset="34299" shape="" size="4"/>
			<output>
				<port id="0" precision="FP32"/>
			</output>
		</layer>
		<layer id="361" name="3980398420884" type="Const" version="opset1">
			<data element_type="f32" offset="34303" shape="" size="4"/>
			<output>
				<port id="0" precision="FP32"/>
			</output>
		</layer>
		<layer id="362" name="3981398522102" type="Const" version="opset1">
			<data element_type="f32" offset="34299" shape="" size="4"/>
			<output>
				<port id="0" precision="FP32"/>
			</output>
		</layer>
		<layer id="363" name="3982398619660" type="Const" version="opset1">
			<data element_type="f32" offset="34303" shape="" size="4"/>
			<output>
				<port id="0" precision="FP32"/>
			</output>
		</layer>
		<layer id="364" name="4119412321862" type="Const" version="opset1">
			<data element_type="f32" offset="34307" shape="" size="4"/>
			<output>
				<port id="0" precision="FP32"/>
			</output>
		</layer>
		<layer id="365" name="4120412419618" type="Const" version="opset1">
			<data element_type="f32" offset="34311" shape="" size="4"/>
			<output>
				<port id="0" precision="FP32"/>
			</output>
		</layer>
		<layer id="366" name="4121412520947" type="Const" version="opset1">
			<data element_type="f32" offset="34307" shape="" size="4"/>
			<output>
				<port id="0" precision="FP32"/>
			</output>
		</layer>
		<layer id="367" name="4122412620041" type="Const" version="opset1">
			<data element_type="f32" offset="34311" shape="" size="4"/>
			<output>
				<port id="0" precision="FP32"/>
			</output>
		</layer>
		<layer id="368" name="4179418321232" type="Const" version="opset1">
			<data element_type="f32" offset="34183" shape="" size="4"/>
			<output>
				<port id="0" precision="FP32"/>
			</output>
		</layer>
		<layer id="369" name="4180418421505" type="Const" version="opset1">
			<data element_type="f32" offset="34315" shape="" size="4"/>
			<output>
				<port id="0" precision="FP32"/>
			</output>
		</layer>
		<layer id="370" name="4181418519720" type="Const" version="opset1">
			<data element_type="f32" offset="34183" shape="" size="4"/>
			<output>
				<port id="0" precision="FP32"/>
			</output>
		</layer>
		<layer id="371" name="4182418619597" type="Const" version="opset1">
			<data element_type="f32" offset="34315" shape="" size="4"/>
			<output>
				<port id="0" precision="FP32"/>
			</output>
		</layer>
		<layer id="372" name="42987211233/restored_convert/quantized1540321778" type="Const" version="opset1">
			<data element_type="i8" offset="34319" shape="1,48,1,1" size="48"/>
			<output>
				<port id="0" precision="I8">
					<dim>1</dim>
					<dim>48</dim>
					<dim>1</dim>
					<dim>1</dim>
				</port>
			</output>
		</layer>
		<layer id="373" name="42987211233/restored_convert/quantized/to_f32" type="Convert" version="opset1">
			<data destination_type="f32"/>
			<input>
				<port id="0">
					<dim>1</dim>
					<dim>48</dim>
					<dim>1</dim>
					<dim>1</dim>
				</port>
			</input>
			<output>
				<port id="1" precision="FP32">
					<dim>1</dim>
					<dim>48</dim>
					<dim>1</dim>
					<dim>1</dim>
				</port>
			</output>
		</layer>
		<layer id="374" name="conv2_3/2/scale/Add_/fq_input_1/zero_point1542221631" type="Const" version="opset1">
			<data element_type="f32" offset="34367" shape="1,1,1,1" size="4"/>
			<output>
				<port id="0" precision="FP32">
					<dim>1</dim>
					<dim>1</dim>
					<dim>1</dim>
					<dim>1</dim>
				</port>
			</output>
		</layer>
		<layer id="375" name="conv2_3/2/scale/Add_/fq_input_1/minus_zp" type="Subtract" version="opset1">
			<data auto_broadcast="numpy"/>
			<input>
				<port id="0">
					<dim>1</dim>
					<dim>48</dim>
					<dim>1</dim>
					<dim>1</dim>
				</port>
				<port id="1">
					<dim>1</dim>
					<dim>1</dim>
					<dim>1</dim>
					<dim>1</dim>
				</port>
			</input>
			<output>
				<port id="2" precision="FP32">
					<dim>1</dim>
					<dim>48</dim>
					<dim>1</dim>
					<dim>1</dim>
				</port>
			</output>
		</layer>
		<layer id="376" name="conv2_3/2/scale/Add_/fq_input_1/scale1541119537" type="Const" version="opset1">
			<data element_type="f32" offset="34371" shape="1,1,1,1" size="4"/>
			<output>
				<port id="0" precision="FP32">
					<dim>1</dim>
					<dim>1</dim>
					<dim>1</dim>
					<dim>1</dim>
				</port>
			</output>
		</layer>
		<layer id="377" name="conv2_3/2/scale/Add_/fq_input_1/mulpiply_by_scale" type="Multiply" version="opset1">
			<data auto_broadcast="numpy"/>
			<input>
				<port id="0">
					<dim>1</dim>
					<dim>48</dim>
					<dim>1</dim>
					<dim>1</dim>
				</port>
				<port id="1">
					<dim>1</dim>
					<dim>1</dim>
					<dim>1</dim>
					<dim>1</dim>
				</port>
			</input>
			<output>
				<port id="2" precision="FP32">
					<dim>1</dim>
					<dim>48</dim>
					<dim>1</dim>
					<dim>1</dim>
				</port>
			</output>
		</layer>
		<layer id="378" name="conv2_3/2/scale/Add_" type="Add" version="opset1">
			<data auto_broadcast="numpy"/>
			<rt_info>
				<attribute name="fused_names" value="conv2_3/2/scale/Add_" version="0"/>
			</rt_info>
			<input>
				<port id="0">
					<dim>1</dim>
					<dim>48</dim>
					<dim>68</dim>
					<dim>124</dim>
				</port>
				<port id="1">
					<dim>1</dim>
					<dim>48</dim>
					<dim>1</dim>
					<dim>1</dim>
				</port>
			</input>
			<output>
				<port id="2" precision="FP32">
					<dim>1</dim>
					<dim>48</dim>
					<dim>68</dim>
					<dim>124</dim>
				</port>
			</output>
		</layer>
		<layer id="379" name="conv2_3/2/relu" type="ReLU" version="opset1">
			<rt_info>
				<attribute name="fused_names" value="conv2_3/2/relu" version="0"/>
			</rt_info>
			<input>
				<port id="0">
					<dim>1</dim>
					<dim>48</dim>
					<dim>68</dim>
					<dim>124</dim>
				</port>
			</input>
			<output>
				<port id="1" precision="FP32">
					<dim>1</dim>
					<dim>48</dim>
					<dim>68</dim>
					<dim>124</dim>
				</port>
			</output>
		</layer>
		<layer id="380" name="conv2_3/3/conv/WithoutBiases/fq_input_0" type="FakeQuantize" version="opset1">
			<data auto_broadcast="numpy" levels="256"/>
			<input>
				<port id="0">
					<dim>1</dim>
					<dim>48</dim>
					<dim>68</dim>
					<dim>124</dim>
				</port>
				<port id="1"/>
				<port id="2"/>
				<port id="3"/>
				<port id="4"/>
			</input>
			<output>
				<port id="5" precision="FP32">
					<dim>1</dim>
					<dim>48</dim>
					<dim>68</dim>
					<dim>124</dim>
				</port>
			</output>
		</layer>
		<layer id="381" name="32487611234/restored_convert/quantized1366321268" type="Const" version="opset1">
			<data element_type="i8" offset="34375" shape="64,48,1,1" size="3072"/>
			<output>
				<port id="0" precision="I8">
					<dim>64</dim>
					<dim>48</dim>
					<dim>1</dim>
					<dim>1</dim>
				</port>
			</output>
		</layer>
		<layer id="382" name="32487611234/restored_convert/quantized/to_f32" type="Convert" version="opset1">
			<data destination_type="f32"/>
			<input>
				<port id="0">
					<dim>64</dim>
					<dim>48</dim>
					<dim>1</dim>
					<dim>1</dim>
				</port>
			</input>
			<output>
				<port id="1" precision="FP32">
					<dim>64</dim>
					<dim>48</dim>
					<dim>1</dim>
					<dim>1</dim>
				</port>
			</output>
		</layer>
		<layer id="383" name="conv2_3/3/conv/WithoutBiases/fq_weights_1/zero_point1368221019" type="Const" version="opset1">
			<data element_type="f32" offset="37447" shape="64,1,1,1" size="256"/>
			<output>
				<port id="0" precision="FP32">
					<dim>64</dim>
					<dim>1</dim>
					<dim>1</dim>
					<dim>1</dim>
				</port>
			</output>
		</layer>
		<layer id="384" name="conv2_3/3/conv/WithoutBiases/fq_weights_1/minus_zp" type="Subtract" version="opset1">
			<data auto_broadcast="numpy"/>
			<input>
				<port id="0">
					<dim>64</dim>
					<dim>48</dim>
					<dim>1</dim>
					<dim>1</dim>
				</port>
				<port id="1">
					<dim>64</dim>
					<dim>1</dim>
					<dim>1</dim>
					<dim>1</dim>
				</port>
			</input>
			<output>
				<port id="2" precision="FP32">
					<dim>64</dim>
					<dim>48</dim>
					<dim>1</dim>
					<dim>1</dim>
				</port>
			</output>
		</layer>
		<layer id="385" name="conv2_3/3/conv/WithoutBiases/fq_weights_1/scale1367121943" type="Const" version="opset1">
			<data element_type="f32" offset="37703" shape="64,1,1,1" size="256"/>
			<output>
				<port id="0" precision="FP32">
					<dim>64</dim>
					<dim>1</dim>
					<dim>1</dim>
					<dim>1</dim>
				</port>
			</output>
		</layer>
		<layer id="386" name="conv2_3/3/conv/WithoutBiases/fq_weights_1/mulpiply_by_scale" type="Multiply" version="opset1">
			<data auto_broadcast="numpy"/>
			<input>
				<port id="0">
					<dim>64</dim>
					<dim>48</dim>
					<dim>1</dim>
					<dim>1</dim>
				</port>
				<port id="1">
					<dim>64</dim>
					<dim>1</dim>
					<dim>1</dim>
					<dim>1</dim>
				</port>
			</input>
			<output>
				<port id="2" precision="FP32">
					<dim>64</dim>
					<dim>48</dim>
					<dim>1</dim>
					<dim>1</dim>
				</port>
			</output>
		</layer>
		<layer id="387" name="conv2_3/3/conv/WithoutBiases" type="Convolution" version="opset1">
			<data auto_pad="explicit" dilations="1,1" pads_begin="0,0" pads_end="0,0" strides="1,1"/>
			<rt_info>
				<attribute name="fused_names" value="conv2_3/3/conv/WithoutBiases" version="0"/>
			</rt_info>
			<input>
				<port id="0">
					<dim>1</dim>
					<dim>48</dim>
					<dim>68</dim>
					<dim>124</dim>
				</port>
				<port id="1">
					<dim>64</dim>
					<dim>48</dim>
					<dim>1</dim>
					<dim>1</dim>
				</port>
			</input>
			<output>
				<port id="2" precision="FP32">
					<dim>1</dim>
					<dim>64</dim>
					<dim>68</dim>
					<dim>124</dim>
				</port>
			</output>
		</layer>
		<layer id="388" name="conv2_3/3/conv/Dims416687921172" type="Const" version="opset1">
			<data element_type="f16" offset="37959" shape="1,64,1,1" size="128"/>
			<output>
				<port id="0" precision="FP16">
					<dim>1</dim>
					<dim>64</dim>
					<dim>1</dim>
					<dim>1</dim>
				</port>
			</output>
		</layer>
		<layer id="389" name="conv2_3/3/conv/Dims416687911235/restored_convert" type="Convert" version="opset1">
			<data destination_type="f32"/>
			<rt_info>
				<attribute name="decompression" version="0"/>
				<attribute name="fused_names" value="conv2_3/3/conv/Dims4166" version="0"/>
			</rt_info>
			<input>
				<port id="0">
					<dim>1</dim>
					<dim>64</dim>
					<dim>1</dim>
					<dim>1</dim>
				</port>
			</input>
			<output>
				<port id="1" precision="FP32">
					<dim>1</dim>
					<dim>64</dim>
					<dim>1</dim>
					<dim>1</dim>
				</port>
			</output>
		</layer>
		<layer id="390" name="conv2_3/3/conv" type="Add" version="opset1">
			<data auto_broadcast="numpy"/>
			<rt_info>
				<attribute name="fused_names" value="conv2_3/3/conv" version="0"/>
			</rt_info>
			<input>
				<port id="0">
					<dim>1</dim>
					<dim>64</dim>
					<dim>68</dim>
					<dim>124</dim>
				</port>
				<port id="1">
					<dim>1</dim>
					<dim>64</dim>
					<dim>1</dim>
					<dim>1</dim>
				</port>
			</input>
			<output>
				<port id="2" precision="FP32">
					<dim>1</dim>
					<dim>64</dim>
					<dim>68</dim>
					<dim>124</dim>
				</port>
			</output>
		</layer>
		<layer id="391" name="conv2_3/fq_input_0" type="FakeQuantize" version="opset1">
			<data auto_broadcast="numpy" levels="256"/>
			<input>
				<port id="0">
					<dim>1</dim>
					<dim>64</dim>
					<dim>68</dim>
					<dim>124</dim>
				</port>
				<port id="1"/>
				<port id="2"/>
				<port id="3"/>
				<port id="4"/>
			</input>
			<output>
				<port id="5" precision="FP32">
					<dim>1</dim>
					<dim>64</dim>
					<dim>68</dim>
					<dim>124</dim>
				</port>
			</output>
		</layer>
		<layer id="392" name="conv2_3" type="Add" version="opset1">
			<data auto_broadcast="numpy"/>
			<rt_info>
				<attribute name="fused_names" value="conv2_3" version="0"/>
			</rt_info>
			<input>
				<port id="0">
					<dim>1</dim>
					<dim>64</dim>
					<dim>68</dim>
					<dim>124</dim>
				</port>
				<port id="1">
					<dim>1</dim>
					<dim>64</dim>
					<dim>68</dim>
					<dim>124</dim>
				</port>
			</input>
			<output>
				<port id="2" precision="FP32">
					<dim>1</dim>
					<dim>64</dim>
					<dim>68</dim>
					<dim>124</dim>
				</port>
			</output>
		</layer>
		<layer id="393" name="conv3_1/1/conv/WithoutBiases/fq_input_0" type="FakeQuantize" version="opset1">
			<data auto_broadcast="numpy" levels="256"/>
			<input>
				<port id="0">
					<dim>1</dim>
					<dim>64</dim>
					<dim>68</dim>
					<dim>124</dim>
				</port>
				<port id="1"/>
				<port id="2"/>
				<port id="3"/>
				<port id="4"/>
			</input>
			<output>
				<port id="5" precision="FP32">
					<dim>1</dim>
					<dim>64</dim>
					<dim>68</dim>
					<dim>124</dim>
				</port>
			</output>
		</layer>
		<layer id="394" name="34088411236/restored_convert/quantized1462320272" type="Const" version="opset1">
			<data element_type="i8" offset="38087" shape="48,64,1,1" size="3072"/>
			<output>
				<port id="0" precision="I8">
					<dim>48</dim>
					<dim>64</dim>
					<dim>1</dim>
					<dim>1</dim>
				</port>
			</output>
		</layer>
		<layer id="395" name="34088411236/restored_convert/quantized/to_f32" type="Convert" version="opset1">
			<data destination_type="f32"/>
			<input>
				<port id="0">
					<dim>48</dim>
					<dim>64</dim>
					<dim>1</dim>
					<dim>1</dim>
				</port>
			</input>
			<output>
				<port id="1" precision="FP32">
					<dim>48</dim>
					<dim>64</dim>
					<dim>1</dim>
					<dim>1</dim>
				</port>
			</output>
		</layer>
		<layer id="396" name="conv3_1/1/conv/WithoutBiases/fq_weights_1/zero_point1464219795" type="Const" version="opset1">
			<data element_type="f32" offset="41159" shape="48,1,1,1" size="192"/>
			<output>
				<port id="0" precision="FP32">
					<dim>48</dim>
					<dim>1</dim>
					<dim>1</dim>
					<dim>1</dim>
				</port>
			</output>
		</layer>
		<layer id="397" name="conv3_1/1/conv/WithoutBiases/fq_weights_1/minus_zp" type="Subtract" version="opset1">
			<data auto_broadcast="numpy"/>
			<input>
				<port id="0">
					<dim>48</dim>
					<dim>64</dim>
					<dim>1</dim>
					<dim>1</dim>
				</port>
				<port id="1">
					<dim>48</dim>
					<dim>1</dim>
					<dim>1</dim>
					<dim>1</dim>
				</port>
			</input>
			<output>
				<port id="2" precision="FP32">
					<dim>48</dim>
					<dim>64</dim>
					<dim>1</dim>
					<dim>1</dim>
				</port>
			</output>
		</layer>
		<layer id="398" name="conv3_1/1/conv/WithoutBiases/fq_weights_1/scale1463121427" type="Const" version="opset1">
			<data element_type="f32" offset="41351" shape="48,1,1,1" size="192"/>
			<output>
				<port id="0" precision="FP32">
					<dim>48</dim>
					<dim>1</dim>
					<dim>1</dim>
					<dim>1</dim>
				</port>
			</output>
		</layer>
		<layer id="399" name="conv3_1/1/conv/WithoutBiases/fq_weights_1/mulpiply_by_scale" type="Multiply" version="opset1">
			<data auto_broadcast="numpy"/>
			<input>
				<port id="0">
					<dim>48</dim>
					<dim>64</dim>
					<dim>1</dim>
					<dim>1</dim>
				</port>
				<port id="1">
					<dim>48</dim>
					<dim>1</dim>
					<dim>1</dim>
					<dim>1</dim>
				</port>
			</input>
			<output>
				<port id="2" precision="FP32">
					<dim>48</dim>
					<dim>64</dim>
					<dim>1</dim>
					<dim>1</dim>
				</port>
			</output>
		</layer>
		<layer id="400" name="conv3_1/1/conv/WithoutBiases" type="Convolution" version="opset1">
			<data auto_pad="explicit" dilations="1,1" pads_begin="0,0" pads_end="0,0" strides="1,1"/>
			<rt_info>
				<attribute name="fused_names" value="conv3_1/1/conv/WithoutBiases" version="0"/>
			</rt_info>
			<input>
				<port id="0">
					<dim>1</dim>
					<dim>64</dim>
					<dim>68</dim>
					<dim>124</dim>
				</port>
				<port id="1">
					<dim>48</dim>
					<dim>64</dim>
					<dim>1</dim>
					<dim>1</dim>
				</port>
			</input>
			<output>
				<port id="2" precision="FP32">
					<dim>1</dim>
					<dim>48</dim>
					<dim>68</dim>
					<dim>124</dim>
				</port>
			</output>
		</layer>
		<layer id="401" name="conv3_1/1/conv/Dims403488721661" type="Const" version="opset1">
			<data element_type="f16" offset="41543" shape="1,48,1,1" size="96"/>
			<output>
				<port id="0" precision="FP16">
					<dim>1</dim>
					<dim>48</dim>
					<dim>1</dim>
					<dim>1</dim>
				</port>
			</output>
		</layer>
		<layer id="402" name="conv3_1/1/conv/Dims403488711237/restored_convert" type="Convert" version="opset1">
			<data destination_type="f32"/>
			<rt_info>
				<attribute name="decompression" version="0"/>
				<attribute name="fused_names" value="conv3_1/1/conv/Dims4034" version="0"/>
			</rt_info>
			<input>
				<port id="0">
					<dim>1</dim>
					<dim>48</dim>
					<dim>1</dim>
					<dim>1</dim>
				</port>
			</input>
			<output>
				<port id="1" precision="FP32">
					<dim>1</dim>
					<dim>48</dim>
					<dim>1</dim>
					<dim>1</dim>
				</port>
			</output>
		</layer>
		<layer id="403" name="conv3_1/1/conv" type="Add" version="opset1">
			<data auto_broadcast="numpy"/>
			<rt_info>
				<attribute name="fused_names" value="conv3_1/1/conv" version="0"/>
			</rt_info>
			<input>
				<port id="0">
					<dim>1</dim>
					<dim>48</dim>
					<dim>68</dim>
					<dim>124</dim>
				</port>
				<port id="1">
					<dim>1</dim>
					<dim>48</dim>
					<dim>1</dim>
					<dim>1</dim>
				</port>
			</input>
			<output>
				<port id="2" names="conv3_1/1" precision="FP32">
					<dim>1</dim>
					<dim>48</dim>
					<dim>68</dim>
					<dim>124</dim>
				</port>
			</output>
		</layer>
		<layer id="404" name="conv3_1/1/relu" type="ReLU" version="opset1">
			<rt_info>
				<attribute name="fused_names" value="conv3_1/1/relu" version="0"/>
			</rt_info>
			<input>
				<port id="0">
					<dim>1</dim>
					<dim>48</dim>
					<dim>68</dim>
					<dim>124</dim>
				</port>
			</input>
			<output>
				<port id="1" names="conv3_1/1" precision="FP32">
					<dim>1</dim>
					<dim>48</dim>
					<dim>68</dim>
					<dim>124</dim>
				</port>
			</output>
		</layer>
		<layer id="405" name="conv3_1/2/conv/WithoutBiases/fq_input_0" type="FakeQuantize" version="opset1">
			<data auto_broadcast="numpy" levels="256"/>
			<input>
				<port id="0">
					<dim>1</dim>
					<dim>48</dim>
					<dim>68</dim>
					<dim>124</dim>
				</port>
				<port id="1"/>
				<port id="2"/>
				<port id="3"/>
				<port id="4"/>
			</input>
			<output>
				<port id="5" precision="FP32">
					<dim>1</dim>
					<dim>48</dim>
					<dim>68</dim>
					<dim>124</dim>
				</port>
			</output>
		</layer>
		<layer id="406" name="25889111238/restored_convert/quantized1291319636" type="Const" version="opset1">
			<data element_type="i8" offset="41639" shape="48,48,3,3" size="20736"/>
			<output>
				<port id="0" precision="I8">
					<dim>48</dim>
					<dim>48</dim>
					<dim>3</dim>
					<dim>3</dim>
				</port>
			</output>
		</layer>
		<layer id="407" name="25889111238/restored_convert/quantized/to_f32" type="Convert" version="opset1">
			<data destination_type="f32"/>
			<input>
				<port id="0">
					<dim>48</dim>
					<dim>48</dim>
					<dim>3</dim>
					<dim>3</dim>
				</port>
			</input>
			<output>
				<port id="1" precision="FP32">
					<dim>48</dim>
					<dim>48</dim>
					<dim>3</dim>
					<dim>3</dim>
				</port>
			</output>
		</layer>
		<layer id="408" name="conv3_1/2/conv/WithoutBiases/fq_weights_1/zero_point1293221340" type="Const" version="opset1">
			<data element_type="f32" offset="62375" shape="48,1,1,1" size="192"/>
			<output>
				<port id="0" precision="FP32">
					<dim>48</dim>
					<dim>1</dim>
					<dim>1</dim>
					<dim>1</dim>
				</port>
			</output>
		</layer>
		<layer id="409" name="conv3_1/2/conv/WithoutBiases/fq_weights_1/minus_zp" type="Subtract" version="opset1">
			<data auto_broadcast="numpy"/>
			<input>
				<port id="0">
					<dim>48</dim>
					<dim>48</dim>
					<dim>3</dim>
					<dim>3</dim>
				</port>
				<port id="1">
					<dim>48</dim>
					<dim>1</dim>
					<dim>1</dim>
					<dim>1</dim>
				</port>
			</input>
			<output>
				<port id="2" precision="FP32">
					<dim>48</dim>
					<dim>48</dim>
					<dim>3</dim>
					<dim>3</dim>
				</port>
			</output>
		</layer>
		<layer id="410" name="conv3_1/2/conv/WithoutBiases/fq_weights_1/scale1292119741" type="Const" version="opset1">
			<data element_type="f32" offset="62567" shape="48,1,1,1" size="192"/>
			<output>
				<port id="0" precision="FP32">
					<dim>48</dim>
					<dim>1</dim>
					<dim>1</dim>
					<dim>1</dim>
				</port>
			</output>
		</layer>
		<layer id="411" name="conv3_1/2/conv/WithoutBiases/fq_weights_1/mulpiply_by_scale" type="Multiply" version="opset1">
			<data auto_broadcast="numpy"/>
			<input>
				<port id="0">
					<dim>48</dim>
					<dim>48</dim>
					<dim>3</dim>
					<dim>3</dim>
				</port>
				<port id="1">
					<dim>48</dim>
					<dim>1</dim>
					<dim>1</dim>
					<dim>1</dim>
				</port>
			</input>
			<output>
				<port id="2" precision="FP32">
					<dim>48</dim>
					<dim>48</dim>
					<dim>3</dim>
					<dim>3</dim>
				</port>
			</output>
		</layer>
		<layer id="412" name="conv3_1/2/conv/WithoutBiases" type="Convolution" version="opset1">
			<data auto_pad="explicit" dilations="1,1" pads_begin="1,1" pads_end="1,1" strides="1,1"/>
			<rt_info>
				<attribute name="fused_names" value="conv3_1/2/conv/WithoutBiases" version="0"/>
			</rt_info>
			<input>
				<port id="0">
					<dim>1</dim>
					<dim>48</dim>
					<dim>68</dim>
					<dim>124</dim>
				</port>
				<port id="1">
					<dim>48</dim>
					<dim>48</dim>
					<dim>3</dim>
					<dim>3</dim>
				</port>
			</input>
			<output>
				<port id="2" precision="FP32">
					<dim>1</dim>
					<dim>48</dim>
					<dim>68</dim>
					<dim>124</dim>
				</port>
			</output>
		</layer>
		<layer id="413" name="conv3_1/2/conv/Dims389689420548" type="Const" version="opset1">
			<data element_type="f16" offset="62759" shape="1,48,1,1" size="96"/>
			<output>
				<port id="0" precision="FP16">
					<dim>1</dim>
					<dim>48</dim>
					<dim>1</dim>
					<dim>1</dim>
				</port>
			</output>
		</layer>
		<layer id="414" name="conv3_1/2/conv/Dims389689411239/restored_convert" type="Convert" version="opset1">
			<data destination_type="f32"/>
			<rt_info>
				<attribute name="decompression" version="0"/>
				<attribute name="fused_names" value="conv3_1/2/conv/Dims3896" version="0"/>
			</rt_info>
			<input>
				<port id="0">
					<dim>1</dim>
					<dim>48</dim>
					<dim>1</dim>
					<dim>1</dim>
				</port>
			</input>
			<output>
				<port id="1" precision="FP32">
					<dim>1</dim>
					<dim>48</dim>
					<dim>1</dim>
					<dim>1</dim>
				</port>
			</output>
		</layer>
		<layer id="415" name="conv3_1/2/conv" type="Add" version="opset1">
			<data auto_broadcast="numpy"/>
			<rt_info>
				<attribute name="fused_names" value="conv3_1/2/conv" version="0"/>
			</rt_info>
			<input>
				<port id="0">
					<dim>1</dim>
					<dim>48</dim>
					<dim>68</dim>
					<dim>124</dim>
				</port>
				<port id="1">
					<dim>1</dim>
					<dim>48</dim>
					<dim>1</dim>
					<dim>1</dim>
				</port>
			</input>
			<output>
				<port id="2" names="conv3_1/2/conv" precision="FP32">
					<dim>1</dim>
					<dim>48</dim>
					<dim>68</dim>
					<dim>124</dim>
				</port>
			</output>
		</layer>
		<layer id="416" name="conv3_1/2/concat/fq_input_0" type="FakeQuantize" version="opset1">
			<data auto_broadcast="numpy" levels="256"/>
			<input>
				<port id="0">
					<dim>1</dim>
					<dim>48</dim>
					<dim>68</dim>
					<dim>124</dim>
				</port>
				<port id="1"/>
…
		<edge from-layer="1232" from-port="1" to-layer="1233" to-port="0"/>
		<edge from-layer="1218" from-port="0" to-layer="1233" to-port="1"/>
		<edge from-layer="1219" from-port="0" to-layer="1233" to-port="2"/>
		<edge from-layer="1220" from-port="0" to-layer="1233" to-port="3"/>
		<edge from-layer="1221" from-port="0" to-layer="1233" to-port="4"/>
		<edge from-layer="1234" from-port="0" to-layer="1235" to-port="0"/>
		<edge from-layer="1235" from-port="1" to-layer="1237" to-port="0"/>
		<edge from-layer="1236" from-port="0" to-layer="1237" to-port="1"/>
		<edge from-layer="1237" from-port="2" to-layer="1239" to-port="0"/>
		<edge from-layer="1238" from-port="0" to-layer="1239" to-port="1"/>
		<edge from-layer="1233" from-port="5" to-layer="1240" to-port="0"/>
		<edge from-layer="1239" from-port="2" to-layer="1240" to-port="1"/>
		<edge from-layer="1241" from-port="0" to-layer="1242" to-port="0"/>
		<edge from-layer="1240" from-port="2" to-layer="1243" to-port="0"/>
		<edge from-layer="1242" from-port="1" to-layer="1243" to-port="1"/>
		<edge from-layer="1243" from-port="2" to-layer="1244" to-port="0"/>
		<edge from-layer="1244" from-port="1" to-layer="1245" to-port="0"/>
		<edge from-layer="1214" from-port="0" to-layer="1245" to-port="1"/>
		<edge from-layer="1215" from-port="0" to-layer="1245" to-port="2"/>
		<edge from-layer="1216" from-port="0" to-layer="1245" to-port="3"/>
		<edge from-layer="1217" from-port="0" to-layer="1245" to-port="4"/>
		<edge from-layer="1258" from-port="0" to-layer="1259" to-port="0"/>
		<edge from-layer="1259" from-port="1" to-layer="1261" to-port="0"/>
		<edge from-layer="1260" from-port="0" to-layer="1261" to-port="1"/>
		<edge from-layer="1261" from-port="2" to-layer="1263" to-port="0"/>
		<edge from-layer="1262" from-port="0" to-layer="1263" to-port="1"/>
		<edge from-layer="1143" from-port="5" to-layer="1264" to-port="0"/>
		<edge from-layer="1263" from-port="2" to-layer="1264" to-port="1"/>
		<edge from-layer="1265" from-port="0" to-layer="1266" to-port="0"/>
		<edge from-layer="1264" from-port="2" to-layer="1267" to-port="0"/>
		<edge from-layer="1266" from-port="1" to-layer="1267" to-port="1"/>
		<edge from-layer="1267" from-port="2" to-layer="1268" to-port="0"/>
		<edge from-layer="1268" from-port="1" to-layer="1269" to-port="0"/>
		<edge from-layer="1254" from-port="0" to-layer="1269" to-port="1"/>
		<edge from-layer="1255" from-port="0" to-layer="1269" to-port="2"/>
		<edge from-layer="1256" from-port="0" to-layer="1269" to-port="3"/>
		<edge from-layer="1257" from-port="0" to-layer="1269" to-port="4"/>
		<edge from-layer="1270" from-port="0" to-layer="1271" to-port="0"/>
		<edge from-layer="1271" from-port="1" to-layer="1273" to-port="0"/>
		<edge from-layer="1272" from-port="0" to-layer="1273" to-port="1"/>
		<edge from-layer="1273" from-port="2" to-layer="1275" to-port="0"/>
		<edge from-layer="1274" from-port="0" to-layer="1275" to-port="1"/>
		<edge from-layer="1269" from-port="5" to-layer="1276" to-port="0"/>
		<edge from-layer="1275" from-port="2" to-layer="1276" to-port="1"/>
		<edge from-layer="1277" from-port="0" to-layer="1278" to-port="0"/>
		<edge from-layer="1276" from-port="2" to-layer="1279" to-port="0"/>
		<edge from-layer="1278" from-port="1" to-layer="1279" to-port="1"/>
		<edge from-layer="1279" from-port="2" to-layer="1280" to-port="0"/>
		<edge from-layer="1280" from-port="1" to-layer="1281" to-port="0"/>
		<edge from-layer="1250" from-port="0" to-layer="1281" to-port="1"/>
		<edge from-layer="1251" from-port="0" to-layer="1281" to-port="2"/>
		<edge from-layer="1252" from-port="0" to-layer="1281" to-port="3"/>
		<edge from-layer="1253" from-port="0" to-layer="1281" to-port="4"/>
		<edge from-layer="1282" from-port="0" to-layer="1283" to-port="0"/>
		<edge from-layer="1283" from-port="1" to-layer="1285" to-port="0"/>
		<edge from-layer="1284" from-port="0" to-layer="1285" to-port="1"/>
		<edge from-layer="1285" from-port="2" to-layer="1287" to-port="0"/>
		<edge from-layer="1286" from-port="0" to-layer="1287" to-port="1"/>
		<edge from-layer="1281" from-port="5" to-layer="1288" to-port="0"/>
		<edge from-layer="1287" from-port="2" to-layer="1288" to-port="1"/>
		<edge from-layer="1289" from-port="0" to-layer="1290" to-port="0"/>
		<edge from-layer="1288" from-port="2" to-layer="1291" to-port="0"/>
		<edge from-layer="1290" from-port="1" to-layer="1291" to-port="1"/>
		<edge from-layer="1291" from-port="2" to-layer="1292" to-port="0"/>
		<edge from-layer="1292" from-port="1" to-layer="1293" to-port="0"/>
		<edge from-layer="1246" from-port="0" to-layer="1293" to-port="1"/>
		<edge from-layer="1247" from-port="0" to-layer="1293" to-port="2"/>
		<edge from-layer="1248" from-port="0" to-layer="1293" to-port="3"/>
		<edge from-layer="1249" from-port="0" to-layer="1293" to-port="4"/>
		<edge from-layer="1298" from-port="0" to-layer="1299" to-port="0"/>
		<edge from-layer="1299" from-port="1" to-layer="1301" to-port="0"/>
		<edge from-layer="1300" from-port="0" to-layer="1301" to-port="1"/>
		<edge from-layer="1301" from-port="2" to-layer="1303" to-port="0"/>
		<edge from-layer="1302" from-port="0" to-layer="1303" to-port="1"/>
		<edge from-layer="1144" from-port="1" to-layer="1304" to-port="0"/>
		<edge from-layer="1303" from-port="2" to-layer="1304" to-port="1"/>
		<edge from-layer="1305" from-port="0" to-layer="1306" to-port="0"/>
		<edge from-layer="1304" from-port="2" to-layer="1307" to-port="0"/>
		<edge from-layer="1306" from-port="1" to-layer="1307" to-port="1"/>
		<edge from-layer="1307" from-port="2" to-layer="1308" to-port="0"/>
		<edge from-layer="1308" from-port="1" to-layer="1309" to-port="0"/>
		<edge from-layer="1294" from-port="0" to-layer="1309" to-port="1"/>
		<edge from-layer="1295" from-port="0" to-layer="1309" to-port="2"/>
		<edge from-layer="1296" from-port="0" to-layer="1309" to-port="3"/>
		<edge from-layer="1297" from-port="0" to-layer="1309" to-port="4"/>
		<edge from-layer="1213" from-port="5" to-layer="1310" to-port="0"/>
		<edge from-layer="1245" from-port="5" to-layer="1310" to-port="1"/>
		<edge from-layer="1293" from-port="5" to-layer="1310" to-port="2"/>
		<edge from-layer="1309" from-port="5" to-layer="1310" to-port="3"/>
		<edge from-layer="1311" from-port="0" to-layer="1312" to-port="0"/>
		<edge from-layer="1312" from-port="1" to-layer="1314" to-port="0"/>
		<edge from-layer="1313" from-port="0" to-layer="1314" to-port="1"/>
		<edge from-layer="1314" from-port="2" to-layer="1316" to-port="0"/>
		<edge from-layer="1315" from-port="0" to-layer="1316" to-port="1"/>
		<edge from-layer="1310" from-port="4" to-layer="1317" to-port="0"/>
		<edge from-layer="1316" from-port="2" to-layer="1317" to-port="1"/>
		<edge from-layer="1318" from-port="0" to-layer="1319" to-port="0"/>
		<edge from-layer="1317" from-port="2" to-layer="1320" to-port="0"/>
		<edge from-layer="1319" from-port="1" to-layer="1320" to-port="1"/>
		<edge from-layer="1320" from-port="2" to-layer="1321" to-port="0"/>
		<edge from-layer="1194" from-port="0" to-layer="1321" to-port="1"/>
		<edge from-layer="1195" from-port="0" to-layer="1321" to-port="2"/>
		<edge from-layer="1196" from-port="0" to-layer="1321" to-port="3"/>
		<edge from-layer="1197" from-port="0" to-layer="1321" to-port="4"/>
		<edge from-layer="1326" from-port="0" to-layer="1327" to-port="0"/>
		<edge from-layer="1327" from-port="1" to-layer="1329" to-port="0"/>
		<edge from-layer="1328" from-port="0" to-layer="1329" to-port="1"/>
		<edge from-layer="1329" from-port="2" to-layer="1331" to-port="0"/>
		<edge from-layer="1330" from-port="0" to-layer="1331" to-port="1"/>
		<edge from-layer="1143" from-port="5" to-layer="1332" to-port="0"/>
		<edge from-layer="1331" from-port="2" to-layer="1332" to-port="1"/>
		<edge from-layer="1333" from-port="0" to-layer="1334" to-port="0"/>
		<edge from-layer="1332" from-port="2" to-layer="1335" to-port="0"/>
		<edge from-layer="1334" from-port="1" to-layer="1335" to-port="1"/>
		<edge from-layer="1335" from-port="2" to-layer="1336" to-port="0"/>
		<edge from-layer="1322" from-port="0" to-layer="1336" to-port="1"/>
		<edge from-layer="1323" from-port="0" to-layer="1336" to-port="2"/>
		<edge from-layer="1324" from-port="0" to-layer="1336" to-port="3"/>
		<edge from-layer="1325" from-port="0" to-layer="1336" to-port="4"/>
		<edge from-layer="1321" from-port="5" to-layer="1337" to-port="0"/>
		<edge from-layer="1336" from-port="5" to-layer="1337" to-port="1"/>
		<edge from-layer="1337" from-port="2" to-layer="1338" to-port="0"/>
		<edge from-layer="1190" from-port="0" to-layer="1338" to-port="1"/>
		<edge from-layer="1191" from-port="0" to-layer="1338" to-port="2"/>
		<edge from-layer="1192" from-port="0" to-layer="1338" to-port="3"/>
		<edge from-layer="1193" from-port="0" to-layer="1338" to-port="4"/>
		<edge from-layer="1339" from-port="0" to-layer="1340" to-port="0"/>
		<edge from-layer="1340" from-port="1" to-layer="1342" to-port="0"/>
		<edge from-layer="1341" from-port="0" to-layer="1342" to-port="1"/>
		<edge from-layer="1342" from-port="2" to-layer="1344" to-port="0"/>
		<edge from-layer="1343" from-port="0" to-layer="1344" to-port="1"/>
		<edge from-layer="1338" from-port="5" to-layer="1345" to-port="0"/>
		<edge from-layer="1344" from-port="2" to-layer="1345" to-port="1"/>
		<edge from-layer="1346" from-port="0" to-layer="1347" to-port="0"/>
		<edge from-layer="1345" from-port="2" to-layer="1348" to-port="0"/>
		<edge from-layer="1347" from-port="1" to-layer="1348" to-port="1"/>
		<edge from-layer="1348" from-port="2" to-layer="1349" to-port="0"/>
		<edge from-layer="1349" from-port="1" to-layer="1350" to-port="0"/>
		<edge from-layer="1186" from-port="0" to-layer="1350" to-port="1"/>
		<edge from-layer="1187" from-port="0" to-layer="1350" to-port="2"/>
		<edge from-layer="1188" from-port="0" to-layer="1350" to-port="3"/>
		<edge from-layer="1189" from-port="0" to-layer="1350" to-port="4"/>
		<edge from-layer="1359" from-port="0" to-layer="1360" to-port="0"/>
		<edge from-layer="1360" from-port="1" to-layer="1362" to-port="0"/>
		<edge from-layer="1361" from-port="0" to-layer="1362" to-port="1"/>
		<edge from-layer="1362" from-port="2" to-layer="1364" to-port="0"/>
		<edge from-layer="1363" from-port="0" to-layer="1364" to-port="1"/>
		<edge from-layer="1338" from-port="5" to-layer="1365" to-port="0"/>
		<edge from-layer="1364" from-port="2" to-layer="1365" to-port="1"/>
		<edge from-layer="1366" from-port="0" to-layer="1367" to-port="0"/>
		<edge from-layer="1365" from-port="2" to-layer="1368" to-port="0"/>
		<edge from-layer="1367" from-port="1" to-layer="1368" to-port="1"/>
		<edge from-layer="1368" from-port="2" to-layer="1369" to-port="0"/>
		<edge from-layer="1369" from-port="1" to-layer="1370" to-port="0"/>
		<edge from-layer="1355" from-port="0" to-layer="1370" to-port="1"/>
		<edge from-layer="1356" from-port="0" to-layer="1370" to-port="2"/>
		<edge from-layer="1357" from-port="0" to-layer="1370" to-port="3"/>
		<edge from-layer="1358" from-port="0" to-layer="1370" to-port="4"/>
		<edge from-layer="1371" from-port="0" to-layer="1372" to-port="0"/>
		<edge from-layer="1372" from-port="1" to-layer="1374" to-port="0"/>
		<edge from-layer="1373" from-port="0" to-layer="1374" to-port="1"/>
		<edge from-layer="1374" from-port="2" to-layer="1376" to-port="0"/>
		<edge from-layer="1375" from-port="0" to-layer="1376" to-port="1"/>
		<edge from-layer="1370" from-port="5" to-layer="1377" to-port="0"/>
		<edge from-layer="1376" from-port="2" to-layer="1377" to-port="1"/>
		<edge from-layer="1378" from-port="0" to-layer="1379" to-port="0"/>
		<edge from-layer="1377" from-port="2" to-layer="1380" to-port="0"/>
		<edge from-layer="1379" from-port="1" to-layer="1380" to-port="1"/>
		<edge from-layer="1380" from-port="2" to-layer="1381" to-port="0"/>
		<edge from-layer="1381" from-port="1" to-layer="1382" to-port="0"/>
		<edge from-layer="1351" from-port="0" to-layer="1382" to-port="1"/>
		<edge from-layer="1352" from-port="0" to-layer="1382" to-port="2"/>
		<edge from-layer="1353" from-port="0" to-layer="1382" to-port="3"/>
		<edge from-layer="1354" from-port="0" to-layer="1382" to-port="4"/>
		<edge from-layer="1395" from-port="0" to-layer="1396" to-port="0"/>
		<edge from-layer="1396" from-port="1" to-layer="1398" to-port="0"/>
		<edge from-layer="1397" from-port="0" to-layer="1398" to-port="1"/>
		<edge from-layer="1398" from-port="2" to-layer="1400" to-port="0"/>
		<edge from-layer="1399" from-port="0" to-layer="1400" to-port="1"/>
		<edge from-layer="1338" from-port="5" to-layer="1401" to-port="0"/>
		<edge from-layer="1400" from-port="2" to-layer="1401" to-port="1"/>
		<edge from-layer="1402" from-port="0" to-layer="1403" to-port="0"/>
		<edge from-layer="1401" from-port="2" to-layer="1404" to-port="0"/>
		<edge from-layer="1403" from-port="1" to-layer="1404" to-port="1"/>
		<edge from-layer="1404" from-port="2" to-layer="1405" to-port="0"/>
		<edge from-layer="1405" from-port="1" to-layer="1406" to-port="0"/>
		<edge from-layer="1391" from-port="0" to-layer="1406" to-port="1"/>
		<edge from-layer="1392" from-port="0" to-layer="1406" to-port="2"/>
		<edge from-layer="1393" from-port="0" to-layer="1406" to-port="3"/>
		<edge from-layer="1394" from-port="0" to-layer="1406" to-port="4"/>
		<edge from-layer="1407" from-port="0" to-layer="1408" to-port="0"/>
		<edge from-layer="1408" from-port="1" to-layer="1410" to-port="0"/>
		<edge from-layer="1409" from-port="0" to-layer="1410" to-port="1"/>
		<edge from-layer="1410" from-port="2" to-layer="1412" to-port="0"/>
		<edge from-layer="1411" from-port="0" to-layer="1412" to-port="1"/>
		<edge from-layer="1406" from-port="5" to-layer="1413" to-port="0"/>
		<edge from-layer="1412" from-port="2" to-layer="1413" to-port="1"/>
		<edge from-layer="1414" from-port="0" to-layer="1415" to-port="0"/>
		<edge from-layer="1413" from-port="2" to-layer="1416" to-port="0"/>
		<edge from-layer="1415" from-port="1" to-layer="1416" to-port="1"/>
		<edge from-layer="1416" from-port="2" to-layer="1417" to-port="0"/>
		<edge from-layer="1417" from-port="1" to-layer="1418" to-port="0"/>
		<edge from-layer="1387" from-port="0" to-layer="1418" to-port="1"/>
		<edge from-layer="1388" from-port="0" to-layer="1418" to-port="2"/>
		<edge from-layer="1389" from-port="0" to-layer="1418" to-port="3"/>
		<edge from-layer="1390" from-port="0" to-layer="1418" to-port="4"/>
		<edge from-layer="1419" from-port="0" to-layer="1420" to-port="0"/>
		<edge from-layer="1420" from-port="1" to-layer="1422" to-port="0"/>
		<edge from-layer="1421" from-port="0" to-layer="1422" to-port="1"/>
		<edge from-layer="1422" from-port="2" to-layer="1424" to-port="0"/>
		<edge from-layer="1423" from-port="0" to-layer="1424" to-port="1"/>
		<edge from-layer="1418" from-port="5" to-layer="1425" to-port="0"/>
		<edge from-layer="1424" from-port="2" to-layer="1425" to-port="1"/>
		<edge from-layer="1426" from-port="0" to-layer="1427" to-port="0"/>
		<edge from-layer="1425" from-port="2" to-layer="1428" to-port="0"/>
		<edge from-layer="1427" from-port="1" to-layer="1428" to-port="1"/>
		<edge from-layer="1428" from-port="2" to-layer="1429" to-port="0"/>
		<edge from-layer="1429" from-port="1" to-layer="1430" to-port="0"/>
		<edge from-layer="1383" from-port="0" to-layer="1430" to-port="1"/>
		<edge from-layer="1384" from-port="0" to-layer="1430" to-port="2"/>
		<edge from-layer="1385" from-port="0" to-layer="1430" to-port="3"/>
		<edge from-layer="1386" from-port="0" to-layer="1430" to-port="4"/>
		<edge from-layer="1350" from-port="5" to-layer="1431" to-port="0"/>
		<edge from-layer="1382" from-port="5" to-layer="1431" to-port="1"/>
		<edge from-layer="1430" from-port="5" to-layer="1431" to-port="2"/>
		<edge from-layer="1432" from-port="0" to-layer="1433" to-port="0"/>
		<edge from-layer="1433" from-port="1" to-layer="1435" to-port="0"/>
		<edge from-layer="1434" from-port="0" to-layer="1435" to-port="1"/>
		<edge from-layer="1435" from-port="2" to-layer="1437" to-port="0"/>
		<edge from-layer="1436" from-port="0" to-layer="1437" to-port="1"/>
		<edge from-layer="1431" from-port="3" to-layer="1438" to-port="0"/>
		<edge from-layer="1437" from-port="2" to-layer="1438" to-port="1"/>
		<edge from-layer="1439" from-port="0" to-layer="1440" to-port="0"/>
		<edge from-layer="1438" from-port="2" to-layer="1441" to-port="0"/>
		<edge from-layer="1440" from-port="1" to-layer="1441" to-port="1"/>
		<edge from-layer="1441" from-port="2" to-layer="1442" to-port="0"/>
		<edge from-layer="1182" from-port="0" to-layer="1442" to-port="1"/>
		<edge from-layer="1183" from-port="0" to-layer="1442" to-port="2"/>
		<edge from-layer="1184" from-port="0" to-layer="1442" to-port="3"/>
		<edge from-layer="1185" from-port="0" to-layer="1442" to-port="4"/>
		<edge from-layer="1442" from-port="5" to-layer="1443" to-port="0"/>
		<edge from-layer="1338" from-port="5" to-layer="1443" to-port="1"/>
		<edge from-layer="1443" from-port="2" to-layer="1444" to-port="0"/>
		<edge from-layer="1178" from-port="0" to-layer="1444" to-port="1"/>
		<edge from-layer="1179" from-port="0" to-layer="1444" to-port="2"/>
		<edge from-layer="1180" from-port="0" to-layer="1444" to-port="3"/>
		<edge from-layer="1181" from-port="0" to-layer="1444" to-port="4"/>
		<edge from-layer="1445" from-port="0" to-layer="1446" to-port="0"/>
		<edge from-layer="1446" from-port="1" to-layer="1448" to-port="0"/>
		<edge from-layer="1447" from-port="0" to-layer="1448" to-port="1"/>
		<edge from-layer="1448" from-port="2" to-layer="1450" to-port="0"/>
		<edge from-layer="1449" from-port="0" to-layer="1450" to-port="1"/>
		<edge from-layer="1444" from-port="5" to-layer="1451" to-port="0"/>
		<edge from-layer="1450" from-port="2" to-layer="1451" to-port="1"/>
		<edge from-layer="1452" from-port="0" to-layer="1453" to-port="0"/>
		<edge from-layer="1451" from-port="2" to-layer="1454" to-port="0"/>
		<edge from-layer="1453" from-port="1" to-layer="1454" to-port="1"/>
		<edge from-layer="1454" from-port="2" to-layer="1455" to-port="0"/>
		<edge from-layer="1455" from-port="1" to-layer="1456" to-port="0"/>
		<edge from-layer="1174" from-port="0" to-layer="1456" to-port="1"/>
		<edge from-layer="1175" from-port="0" to-layer="1456" to-port="2"/>
		<edge from-layer="1176" from-port="0" to-layer="1456" to-port="3"/>
		<edge from-layer="1177" from-port="0" to-layer="1456" to-port="4"/>
		<edge from-layer="1465" from-port="0" to-layer="1466" to-port="0"/>
		<edge from-layer="1466" from-port="1" to-layer="1468" to-port="0"/>
		<edge from-layer="1467" from-port="0" to-layer="1468" to-port="1"/>
		<edge from-layer="1468" from-port="2" to-layer="1470" to-port="0"/>
		<edge from-layer="1469" from-port="0" to-layer="1470" to-port="1"/>
		<edge from-layer="1444" from-port="5" to-layer="1471" to-port="0"/>
		<edge from-layer="1470" from-port="2" to-layer="1471" to-port="1"/>
		<edge from-layer="1472" from-port="0" to-layer="1473" to-port="0"/>
		<edge from-layer="1471" from-port="2" to-layer="1474" to-port="0"/>
		<edge from-layer="1473" from-port="1" to-layer="1474" to-port="1"/>
		<edge from-layer="1474" from-port="2" to-layer="1475" to-port="0"/>
		<edge from-layer="1475" from-port="1" to-layer="1476" to-port="0"/>
		<edge from-layer="1461" from-port="0" to-layer="1476" to-port="1"/>
		<edge from-layer="1462" from-port="0" to-layer="1476" to-port="2"/>
		<edge from-layer="1463" from-port="0" to-layer="1476" to-port="3"/>
		<edge from-layer="1464" from-port="0" to-layer="1476" to-port="4"/>
		<edge from-layer="1477" from-port="0" to-layer="1478" to-port="0"/>
		<edge from-layer="1478" from-port="1" to-layer="1480" to-port="0"/>
		<edge from-layer="1479" from-port="0" to-layer="1480" to-port="1"/>
		<edge from-layer="1480" from-port="2" to-layer="1482" to-port="0"/>
		<edge from-layer="1481" from-port="0" to-layer="1482" to-port="1"/>
		<edge from-layer="1476" from-port="5" to-layer="1483" to-port="0"/>
		<edge from-layer="1482" from-port="2" to-layer="1483" to-port="1"/>
		<edge from-layer="1484" from-port="0" to-layer="1485" to-port="0"/>
		<edge from-layer="1483" from-port="2" to-layer="1486" to-port="0"/>
		<edge from-layer="1485" from-port="1" to-layer="1486" to-port="1"/>
		<edge from-layer="1486" from-port="2" to-layer="1487" to-port="0"/>
		<edge from-layer="1487" from-port="1" to-layer="1488" to-port="0"/>
		<edge from-layer="1457" from-port="0" to-layer="1488" to-port="1"/>
		<edge from-layer="1458" from-port="0" to-layer="1488" to-port="2"/>
		<edge from-layer="1459" from-port="0" to-layer="1488" to-port="3"/>
		<edge from-layer="1460" from-port="0" to-layer="1488" to-port="4"/>
		<edge from-layer="1501" from-port="0" to-layer="1502" to-port="0"/>
		<edge from-layer="1502" from-port="1" to-layer="1504" to-port="0"/>
		<edge from-layer="1503" from-port="0" to-layer="1504" to-port="1"/>
		<edge from-layer="1504" from-port="2" to-layer="1506" to-port="0"/>
		<edge from-layer="1505" from-port="0" to-layer="1506" to-port="1"/>
		<edge from-layer="1444" from-port="5" to-layer="1507" to-port="0"/>
		<edge from-layer="1506" from-port="2" to-layer="1507" to-port="1"/>
		<edge from-layer="1508" from-port="0" to-layer="1509" to-port="0"/>
		<edge from-layer="1507" from-port="2" to-layer="1510" to-port="0"/>
		<edge from-layer="1509" from-port="1" to-layer="1510" to-port="1"/>
		<edge from-layer="1510" from-port="2" to-layer="1511" to-port="0"/>
		<edge from-layer="1511" from-port="1" to-layer="1512" to-port="0"/>
		<edge from-layer="1497" from-port="0" to-layer="1512" to-port="1"/>
		<edge from-layer="1498" from-port="0" to-layer="1512" to-port="2"/>
		<edge from-layer="1499" from-port="0" to-layer="1512" to-port="3"/>
		<edge from-layer="1500" from-port="0" to-layer="1512" to-port="4"/>
		<edge from-layer="1513" from-port="0" to-layer="1514" to-port="0"/>
		<edge from-layer="1514" from-port="1" to-layer="1516" to-port="0"/>
		<edge from-layer="1515" from-port="0" to-layer="1516" to-port="1"/>
		<edge from-layer="1516" from-port="2" to-layer="1518" to-port="0"/>
		<edge from-layer="1517" from-port="0" to-layer="1518" to-port="1"/>
		<edge from-layer="1512" from-port="5" to-layer="1519" to-port="0"/>
		<edge from-layer="1518" from-port="2" to-layer="1519" to-port="1"/>
		<edge from-layer="1520" from-port="0" to-layer="1521" to-port="0"/>
		<edge from-layer="1519" from-port="2" to-layer="1522" to-port="0"/>
		<edge from-layer="1521" from-port="1" to-layer="1522" to-port="1"/>
		<edge from-layer="1522" from-port="2" to-layer="1523" to-port="0"/>
		<edge from-layer="1523" from-port="1" to-layer="1524" to-port="0"/>
		<edge from-layer="1493" from-port="0" to-layer="1524" to-port="1"/>
		<edge from-layer="1494" from-port="0" to-layer="1524" to-port="2"/>
		<edge from-layer="1495" from-port="0" to-layer="1524" to-port="3"/>
		<edge from-layer="1496" from-port="0" to-layer="1524" to-port="4"/>
		<edge from-layer="1525" from-port="0" to-layer="1526" to-port="0"/>
		<edge from-layer="1526" from-port="1" to-layer="1528" to-port="0"/>
		<edge from-layer="1527" from-port="0" to-layer="1528" to-port="1"/>
		<edge from-layer="1528" from-port="2" to-layer="1530" to-port="0"/>
		<edge from-layer="1529" from-port="0" to-layer="1530" to-port="1"/>
		<edge from-layer="1524" from-port="5" to-layer="1531" to-port="0"/>
		<edge from-layer="1530" from-port="2" to-layer="1531" to-port="1"/>
		<edge from-layer="1532" from-port="0" to-layer="1533" to-port="0"/>
		<edge from-layer="1531" from-port="2" to-layer="1534" to-port="0"/>
		<edge from-layer="1533" from-port="1" to-layer="1534" to-port="1"/>
		<edge from-layer="1534" from-port="2" to-layer="1535" to-port="0"/>
		<edge from-layer="1535" from-port="1" to-layer="1536" to-port="0"/>
		<edge from-layer="1489" from-port="0" to-layer="1536" to-port="1"/>
		<edge from-layer="1490" from-port="0" to-layer="1536" to-port="2"/>
		<edge from-layer="1491" from-port="0" to-layer="1536" to-port="3"/>
		<edge from-layer="1492" from-port="0" to-layer="1536" to-port="4"/>
		<edge from-layer="1456" from-port="5" to-layer="1537" to-port="0"/>
		<edge from-layer="1488" from-port="5" to-layer="1537" to-port="1"/>
		<edge from-layer="1536" from-port="5" to-layer="1537" to-port="2"/>
		<edge from-layer="1538" from-port="0" to-layer="1539" to-port="0"/>
		<edge from-layer="1539" from-port="1" to-layer="1541" to-port="0"/>
		<edge from-layer="1540" from-port="0" to-layer="1541" to-port="1"/>
		<edge from-layer="1541" from-port="2" to-layer="1543" to-port="0"/>
		<edge from-layer="1542" from-port="0" to-layer="1543" to-port="1"/>
		<edge from-layer="1537" from-port="3" to-layer="1544" to-port="0"/>
		<edge from-layer="1543" from-port="2" to-layer="1544" to-port="1"/>
		<edge from-layer="1545" from-port="0" to-layer="1546" to-port="0"/>
		<edge from-layer="1544" from-port="2" to-layer="1547" to-port="0"/>
		<edge from-layer="1546" from-port="1" to-layer="1547" to-port="1"/>
		<edge from-layer="1547" from-port="2" to-layer="1548" to-port="0"/>
		<edge from-layer="1170" from-port="0" to-layer="1548" to-port="1"/>
		<edge from-layer="1171" from-port="0" to-layer="1548" to-port="2"/>
		<edge from-layer="1172" from-port="0" to-layer="1548" to-port="3"/>
		<edge from-layer="1173" from-port="0" to-layer="1548" to-port="4"/>
		<edge from-layer="1548" from-port="5" to-layer="1549" to-port="0"/>
		<edge from-layer="1444" from-port="5" to-layer="1549" to-port="1"/>
		<edge from-layer="1549" from-port="2" to-layer="1550" to-port="0"/>
		<edge from-layer="1166" from-port="0" to-layer="1550" to-port="1"/>
		<edge from-layer="1167" from-port="0" to-layer="1550" to-port="2"/>
		<edge from-layer="1168" from-port="0" to-layer="1550" to-port="3"/>
		<edge from-layer="1169" from-port="0" to-layer="1550" to-port="4"/>
		<edge from-layer="1551" from-port="0" to-layer="1552" to-port="0"/>
		<edge from-layer="1552" from-port="1" to-layer="1554" to-port="0"/>
		<edge from-layer="1553" from-port="0" to-layer="1554" to-port="1"/>
		<edge from-layer="1554" from-port="2" to-layer="1556" to-port="0"/>
		<edge from-layer="1555" from-port="0" to-layer="1556" to-port="1"/>
		<edge from-layer="1550" from-port="5" to-layer="1557" to-port="0"/>
		<edge from-layer="1556" from-port="2" to-layer="1557" to-port="1"/>
		<edge from-layer="1558" from-port="0" to-layer="1559" to-port="0"/>
		<edge from-layer="1557" from-port="2" to-layer="1560" to-port="0"/>
		<edge from-layer="1559" from-port="1" to-layer="1560" to-port="1"/>
		<edge from-layer="1560" from-port="2" to-layer="1561" to-port="0"/>
		<edge from-layer="1561" from-port="1" to-layer="1562" to-port="0"/>
		<edge from-layer="1162" from-port="0" to-layer="1562" to-port="1"/>
		<edge from-layer="1163" from-port="0" to-layer="1562" to-port="2"/>
		<edge from-layer="1164" from-port="0" to-layer="1562" to-port="3"/>
		<edge from-layer="1165" from-port="0" to-layer="1562" to-port="4"/>
		<edge from-layer="1571" from-port="0" to-layer="1572" to-port="0"/>
		<edge from-layer="1572" from-port="1" to-layer="1574" to-port="0"/>
		<edge from-layer="1573" from-port="0" to-layer="1574" to-port="1"/>
		<edge from-layer="1574" from-port="2" to-layer="1576" to-port="0"/>
		<edge from-layer="1575" from-port="0" to-layer="1576" to-port="1"/>
		<edge from-layer="1550" from-port="5" to-layer="1577" to-port="0"/>
		<edge from-layer="1576" from-port="2" to-layer="1577" to-port="1"/>
		<edge from-layer="1578" from-port="0" to-layer="1579" to-port="0"/>
		<edge from-layer="1577" from-port="2" to-layer="1580" to-port="0"/>
		<edge from-layer="1579" from-port="1" to-layer="1580" to-port="1"/>
		<edge from-layer="1580" from-port="2" to-layer="1581" to-port="0"/>
		<edge from-layer="1581" from-port="1" to-layer="1582" to-port="0"/>
		<edge from-layer="1567" from-port="0" to-layer="1582" to-port="1"/>
		<edge from-layer="1568" from-port="0" to-layer="1582" to-port="2"/>
		<edge from-layer="1569" from-port="0" to-layer="1582" to-port="3"/>
		<edge from-layer="1570" from-port="0" to-layer="1582" to-port="4"/>
		<edge from-layer="1583" from-port="0" to-layer="1584" to-port="0"/>
		<edge from-layer="1584" from-port="1" to-layer="1586" to-port="0"/>
		<edge from-layer="1585" from-port="0" to-layer="1586" to-port="1"/>
		<edge from-layer="1586" from-port="2" to-layer="1588" to-port="0"/>
		<edge from-layer="1587" from-port="0" to-layer="1588" to-port="1"/>
		<edge from-layer="1582" from-port="5" to-layer="1589" to-port="0"/>
		<edge from-layer="1588" from-port="2" to-layer="1589" to-port="1"/>
		<edge from-layer="1590" from-port="0" to-layer="1591" to-port="0"/>
		<edge from-layer="1589" from-port="2" to-layer="1592" to-port="0"/>
		<edge from-layer="1591" from-port="1" to-layer="1592" to-port="1"/>
		<edge from-layer="1592" from-port="2" to-layer="1593" to-port="0"/>
		<edge from-layer="1593" from-port="1" to-layer="1594" to-port="0"/>
		<edge from-layer="1563" from-port="0" to-layer="1594" to-port="1"/>
		<edge from-layer="1564" from-port="0" to-layer="1594" to-port="2"/>
		<edge from-layer="1565" from-port="0" to-layer="1594" to-port="3"/>
		<edge from-layer="1566" from-port="0" to-layer="1594" to-port="4"/>
		<edge from-layer="1607" from-port="0" to-layer="1608" to-port="0"/>
		<edge from-layer="1608" from-port="1" to-layer="1610" to-port="0"/>
		<edge from-layer="1609" from-port="0" to-layer="1610" to-port="1"/>
		<edge from-layer="1610" from-port="2" to-layer="1612" to-port="0"/>
		<edge from-layer="1611" from-port="0" to-layer="1612" to-port="1"/>
		<edge from-layer="1550" from-port="5" to-layer="1613" to-port="0"/>
		<edge from-layer="1612" from-port="2" to-layer="1613" to-port="1"/>
		<edge from-layer="1614" from-port="0" to-layer="1615" to-port="0"/>
		<edge from-layer="1613" from-port="2" to-layer="1616" to-port="0"/>
		<edge from-layer="1615" from-port="1" to-layer="1616" to-port="1"/>
		<edge from-layer="1616" from-port="2" to-layer="1617" to-port="0"/>
		<edge from-layer="1617" from-port="1" to-layer="1618" to-port="0"/>
		<edge from-layer="1603" from-port="0" to-layer="1618" to-port="1"/>
		<edge from-layer="1604" from-port="0" to-layer="1618" to-port="2"/>
		<edge from-layer="1605" from-port="0" to-layer="1618" to-port="3"/>
		<edge from-layer="1606" from-port="0" to-layer="1618" to-port="4"/>
		<edge from-layer="1619" from-port="0" to-layer="1620" to-port="0"/>
		<edge from-layer="1620" from-port="1" to-layer="1622" to-port="0"/>
		<edge from-layer="1621" from-port="0" to-layer="1622" to-port="1"/>
		<edge from-layer="1622" from-port="2" to-layer="1624" to-port="0"/>
		<edge from-layer="1623" from-port="0" to-layer="1624" to-port="1"/>
		<edge from-layer="1618" from-port="5" to-layer="1625" to-port="0"/>
		<edge from-layer="1624" from-port="2" to-layer="1625" to-port="1"/>
		<edge from-layer="1626" from-port="0" to-layer="1627" to-port="0"/>
		<edge from-layer="1625" from-port="2" to-layer="1628" to-port="0"/>
		<edge from-layer="1627" from-port="1" to-layer="1628" to-port="1"/>
		<edge from-layer="1628" from-port="2" to-layer="1629" to-port="0"/>
		<edge from-layer="1629" from-port="1" to-layer="1630" to-port="0"/>
		<edge from-layer="1599" from-port="0" to-layer="1630" to-port="1"/>
		<edge from-layer="1600" from-port="0" to-layer="1630" to-port="2"/>
		<edge from-layer="1601" from-port="0" to-layer="1630" to-port="3"/>
		<edge from-layer="1602" from-port="0" to-layer="1630" to-port="4"/>
		<edge from-layer="1631" from-port="0" to-layer="1632" to-port="0"/>
		<edge from-layer="1632" from-port="1" to-layer="1634" to-port="0"/>
		<edge from-layer="1633" from-port="0" to-layer="1634" to-port="1"/>
		<edge from-layer="1634" from-port="2" to-layer="1636" to-port="0"/>
		<edge from-layer="1635" from-port="0" to-layer="1636" to-port="1"/>
		<edge from-layer="1630" from-port="5" to-layer="1637" to-port="0"/>
		<edge from-layer="1636" from-port="2" to-layer="1637" to-port="1"/>
		<edge from-layer="1638" from-port="0" to-layer="1639" to-port="0"/>
		<edge from-layer="1637" from-port="2" to-layer="1640" to-port="0"/>
		<edge from-layer="1639" from-port="1" to-layer="1640" to-port="1"/>
		<edge from-layer="1640" from-port="2" to-layer="1641" to-port="0"/>
		<edge from-layer="1641" from-port="1" to-layer="1642" to-port="0"/>
		<edge from-layer="1595" from-port="0" to-layer="1642" to-port="1"/>
		<edge from-layer="1596" from-port="0" to-layer="1642" to-port="2"/>
		<edge from-layer="1597" from-port="0" to-layer="1642" to-port="3"/>
		<edge from-layer="1598" from-port="0" to-layer="1642" to-port="4"/>
		<edge from-layer="1562" from-port="5" to-layer="1643" to-port="0"/>
		<edge from-layer="1594" from-port="5" to-layer="1643" to-port="1"/>
		<edge from-layer="1642" from-port="5" to-layer="1643" to-port="2"/>
		<edge from-layer="1644" from-port="0" to-layer="1645" to-port="0"/>
		<edge from-layer="1645" from-port="1" to-layer="1647" to-port="0"/>
		<edge from-layer="1646" from-port="0" to-layer="1647" to-port="1"/>
		<edge from-layer="1647" from-port="2" to-layer="1649" to-port="0"/>
		<edge from-layer="1648" from-port="0" to-layer="1649" to-port="1"/>
		<edge from-layer="1643" from-port="3" to-layer="1650" to-port="0"/>
		<edge from-layer="1649" from-port="2" to-layer="1650" to-port="1"/>
		<edge from-layer="1651" from-port="0" to-layer="1652" to-port="0"/>
		<edge from-layer="1650" from-port="2" to-layer="1653" to-port="0"/>
		<edge from-layer="1652" from-port="1" to-layer="1653" to-port="1"/>
		<edge from-layer="1653" from-port="2" to-layer="1654" to-port="0"/>
		<edge from-layer="1158" from-port="0" to-layer="1654" to-port="1"/>
		<edge from-layer="1159" from-port="0" to-layer="1654" to-port="2"/>
		<edge from-layer="1160" from-port="0" to-layer="1654" to-port="3"/>
		<edge from-layer="1161" from-port="0" to-layer="1654" to-port="4"/>
		<edge from-layer="1654" from-port="5" to-layer="1655" to-port="0"/>
		<edge from-layer="1550" from-port="5" to-layer="1655" to-port="1"/>
		<edge from-layer="1656" from-port="0" to-layer="1657" to-port="0"/>
		<edge from-layer="1655" from-port="2" to-layer="1658" to-port="0"/>
		<edge from-layer="1657" from-port="1" to-layer="1658" to-port="1"/>
		<edge from-layer="1658" from-port="2" to-layer="1659" to-port="0"/>
		<edge from-layer="1154" from-port="0" to-layer="1659" to-port="1"/>
		<edge from-layer="1155" from-port="0" to-layer="1659" to-port="2"/>
		<edge from-layer="1156" from-port="0" to-layer="1659" to-port="3"/>
		<edge from-layer="1157" from-port="0" to-layer="1659" to-port="4"/>
		<edge from-layer="637" from-port="1" to-layer="1660" to-port="0"/>
		<edge from-layer="1143" from-port="5" to-layer="1660" to-port="1"/>
		<edge from-layer="1659" from-port="5" to-layer="1660" to-port="2"/>
		<edge from-layer="1661" from-port="0" to-layer="1662" to-port="0"/>
		<edge from-layer="1662" from-port="1" to-layer="1664" to-port="0"/>
		<edge from-layer="1663" from-port="0" to-layer="1664" to-port="1"/>
		<edge from-layer="1664" from-port="2" to-layer="1666" to-port="0"/>
		<edge from-layer="1665" from-port="0" to-layer="1666" to-port="1"/>
		<edge from-layer="1660" from-port="3" to-layer="1667" to-port="0"/>
		<edge from-layer="1666" from-port="2" to-layer="1667" to-port="1"/>
		<edge from-layer="1668" from-port="0" to-layer="1669" to-port="0"/>
		<edge from-layer="1667" from-port="2" to-layer="1670" to-port="0"/>
		<edge from-layer="1669" from-port="1" to-layer="1670" to-port="1"/>
		<edge from-layer="1670" from-port="2" to-layer="1671" to-port="0"/>
		<edge from-layer="1671" from-port="1" to-layer="1672" to-port="0"/>
		<edge from-layer="1150" from-port="0" to-layer="1672" to-port="1"/>
		<edge from-layer="1151" from-port="0" to-layer="1672" to-port="2"/>
		<edge from-layer="1152" from-port="0" to-layer="1672" to-port="3"/>
		<edge from-layer="1153" from-port="0" to-layer="1672" to-port="4"/>
		<edge from-layer="1677" from-port="0" to-layer="1678" to-port="0"/>
		<edge from-layer="1678" from-port="1" to-layer="1680" to-port="0"/>
		<edge from-layer="1679" from-port="0" to-layer="1680" to-port="1"/>
		<edge from-layer="1680" from-port="2" to-layer="1682" to-port="0"/>
		<edge from-layer="1681" from-port="0" to-layer="1682" to-port="1"/>
		<edge from-layer="1660" from-port="3" to-layer="1683" to-port="0"/>
		<edge from-layer="1682" from-port="2" to-layer="1683" to-port="1"/>
		<edge from-layer="1684" from-port="0" to-layer="1685" to-port="0"/>
		<edge from-layer="1683" from-port="2" to-layer="1686" to-port="0"/>
		<edge from-layer="1685" from-port="1" to-layer="1686" to-port="1"/>
		<edge from-layer="1686" from-port="2" to-layer="1687" to-port="0"/>
		<edge from-layer="1687" from-port="1" to-layer="1688" to-port="0"/>
		<edge from-layer="1673" from-port="0" to-layer="1688" to-port="1"/>
		<edge from-layer="1674" from-port="0" to-layer="1688" to-port="2"/>
		<edge from-layer="1675" from-port="0" to-layer="1688" to-port="3"/>
		<edge from-layer="1676" from-port="0" to-layer="1688" to-port="4"/>
		<edge from-layer="1688" from-port="5" to-layer="1689" to-port="0"/>
		<edge from-layer="1672" from-port="5" to-layer="1689" to-port="1"/>
		<edge from-layer="1690" from-port="0" to-layer="1691" to-port="0"/>
		<edge from-layer="1691" from-port="1" to-layer="1693" to-port="0"/>
		<edge from-layer="1692" from-port="0" to-layer="1693" to-port="1"/>
		<edge from-layer="1693" from-port="2" to-layer="1695" to-port="0"/>
		<edge from-layer="1694" from-port="0" to-layer="1695" to-port="1"/>
		<edge from-layer="1689" from-port="2" to-layer="1696" to-port="0"/>
		<edge from-layer="1695" from-port="2" to-layer="1696" to-port="1"/>
		<edge from-layer="1697" from-port="0" to-layer="1698" to-port="0"/>
		<edge from-layer="1696" from-port="2" to-layer="1699" to-port="0"/>
		<edge from-layer="1698" from-port="1" to-layer="1699" to-port="1"/>
		<edge from-layer="1704" from-port="0" to-layer="1705" to-port="0"/>
		<edge from-layer="1705" from-port="1" to-layer="1707" to-port="0"/>
		<edge from-layer="1706" from-port="0" to-layer="1707" to-port="1"/>
		<edge from-layer="1707" from-port="2" to-layer="1709" to-port="0"/>
		<edge from-layer="1708" from-port="0" to-layer="1709" to-port="1"/>
		<edge from-layer="1688" from-port="5" to-layer="1710" to-port="0"/>
		<edge from-layer="1709" from-port="2" to-layer="1710" to-port="1"/>
		<edge from-layer="1711" from-port="0" to-layer="1712" to-port="0"/>
		<edge from-layer="1710" from-port="2" to-layer="1713" to-port="0"/>
		<edge from-layer="1712" from-port="1" to-layer="1713" to-port="1"/>
		<edge from-layer="1713" from-port="2" to-layer="1714" to-port="0"/>
		<edge from-layer="1714" from-port="1" to-layer="1715" to-port="0"/>
		<edge from-layer="1700" from-port="0" to-layer="1715" to-port="1"/>
		<edge from-layer="1701" from-port="0" to-layer="1715" to-port="2"/>
		<edge from-layer="1702" from-port="0" to-layer="1715" to-port="3"/>
		<edge from-layer="1703" from-port="0" to-layer="1715" to-port="4"/>
		<edge from-layer="1716" from-port="0" to-layer="1717" to-port="0"/>
		<edge from-layer="1717" from-port="1" to-layer="1719" to-port="0"/>
		<edge from-layer="1718" from-port="0" to-layer="1719" to-port="1"/>
		<edge from-layer="1719" from-port="2" to-layer="1721" to-port="0"/>
		<edge from-layer="1720" from-port="0" to-layer="1721" to-port="1"/>
		<edge from-layer="1715" from-port="5" to-layer="1722" to-port="0"/>
		<edge from-layer="1721" from-port="2" to-layer="1722" to-port="1"/>
		<edge from-layer="1723" from-port="0" to-layer="1724" to-port="0"/>
		<edge from-layer="1722" from-port="2" to-layer="1725" to-port="0"/>
		<edge from-layer="1724" from-port="1" to-layer="1725" to-port="1"/>
		<edge from-layer="1725" from-port="2" to-layer="1727" to-port="0"/>
		<edge from-layer="1726" from-port="0" to-layer="1727" to-port="1"/>
		<edge from-layer="1727" from-port="2" to-layer="1728" to-port="0"/>
		<edge from-layer="1728" from-port="1" to-layer="1730" to-port="0"/>
		<edge from-layer="1729" from-port="0" to-layer="1730" to-port="1"/>
		<edge from-layer="1731" from-port="0" to-layer="1732" to-port="0"/>
		<edge from-layer="1732" from-port="1" to-layer="1734" to-port="0"/>
		<edge from-layer="1733" from-port="0" to-layer="1734" to-port="1"/>
		<edge from-layer="1734" from-port="2" to-layer="1736" to-port="0"/>
		<edge from-layer="1735" from-port="0" to-layer="1736" to-port="1"/>
		<edge from-layer="1715" from-port="5" to-layer="1737" to-port="0"/>
		<edge from-layer="1736" from-port="2" to-layer="1737" to-port="1"/>
		<edge from-layer="1738" from-port="0" to-layer="1739" to-port="0"/>
		<edge from-layer="1737" from-port="2" to-layer="1740" to-port="0"/>
		<edge from-layer="1739" from-port="1" to-layer="1740" to-port="1"/>
		<edge from-layer="1741" from-port="0" to-layer="1745" to-port="0"/>
		<edge from-layer="1742" from-port="0" to-layer="1745" to-port="1"/>
		<edge from-layer="1743" from-port="0" to-layer="1745" to-port="2"/>
		<edge from-layer="1744" from-port="0" to-layer="1745" to-port="3"/>
		<edge from-layer="1745" from-port="4" to-layer="1747" to-port="0"/>
		<edge from-layer="1746" from-port="0" to-layer="1747" to-port="1"/>
		<edge from-layer="1730" from-port="2" to-layer="1748" to-port="0"/>
		<edge from-layer="1740" from-port="2" to-layer="1748" to-port="1"/>
		<edge from-layer="1747" from-port="2" to-layer="1748" to-port="2"/>
		<edge from-layer="1699" from-port="2" to-layer="1749" to-port="0"/>
		<edge from-layer="1748" from-port="3" to-layer="1749" to-port="1"/>
		<edge from-layer="1749" from-port="2" to-layer="1750" to-port="0"/>
		<edge from-layer="1146" from-port="0" to-layer="1750" to-port="1"/>
		<edge from-layer="1147" from-port="0" to-layer="1750" to-port="2"/>
		<edge from-layer="1148" from-port="0" to-layer="1750" to-port="3"/>
		<edge from-layer="1149" from-port="0" to-layer="1750" to-port="4"/>
		<edge from-layer="1750" from-port="5" to-layer="1751" to-port="0"/>
		<edge from-layer="1751" from-port="1" to-layer="1753" to-port="0"/>
		<edge from-layer="1752" from-port="0" to-layer="1753" to-port="1"/>
		<edge from-layer="1758" from-port="0" to-layer="1759" to-port="0"/>
		<edge from-layer="1759" from-port="1" to-layer="1761" to-port="0"/>
		<edge from-layer="1760" from-port="0" to-layer="1761" to-port="1"/>
		<edge from-layer="1761" from-port="2" to-layer="1763" to-port="0"/>
		<edge from-layer="1762" from-port="0" to-layer="1763" to-port="1"/>
		<edge from-layer="1689" from-port="2" to-layer="1764" to-port="0"/>
		<edge from-layer="1763" from-port="2" to-layer="1764" to-port="1"/>
		<edge from-layer="1765" from-port="0" to-layer="1766" to-port="0"/>
		<edge from-layer="1764" from-port="2" to-layer="1767" to-port="0"/>
		<edge from-layer="1766" from-port="1" to-layer="1767" to-port="1"/>
		<edge from-layer="1767" from-port="2" to-layer="1768" to-port="0"/>
		<edge from-layer="1748" from-port="3" to-layer="1768" to-port="1"/>
		<edge from-layer="1768" from-port="2" to-layer="1769" to-port="0"/>
		<edge from-layer="1754" from-port="0" to-layer="1769" to-port="1"/>
		<edge from-layer="1755" from-port="0" to-layer="1769" to-port="2"/>
		<edge from-layer="1756" from-port="0" to-layer="1769" to-port="3"/>
		<edge from-layer="1757" from-port="0" to-layer="1769" to-port="4"/>
		<edge from-layer="1769" from-port="5" to-layer="1770" to-port="0"/>
		<edge from-layer="1770" from-port="1" to-layer="1771" to-port="0"/>
		<edge from-layer="1771" from-port="1" to-layer="1773" to-port="0"/>
		<edge from-layer="1772" from-port="0" to-layer="1773" to-port="1"/>
		<edge from-layer="1748" from-port="3" to-layer="1775" to-port="0"/>
		<edge from-layer="1774" from-port="0" to-layer="1775" to-port="1"/>
		<edge from-layer="1753" from-port="2" to-layer="1776" to-port="0"/>
		<edge from-layer="1773" from-port="2" to-layer="1776" to-port="1"/>
		<edge from-layer="1775" from-port="2" to-layer="1776" to-port="2"/>
		<edge from-layer="1776" from-port="3" to-layer="1777" to-port="0"/>
	</edges>
	<meta_data>
		<MO_version value="custom_HEAD_73caba0f677dd6dbf9e464753baad9afa26b28dc"/>
		<Runtime_version value="custom_HEAD_73caba0f677dd6dbf9e464753baad9afa26b28dc"/>
		<legacy_path value="True"/>
		<cli_parameters>
			<caffe_parser_path value="DIR"/>
			<compress_fp16 value="True"/>
			<data_type value="FP16"/>
			<disable_nhwc_to_nchw value="False"/>
			<disable_omitting_optional value="False"/>
			<disable_resnet_optimization value="False"/>
			<disable_weights_compression value="False"/>
			<enable_concat_optimization value="False"/>
			<enable_flattening_nested_params value="False"/>
			<enable_ssd_gluoncv value="False"/>
			<extensions value="DIR"/>
			<framework value="caffe"/>
			<freeze_placeholder_with_value value="{}"/>
			<generate_deprecated_IR_V7 value="False"/>
			<input value="data,im_info"/>
			<input_model value="DIR/cnn.caffemodel"/>
			<input_model_is_text value="False"/>
			<input_proto value="DIR/cnn.prototxt"/>
			<input_shape value="[1,3,544,992],[1,6]"/>
			<k value="DIR/CustomLayersMapping.xml"/>
			<keep_shape_ops value="True"/>
			<layout value="data(nchw),im_info(hw)"/>
			<layout_values value="{'data': {'source_layout': 'nchw', 'target_layout': None, 'is_input': True}, 'im_info': {'source_layout': 'hw', 'target_layout': None, 'is_input': True}}"/>
			<legacy_ir_generation value="False"/>
			<legacy_mxnet_model value="False"/>
			<log_level value="ERROR"/>
			<mean_scale_values value="{'data': {'mean': array([102.9801, 115.9465, 122.7717]), 'scale': None}}"/>
			<mean_values value="data[102.9801,115.9465,122.7717]"/>
			<model_name value="person-detection-retail-0002"/>
			<output value="['detection_out']"/>
			<output_dir value="DIR"/>
			<packed_user_shapes value="defaultdict(&lt;class 'list'&gt;, {'data': [{'shape': (1, 3, 544, 992), 'port': None, 'added': True}], 'im_info': [{'shape': (1, 6), 'port': None, 'added': True}]})"/>
			<placeholder_data_types value="{}"/>
			<placeholder_shapes value="{'data': (1, 3, 544, 992), 'im_info': (1, 6)}"/>
			<progress value="False"/>
			<remove_memory value="False"/>
			<remove_output_softmax value="False"/>
			<reverse_input_channels value="False"/>
			<save_params_from_nd value="False"/>
			<scale_values value="()"/>
			<silent value="False"/>
			<source_layout value="()"/>
			<static_shape value="False"/>
			<stream_output value="False"/>
			<target_layout value="()"/>
			<transform value=""/>
			<use_legacy_frontend value="False"/>
			<use_new_frontend value="False"/>
			<unset unset_cli_parameters="batch, counts, disable_fusing, disable_gfusing, finegrain_fusing, input_checkpoint, input_meta_graph, input_symbol, mean_file, mean_file_offsets, move_to_preprocess, nd_prefix_name, pretrained_model_name, saved_model_dir, saved_model_tags, scale, tensorboard_logdir, tensorflow_custom_layer_libraries, tensorflow_custom_operations_config_update, tensorflow_object_detection_api_pipeline_config, tensorflow_use_custom_operations_config, transformations_config"/>
		</cli_parameters>
	</meta_data>
	<quantization_parameters>
		<config>{
		'compression': {
			'algorithms': [
				{
					'name': 'DefaultQuantization',
					'params': {
						'num_samples_for_tuning': 2000,
						'preset': 'performance',
						'stat_subset_size': 300,
						'use_layerwise_tuning': false
					}
				}
			],
			'dump_intermediate_model': true,
			'target_device': 'ANY'
		},
		'engine': {
			'models': [
				{
					'name': 'person-detection-retail-0002',
					'launchers': [
						{
							'framework': 'openvino',
							'adapter': 'ssd',
							'inputs': [
								{
									'name': 'im_info',
									'type': 'CONST_INPUT',
									'value': [
										[
											544,
											992,
											0,
											0,
											0,
											0
										]
									]
								}
							],
							'device': 'cpu'
						}
					],
					'datasets': [
						{
							'name': 'person_detection',
							'data_source': 'PATH',
							'annotation_conversion': {
								'converter': 'datatang_street_subway',
								'annotation_file': 'PATH'
							},
							'annotation': 'PATH',
							'dataset_meta': 'PATH',
							'preprocessing': [
								{
									'type': 'resize',
									'dst_width': 992,
									'dst_height': 544
								}
							],
							'postprocessing': [
								{
									'type': 'resize_prediction_boxes'
								},
								{
									'type': 'filter',
									'apply_to': 'prediction',
									'min_confidence': 0.0,
									'width_range': 5,
									'height_range': 5
								},
								{
									'type': 'cast_to_int'
								},
								{
									'type': 'clip_boxes',
									'apply_to': 'annotation',
									'dst_width': 1920,
									'dst_height': 1080
								},
								{
									'type': 'filter',
									'apply_to': 'annotation',
									'height_range': '100, 10000',
									'is_empty': true,
									'min_visibility': 'partially occluded'
								},
								{
									'type': 'clip_boxes',
									'apply_to': 'prediction',
									'dst_width': 1920,
									'dst_height': 1080
								},
								{
									'type': 'filter',
									'apply_to': 'prediction',
									'height_range': 100,
									'is_empty': true,
									'aspect_ratio': '0.666, 5'
								}
							],
							'metrics': [
								{
									'type': 'map',
									'ignore_difficult': true,
									'include_boundaries': false,
									'allow_multiple_matches_per_ignored': false,
									'distinct_conf': false,
									'reference': 0.8014
								}
							],
							'_command_line_mapping': {
								'annotation_file': 'PATH'
							}
						}
					]
				}
			],
			'stat_requests_number': null,
			'eval_requests_number': null,
			'type': 'accuracy_checker'
		}
	}</config>
		<version value="invalid version"/>
		<cli_params value="{'quantize': None, 'preset': None, 'model': None, 'weights': None, 'name': None, 'engine': None, 'ac_config': None, 'max_drop': None, 'evaluate': False, 'output_dir': 'PATH', 'direct_dump': True, 'log_level': 'INFO', 'pbar': False, 'stream_output': False, 'keep_uncompressed_weights': False, 'data_source': None, 'shape': None, 'data_type': 'image', 'generate_data': False}"/>
	</quantization_parameters>
</net>
