<?xml version="1.0" ?>
<net name="torch-jit-export" version="11">
	<layers>
		<layer id="27" name="data" type="Parameter" version="opset1">
			<data element_type="f32" shape="1,3,256,128"/>
			<rt_info>
				<attribute name="fused_names" value="data" version="0"/>
				<attribute name="old_api_map_element_type" value="f16" version="0"/>
			</rt_info>
			<output>
				<port id="0" names="data" precision="FP32">
					<dim>1</dim>
					<dim>3</dim>
					<dim>256</dim>
					<dim>128</dim>
					<rt_info>
						<attribute layout="[N,C,H,W]" name="layout" version="0"/>
					</rt_info>
				</port>
			</output>
		</layer>
		<layer id="0" name="108281083236846" type="Const" version="opset1">
			<data element_type="f32" offset="0" shape="" size="4"/>
			<output>
				<port id="0" precision="FP32"/>
			</output>
		</layer>
		<layer id="1" name="108291083334092" type="Const" version="opset1">
			<data element_type="f32" offset="4" shape="" size="4"/>
			<output>
				<port id="0" precision="FP32"/>
			</output>
		</layer>
		<layer id="2" name="108301083435538" type="Const" version="opset1">
			<data element_type="f32" offset="0" shape="" size="4"/>
			<output>
				<port id="0" precision="FP32"/>
			</output>
		</layer>
		<layer id="3" name="108311083535904" type="Const" version="opset1">
			<data element_type="f32" offset="4" shape="" size="4"/>
			<output>
				<port id="0" precision="FP32"/>
			</output>
		</layer>
		<layer id="4" name="Constant_659119635391" type="Const" version="opset1">
			<data element_type="i64" offset="8" shape="2" size="16"/>
			<rt_info>
				<attribute name="fused_names" value="Constant_659" version="0"/>
			</rt_info>
			<output>
				<port id="0" precision="I64">
					<dim>2</dim>
				</port>
			</output>
		</layer>
		<layer id="5" name="8365836935466" type="Const" version="opset1">
			<data element_type="f32" offset="24" shape="" size="4"/>
			<output>
				<port id="0" precision="FP32"/>
			</output>
		</layer>
		<layer id="6" name="8366837036831" type="Const" version="opset1">
			<data element_type="f32" offset="28" shape="" size="4"/>
			<output>
				<port id="0" precision="FP32"/>
			</output>
		</layer>
		<layer id="7" name="8367837137170" type="Const" version="opset1">
			<data element_type="f32" offset="24" shape="" size="4"/>
			<output>
				<port id="0" precision="FP32"/>
			</output>
		</layer>
		<layer id="8" name="8368837233129" type="Const" version="opset1">
			<data element_type="f32" offset="28" shape="" size="4"/>
			<output>
				<port id="0" precision="FP32"/>
			</output>
		</layer>
		<layer id="9" name="3034303636858" type="Const" version="opset1">
			<data element_type="f32" offset="32" shape="1,32,1,1" size="128"/>
			<output>
				<port id="0" precision="FP32">
					<dim>1</dim>
					<dim>32</dim>
					<dim>1</dim>
					<dim>1</dim>
				</port>
			</output>
		</layer>
		<layer id="10" name="8305830935727" type="Const" version="opset1">
			<data element_type="f32" offset="160" shape="" size="4"/>
			<output>
				<port id="0" precision="FP32"/>
			</output>
		</layer>
		<layer id="11" name="8306831036597" type="Const" version="opset1">
			<data element_type="f32" offset="164" shape="" size="4"/>
			<output>
				<port id="0" precision="FP32"/>
			</output>
		</layer>
		<layer id="12" name="8307831137272" type="Const" version="opset1">
			<data element_type="f32" offset="160" shape="" size="4"/>
			<output>
				<port id="0" precision="FP32"/>
			</output>
		</layer>
		<layer id="13" name="8308831236033" type="Const" version="opset1">
			<data element_type="f32" offset="164" shape="" size="4"/>
			<output>
				<port id="0" precision="FP32"/>
			</output>
		</layer>
		<layer id="14" name="Constant_563118533945" type="Const" version="opset1">
			<data element_type="i64" offset="8" shape="2" size="16"/>
			<rt_info>
				<attribute name="fused_names" value="Constant_563" version="0"/>
			</rt_info>
			<output>
				<port id="0" precision="I64">
					<dim>2</dim>
				</port>
			</output>
		</layer>
		<layer id="15" name="7195719936789" type="Const" version="opset1">
			<data element_type="f32" offset="168" shape="" size="4"/>
			<output>
				<port id="0" precision="FP32"/>
			</output>
		</layer>
		<layer id="16" name="7196720033489" type="Const" version="opset1">
			<data element_type="f32" offset="172" shape="" size="4"/>
			<output>
				<port id="0" precision="FP32"/>
			</output>
		</layer>
		<layer id="17" name="7197720134734" type="Const" version="opset1">
			<data element_type="f32" offset="168" shape="" size="4"/>
			<output>
				<port id="0" precision="FP32"/>
			</output>
		</layer>
		<layer id="18" name="7198720237911" type="Const" version="opset1">
			<data element_type="f32" offset="172" shape="" size="4"/>
			<output>
				<port id="0" precision="FP32"/>
			</output>
		</layer>
		<layer id="19" name="5295529934173" type="Const" version="opset1">
			<data element_type="f32" offset="176" shape="" size="4"/>
			<output>
				<port id="0" precision="FP32"/>
			</output>
		</layer>
		<layer id="20" name="5296530035895" type="Const" version="opset1">
			<data element_type="f32" offset="180" shape="" size="4"/>
			<output>
				<port id="0" precision="FP32"/>
			</output>
		</layer>
		<layer id="21" name="5297530134599" type="Const" version="opset1">
			<data element_type="f32" offset="176" shape="" size="4"/>
			<output>
				<port id="0" precision="FP32"/>
			</output>
		</layer>
		<layer id="22" name="5298530236444" type="Const" version="opset1">
			<data element_type="f32" offset="180" shape="" size="4"/>
			<output>
				<port id="0" precision="FP32"/>
			</output>
		</layer>
		<layer id="23" name="6245624937554" type="Const" version="opset1">
			<data element_type="f32" offset="0" shape="" size="4"/>
			<output>
				<port id="0" precision="FP32"/>
			</output>
		</layer>
		<layer id="24" name="6246625036108" type="Const" version="opset1">
			<data element_type="f32" offset="184" shape="" size="4"/>
			<output>
				<port id="0" precision="FP32"/>
			</output>
		</layer>
		<layer id="25" name="6247625137716" type="Const" version="opset1">
			<data element_type="f32" offset="0" shape="" size="4"/>
			<output>
				<port id="0" precision="FP32"/>
			</output>
		</layer>
		<layer id="26" name="6248625237575" type="Const" version="opset1">
			<data element_type="f32" offset="184" shape="" size="4"/>
			<output>
				<port id="0" precision="FP32"/>
			</output>
		</layer>
		<layer id="28" name="Range_92461176" type="Const" version="opset1">
			<data element_type="i32" offset="188" shape="3" size="12"/>
			<output>
				<port id="0" precision="I32">
					<dim>3</dim>
				</port>
			</output>
		</layer>
		<layer id="29" name="Constant_92471177" type="Const" version="opset1">
			<data element_type="i64" offset="200" shape="1" size="8"/>
			<rt_info>
				<attribute name="fused_names" value="Constant_9247" version="0"/>
			</rt_info>
			<output>
				<port id="0" precision="I64">
					<dim>1</dim>
				</port>
			</output>
		</layer>
		<layer id="30" name="Gather_9248" type="Gather" version="opset8">
			<data batch_dims="0"/>
			<rt_info>
				<attribute name="fused_names" value="Gather_9248, Range_9246" version="0"/>
				<attribute name="preprocessing" version="0"/>
			</rt_info>
			<input>
				<port id="0">
					<dim>1</dim>
					<dim>3</dim>
					<dim>256</dim>
					<dim>128</dim>
				</port>
				<port id="1">
					<dim>3</dim>
				</port>
				<port id="2">
					<dim>1</dim>
				</port>
			</input>
			<output>
				<port id="3" precision="FP32">
					<dim>1</dim>
					<dim>3</dim>
					<dim>256</dim>
					<dim>128</dim>
				</port>
			</output>
		</layer>
		<layer id="31" name="Subtract_9250/fq_input_0" type="FakeQuantize" version="opset1">
			<data auto_broadcast="numpy" levels="256"/>
			<input>
				<port id="0">
					<dim>1</dim>
					<dim>3</dim>
					<dim>256</dim>
					<dim>128</dim>
				</port>
				<port id="1"/>
				<port id="2"/>
				<port id="3"/>
				<port id="4"/>
			</input>
			<output>
				<port id="5" precision="FP32">
					<dim>1</dim>
					<dim>3</dim>
					<dim>256</dim>
					<dim>128</dim>
				</port>
			</output>
		</layer>
		<layer id="32" name="Constant_9249118018851/restored_convert/quantized2380534665" type="Const" version="opset1">
			<data element_type="i8" offset="208" shape="1,3,1,1" size="3"/>
			<output>
				<port id="0" precision="I8">
					<dim>1</dim>
					<dim>3</dim>
					<dim>1</dim>
					<dim>1</dim>
				</port>
			</output>
		</layer>
		<layer id="33" name="Constant_9249118018851/restored_convert/quantized/to_f32" type="Convert" version="opset1">
			<data destination_type="f32"/>
			<input>
				<port id="0">
					<dim>1</dim>
					<dim>3</dim>
					<dim>1</dim>
					<dim>1</dim>
				</port>
			</input>
			<output>
				<port id="1" precision="FP32">
					<dim>1</dim>
					<dim>3</dim>
					<dim>1</dim>
					<dim>1</dim>
				</port>
			</output>
		</layer>
		<layer id="34" name="Subtract_9250/fq_input_1/zero_point2382435037" type="Const" version="opset1">
			<data element_type="f32" offset="211" shape="1,1,1,1" size="4"/>
			<output>
				<port id="0" precision="FP32">
					<dim>1</dim>
					<dim>1</dim>
					<dim>1</dim>
					<dim>1</dim>
				</port>
			</output>
		</layer>
		<layer id="35" name="Subtract_9250/fq_input_1/minus_zp" type="Subtract" version="opset1">
			<data auto_broadcast="numpy"/>
			<input>
				<port id="0">
					<dim>1</dim>
					<dim>3</dim>
					<dim>1</dim>
					<dim>1</dim>
				</port>
				<port id="1">
					<dim>1</dim>
					<dim>1</dim>
					<dim>1</dim>
					<dim>1</dim>
				</port>
			</input>
			<output>
				<port id="2" precision="FP32">
					<dim>1</dim>
					<dim>3</dim>
					<dim>1</dim>
					<dim>1</dim>
				</port>
			</output>
		</layer>
		<layer id="36" name="Subtract_9250/fq_input_1/scale2381335976" type="Const" version="opset1">
			<data element_type="f32" offset="215" shape="1,1,1,1" size="4"/>
			<output>
				<port id="0" precision="FP32">
					<dim>1</dim>
					<dim>1</dim>
					<dim>1</dim>
					<dim>1</dim>
				</port>
			</output>
		</layer>
		<layer id="37" name="Subtract_9250/fq_input_1/mulpiply_by_scale" type="Multiply" version="opset1">
			<data auto_broadcast="numpy"/>
			<input>
				<port id="0">
					<dim>1</dim>
					<dim>3</dim>
					<dim>1</dim>
					<dim>1</dim>
				</port>
				<port id="1">
					<dim>1</dim>
					<dim>1</dim>
					<dim>1</dim>
					<dim>1</dim>
				</port>
			</input>
			<output>
				<port id="2" precision="FP32">
					<dim>1</dim>
					<dim>3</dim>
					<dim>1</dim>
					<dim>1</dim>
				</port>
			</output>
		</layer>
		<layer id="38" name="Subtract_9250" type="Subtract" version="opset1">
			<data auto_broadcast="numpy"/>
			<rt_info>
				<attribute name="fused_names" value="Subtract_9250" version="0"/>
				<attribute name="preprocessing" version="0"/>
			</rt_info>
			<input>
				<port id="0">
					<dim>1</dim>
					<dim>3</dim>
					<dim>256</dim>
					<dim>128</dim>
				</port>
				<port id="1">
					<dim>1</dim>
					<dim>3</dim>
					<dim>1</dim>
					<dim>1</dim>
				</port>
			</input>
			<output>
				<port id="2" precision="FP32">
					<dim>1</dim>
					<dim>3</dim>
					<dim>256</dim>
					<dim>128</dim>
				</port>
			</output>
		</layer>
		<layer id="39" name="Divide_9252/fq_input_0" type="FakeQuantize" version="opset1">
			<data auto_broadcast="numpy" levels="256"/>
			<input>
				<port id="0">
					<dim>1</dim>
					<dim>3</dim>
					<dim>256</dim>
					<dim>128</dim>
				</port>
				<port id="1"/>
				<port id="2"/>
				<port id="3"/>
				<port id="4"/>
			</input>
			<output>
				<port id="5" precision="FP32">
					<dim>1</dim>
					<dim>3</dim>
					<dim>256</dim>
					<dim>128</dim>
				</port>
			</output>
		</layer>
		<layer id="40" name="Constant_18431118318852/restored_convert/quantized2308536951" type="Const" version="opset1">
			<data element_type="i8" offset="219" shape="1,3,1,1" size="3"/>
			<output>
				<port id="0" precision="I8">
					<dim>1</dim>
					<dim>3</dim>
					<dim>1</dim>
					<dim>1</dim>
				</port>
			</output>
		</layer>
		<layer id="41" name="Constant_18431118318852/restored_convert/quantized/to_f32" type="Convert" version="opset1">
			<data destination_type="f32"/>
			<input>
				<port id="0">
					<dim>1</dim>
					<dim>3</dim>
					<dim>1</dim>
					<dim>1</dim>
				</port>
			</input>
			<output>
				<port id="1" precision="FP32">
					<dim>1</dim>
					<dim>3</dim>
					<dim>1</dim>
					<dim>1</dim>
				</port>
			</output>
		</layer>
		<layer id="42" name="Divide_9252/fq_input_1/zero_point2310437263" type="Const" version="opset1">
			<data element_type="f32" offset="211" shape="1,1,1,1" size="4"/>
			<output>
				<port id="0" precision="FP32">
					<dim>1</dim>
					<dim>1</dim>
					<dim>1</dim>
					<dim>1</dim>
				</port>
			</output>
		</layer>
		<layer id="43" name="Divide_9252/fq_input_1/minus_zp" type="Subtract" version="opset1">
			<data auto_broadcast="numpy"/>
			<input>
				<port id="0">
					<dim>1</dim>
					<dim>3</dim>
					<dim>1</dim>
					<dim>1</dim>
				</port>
				<port id="1">
					<dim>1</dim>
					<dim>1</dim>
					<dim>1</dim>
					<dim>1</dim>
				</port>
			</input>
			<output>
				<port id="2" precision="FP32">
					<dim>1</dim>
					<dim>3</dim>
					<dim>1</dim>
					<dim>1</dim>
				</port>
			</output>
		</layer>
		<layer id="44" name="Divide_9252/fq_input_1/scale2309333111" type="Const" version="opset1">
			<data element_type="f32" offset="222" shape="1,1,1,1" size="4"/>
			<output>
				<port id="0" precision="FP32">
					<dim>1</dim>
					<dim>1</dim>
					<dim>1</dim>
					<dim>1</dim>
				</port>
			</output>
		</layer>
		<layer id="45" name="Divide_9252/fq_input_1/mulpiply_by_scale" type="Multiply" version="opset1">
			<data auto_broadcast="numpy"/>
			<input>
				<port id="0">
					<dim>1</dim>
					<dim>3</dim>
					<dim>1</dim>
					<dim>1</dim>
				</port>
				<port id="1">
					<dim>1</dim>
					<dim>1</dim>
					<dim>1</dim>
					<dim>1</dim>
				</port>
			</input>
			<output>
				<port id="2" precision="FP32">
					<dim>1</dim>
					<dim>3</dim>
					<dim>1</dim>
					<dim>1</dim>
				</port>
			</output>
		</layer>
		<layer id="46" name="Divide_9252" type="Multiply" version="opset1">
			<data auto_broadcast="numpy"/>
			<rt_info>
				<attribute name="fused_names" value="Constant_9251, Divide_9252" version="0"/>
				<attribute name="preprocessing" version="0"/>
			</rt_info>
			<input>
				<port id="0">
					<dim>1</dim>
					<dim>3</dim>
					<dim>256</dim>
					<dim>128</dim>
				</port>
				<port id="1">
					<dim>1</dim>
					<dim>3</dim>
					<dim>1</dim>
					<dim>1</dim>
				</port>
			</input>
			<output>
				<port id="2" precision="FP32">
					<dim>1</dim>
					<dim>3</dim>
					<dim>256</dim>
					<dim>128</dim>
				</port>
			</output>
		</layer>
		<layer id="47" name="MVN_564/fq_input_0" type="FakeQuantize" version="opset1">
			<data auto_broadcast="numpy" levels="256"/>
			<input>
				<port id="0">
					<dim>1</dim>
					<dim>3</dim>
					<dim>256</dim>
					<dim>128</dim>
				</port>
				<port id="1"/>
				<port id="2"/>
				<port id="3"/>
				<port id="4"/>
			</input>
			<output>
				<port id="5" precision="FP32">
					<dim>1</dim>
					<dim>3</dim>
					<dim>256</dim>
					<dim>128</dim>
				</port>
			</output>
		</layer>
		<layer id="48" name="MVN_564" type="MVN" version="opset6">
			<data eps="9.999999747378752e-06" eps_mode="INSIDE_SQRT" normalize_variance="true"/>
			<rt_info>
				<attribute name="fused_names" value="MVN_564" version="0"/>
			</rt_info>
			<input>
				<port id="0">
					<dim>1</dim>
					<dim>3</dim>
					<dim>256</dim>
					<dim>128</dim>
				</port>
				<port id="1">
					<dim>2</dim>
				</port>
			</input>
			<output>
				<port id="2" precision="FP32">
					<dim>1</dim>
					<dim>3</dim>
					<dim>256</dim>
					<dim>128</dim>
				</port>
			</output>
		</layer>
		<layer id="49" name="Reshape_584118832808" type="Const" version="opset1">
			<data element_type="f16" offset="226" shape="1,3,1,1" size="6"/>
			<output>
				<port id="0" precision="FP16">
					<dim>1</dim>
					<dim>3</dim>
					<dim>1</dim>
					<dim>1</dim>
				</port>
			</output>
		</layer>
		<layer id="50" name="Reshape_584118818854/restored_convert" type="Convert" version="opset1">
			<data destination_type="f32"/>
			<rt_info>
				<attribute name="decompression" version="0"/>
			</rt_info>
			<input>
				<port id="0">
					<dim>1</dim>
					<dim>3</dim>
					<dim>1</dim>
					<dim>1</dim>
				</port>
			</input>
			<output>
				<port id="1" precision="FP32">
					<dim>1</dim>
					<dim>3</dim>
					<dim>1</dim>
					<dim>1</dim>
				</port>
			</output>
		</layer>
		<layer id="51" name="Multiply_611" type="Multiply" version="opset1">
			<data auto_broadcast="numpy"/>
			<rt_info>
				<attribute name="fused_names" value="Concat_583, Multiply_611, Reshape_584" version="0"/>
			</rt_info>
			<input>
				<port id="0">
					<dim>1</dim>
					<dim>3</dim>
					<dim>256</dim>
					<dim>128</dim>
				</port>
				<port id="1">
					<dim>1</dim>
					<dim>3</dim>
					<dim>1</dim>
					<dim>1</dim>
				</port>
			</input>
			<output>
				<port id="2" precision="FP32">
					<dim>1</dim>
					<dim>3</dim>
					<dim>256</dim>
					<dim>128</dim>
				</port>
			</output>
		</layer>
		<layer id="52" name="Reshape_629119137185" type="Const" version="opset1">
			<data element_type="f16" offset="232" shape="1,3,1,1" size="6"/>
			<output>
				<port id="0" precision="FP16">
					<dim>1</dim>
					<dim>3</dim>
					<dim>1</dim>
					<dim>1</dim>
				</port>
			</output>
		</layer>
		<layer id="53" name="Reshape_629119118855/restored_convert" type="Convert" version="opset1">
			<data destination_type="f32"/>
			<rt_info>
				<attribute name="decompression" version="0"/>
			</rt_info>
			<input>
				<port id="0">
					<dim>1</dim>
					<dim>3</dim>
					<dim>1</dim>
					<dim>1</dim>
				</port>
			</input>
			<output>
				<port id="1" precision="FP32">
					<dim>1</dim>
					<dim>3</dim>
					<dim>1</dim>
					<dim>1</dim>
				</port>
			</output>
		</layer>
		<layer id="54" name="563" type="Add" version="opset1">
			<data auto_broadcast="numpy"/>
			<rt_info>
				<attribute name="fused_names" value="563, Concat_628, Reshape_629" version="0"/>
			</rt_info>
			<input>
				<port id="0">
					<dim>1</dim>
					<dim>3</dim>
					<dim>256</dim>
					<dim>128</dim>
				</port>
				<port id="1">
					<dim>1</dim>
					<dim>3</dim>
					<dim>1</dim>
					<dim>1</dim>
				</port>
			</input>
			<output>
				<port id="2" names="563" precision="FP32">
					<dim>1</dim>
					<dim>3</dim>
					<dim>256</dim>
					<dim>128</dim>
				</port>
			</output>
		</layer>
		<layer id="55" name="564/fq_input_0" type="FakeQuantize" version="opset1">
			<data auto_broadcast="numpy" levels="256"/>
			<input>
				<port id="0">
					<dim>1</dim>
					<dim>3</dim>
					<dim>256</dim>
					<dim>128</dim>
				</port>
				<port id="1"/>
				<port id="2"/>
				<port id="3"/>
				<port id="4"/>
			</input>
			<output>
				<port id="5" precision="FP32">
					<dim>1</dim>
					<dim>3</dim>
					<dim>256</dim>
					<dim>128</dim>
				</port>
			</output>
		</layer>
		<layer id="56" name="conv1.conv.weight119418856/restored_convert/quantized2464533561" type="Const" version="opset1">
			<data element_type="i8" offset="238" shape="32,3,7,7" size="4704"/>
			<output>
				<port id="0" precision="I8">
					<dim>32</dim>
					<dim>3</dim>
					<dim>7</dim>
					<dim>7</dim>
				</port>
			</output>
		</layer>
		<layer id="57" name="conv1.conv.weight119418856/restored_convert/quantized/to_f32" type="Convert" version="opset1">
			<data destination_type="f32"/>
			<input>
				<port id="0">
					<dim>32</dim>
					<dim>3</dim>
					<dim>7</dim>
					<dim>7</dim>
				</port>
			</input>
			<output>
				<port id="1" precision="FP32">
					<dim>32</dim>
					<dim>3</dim>
					<dim>7</dim>
					<dim>7</dim>
				</port>
			</output>
		</layer>
		<layer id="58" name="564/fq_weights_1/zero_point2466435271" type="Const" version="opset1">
			<data element_type="f32" offset="4942" shape="32,1,1,1" size="128"/>
			<output>
				<port id="0" precision="FP32">
					<dim>32</dim>
					<dim>1</dim>
					<dim>1</dim>
					<dim>1</dim>
				</port>
			</output>
		</layer>
		<layer id="59" name="564/fq_weights_1/minus_zp" type="Subtract" version="opset1">
			<data auto_broadcast="numpy"/>
			<input>
				<port id="0">
					<dim>32</dim>
					<dim>3</dim>
					<dim>7</dim>
					<dim>7</dim>
				</port>
				<port id="1">
					<dim>32</dim>
					<dim>1</dim>
					<dim>1</dim>
					<dim>1</dim>
				</port>
			</input>
			<output>
				<port id="2" precision="FP32">
					<dim>32</dim>
					<dim>3</dim>
					<dim>7</dim>
					<dim>7</dim>
				</port>
			</output>
		</layer>
		<layer id="60" name="564/fq_weights_1/scale2465334797" type="Const" version="opset1">
			<data element_type="f32" offset="5070" shape="32,1,1,1" size="128"/>
			<output>
				<port id="0" precision="FP32">
					<dim>32</dim>
					<dim>1</dim>
					<dim>1</dim>
					<dim>1</dim>
				</port>
			</output>
		</layer>
		<layer id="61" name="564/fq_weights_1/mulpiply_by_scale" type="Multiply" version="opset1">
			<data auto_broadcast="numpy"/>
			<input>
				<port id="0">
					<dim>32</dim>
					<dim>3</dim>
					<dim>7</dim>
					<dim>7</dim>
				</port>
				<port id="1">
					<dim>32</dim>
					<dim>1</dim>
					<dim>1</dim>
					<dim>1</dim>
				</port>
			</input>
			<output>
				<port id="2" precision="FP32">
					<dim>32</dim>
					<dim>3</dim>
					<dim>7</dim>
					<dim>7</dim>
				</port>
			</output>
		</layer>
		<layer id="62" name="564" type="Convolution" version="opset1">
			<data auto_pad="explicit" dilations="1,1" pads_begin="3,3" pads_end="3,3" strides="2,2"/>
			<rt_info>
				<attribute name="fused_names" value="564" version="0"/>
			</rt_info>
			<input>
				<port id="0">
					<dim>1</dim>
					<dim>3</dim>
					<dim>256</dim>
					<dim>128</dim>
				</port>
				<port id="1">
					<dim>32</dim>
					<dim>3</dim>
					<dim>7</dim>
					<dim>7</dim>
				</port>
			</input>
			<output>
				<port id="2" names="564" precision="FP32">
					<dim>1</dim>
					<dim>32</dim>
					<dim>128</dim>
					<dim>64</dim>
				</port>
			</output>
		</layer>
		<layer id="63" name="564/add_" type="Add" version="opset1">
			<data auto_broadcast="numpy"/>
			<input>
				<port id="0">
					<dim>1</dim>
					<dim>32</dim>
					<dim>128</dim>
					<dim>64</dim>
				</port>
				<port id="1">
					<dim>1</dim>
					<dim>32</dim>
					<dim>1</dim>
					<dim>1</dim>
				</port>
			</input>
			<output>
				<port id="2" precision="FP32">
					<dim>1</dim>
					<dim>32</dim>
					<dim>128</dim>
					<dim>64</dim>
				</port>
			</output>
		</layer>
		<layer id="64" name="MVN_660/fq_input_0" type="FakeQuantize" version="opset1">
			<data auto_broadcast="numpy" levels="256"/>
			<input>
				<port id="0">
					<dim>1</dim>
					<dim>32</dim>
					<dim>128</dim>
					<dim>64</dim>
				</port>
				<port id="1"/>
				<port id="2"/>
				<port id="3"/>
				<port id="4"/>
			</input>
			<output>
				<port id="5" precision="FP32">
					<dim>1</dim>
					<dim>32</dim>
					<dim>128</dim>
					<dim>64</dim>
				</port>
			</output>
		</layer>
		<layer id="65" name="MVN_660" type="MVN" version="opset6">
			<data eps="9.999999747378752e-06" eps_mode="INSIDE_SQRT" normalize_variance="true"/>
			<rt_info>
				<attribute name="fused_names" value="MVN_660" version="0"/>
			</rt_info>
			<input>
				<port id="0">
					<dim>1</dim>
					<dim>32</dim>
					<dim>128</dim>
					<dim>64</dim>
				</port>
				<port id="1">
					<dim>2</dim>
				</port>
			</input>
			<output>
				<port id="2" precision="FP32">
					<dim>1</dim>
					<dim>32</dim>
					<dim>128</dim>
					<dim>64</dim>
				</port>
			</output>
		</layer>
		<layer id="66" name="Reshape_680119932742" type="Const" version="opset1">
			<data element_type="f16" offset="5198" shape="1,32,1,1" size="64"/>
			<output>
				<port id="0" precision="FP16">
					<dim>1</dim>
					<dim>32</dim>
					<dim>1</dim>
					<dim>1</dim>
				</port>
			</output>
		</layer>
		<layer id="67" name="Reshape_680119918858/restored_convert" type="Convert" version="opset1">
			<data destination_type="f32"/>
			<rt_info>
				<attribute name="decompression" version="0"/>
			</rt_info>
			<input>
				<port id="0">
					<dim>1</dim>
					<dim>32</dim>
					<dim>1</dim>
					<dim>1</dim>
				</port>
			</input>
			<output>
				<port id="1" precision="FP32">
					<dim>1</dim>
					<dim>32</dim>
					<dim>1</dim>
					<dim>1</dim>
				</port>
			</output>
		</layer>
		<layer id="68" name="Multiply_707" type="Multiply" version="opset1">
			<data auto_broadcast="numpy"/>
			<rt_info>
				<attribute name="fused_names" value="Concat_679, Multiply_707, Reshape_680" version="0"/>
			</rt_info>
			<input>
				<port id="0">
					<dim>1</dim>
					<dim>32</dim>
					<dim>128</dim>
					<dim>64</dim>
				</port>
				<port id="1">
					<dim>1</dim>
					<dim>32</dim>
					<dim>1</dim>
					<dim>1</dim>
				</port>
			</input>
			<output>
				<port id="2" precision="FP32">
					<dim>1</dim>
					<dim>32</dim>
					<dim>128</dim>
					<dim>64</dim>
				</port>
			</output>
		</layer>
		<layer id="69" name="Reshape_725120235073" type="Const" version="opset1">
			<data element_type="f16" offset="5262" shape="1,32,1,1" size="64"/>
			<output>
				<port id="0" precision="FP16">
					<dim>1</dim>
					<dim>32</dim>
					<dim>1</dim>
					<dim>1</dim>
				</port>
			</output>
		</layer>
		<layer id="70" name="Reshape_725120218859/restored_convert" type="Convert" version="opset1">
			<data destination_type="f32"/>
			<rt_info>
				<attribute name="decompression" version="0"/>
			</rt_info>
			<input>
				<port id="0">
					<dim>1</dim>
					<dim>32</dim>
					<dim>1</dim>
					<dim>1</dim>
				</port>
			</input>
			<output>
				<port id="1" precision="FP32">
					<dim>1</dim>
					<dim>32</dim>
					<dim>1</dim>
					<dim>1</dim>
				</port>
			</output>
		</layer>
		<layer id="71" name="565" type="Add" version="opset1">
			<data auto_broadcast="numpy"/>
			<rt_info>
				<attribute name="fused_names" value="565, Concat_724, Reshape_725" version="0"/>
			</rt_info>
			<input>
				<port id="0">
					<dim>1</dim>
					<dim>32</dim>
					<dim>128</dim>
					<dim>64</dim>
				</port>
				<port id="1">
					<dim>1</dim>
					<dim>32</dim>
					<dim>1</dim>
					<dim>1</dim>
				</port>
			</input>
			<output>
				<port id="2" names="565" precision="FP32">
					<dim>1</dim>
					<dim>32</dim>
					<dim>128</dim>
					<dim>64</dim>
				</port>
			</output>
		</layer>
		<layer id="72" name="566" type="ReLU" version="opset1">
			<rt_info>
				<attribute name="fused_names" value="566" version="0"/>
			</rt_info>
			<input>
				<port id="0">
					<dim>1</dim>
					<dim>32</dim>
					<dim>128</dim>
					<dim>64</dim>
				</port>
			</input>
			<output>
				<port id="1" names="566" precision="FP32">
					<dim>1</dim>
					<dim>32</dim>
					<dim>128</dim>
					<dim>64</dim>
				</port>
			</output>
		</layer>
		<layer id="73" name="567/fq_input_0" type="FakeQuantize" version="opset1">
			<data auto_broadcast="numpy" levels="256"/>
			<input>
				<port id="0">
					<dim>1</dim>
					<dim>32</dim>
					<dim>128</dim>
					<dim>64</dim>
				</port>
				<port id="1"/>
				<port id="2"/>
				<port id="3"/>
				<port id="4"/>
			</input>
			<output>
				<port id="5" precision="FP32">
					<dim>1</dim>
					<dim>32</dim>
					<dim>128</dim>
					<dim>64</dim>
				</port>
			</output>
		</layer>
		<layer id="74" name="567" type="MaxPool" version="opset8">
			<data auto_pad="explicit" axis="0" dilations="1,1" index_element_type="i64" kernel="3,3" pads_begin="1,1" pads_end="1,1" rounding_type="floor" strides="2,2"/>
			<rt_info>
				<attribute name="fused_names" value="567" version="0"/>
			</rt_info>
			<input>
				<port id="0">
					<dim>1</dim>
					<dim>32</dim>
					<dim>128</dim>
					<dim>64</dim>
				</port>
			</input>
			<output>
				<port id="1" names="567" precision="FP32">
					<dim>1</dim>
					<dim>32</dim>
					<dim>64</dim>
					<dim>32</dim>
				</port>
				<port id="2" precision="FP32">
					<dim>1</dim>
					<dim>32</dim>
					<dim>64</dim>
					<dim>32</dim>
					<rt_info/>
				</port>
			</output>
		</layer>
		<layer id="76" name="108481085236870" type="Const" version="opset1">
			<data element_type="f32" offset="5326" shape="" size="4"/>
			<output>
				<port id="0" precision="FP32"/>
			</output>
		</layer>
		<layer id="77" name="108491085334323" type="Const" version="opset1">
			<data element_type="f32" offset="5330" shape="" size="4"/>
			<output>
				<port id="0" precision="FP32"/>
			</output>
		</layer>
		<layer id="78" name="108501085436687" type="Const" version="opset1">
			<data element_type="f32" offset="5326" shape="" size="4"/>
			<output>
				<port id="0" precision="FP32"/>
			</output>
		</layer>
		<layer id="79" name="108511085532820" type="Const" version="opset1">
			<data element_type="f32" offset="5330" shape="" size="4"/>
			<output>
				<port id="0" precision="FP32"/>
			</output>
		</layer>
		<layer id="80" name="1134232135490" type="Const" version="opset1">
			<data element_type="i64" offset="5334" shape="2" size="16"/>
			<rt_info>
				<attribute name="fused_names" value="1133, 1134" version="0"/>
			</rt_info>
			<output>
				<port id="0" precision="I64">
					<dim>2</dim>
				</port>
			</output>
		</layer>
		<layer id="81" name="108181082235601" type="Const" version="opset1">
			<data element_type="f32" offset="5350" shape="" size="4"/>
			<output>
				<port id="0" precision="FP32"/>
			</output>
		</layer>
		<layer id="82" name="108191082336114" type="Const" version="opset1">
			<data element_type="f32" offset="5354" shape="" size="4"/>
			<output>
				<port id="0" precision="FP32"/>
			</output>
		</layer>
		<layer id="83" name="108201082435595" type="Const" version="opset1">
			<data element_type="f32" offset="5350" shape="" size="4"/>
			<output>
				<port id="0" precision="FP32"/>
			</output>
		</layer>
		<layer id="84" name="108211082532928" type="Const" version="opset1">
			<data element_type="f32" offset="5354" shape="" size="4"/>
			<output>
				<port id="0" precision="FP32"/>
			</output>
		</layer>
		<layer id="85" name="7335733934260" type="Const" version="opset1">
			<data element_type="f32" offset="5358" shape="1,256,1,1" size="1024"/>
			<output>
				<port id="0" precision="FP32">
					<dim>1</dim>
					<dim>256</dim>
					<dim>1</dim>
					<dim>1</dim>
				</port>
			</output>
		</layer>
		<layer id="86" name="7336734037557" type="Const" version="opset1">
			<data element_type="f32" offset="6382" shape="1,256,1,1" size="1024"/>
			<output>
				<port id="0" precision="FP32">
					<dim>1</dim>
					<dim>256</dim>
					<dim>1</dim>
					<dim>1</dim>
				</port>
			</output>
		</layer>
		<layer id="87" name="7337734137818" type="Const" version="opset1">
			<data element_type="f32" offset="5358" shape="1,256,1,1" size="1024"/>
			<output>
				<port id="0" precision="FP32">
					<dim>1</dim>
					<dim>256</dim>
					<dim>1</dim>
					<dim>1</dim>
				</port>
			</output>
		</layer>
		<layer id="88" name="7338734236891" type="Const" version="opset1">
			<data element_type="f32" offset="6382" shape="1,256,1,1" size="1024"/>
			<output>
				<port id="0" precision="FP32">
					<dim>1</dim>
					<dim>256</dim>
					<dim>1</dim>
					<dim>1</dim>
				</port>
			</output>
		</layer>
		<layer id="89" name="4925492937038" type="Const" version="opset1">
			<data element_type="f32" offset="7406" shape="" size="4"/>
			<output>
				<port id="0" precision="FP32"/>
			</output>
		</layer>
		<layer id="90" name="4926493034152" type="Const" version="opset1">
			<data element_type="f32" offset="7410" shape="" size="4"/>
			<output>
				<port id="0" precision="FP32"/>
			</output>
		</layer>
		<layer id="91" name="4927493134980" type="Const" version="opset1">
			<data element_type="f32" offset="7406" shape="" size="4"/>
			<output>
				<port id="0" precision="FP32"/>
			</output>
		</layer>
		<layer id="92" name="4928493236258" type="Const" version="opset1">
			<data element_type="f32" offset="7410" shape="" size="4"/>
			<output>
				<port id="0" precision="FP32"/>
			</output>
		</layer>
		<layer id="93" name="7315731937209" type="Const" version="opset1">
			<data element_type="f32" offset="7414" shape="" size="4"/>
			<output>
				<port id="0" precision="FP32"/>
			</output>
		</layer>
		<layer id="94" name="7316732036681" type="Const" version="opset1">
			<data element_type="f32" offset="7418" shape="" size="4"/>
			<output>
				<port id="0" precision="FP32"/>
			</output>
		</layer>
		<layer id="95" name="7317732137176" type="Const" version="opset1">
			<data element_type="f32" offset="7414" shape="" size="4"/>
			<output>
				<port id="0" precision="FP32"/>
			</output>
		</layer>
		<layer id="96" name="7318732234473" type="Const" version="opset1">
			<data element_type="f32" offset="7418" shape="" size="4"/>
			<output>
				<port id="0" precision="FP32"/>
			</output>
		</layer>
		<layer id="97" name="5385538934887" type="Const" version="opset1">
			<data element_type="f32" offset="7406" shape="" size="4"/>
			<output>
				<port id="0" precision="FP32"/>
			</output>
		</layer>
		<layer id="98" name="5386539034353" type="Const" version="opset1">
			<data element_type="f32" offset="7422" shape="" size="4"/>
			<output>
				<port id="0" precision="FP32"/>
			</output>
		</layer>
		<layer id="99" name="5387539137524" type="Const" version="opset1">
			<data element_type="f32" offset="7406" shape="" size="4"/>
			<output>
				<port id="0" precision="FP32"/>
			</output>
		</layer>
		<layer id="100" name="5388539233468" type="Const" version="opset1">
			<data element_type="f32" offset="7422" shape="" size="4"/>
			<output>
				<port id="0" precision="FP32"/>
			</output>
		</layer>
		<layer id="101" name="5135513935172" type="Const" version="opset1">
			<data element_type="f32" offset="7406" shape="" size="4"/>
			<output>
				<port id="0" precision="FP32"/>
			</output>
		</layer>
		<layer id="102" name="5136514034662" type="Const" version="opset1">
			<data element_type="f32" offset="7426" shape="" size="4"/>
			<output>
				<port id="0" precision="FP32"/>
			</output>
		</layer>
		<layer id="103" name="5137514136768" type="Const" version="opset1">
			<data element_type="f32" offset="7406" shape="" size="4"/>
			<output>
				<port id="0" precision="FP32"/>
			</output>
		</layer>
		<layer id="104" name="5138514236414" type="Const" version="opset1">
			<data element_type="f32" offset="7426" shape="" size="4"/>
			<output>
				<port id="0" precision="FP32"/>
			</output>
		</layer>
		<layer id="105" name="8235823934785" type="Const" version="opset1">
			<data element_type="f32" offset="7406" shape="" size="4"/>
			<output>
				<port id="0" precision="FP32"/>
			</output>
		</layer>
		<layer id="106" name="8236824035076" type="Const" version="opset1">
			<data element_type="f32" offset="7430" shape="" size="4"/>
			<output>
				<port id="0" precision="FP32"/>
			</output>
		</layer>
		<layer id="107" name="8237824137845" type="Const" version="opset1">
			<data element_type="f32" offset="7406" shape="" size="4"/>
			<output>
				<port id="0" precision="FP32"/>
			</output>
		</layer>
		<layer id="108" name="8238824234476" type="Const" version="opset1">
			<data element_type="f32" offset="7430" shape="" size="4"/>
			<output>
				<port id="0" precision="FP32"/>
			</output>
		</layer>
		<layer id="109" name="8065806937638" type="Const" version="opset1">
			<data element_type="f32" offset="7406" shape="" size="4"/>
			<output>
				<port id="0" precision="FP32"/>
			</output>
		</layer>
		<layer id="110" name="8066807034401" type="Const" version="opset1">
			<data element_type="f32" offset="7434" shape="" size="4"/>
			<output>
				<port id="0" precision="FP32"/>
			</output>
		</layer>
		<layer id="111" name="8067807134506" type="Const" version="opset1">
			<data element_type="f32" offset="7406" shape="" size="4"/>
			<output>
				<port id="0" precision="FP32"/>
			</output>
		</layer>
		<layer id="112" name="8068807234659" type="Const" version="opset1">
			<data element_type="f32" offset="7434" shape="" size="4"/>
			<output>
				<port id="0" precision="FP32"/>
			</output>
		</layer>
		<layer id="113" name="4095409935442" type="Const" version="opset1">
			<data element_type="f32" offset="7406" shape="" size="4"/>
			<output>
				<port id="0" precision="FP32"/>
			</output>
		</layer>
		<layer id="114" name="4096410033252" type="Const" version="opset1">
			<data element_type="f32" offset="7438" shape="" size="4"/>
			<output>
				<port id="0" precision="FP32"/>
			</output>
		</layer>
		<layer id="115" name="4097410136714" type="Const" version="opset1">
			<data element_type="f32" offset="7406" shape="" size="4"/>
			<output>
				<port id="0" precision="FP32"/>
			</output>
		</layer>
		<layer id="116" name="4098410237830" type="Const" version="opset1">
			<data element_type="f32" offset="7438" shape="" size="4"/>
			<output>
				<port id="0" precision="FP32"/>
			</output>
		</layer>
		<layer id="117" name="105781058234758" type="Const" version="opset1">
			<data element_type="f32" offset="7442" shape="" size="4"/>
			<output>
				<port id="0" precision="FP32"/>
			</output>
		</layer>
		<layer id="118" name="105791058336603" type="Const" version="opset1">
			<data element_type="f32" offset="7446" shape="" size="4"/>
			<output>
				<port id="0" precision="FP32"/>
			</output>
		</layer>
		<layer id="119" name="105801058437347" type="Const" version="opset1">
			<data element_type="f32" offset="7442" shape="" size="4"/>
			<output>
				<port id="0" precision="FP32"/>
			</output>
		</layer>
		<layer id="120" name="105811058533441" type="Const" version="opset1">
			<data element_type="f32" offset="7446" shape="" size="4"/>
			<output>
				<port id="0" precision="FP32"/>
			</output>
		</layer>
		<layer id="121" name="Constant_8399214732910" type="Const" version="opset1">
			<data element_type="i64" offset="7450" shape="1" size="8"/>
			<rt_info>
				<attribute name="fused_names" value="Constant_8399" version="0"/>
			</rt_info>
			<output>
				<port id="0" precision="I64">
					<dim>1</dim>
				</port>
			</output>
		</layer>
		<layer id="122" name="1062214533597" type="Const" version="opset1">
			<data element_type="i64" offset="7458" shape="3" size="24"/>
			<rt_info>
				<attribute name="fused_names" value="1062" version="0"/>
			</rt_info>
			<output>
				<port id="0" names="1062" precision="I64">
					<dim>3</dim>
				</port>
			</output>
		</layer>
		<layer id="123" name="107781078233405" type="Const" version="opset1">
			<data element_type="f32" offset="7406" shape="" size="4"/>
			<output>
				<port id="0" precision="FP32"/>
			</output>
		</layer>
		<layer id="124" name="107791078333642" type="Const" version="opset1">
			<data element_type="f32" offset="7482" shape="" size="4"/>
			<output>
				<port id="0" precision="FP32"/>
			</output>
		</layer>
		<layer id="125" name="107801078436900" type="Const" version="opset1">
			<data element_type="f32" offset="7406" shape="" size="4"/>
			<output>
				<port id="0" precision="FP32"/>
			</output>
		</layer>
		<layer id="126" name="107811078533369" type="Const" version="opset1">
			<data element_type="f32" offset="7482" shape="" size="4"/>
			<output>
				<port id="0" precision="FP32"/>
			</output>
		</layer>
		<layer id="127" name="6555655934266" type="Const" version="opset1">
			<data element_type="f32" offset="7406" shape="" size="4"/>
			<output>
				<port id="0" precision="FP32"/>
			</output>
		</layer>
		<layer id="128" name="6556656036576" type="Const" version="opset1">
			<data element_type="f32" offset="7486" shape="" size="4"/>
			<output>
				<port id="0" precision="FP32"/>
			</output>
		</layer>
		<layer id="129" name="6557656137905" type="Const" version="opset1">
			<data element_type="f32" offset="7406" shape="" size="4"/>
			<output>
				<port id="0" precision="FP32"/>
			</output>
		</layer>
		<layer id="130" name="6558656235403" type="Const" version="opset1">
			<data element_type="f32" offset="7486" shape="" size="4"/>
			<output>
				<port id="0" precision="FP32"/>
			</output>
		</layer>
		<layer id="131" name="7235723936246" type="Const" version="opset1">
			<data element_type="f32" offset="7490" shape="1,64,1,1" size="256"/>
			<output>
				<port id="0" precision="FP32">
					<dim>1</dim>
					<dim>64</dim>
					<dim>1</dim>
					<dim>1</dim>
				</port>
			</output>
		</layer>
		<layer id="132" name="7236724033381" type="Const" version="opset1">
			<data element_type="f32" offset="7746" shape="1,64,1,1" size="256"/>
			<output>
				<port id="0" precision="FP32">
					<dim>1</dim>
					<dim>64</dim>
					<dim>1</dim>
					<dim>1</dim>
				</port>
			</output>
		</layer>
		<layer id="133" name="7237724133972" type="Const" version="opset1">
			<data element_type="f32" offset="7490" shape="1,64,1,1" size="256"/>
			<output>
				<port id="0" precision="FP32">
					<dim>1</dim>
					<dim>64</dim>
					<dim>1</dim>
					<dim>1</dim>
				</port>
			</output>
		</layer>
		<layer id="134" name="7238724233150" type="Const" version="opset1">
			<data element_type="f32" offset="7746" shape="1,64,1,1" size="256"/>
			<output>
				<port id="0" precision="FP32">
					<dim>1</dim>
					<dim>64</dim>
					<dim>1</dim>
					<dim>1</dim>
				</port>
			</output>
		</layer>
		<layer id="135" name="3238324037467" type="Const" version="opset1">
			<data element_type="f32" offset="8002" shape="1,64,1,1" size="256"/>
			<output>
				<port id="0" precision="FP32">
					<dim>1</dim>
					<dim>64</dim>
					<dim>1</dim>
					<dim>1</dim>
				</port>
			</output>
		</layer>
		<layer id="136" name="4495449935268" type="Const" version="opset1">
			<data element_type="f32" offset="7406" shape="" size="4"/>
			<output>
				<port id="0" precision="FP32"/>
			</output>
		</layer>
		<layer id="137" name="4496450036564" type="Const" version="opset1">
			<data element_type="f32" offset="8258" shape="" size="4"/>
			<output>
				<port id="0" precision="FP32"/>
			</output>
		</layer>
		<layer id="138" name="4497450137464" type="Const" version="opset1">
			<data element_type="f32" offset="7406" shape="" size="4"/>
			<output>
				<port id="0" precision="FP32"/>
			</output>
		</layer>
		<layer id="139" name="4498450235385" type="Const" version="opset1">
			<data element_type="f32" offset="8258" shape="" size="4"/>
			<output>
				<port id="0" precision="FP32"/>
			</output>
		</layer>
		<layer id="140" name="7325732934839" type="Const" version="opset1">
			<data element_type="f32" offset="7406" shape="" size="4"/>
			<output>
				<port id="0" precision="FP32"/>
			</output>
		</layer>
		<layer id="141" name="7326733033366" type="Const" version="opset1">
			<data element_type="f32" offset="8262" shape="" size="4"/>
			<output>
				<port id="0" precision="FP32"/>
			</output>
		</layer>
		<layer id="142" name="7327733135148" type="Const" version="opset1">
			<data element_type="f32" offset="7406" shape="" size="4"/>
			<output>
				<port id="0" precision="FP32"/>
			</output>
		</layer>
		<layer id="143" name="7328733235427" type="Const" version="opset1">
			<data element_type="f32" offset="8262" shape="" size="4"/>
			<output>
				<port id="0" precision="FP32"/>
			</output>
		</layer>
		<layer id="144" name="4455445934437" type="Const" version="opset1">
			<data element_type="f32" offset="8266" shape="" size="4"/>
			<output>
				<port id="0" precision="FP32"/>
			</output>
		</layer>
		<layer id="145" name="4456446035070" type="Const" version="opset1">
			<data element_type="f32" offset="8270" shape="" size="4"/>
			<output>
				<port id="0" precision="FP32"/>
			</output>
		</layer>
		<layer id="146" name="4457446136348" type="Const" version="opset1">
			<data element_type="f32" offset="8266" shape="" size="4"/>
			<output>
				<port id="0" precision="FP32"/>
			</output>
		</layer>
		<layer id="147" name="4458446237497" type="Const" version="opset1">
			<data element_type="f32" offset="8270" shape="" size="4"/>
			<output>
				<port id="0" precision="FP32"/>
			</output>
		</layer>
		<layer id="148" name="7565756936051" type="Const" version="opset1">
			<data element_type="f32" offset="7406" shape="" size="4"/>
			<output>
				<port id="0" precision="FP32"/>
			</output>
		</layer>
		<layer id="149" name="7566757035790" type="Const" version="opset1">
			<data element_type="f32" offset="8274" shape="" size="4"/>
			<output>
				<port id="0" precision="FP32"/>
			</output>
		</layer>
		<layer id="150" name="7567757135934" type="Const" version="opset1">
			<data element_type="f32" offset="7406" shape="" size="4"/>
			<output>
				<port id="0" precision="FP32"/>
			</output>
		</layer>
		<layer id="151" name="7568757235550" type="Const" version="opset1">
			<data element_type="f32" offset="8274" shape="" size="4"/>
			<output>
				<port id="0" precision="FP32"/>
			</output>
		</layer>
		<layer id="152" name="7985798934644" type="Const" version="opset1">
			<data element_type="f32" offset="7406" shape="" size="4"/>
			<output>
				<port id="0" precision="FP32"/>
			</output>
		</layer>
		<layer id="153" name="7986799034626" type="Const" version="opset1">
			<data element_type="f32" offset="8278" shape="" size="4"/>
			<output>
				<port id="0" precision="FP32"/>
			</output>
		</layer>
		<layer id="154" name="7987799134566" type="Const" version="opset1">
			<data element_type="f32" offset="7406" shape="" size="4"/>
			<output>
				<port id="0" precision="FP32"/>
			</output>
		</layer>
		<layer id="155" name="7988799234095" type="Const" version="opset1">
			<data element_type="f32" offset="8278" shape="" size="4"/>
			<output>
				<port id="0" precision="FP32"/>
			</output>
		</layer>
		<layer id="156" name="5905590935667" type="Const" version="opset1">
			<data element_type="f32" offset="7406" shape="" size="4"/>
			<output>
				<port id="0" precision="FP32"/>
			</output>
		</layer>
		<layer id="157" name="5906591036273" type="Const" version="opset1">
			<data element_type="f32" offset="8282" shape="" size="4"/>
			<output>
				<port id="0" precision="FP32"/>
			</output>
		</layer>
		<layer id="158" name="5907591132814" type="Const" version="opset1">
			<data element_type="f32" offset="7406" shape="" size="4"/>
			<output>
				<port id="0" precision="FP32"/>
			</output>
		</layer>
		<layer id="159" name="5908591237173" type="Const" version="opset1">
			<data element_type="f32" offset="8282" shape="" size="4"/>
			<output>
				<port id="0" precision="FP32"/>
			</output>
		</layer>
		<layer id="160" name="4675467935517" type="Const" version="opset1">
			<data element_type="f32" offset="7406" shape="" size="4"/>
			<output>
				<port id="0" precision="FP32"/>
			</output>
		</layer>
		<layer id="161" name="4676468035184" type="Const" version="opset1">
			<data element_type="f32" offset="8286" shape="" size="4"/>
			<output>
				<port id="0" precision="FP32"/>
			</output>
		</layer>
		<layer id="162" name="4677468136087" type="Const" version="opset1">
			<data element_type="f32" offset="7406" shape="" size="4"/>
			<output>
				<port id="0" precision="FP32"/>
			</output>
		</layer>
		<layer id="163" name="4678468233462" type="Const" version="opset1">
			<data element_type="f32" offset="8286" shape="" size="4"/>
			<output>
				<port id="0" precision="FP32"/>
			</output>
		</layer>
		<layer id="164" name="6235623936738" type="Const" version="opset1">
			<data element_type="f32" offset="7406" shape="" size="4"/>
			<output>
				<port id="0" precision="FP32"/>
			</output>
		</layer>
		<layer id="165" name="6236624035406" type="Const" version="opset1">
			<data element_type="f32" offset="8290" shape="" size="4"/>
			<output>
				<port id="0" precision="FP32"/>
			</output>
		</layer>
		<layer id="166" name="6237624133948" type="Const" version="opset1">
			<data element_type="f32" offset="7406" shape="" size="4"/>
			<output>
				<port id="0" precision="FP32"/>
			</output>
		</layer>
		<layer id="167" name="6238624236102" type="Const" version="opset1">
			<data element_type="f32" offset="8290" shape="" size="4"/>
			<output>
				<port id="0" precision="FP32"/>
			</output>
		</layer>
		<layer id="168" name="4405440935421" type="Const" version="opset1">
			<data element_type="f32" offset="7406" shape="" size="4"/>
			<output>
				<port id="0" precision="FP32"/>
			</output>
		</layer>
		<layer id="169" name="4406441035169" type="Const" version="opset1">
			<data element_type="f32" offset="8294" shape="" size="4"/>
			<output>
				<port id="0" precision="FP32"/>
			</output>
		</layer>
		<layer id="170" name="4407441133486" type="Const" version="opset1">
			<data element_type="f32" offset="7406" shape="" size="4"/>
			<output>
				<port id="0" precision="FP32"/>
			</output>
		</layer>
		<layer id="171" name="4408441235850" type="Const" version="opset1">
			<data element_type="f32" offset="8294" shape="" size="4"/>
			<output>
				<port id="0" precision="FP32"/>
			</output>
		</layer>
		<layer id="172" name="8045804933870" type="Const" version="opset1">
			<data element_type="f32" offset="8298" shape="1,64,1,1" size="256"/>
			<output>
				<port id="0" precision="FP32">
					<dim>1</dim>
					<dim>64</dim>
					<dim>1</dim>
					<dim>1</dim>
				</port>
			</output>
		</layer>
		<layer id="173" name="8046805035259" type="Const" version="opset1">
			<data element_type="f32" offset="8554" shape="1,64,1,1" size="256"/>
			<output>
				<port id="0" precision="FP32">
					<dim>1</dim>
					<dim>64</dim>
					<dim>1</dim>
					<dim>1</dim>
				</port>
			</output>
		</layer>
		<layer id="174" name="8047805136963" type="Const" version="opset1">
			<data element_type="f32" offset="8298" shape="1,64,1,1" size="256"/>
			<output>
				<port id="0" precision="FP32">
					<dim>1</dim>
					<dim>64</dim>
					<dim>1</dim>
					<dim>1</dim>
				</port>
			</output>
		</layer>
		<layer id="175" name="8048805233939" type="Const" version="opset1">
			<data element_type="f32" offset="8554" shape="1,64,1,1" size="256"/>
			<output>
				<port id="0" precision="FP32">
					<dim>1</dim>
					<dim>64</dim>
					<dim>1</dim>
					<dim>1</dim>
				</port>
			</output>
		</layer>
		<layer id="176" name="3198320033117" type="Const" version="opset1">
			<data element_type="f32" offset="8002" shape="1,64,1,1" size="256"/>
			<output>
				<port id="0" precision="FP32">
					<dim>1</dim>
					<dim>64</dim>
					<dim>1</dim>
					<dim>1</dim>
				</port>
			</output>
		</layer>
		<layer id="177" name="4885488933363" type="Const" version="opset1">
			<data element_type="f32" offset="7406" shape="" size="4"/>
			<output>
				<port id="0" precision="FP32"/>
			</output>
		</layer>
		<layer id="178" name="4886489033942" type="Const" version="opset1">
			<data element_type="f32" offset="8810" shape="" size="4"/>
			<output>
				<port id="0" precision="FP32"/>
			</output>
		</layer>
		<layer id="179" name="4887489135043" type="Const" version="opset1">
			<data element_type="f32" offset="7406" shape="" size="4"/>
			<output>
				<port id="0" precision="FP32"/>
			</output>
		</layer>
		<layer id="180" name="4888489233741" type="Const" version="opset1">
			<data element_type="f32" offset="8810" shape="" size="4"/>
			<output>
				<port id="0" precision="FP32"/>
			</output>
		</layer>
		<layer id="181" name="6105610937710" type="Const" version="opset1">
			<data element_type="f32" offset="7406" shape="" size="4"/>
			<output>
				<port id="0" precision="FP32"/>
			</output>
		</layer>
		<layer id="182" name="6106611037413" type="Const" version="opset1">
			<data element_type="f32" offset="8814" shape="" size="4"/>
			<output>
				<port id="0" precision="FP32"/>
			</output>
		</layer>
		<layer id="183" name="6107611137584" type="Const" version="opset1">
			<data element_type="f32" offset="7406" shape="" size="4"/>
			<output>
				<port id="0" precision="FP32"/>
			</output>
		</layer>
		<layer id="184" name="6108611234056" type="Const" version="opset1">
			<data element_type="f32" offset="8814" shape="" size="4"/>
			<output>
				<port id="0" precision="FP32"/>
			</output>
		</layer>
		<layer id="185" name="7065706934647" type="Const" version="opset1">
			<data element_type="f32" offset="7406" shape="" size="4"/>
			<output>
				<port id="0" precision="FP32"/>
			</output>
		</layer>
		<layer id="186" name="7066707036375" type="Const" version="opset1">
			<data element_type="f32" offset="8818" shape="" size="4"/>
			<output>
				<port id="0" precision="FP32"/>
			</output>
		</layer>
		<layer id="187" name="7067707136813" type="Const" version="opset1">
			<data element_type="f32" offset="7406" shape="" size="4"/>
			<output>
				<port id="0" precision="FP32"/>
			</output>
		</layer>
		<layer id="188" name="7068707235949" type="Const" version="opset1">
			<data element_type="f32" offset="8818" shape="" size="4"/>
			<output>
				<port id="0" precision="FP32"/>
			</output>
		</layer>
		<layer id="189" name="7155715937632" type="Const" version="opset1">
			<data element_type="f32" offset="7406" shape="" size="4"/>
			<output>
				<port id="0" precision="FP32"/>
			</output>
		</layer>
		<layer id="190" name="7156716034287" type="Const" version="opset1">
			<data element_type="f32" offset="8822" shape="" size="4"/>
			<output>
				<port id="0" precision="FP32"/>
			</output>
		</layer>
		<layer id="191" name="7157716134953" type="Const" version="opset1">
			<data element_type="f32" offset="7406" shape="" size="4"/>
			<output>
				<port id="0" precision="FP32"/>
			</output>
		</layer>
		<layer id="192" name="7158716234701" type="Const" version="opset1">
			<data element_type="f32" offset="8822" shape="" size="4"/>
			<output>
				<port id="0" precision="FP32"/>
			</output>
		</layer>
		<layer id="193" name="6365636935100" type="Const" version="opset1">
			<data element_type="f32" offset="8826" shape="" size="4"/>
			<output>
				<port id="0" precision="FP32"/>
			</output>
		</layer>
		<layer id="194" name="6366637037476" type="Const" version="opset1">
			<data element_type="f32" offset="8830" shape="" size="4"/>
			<output>
				<port id="0" precision="FP32"/>
			</output>
		</layer>
		<layer id="195" name="6367637136696" type="Const" version="opset1">
			<data element_type="f32" offset="8826" shape="" size="4"/>
			<output>
				<port id="0" precision="FP32"/>
			</output>
		</layer>
		<layer id="196" name="6368637235250" type="Const" version="opset1">
			<data element_type="f32" offset="8830" shape="" size="4"/>
			<output>
				<port id="0" precision="FP32"/>
			</output>
		</layer>
		<layer id="197" name="7545754935127" type="Const" version="opset1">
			<data element_type="f32" offset="7406" shape="" size="4"/>
			<output>
				<port id="0" precision="FP32"/>
			</output>
		</layer>
		<layer id="198" name="7546755036240" type="Const" version="opset1">
			<data element_type="f32" offset="8834" shape="" size="4"/>
			<output>
				<port id="0" precision="FP32"/>
			</output>
		</layer>
		<layer id="199" name="7547755137668" type="Const" version="opset1">
			<data element_type="f32" offset="7406" shape="" size="4"/>
			<output>
				<port id="0" precision="FP32"/>
			</output>
		</layer>
		<layer id="200" name="7548755236138" type="Const" version="opset1">
			<data element_type="f32" offset="8834" shape="" size="4"/>
			<output>
				<port id="0" precision="FP32"/>
			</output>
		</layer>
		<layer id="201" name="5235523937635" type="Const" version="opset1">
			<data element_type="f32" offset="7406" shape="" size="4"/>
			<output>
				<port id="0" precision="FP32"/>
			</output>
		</layer>
		<layer id="202" name="5236524035322" type="Const" version="opset1">
			<data element_type="f32" offset="8838" shape="" size="4"/>
			<output>
				<port id="0" precision="FP32"/>
			</output>
		</layer>
		<layer id="203" name="5237524134023" type="Const" version="opset1">
			<data element_type="f32" offset="7406" shape="" size="4"/>
			<output>
				<port id="0" precision="FP32"/>
			</output>
		</layer>
		<layer id="204" name="5238524234707" type="Const" version="opset1">
			<data element_type="f32" offset="8838" shape="" size="4"/>
			<output>
				<port id="0" precision="FP32"/>
			</output>
		</layer>
		<layer id="205" name="8105810933057" type="Const" version="opset1">
			<data element_type="f32" offset="7406" shape="" size="4"/>
			<output>
				<port id="0" precision="FP32"/>
			</output>
		</layer>
		<layer id="206" name="8106811037512" type="Const" version="opset1">
			<data element_type="f32" offset="8842" shape="" size="4"/>
			<output>
				<port id="0" precision="FP32"/>
			</output>
		</layer>
		<layer id="207" name="8107811133132" type="Const" version="opset1">
			<data element_type="f32" offset="7406" shape="" size="4"/>
			<output>
				<port id="0" precision="FP32"/>
			</output>
		</layer>
		<layer id="208" name="8108811233264" type="Const" version="opset1">
			<data element_type="f32" offset="8842" shape="" size="4"/>
			<output>
				<port id="0" precision="FP32"/>
			</output>
		</layer>
		<layer id="209" name="6825682935328" type="Const" version="opset1">
			<data element_type="f32" offset="7406" shape="" size="4"/>
			<output>
				<port id="0" precision="FP32"/>
			</output>
		</layer>
		<layer id="210" name="6826683033459" type="Const" version="opset1">
			<data element_type="f32" offset="8846" shape="" size="4"/>
			<output>
				<port id="0" precision="FP32"/>
			</output>
		</layer>
		<layer id="211" name="6827683134794" type="Const" version="opset1">
			<data element_type="f32" offset="7406" shape="" size="4"/>
			<output>
				<port id="0" precision="FP32"/>
			</output>
		</layer>
		<layer id="212" name="6828683233894" type="Const" version="opset1">
			<data element_type="f32" offset="8846" shape="" size="4"/>
			<output>
				<port id="0" precision="FP32"/>
			</output>
		</layer>
		<layer id="213" name="7975797934668" type="Const" version="opset1">
			<data element_type="f32" offset="7406" shape="" size="4"/>
			<output>
				<port id="0" precision="FP32"/>
			</output>
		</layer>
		<layer id="214" name="7976798035907" type="Const" version="opset1">
			<data element_type="f32" offset="8850" shape="" size="4"/>
			<output>
				<port id="0" precision="FP32"/>
			</output>
		</layer>
		<layer id="215" name="7977798135580" type="Const" version="opset1">
			<data element_type="f32" offset="7406" shape="" size="4"/>
			<output>
				<port id="0" precision="FP32"/>
			</output>
		</layer>
		<layer id="216" name="7978798233669" type="Const" version="opset1">
			<data element_type="f32" offset="8850" shape="" size="4"/>
			<output>
				<port id="0" precision="FP32"/>
			</output>
		</layer>
		<layer id="217" name="106581066237368" type="Const" version="opset1">
			<data element_type="f32" offset="8854" shape="" size="4"/>
			<output>
				<port id="0" precision="FP32"/>
			</output>
		</layer>
		<layer id="218" name="106591066337890" type="Const" version="opset1">
			<data element_type="f32" offset="8858" shape="" size="4"/>
			<output>
				<port id="0" precision="FP32"/>
			</output>
		</layer>
		<layer id="219" name="106601066436591" type="Const" version="opset1">
			<data element_type="f32" offset="8854" shape="" size="4"/>
			<output>
				<port id="0" precision="FP32"/>
			</output>
		</layer>
		<layer id="220" name="106611066536030" type="Const" version="opset1">
			<data element_type="f32" offset="8858" shape="" size="4"/>
			<output>
				<port id="0" precision="FP32"/>
			</output>
		</layer>
		<layer id="221" name="Constant_5659177735484" type="Const" version="opset1">
			<data element_type="i64" offset="7450" shape="1" size="8"/>
			<rt_info>
				<attribute name="fused_names" value="Constant_5659" version="0"/>
			</rt_info>
			<output>
				<port id="0" precision="I64">
					<dim>1</dim>
				</port>
			</output>
		</layer>
		<layer id="222" name="875177535856" type="Const" version="opset1">
			<data element_type="i64" offset="7458" shape="3" size="24"/>
			<rt_info>
				<attribute name="fused_names" value="875" version="0"/>
			</rt_info>
			<output>
				<port id="0" names="875" precision="I64">
					<dim>3</dim>
				</port>
			</output>
		</layer>
		<layer id="223" name="107381074234890" type="Const" version="opset1">
			<data element_type="f32" offset="7406" shape="" size="4"/>
			<output>
				<port id="0" precision="FP32"/>
			</output>
		</layer>
		<layer id="224" name="107391074336762" type="Const" version="opset1">
			<data element_type="f32" offset="8862" shape="" size="4"/>
			<output>
				<port id="0" precision="FP32"/>
			</output>
		</layer>
		<layer id="225" name="107401074432901" type="Const" version="opset1">
			<data element_type="f32" offset="7406" shape="" size="4"/>
			<output>
				<port id="0" precision="FP32"/>
			</output>
		</layer>
		<layer id="226" name="107411074533951" type="Const" version="opset1">
			<data element_type="f32" offset="8862" shape="" size="4"/>
			<output>
				<port id="0" precision="FP32"/>
			</output>
		</layer>
		<layer id="227" name="5745574933045" type="Const" version="opset1">
			<data element_type="f32" offset="7406" shape="" size="4"/>
			<output>
				<port id="0" precision="FP32"/>
			</output>
		</layer>
		<layer id="228" name="5746575033564" type="Const" version="opset1">
			<data element_type="f32" offset="8866" shape="" size="4"/>
			<output>
				<port id="0" precision="FP32"/>
			</output>
		</layer>
		<layer id="229" name="5747575135640" type="Const" version="opset1">
			<data element_type="f32" offset="7406" shape="" size="4"/>
			<output>
				<port id="0" precision="FP32"/>
			</output>
		</layer>
		<layer id="230" name="5748575233798" type="Const" version="opset1">
			<data element_type="f32" offset="8866" shape="" size="4"/>
			<output>
				<port id="0" precision="FP32"/>
			</output>
		</layer>
		<layer id="231" name="4575457937056" type="Const" version="opset1">
			<data element_type="f32" offset="8870" shape="1,48,1,1" size="192"/>
			<output>
				<port id="0" precision="FP32">
					<dim>1</dim>
					<dim>48</dim>
					<dim>1</dim>
					<dim>1</dim>
				</port>
			</output>
		</layer>
		<layer id="232" name="4576458035700" type="Const" version="opset1">
			<data element_type="f32" offset="9062" shape="1,48,1,1" size="192"/>
			<output>
				<port id="0" precision="FP32">
					<dim>1</dim>
					<dim>48</dim>
					<dim>1</dim>
					<dim>1</dim>
				</port>
			</output>
		</layer>
		<layer id="233" name="4577458135190" type="Const" version="opset1">
			<data element_type="f32" offset="8870" shape="1,48,1,1" size="192"/>
			<output>
				<port id="0" precision="FP32">
					<dim>1</dim>
					<dim>48</dim>
					<dim>1</dim>
					<dim>1</dim>
				</port>
			</output>
		</layer>
		<layer id="234" name="4578458235754" type="Const" version="opset1">
			<data element_type="f32" offset="9062" shape="1,48,1,1" size="192"/>
			<output>
				<port id="0" precision="FP32">
					<dim>1</dim>
					<dim>48</dim>
					<dim>1</dim>
					<dim>1</dim>
				</port>
			</output>
		</layer>
		<layer id="235" name="3158316035910" type="Const" version="opset1">
			<data element_type="f32" offset="9254" shape="1,48,1,1" size="192"/>
			<output>
				<port id="0" precision="FP32">
					<dim>1</dim>
					<dim>48</dim>
					<dim>1</dim>
					<dim>1</dim>
				</port>
			</output>
		</layer>
		<layer id="236" name="4285428933639" type="Const" version="opset1">
			<data element_type="f32" offset="7406" shape="" size="4"/>
			<output>
				<port id="0" precision="FP32"/>
			</output>
		</layer>
		<layer id="237" name="4286429033735" type="Const" version="opset1">
			<data element_type="f32" offset="9446" shape="" size="4"/>
			<output>
				<port id="0" precision="FP32"/>
			</output>
		</layer>
		<layer id="238" name="4287429135046" type="Const" version="opset1">
			<data element_type="f32" offset="7406" shape="" size="4"/>
			<output>
				<port id="0" precision="FP32"/>
			</output>
		</layer>
		<layer id="239" name="4288429234047" type="Const" version="opset1">
			<data element_type="f32" offset="9446" shape="" size="4"/>
			<output>
				<port id="0" precision="FP32"/>
			</output>
		</layer>
		<layer id="240" name="6375637934248" type="Const" version="opset1">
			<data element_type="f32" offset="7406" shape="" size="4"/>
			<output>
				<port id="0" precision="FP32"/>
			</output>
		</layer>
		<layer id="241" name="6376638033600" type="Const" version="opset1">
			<data element_type="f32" offset="9450" shape="" size="4"/>
			<output>
				<port id="0" precision="FP32"/>
			</output>
		</layer>
		<layer id="242" name="6377638136429" type="Const" version="opset1">
			<data element_type="f32" offset="7406" shape="" size="4"/>
			<output>
				<port id="0" precision="FP32"/>
			</output>
		</layer>
		<layer id="243" name="6378638234161" type="Const" version="opset1">
			<data element_type="f32" offset="9450" shape="" size="4"/>
			<output>
				<port id="0" precision="FP32"/>
			</output>
		</layer>
		<layer id="244" name="4265426933069" type="Const" version="opset1">
			<data element_type="f32" offset="9454" shape="" size="4"/>
			<output>
				<port id="0" precision="FP32"/>
			</output>
		</layer>
		<layer id="245" name="4266427033453" type="Const" version="opset1">
			<data element_type="f32" offset="9458" shape="" size="4"/>
			<output>
				<port id="0" precision="FP32"/>
			</output>
		</layer>
		<layer id="246" name="4267427135469" type="Const" version="opset1">
			<data element_type="f32" offset="9454" shape="" size="4"/>
			<output>
				<port id="0" precision="FP32"/>
			</output>
		</layer>
		<layer id="247" name="4268427232811" type="Const" version="opset1">
			<data element_type="f32" offset="9458" shape="" size="4"/>
			<output>
				<port id="0" precision="FP32"/>
			</output>
		</layer>
		<layer id="248" name="5095509933573" type="Const" version="opset1">
			<data element_type="f32" offset="7406" shape="" size="4"/>
			<output>
				<port id="0" precision="FP32"/>
			</output>
		</layer>
		<layer id="249" name="5096510036708" type="Const" version="opset1">
			<data element_type="f32" offset="9462" shape="" size="4"/>
			<output>
				<port id="0" precision="FP32"/>
			</output>
		</layer>
		<layer id="250" name="5097510133063" type="Const" version="opset1">
			<data element_type="f32" offset="7406" shape="" size="4"/>
			<output>
				<port id="0" precision="FP32"/>
			</output>
		</layer>
		<layer id="251" name="5098510237653" type="Const" version="opset1">
			<data element_type="f32" offset="9462" shape="" size="4"/>
			<output>
				<port id="0" precision="FP32"/>
			</output>
		</layer>
		<layer id="252" name="5035503936795" type="Const" version="opset1">
			<data element_type="f32" offset="7406" shape="" size="4"/>
			<output>
				<port id="0" precision="FP32"/>
			</output>
		</layer>
		<layer id="253" name="5036504035763" type="Const" version="opset1">
			<data element_type="f32" offset="9466" shape="" size="4"/>
			<output>
				<port id="0" precision="FP32"/>
			</output>
		</layer>
		<layer id="254" name="5037504135931" type="Const" version="opset1">
			<data element_type="f32" offset="7406" shape="" size="4"/>
			<output>
				<port id="0" precision="FP32"/>
			</output>
		</layer>
		<layer id="255" name="5038504233222" type="Const" version="opset1">
			<data element_type="f32" offset="9466" shape="" size="4"/>
			<output>
				<port id="0" precision="FP32"/>
			</output>
		</layer>
		<layer id="256" name="6345634936207" type="Const" version="opset1">
			<data element_type="f32" offset="7406" shape="" size="4"/>
			<output>
				<port id="0" precision="FP32"/>
			</output>
		</layer>
		<layer id="257" name="6346635033915" type="Const" version="opset1">
			<data element_type="f32" offset="9470" shape="" size="4"/>
			<output>
				<port id="0" precision="FP32"/>
			</output>
		</layer>
		<layer id="258" name="6347635136489" type="Const" version="opset1">
			<data element_type="f32" offset="7406" shape="" size="4"/>
			<output>
				<port id="0" precision="FP32"/>
			</output>
		</layer>
		<layer id="259" name="6348635234509" type="Const" version="opset1">
			<data element_type="f32" offset="9470" shape="" size="4"/>
			<output>
				<port id="0" precision="FP32"/>
			</output>
		</layer>
		<layer id="260" name="8025802937212" type="Const" version="opset1">
			<data element_type="f32" offset="7406" shape="" size="4"/>
			<output>
				<port id="0" precision="FP32"/>
			</output>
		</layer>
		<layer id="261" name="8026803034017" type="Const" version="opset1">
			<data element_type="f32" offset="9474" shape="" size="4"/>
			<output>
				<port id="0" precision="FP32"/>
			</output>
		</layer>
		<layer id="262" name="8027803137578" type="Const" version="opset1">
			<data element_type="f32" offset="7406" shape="" size="4"/>
			<output>
				<port id="0" precision="FP32"/>
			</output>
		</layer>
		<layer id="263" name="8028803236927" type="Const" version="opset1">
			<data element_type="f32" offset="9474" shape="" size="4"/>
			<output>
				<port id="0" precision="FP32"/>
			</output>
		</layer>
		<layer id="264" name="8165816934767" type="Const" version="opset1">
			<data element_type="f32" offset="7406" shape="" size="4"/>
			<output>
				<port id="0" precision="FP32"/>
			</output>
		</layer>
		<layer id="265" name="8166817037230" type="Const" version="opset1">
			<data element_type="f32" offset="9478" shape="" size="4"/>
			<output>
				<port id="0" precision="FP32"/>
			</output>
		</layer>
		<layer id="266" name="8167817135160" type="Const" version="opset1">
			<data element_type="f32" offset="7406" shape="" size="4"/>
			<output>
				<port id="0" precision="FP32"/>
			</output>
		</layer>
		<layer id="267" name="8168817234221" type="Const" version="opset1">
			<data element_type="f32" offset="9478" shape="" size="4"/>
			<output>
				<port id="0" precision="FP32"/>
			</output>
		</layer>
		<layer id="268" name="5445544934053" type="Const" version="opset1">
			<data element_type="f32" offset="7406" shape="" size="4"/>
			<output>
				<port id="0" precision="FP32"/>
			</output>
		</layer>
		<layer id="269" name="5446545032865" type="Const" version="opset1">
			<data element_type="f32" offset="9482" shape="" size="4"/>
			<output>
				<port id="0" precision="FP32"/>
			</output>
		</layer>
		<layer id="270" name="5447545133576" type="Const" version="opset1">
			<data element_type="f32" offset="7406" shape="" size="4"/>
			<output>
				<port id="0" precision="FP32"/>
			</output>
		</layer>
		<layer id="271" name="5448545232757" type="Const" version="opset1">
			<data element_type="f32" offset="9482" shape="" size="4"/>
			<output>
				<port id="0" precision="FP32"/>
			</output>
		</layer>
		<layer id="272" name="4245424936771" type="Const" version="opset1">
			<data element_type="f32" offset="9486" shape="1,48,1,1" size="192"/>
			<output>
				<port id="0" precision="FP32">
					<dim>1</dim>
					<dim>48</dim>
					<dim>1</dim>
					<dim>1</dim>
				</port>
			</output>
		</layer>
		<layer id="273" name="4246425034062" type="Const" version="opset1">
			<data element_type="f32" offset="9678" shape="1,48,1,1" size="192"/>
			<output>
				<port id="0" precision="FP32">
					<dim>1</dim>
					<dim>48</dim>
					<dim>1</dim>
					<dim>1</dim>
				</port>
			</output>
		</layer>
		<layer id="274" name="4247425135019" type="Const" version="opset1">
			<data element_type="f32" offset="9486" shape="1,48,1,1" size="192"/>
			<output>
				<port id="0" precision="FP32">
					<dim>1</dim>
					<dim>48</dim>
					<dim>1</dim>
					<dim>1</dim>
				</port>
			</output>
		</layer>
		<layer id="275" name="4248425235178" type="Const" version="opset1">
			<data element_type="f32" offset="9678" shape="1,48,1,1" size="192"/>
			<output>
				<port id="0" precision="FP32">
					<dim>1</dim>
					<dim>48</dim>
					<dim>1</dim>
					<dim>1</dim>
				</port>
			</output>
		</layer>
		<layer id="276" name="3118312035388" type="Const" version="opset1">
			<data element_type="f32" offset="9254" shape="1,48,1,1" size="192"/>
			<output>
				<port id="0" precision="FP32">
					<dim>1</dim>
					<dim>48</dim>
					<dim>1</dim>
					<dim>1</dim>
				</port>
			</output>
		</layer>
		<layer id="277" name="5465546935163" type="Const" version="opset1">
			<data element_type="f32" offset="7406" shape="" size="4"/>
			<output>
				<port id="0" precision="FP32"/>
			</output>
		</layer>
		<layer id="278" name="5466547036801" type="Const" version="opset1">
			<data element_type="f32" offset="9870" shape="" size="4"/>
			<output>
				<port id="0" precision="FP32"/>
			</output>
		</layer>
		<layer id="279" name="5467547135913" type="Const" version="opset1">
			<data element_type="f32" offset="7406" shape="" size="4"/>
			<output>
				<port id="0" precision="FP32"/>
			</output>
		</layer>
		<layer id="280" name="5468547234884" type="Const" version="opset1">
			<data element_type="f32" offset="9870" shape="" size="4"/>
			<output>
				<port id="0" precision="FP32"/>
			</output>
		</layer>
		<layer id="281" name="6395639936423" type="Const" version="opset1">
			<data element_type="f32" offset="7406" shape="" size="4"/>
			<output>
				<port id="0" precision="FP32"/>
			</output>
		</layer>
		<layer id="282" name="6396640033078" type="Const" version="opset1">
			<data element_type="f32" offset="9874" shape="" size="4"/>
			<output>
				<port id="0" precision="FP32"/>
			</output>
		</layer>
		<layer id="283" name="6397640134314" type="Const" version="opset1">
			<data element_type="f32" offset="7406" shape="" size="4"/>
			<output>
				<port id="0" precision="FP32"/>
			</output>
		</layer>
		<layer id="284" name="6398640237122" type="Const" version="opset1">
			<data element_type="f32" offset="9874" shape="" size="4"/>
			<output>
				<port id="0" precision="FP32"/>
			</output>
		</layer>
		<layer id="285" name="5455545936825" type="Const" version="opset1">
			<data element_type="f32" offset="7406" shape="" size="4"/>
			<output>
				<port id="0" precision="FP32"/>
			</output>
		</layer>
		<layer id="286" name="5456546034155" type="Const" version="opset1">
			<data element_type="f32" offset="9878" shape="" size="4"/>
			<output>
				<port id="0" precision="FP32"/>
			</output>
		</layer>
		<layer id="287" name="5457546137350" type="Const" version="opset1">
			<data element_type="f32" offset="7406" shape="" size="4"/>
			<output>
				<port id="0" precision="FP32"/>
			</output>
		</layer>
		<layer id="288" name="5458546237731" type="Const" version="opset1">
			<data element_type="f32" offset="9878" shape="" size="4"/>
			<output>
				<port id="0" precision="FP32"/>
			</output>
		</layer>
		<layer id="289" name="6985698936369" type="Const" version="opset1">
			<data element_type="f32" offset="7406" shape="" size="4"/>
			<output>
				<port id="0" precision="FP32"/>
			</output>
		</layer>
		<layer id="290" name="6986699034293" type="Const" version="opset1">
			<data element_type="f32" offset="9882" shape="" size="4"/>
			<output>
				<port id="0" precision="FP32"/>
			</output>
		</layer>
		<layer id="291" name="6987699134179" type="Const" version="opset1">
			<data element_type="f32" offset="7406" shape="" size="4"/>
			<output>
				<port id="0" precision="FP32"/>
			</output>
		</layer>
		<layer id="292" name="6988699234026" type="Const" version="opset1">
			<data element_type="f32" offset="9882" shape="" size="4"/>
			<output>
				<port id="0" precision="FP32"/>
			</output>
		</layer>
		<layer id="293" name="7005700934218" type="Const" version="opset1">
			<data element_type="f32" offset="9886" shape="" size="4"/>
			<output>
				<port id="0" precision="FP32"/>
			</output>
		</layer>
		<layer id="294" name="7006701034860" type="Const" version="opset1">
			<data element_type="f32" offset="9890" shape="" size="4"/>
			<output>
				<port id="0" precision="FP32"/>
			</output>
		</layer>
		<layer id="295" name="7007701133225" type="Const" version="opset1">
			<data element_type="f32" offset="9886" shape="" size="4"/>
			<output>
				<port id="0" precision="FP32"/>
			</output>
		</layer>
		<layer id="296" name="7008701234635" type="Const" version="opset1">
			<data element_type="f32" offset="9890" shape="" size="4"/>
			<output>
				<port id="0" precision="FP32"/>
			</output>
		</layer>
		<layer id="297" name="8285828933729" type="Const" version="opset1">
			<data element_type="f32" offset="7406" shape="" size="4"/>
			<output>
				<port id="0" precision="FP32"/>
			</output>
		</layer>
		<layer id="298" name="8286829036804" type="Const" version="opset1">
			<data element_type="f32" offset="9894" shape="" size="4"/>
			<output>
				<port id="0" precision="FP32"/>
			</output>
		</layer>
		<layer id="299" name="8287829133516" type="Const" version="opset1">
			<data element_type="f32" offset="7406" shape="" size="4"/>
			<output>
				<port id="0" precision="FP32"/>
			</output>
		</layer>
		<layer id="300" name="8288829236567" type="Const" version="opset1">
			<data element_type="f32" offset="9894" shape="" size="4"/>
			<output>
				<port id="0" precision="FP32"/>
			</output>
		</layer>
		<layer id="301" name="5515551933732" type="Const" version="opset1">
			<data element_type="f32" offset="7406" shape="" size="4"/>
			<output>
				<port id="0" precision="FP32"/>
			</output>
		</layer>
		<layer id="302" name="5516552037257" type="Const" version="opset1">
			<data element_type="f32" offset="9898" shape="" size="4"/>
			<output>
				<port id="0" precision="FP32"/>
			</output>
		</layer>
		<layer id="303" name="5517552133228" type="Const" version="opset1">
			<data element_type="f32" offset="7406" shape="" size="4"/>
			<output>
				<port id="0" precision="FP32"/>
			</output>
		</layer>
		<layer id="304" name="5518552237251" type="Const" version="opset1">
			<data element_type="f32" offset="9898" shape="" size="4"/>
			<output>
				<port id="0" precision="FP32"/>
			</output>
		</layer>
		<layer id="305" name="8185818936438" type="Const" version="opset1">
			<data element_type="f32" offset="7406" shape="" size="4"/>
			<output>
				<port id="0" precision="FP32"/>
			</output>
		</layer>
		<layer id="306" name="8186819034605" type="Const" version="opset1">
			<data element_type="f32" offset="9902" shape="" size="4"/>
			<output>
				<port id="0" precision="FP32"/>
			</output>
		</layer>
		<layer id="307" name="8187819133825" type="Const" version="opset1">
			<data element_type="f32" offset="7406" shape="" size="4"/>
			<output>
				<port id="0" precision="FP32"/>
			</output>
		</layer>
		<layer id="308" name="8188819234014" type="Const" version="opset1">
			<data element_type="f32" offset="9902" shape="" size="4"/>
			<output>
				<port id="0" precision="FP32"/>
			</output>
		</layer>
		<layer id="309" name="6695669935598" type="Const" version="opset1">
			<data element_type="f32" offset="7406" shape="" size="4"/>
			<output>
				<port id="0" precision="FP32"/>
			</output>
		</layer>
		<layer id="310" name="6696670033723" type="Const" version="opset1">
			<data element_type="f32" offset="9906" shape="" size="4"/>
			<output>
				<port id="0" precision="FP32"/>
			</output>
		</layer>
		<layer id="311" name="6697670135310" type="Const" version="opset1">
			<data element_type="f32" offset="7406" shape="" size="4"/>
			<output>
				<port id="0" precision="FP32"/>
			</output>
		</layer>
		<layer id="312" name="6698670234677" type="Const" version="opset1">
			<data element_type="f32" offset="9906" shape="" size="4"/>
			<output>
				<port id="0" precision="FP32"/>
			</output>
		</layer>
		<layer id="313" name="6215621934209" type="Const" version="opset1">
			<data element_type="f32" offset="7406" shape="" size="4"/>
			<output>
				<port id="0" precision="FP32"/>
			</output>
		</layer>
		<layer id="314" name="6216622036663" type="Const" version="opset1">
			<data element_type="f32" offset="9910" shape="" size="4"/>
			<output>
				<port id="0" precision="FP32"/>
			</output>
		</layer>
		<layer id="315" name="6217622135799" type="Const" version="opset1">
			<data element_type="f32" offset="7406" shape="" size="4"/>
			<output>
				<port id="0" precision="FP32"/>
			</output>
		</layer>
		<layer id="316" name="6218622234356" type="Const" version="opset1">
			<data element_type="f32" offset="9910" shape="" size="4"/>
			<output>
				<port id="0" precision="FP32"/>
			</output>
		</layer>
		<layer id="317" name="106181062237683" type="Const" version="opset1">
			<data element_type="f32" offset="9914" shape="" size="4"/>
			<output>
				<port id="0" precision="FP32"/>
			</output>
		</layer>
		<layer id="318" name="106191062333246" type="Const" version="opset1">
			<data element_type="f32" offset="9918" shape="" size="4"/>
			<output>
				<port id="0" precision="FP32"/>
			</output>
		</layer>
		<layer id="319" name="106201062433717" type="Const" version="opset1">
			<data element_type="f32" offset="9914" shape="" size="4"/>
			<output>
				<port id="0" precision="FP32"/>
			</output>
		</layer>
		<layer id="320" name="106211062537017" type="Const" version="opset1">
			<data element_type="f32" offset="9918" shape="" size="4"/>
			<output>
				<port id="0" precision="FP32"/>
			</output>
		</layer>
		<layer id="321" name="Constant_2919140737545" type="Const" version="opset1">
			<data element_type="i64" offset="7450" shape="1" size="8"/>
			<rt_info>
				<attribute name="fused_names" value="Constant_2919" version="0"/>
			</rt_info>
			<output>
				<port id="0" precision="I64">
					<dim>1</dim>
				</port>
			</output>
		</layer>
		<layer id="322" name="688140534617" type="Const" version="opset1">
			<data element_type="i64" offset="7458" shape="3" size="24"/>
			<rt_info>
				<attribute name="fused_names" value="688" version="0"/>
			</rt_info>
			<output>
				<port id="0" names="688" precision="I64">
					<dim>3</dim>
				</port>
			</output>
		</layer>
		<layer id="323" name="106981070234728" type="Const" version="opset1">
			<data element_type="f32" offset="7406" shape="" size="4"/>
			<output>
				<port id="0" precision="FP32"/>
			</output>
		</layer>
		<layer id="324" name="106991070334803" type="Const" version="opset1">
			<data element_type="f32" offset="9922" shape="" size="4"/>
			<output>
				<port id="0" precision="FP32"/>
			</output>
		</layer>
		<layer id="325" name="107001070436654" type="Const" version="opset1">
			<data element_type="f32" offset="7406" shape="" size="4"/>
			<output>
				<port id="0" precision="FP32"/>
			</output>
		</layer>
		<layer id="326" name="107011070533954" type="Const" version="opset1">
			<data element_type="f32" offset="9922" shape="" size="4"/>
			<output>
				<port id="0" precision="FP32"/>
			</output>
		</layer>
		<layer id="327" name="4395439934800" type="Const" version="opset1">
			<data element_type="f32" offset="7406" shape="" size="4"/>
			<output>
				<port id="0" precision="FP32"/>
			</output>
		</layer>
		<layer id="328" name="4396440037764" type="Const" version="opset1">
			<data element_type="f32" offset="9926" shape="" size="4"/>
			<output>
				<port id="0" precision="FP32"/>
			</output>
		</layer>
		<layer id="329" name="4397440137773" type="Const" version="opset1">
			<data element_type="f32" offset="7406" shape="" size="4"/>
			<output>
				<port id="0" precision="FP32"/>
			</output>
		</layer>
		<layer id="330" name="4398440233219" type="Const" version="opset1">
			<data element_type="f32" offset="9926" shape="" size="4"/>
			<output>
				<port id="0" precision="FP32"/>
			</output>
		</layer>
		<layer id="331" name="6935693934002" type="Const" version="opset1">
			<data element_type="f32" offset="9930" shape="1,32,1,1" size="128"/>
			<output>
				<port id="0" precision="FP32">
					<dim>1</dim>
					<dim>32</dim>
					<dim>1</dim>
					<dim>1</dim>
				</port>
			</output>
		</layer>
		<layer id="332" name="6936694034128" type="Const" version="opset1">
			<data element_type="f32" offset="10058" shape="1,32,1,1" size="128"/>
			<output>
				<port id="0" precision="FP32">
					<dim>1</dim>
					<dim>32</dim>
					<dim>1</dim>
					<dim>1</dim>
				</port>
			</output>
		</layer>
		<layer id="333" name="6937694136843" type="Const" version="opset1">
			<data element_type="f32" offset="9930" shape="1,32,1,1" size="128"/>
			<output>
				<port id="0" precision="FP32">
					<dim>1</dim>
					<dim>32</dim>
					<dim>1</dim>
					<dim>1</dim>
				</port>
			</output>
		</layer>
		<layer id="334" name="6938694237689" type="Const" version="opset1">
			<data element_type="f32" offset="10058" shape="1,32,1,1" size="128"/>
			<output>
				<port id="0" precision="FP32">
					<dim>1</dim>
					<dim>32</dim>
					<dim>1</dim>
					<dim>1</dim>
				</port>
			</output>
		</layer>
		<layer id="335" name="3078308033813" type="Const" version="opset1">
			<data element_type="f32" offset="32" shape="1,32,1,1" size="128"/>
			<output>
				<port id="0" precision="FP32">
					<dim>1</dim>
					<dim>32</dim>
					<dim>1</dim>
					<dim>1</dim>
				</port>
			</output>
		</layer>
		<layer id="336" name="7295729936555" type="Const" version="opset1">
			<data element_type="f32" offset="7406" shape="" size="4"/>
			<output>
				<port id="0" precision="FP32"/>
			</output>
		</layer>
		<layer id="337" name="7296730037485" type="Const" version="opset1">
			<data element_type="f32" offset="10186" shape="" size="4"/>
			<output>
				<port id="0" precision="FP32"/>
			</output>
		</layer>
		<layer id="338" name="7297730137047" type="Const" version="opset1">
			<data element_type="f32" offset="7406" shape="" size="4"/>
			<output>
				<port id="0" precision="FP32"/>
			</output>
		</layer>
		<layer id="339" name="7298730236318" type="Const" version="opset1">
			<data element_type="f32" offset="10186" shape="" size="4"/>
			<output>
				<port id="0" precision="FP32"/>
			</output>
		</layer>
		<layer id="340" name="7015701936627" type="Const" version="opset1">
			<data element_type="f32" offset="7406" shape="" size="4"/>
			<output>
				<port id="0" precision="FP32"/>
			</output>
		</layer>
		<layer id="341" name="7016702035535" type="Const" version="opset1">
			<data element_type="f32" offset="10190" shape="" size="4"/>
			<output>
				<port id="0" precision="FP32"/>
			</output>
		</layer>
		<layer id="342" name="7017702136975" type="Const" version="opset1">
			<data element_type="f32" offset="7406" shape="" size="4"/>
			<output>
				<port id="0" precision="FP32"/>
			</output>
		</layer>
		<layer id="343" name="7018702234122" type="Const" version="opset1">
			<data element_type="f32" offset="10190" shape="" size="4"/>
			<output>
				<port id="0" precision="FP32"/>
			</output>
		</layer>
		<layer id="344" name="5985598937308" type="Const" version="opset1">
			<data element_type="f32" offset="10194" shape="" size="4"/>
			<output>
				<port id="0" precision="FP32"/>
			</output>
		</layer>
		<layer id="345" name="5986599036324" type="Const" version="opset1">
			<data element_type="f32" offset="10198" shape="" size="4"/>
			<output>
				<port id="0" precision="FP32"/>
			</output>
		</layer>
		<layer id="346" name="5987599134146" type="Const" version="opset1">
			<data element_type="f32" offset="10194" shape="" size="4"/>
			<output>
				<port id="0" precision="FP32"/>
			</output>
		</layer>
		<layer id="347" name="5988599237917" type="Const" version="opset1">
			<data element_type="f32" offset="10198" shape="" size="4"/>
			<output>
				<port id="0" precision="FP32"/>
			</output>
		</layer>
		<layer id="348" name="5685568936396" type="Const" version="opset1">
			<data element_type="f32" offset="7406" shape="" size="4"/>
			<output>
				<port id="0" precision="FP32"/>
			</output>
		</layer>
		<layer id="349" name="5686569033192" type="Const" version="opset1">
			<data element_type="f32" offset="10202" shape="" size="4"/>
			<output>
				<port id="0" precision="FP32"/>
			</output>
		</layer>
		<layer id="350" name="5687569134083" type="Const" version="opset1">
			<data element_type="f32" offset="7406" shape="" size="4"/>
			<output>
				<port id="0" precision="FP32"/>
			</output>
		</layer>
		<layer id="351" name="5688569237767" type="Const" version="opset1">
			<data element_type="f32" offset="10202" shape="" size="4"/>
			<output>
				<port id="0" precision="FP32"/>
			</output>
		</layer>
		<layer id="352" name="5645564932769" type="Const" version="opset1">
			<data element_type="f32" offset="7406" shape="" size="4"/>
			<output>
				<port id="0" precision="FP32"/>
			</output>
		</layer>
		<layer id="353" name="5646565036747" type="Const" version="opset1">
			<data element_type="f32" offset="10206" shape="" size="4"/>
			<output>
				<port id="0" precision="FP32"/>
			</output>
		</layer>
		<layer id="354" name="5647565133432" type="Const" version="opset1">
			<data element_type="f32" offset="7406" shape="" size="4"/>
			<output>
				<port id="0" precision="FP32"/>
			</output>
		</layer>
		<layer id="355" name="5648565232883" type="Const" version="opset1">
			<data element_type="f32" offset="10206" shape="" size="4"/>
			<output>
				<port id="0" precision="FP32"/>
			</output>
		</layer>
		<layer id="356" name="4775477933456" type="Const" version="opset1">
			<data element_type="f32" offset="7406" shape="" size="4"/>
			<output>
				<port id="0" precision="FP32"/>
			</output>
		</layer>
		<layer id="357" name="4776478034032" type="Const" version="opset1">
			<data element_type="f32" offset="10210" shape="" size="4"/>
			<output>
				<port id="0" precision="FP32"/>
			</output>
		</layer>
		<layer id="358" name="4777478135994" type="Const" version="opset1">
			<data element_type="f32" offset="7406" shape="" size="4"/>
			<output>
				<port id="0" precision="FP32"/>
			</output>
		</layer>
		<layer id="359" name="4778478235529" type="Const" version="opset1">
			<data element_type="f32" offset="10210" shape="" size="4"/>
			<output>
				<port id="0" precision="FP32"/>
			</output>
		</layer>
		<layer id="360" name="7585758937200" type="Const" version="opset1">
			<data element_type="f32" offset="7406" shape="" size="4"/>
			<output>
				<port id="0" precision="FP32"/>
			</output>
		</layer>
		<layer id="361" name="7586759034089" type="Const" version="opset1">
			<data element_type="f32" offset="10214" shape="" size="4"/>
			<output>
				<port id="0" precision="FP32"/>
			</output>
		</layer>
		<layer id="362" name="7587759135865" type="Const" version="opset1">
			<data element_type="f32" offset="7406" shape="" size="4"/>
			<output>
				<port id="0" precision="FP32"/>
			</output>
		</layer>
		<layer id="363" name="7588759236405" type="Const" version="opset1">
			<data element_type="f32" offset="10214" shape="" size="4"/>
			<output>
				<port id="0" precision="FP32"/>
			</output>
		</layer>
		<layer id="364" name="6275627936252" type="Const" version="opset1">
			<data element_type="f32" offset="7406" shape="" size="4"/>
			<output>
				<port id="0" precision="FP32"/>
			</output>
		</layer>
		<layer id="365" name="6276628033084" type="Const" version="opset1">
			<data element_type="f32" offset="10218" shape="" size="4"/>
			<output>
				<port id="0" precision="FP32"/>
			</output>
		</layer>
		<layer id="366" name="6277628137095" type="Const" version="opset1">
			<data element_type="f32" offset="7406" shape="" size="4"/>
			<output>
				<port id="0" precision="FP32"/>
			</output>
		</layer>
		<layer id="367" name="6278628235937" type="Const" version="opset1">
			<data element_type="f32" offset="10218" shape="" size="4"/>
			<output>
				<port id="0" precision="FP32"/>
			</output>
		</layer>
		<layer id="368" name="5355535933570" type="Const" version="opset1">
			<data element_type="f32" offset="7406" shape="" size="4"/>
			<output>
				<port id="0" precision="FP32"/>
			</output>
		</layer>
		<layer id="369" name="5356536036912" type="Const" version="opset1">
			<data element_type="f32" offset="10222" shape="" size="4"/>
			<output>
				<port id="0" precision="FP32"/>
			</output>
		</layer>
		<layer id="370" name="5357536132880" type="Const" version="opset1">
			<data element_type="f32" offset="7406" shape="" size="4"/>
			<output>
				<port id="0" precision="FP32"/>
			</output>
		</layer>
		<layer id="371" name="5358536237815" type="Const" version="opset1">
			<data element_type="f32" offset="10222" shape="" size="4"/>
			<output>
				<port id="0" precision="FP32"/>
			</output>
		</layer>
		<layer id="372" name="4435443934848" type="Const" version="opset1">
			<data element_type="f32" offset="10226" shape="1,32,1,1" size="128"/>
			<output>
				<port id="0" precision="FP32">
					<dim>1</dim>
					<dim>32</dim>
					<dim>1</dim>
					<dim>1</dim>
				</port>
			</output>
		</layer>
		<layer id="373" name="4436444036909" type="Const" version="opset1">
			<data element_type="f32" offset="10354" shape="1,32,1,1" size="128"/>
			<output>
				<port id="0" precision="FP32">
					<dim>1</dim>
					<dim>32</dim>
					<dim>1</dim>
					<dim>1</dim>
				</port>
			</output>
		</layer>
		<layer id="374" name="4437444134425" type="Const" version="opset1">
			<data element_type="f32" offset="10226" shape="1,32,1,1" size="128"/>
			<output>
				<port id="0" precision="FP32">
					<dim>1</dim>
					<dim>32</dim>
					<dim>1</dim>
					<dim>1</dim>
				</port>
			</output>
		</layer>
		<layer id="375" name="4438444236921" type="Const" version="opset1">
			<data element_type="f32" offset="10354" shape="1,32,1,1" size="128"/>
			<output>
				<port id="0" precision="FP32">
					<dim>1</dim>
					<dim>32</dim>
					<dim>1</dim>
					<dim>1</dim>
				</port>
			</output>
		</layer>
		<layer id="376" name="3038304037908" type="Const" version="opset1">
			<data element_type="f32" offset="32" shape="1,32,1,1" size="128"/>
			<output>
				<port id="0" precision="FP32">
					<dim>1</dim>
					<dim>32</dim>
					<dim>1</dim>
					<dim>1</dim>
				</port>
			</output>
		</layer>
		<layer id="377" name="4415441935721" type="Const" version="opset1">
			<data element_type="f32" offset="7406" shape="" size="4"/>
			<output>
				<port id="0" precision="FP32"/>
			</output>
		</layer>
		<layer id="378" name="4416442037191" type="Const" version="opset1">
			<data element_type="f32" offset="10482" shape="" size="4"/>
			<output>
				<port id="0" precision="FP32"/>
			</output>
		</layer>
		<layer id="379" name="4417442134224" type="Const" version="opset1">
			<data element_type="f32" offset="7406" shape="" size="4"/>
			<output>
				<port id="0" precision="FP32"/>
			</output>
		</layer>
		<layer id="380" name="4418442235502" type="Const" version="opset1">
			<data element_type="f32" offset="10482" shape="" size="4"/>
			<output>
				<port id="0" precision="FP32"/>
			</output>
		</layer>
		<layer id="381" name="Multiply_28947120718860/restored_convert/quantized2173536690" type="Const" version="opset1">
			<data element_type="i8" offset="10486" shape="32,32,1,1" size="1024"/>
			<output>
				<port id="0" precision="I8">
					<dim>32</dim>
					<dim>32</dim>
					<dim>1</dim>
					<dim>1</dim>
				</port>
			</output>
		</layer>
		<layer id="382" name="Multiply_28947120718860/restored_convert/quantized/to_f32" type="Convert" version="opset1">
			<data destination_type="f32"/>
			<input>
				<port id="0">
					<dim>32</dim>
					<dim>32</dim>
					<dim>1</dim>
					<dim>1</dim>
				</port>
			</input>
			<output>
				<port id="1" precision="FP32">
					<dim>32</dim>
					<dim>32</dim>
					<dim>1</dim>
					<dim>1</dim>
				</port>
			</output>
		</layer>
		<layer id="383" name="Multiply_28387/fq_weights_1/zero_point2175436537" type="Const" version="opset1">
			<data element_type="f32" offset="11510" shape="32,1,1,1" size="128"/>
			<output>
				<port id="0" precision="FP32">
					<dim>32</dim>
					<dim>1</dim>
					<dim>1</dim>
					<dim>1</dim>
				</port>
			</output>
		</layer>
		<layer id="384" name="Multiply_28387/fq_weights_1/minus_zp" type="Subtract" version="opset1">
			<data auto_broadcast="numpy"/>
			<input>
				<port id="0">
					<dim>32</dim>
					<dim>32</dim>
					<dim>1</dim>
					<dim>1</dim>
				</port>
				<port id="1">
					<dim>32</dim>
					<dim>1</dim>
					<dim>1</dim>
					<dim>1</dim>
				</port>
			</input>
			<output>
				<port id="2" precision="FP32">
					<dim>32</dim>
					<dim>32</dim>
					<dim>1</dim>
					<dim>1</dim>
				</port>
			</output>
		</layer>
		<layer id="385" name="Multiply_28387/fq_weights_1/scale2174336249" type="Const" version="opset1">
			<data element_type="f32" offset="11638" shape="32,1,1,1" size="128"/>
			<output>
				<port id="0" precision="FP32">
					<dim>32</dim>
					<dim>1</dim>
					<dim>1</dim>
					<dim>1</dim>
				</port>
			</output>
		</layer>
		<layer id="386" name="Multiply_28387/fq_weights_1/mulpiply_by_scale" type="Multiply" version="opset1">
			<data auto_broadcast="numpy"/>
			<input>
				<port id="0">
					<dim>32</dim>
					<dim>32</dim>
					<dim>1</dim>
					<dim>1</dim>
				</port>
				<port id="1">
					<dim>32</dim>
					<dim>1</dim>
					<dim>1</dim>
					<dim>1</dim>
				</port>
			</input>
			<output>
				<port id="2" precision="FP32">
					<dim>32</dim>
					<dim>32</dim>
					<dim>1</dim>
					<dim>1</dim>
				</port>
			</output>
		</layer>
		<layer id="387" name="Multiply_28387" type="Convolution" version="opset1">
			<data auto_pad="explicit" dilations="1,1" pads_begin="0,0" pads_end="0,0" strides="1,1"/>
			<rt_info>
				<attribute name="fused_names" value="568, 569, conv2.0.conv1.bn.bias, conv2.0.conv1.bn.running_mean, conv2.0.conv1.bn.running_var, conv2.0.conv1.bn.weight" version="0"/>
			</rt_info>
			<input>
				<port id="0">
					<dim>1</dim>
					<dim>32</dim>
					<dim>64</dim>
					<dim>32</dim>
				</port>
				<port id="1">
					<dim>32</dim>
					<dim>32</dim>
					<dim>1</dim>
					<dim>1</dim>
				</port>
			</input>
			<output>
				<port id="2" precision="FP32">
					<dim>1</dim>
					<dim>32</dim>
					<dim>64</dim>
					<dim>32</dim>
				</port>
			</output>
		</layer>
		<layer id="388" name="Constant_28392121036816" type="Const" version="opset1">
			<data element_type="f16" offset="11766" shape="1,32,1,1" size="64"/>
			<output>
				<port id="0" precision="FP16">
					<dim>1</dim>
					<dim>32</dim>
					<dim>1</dim>
					<dim>1</dim>
				</port>
			</output>
		</layer>
		<layer id="389" name="Constant_28392121018861/restored_convert" type="Convert" version="opset1">
			<data destination_type="f32"/>
			<rt_info>
				<attribute name="decompression" version="0"/>
			</rt_info>
			<input>
				<port id="0">
					<dim>1</dim>
					<dim>32</dim>
					<dim>1</dim>
					<dim>1</dim>
				</port>
			</input>
			<output>
				<port id="1" precision="FP32">
					<dim>1</dim>
					<dim>32</dim>
					<dim>1</dim>
					<dim>1</dim>
				</port>
			</output>
		</layer>
		<layer id="390" name="569" type="Add" version="opset1">
			<data auto_broadcast="numpy"/>
			<rt_info>
				<attribute name="fused_names" value="569, conv2.0.conv1.bn.bias, conv2.0.conv1.bn.running_mean, conv2.0.conv1.bn.running_var, conv2.0.conv1.bn.weight" version="0"/>
			</rt_info>
			<input>
				<port id="0">
					<dim>1</dim>
					<dim>32</dim>
					<dim>64</dim>
					<dim>32</dim>
				</port>
				<port id="1">
					<dim>1</dim>
					<dim>32</dim>
					<dim>1</dim>
					<dim>1</dim>
				</port>
			</input>
			<output>
				<port id="2" names="569" precision="FP32">
					<dim>1</dim>
					<dim>32</dim>
					<dim>64</dim>
					<dim>32</dim>
				</port>
			</output>
		</layer>
		<layer id="391" name="570" type="ReLU" version="opset1">
			<rt_info>
				<attribute name="fused_names" value="570" version="0"/>
			</rt_info>
			<input>
				<port id="0">
					<dim>1</dim>
					<dim>32</dim>
					<dim>64</dim>
					<dim>32</dim>
				</port>
			</input>
			<output>
				<port id="1" names="570" precision="FP32">
					<dim>1</dim>
					<dim>32</dim>
					<dim>64</dim>
					<dim>32</dim>
				</port>
			</output>
		</layer>
		<layer id="392" name="571/fq_input_0" type="FakeQuantize" version="opset1">
			<data auto_broadcast="numpy" levels="256"/>
			<input>
				<port id="0">
					<dim>1</dim>
					<dim>32</dim>
					<dim>64</dim>
					<dim>32</dim>
				</port>
				<port id="1"/>
				<port id="2"/>
				<port id="3"/>
				<port id="4"/>
			</input>
			<output>
				<port id="5" precision="FP32">
					<dim>1</dim>
					<dim>32</dim>
					<dim>64</dim>
					<dim>32</dim>
				</port>
			</output>
		</layer>
		<layer id="393" name="conv2.0.conv2a.conv1.weight121418862/restored_convert/quantized2356533816" type="Const" version="opset1">
			<data element_type="i8" offset="11830" shape="32,32,1,1" size="1024"/>
			<output>
				<port id="0" precision="I8">
					<dim>32</dim>
					<dim>32</dim>
					<dim>1</dim>
					<dim>1</dim>
				</port>
			</output>
		</layer>
		<layer id="394" name="conv2.0.conv2a.conv1.weight121418862/restored_convert/quantized/to_f32" type="Convert" version="opset1">
			<data destination_type="f32"/>
			<input>
				<port id="0">
					<dim>32</dim>
					<dim>32</dim>
					<dim>1</dim>
					<dim>1</dim>
				</port>
			</input>
			<output>
				<port id="1" precision="FP32">
					<dim>32</dim>
					<dim>32</dim>
					<dim>1</dim>
					<dim>1</dim>
				</port>
			</output>
		</layer>
		<layer id="395" name="571/fq_weights_1/zero_point2358433540" type="Const" version="opset1">
			<data element_type="f32" offset="12854" shape="32,1,1,1" size="128"/>
			<output>
				<port id="0" precision="FP32">
					<dim>32</dim>
					<dim>1</dim>
					<dim>1</dim>
					<dim>1</dim>
				</port>
			</output>
		</layer>
		<layer id="396" name="571/fq_weights_1/minus_zp" type="Subtract" version="opset1">
			<data auto_broadcast="numpy"/>
			<input>
				<port id="0">
					<dim>32</dim>
					<dim>32</dim>
					<dim>1</dim>
					<dim>1</dim>
				</port>
				<port id="1">
					<dim>32</dim>
					<dim>1</dim>
					<dim>1</dim>
					<dim>1</dim>
				</port>
			</input>
			<output>
				<port id="2" precision="FP32">
					<dim>32</dim>
					<dim>32</dim>
					<dim>1</dim>
					<dim>1</dim>
				</port>
			</output>
		</layer>
		<layer id="397" name="571/fq_weights_1/scale2357333135" type="Const" version="opset1">
			<data element_type="f32" offset="12982" shape="32,1,1,1" size="128"/>
			<output>
				<port id="0" precision="FP32">
					<dim>32</dim>
					<dim>1</dim>
					<dim>1</dim>
					<dim>1</dim>
				</port>
			</output>
		</layer>
		<layer id="398" name="571/fq_weights_1/mulpiply_by_scale" type="Multiply" version="opset1">
			<data auto_broadcast="numpy"/>
			<input>
				<port id="0">
					<dim>32</dim>
					<dim>32</dim>
					<dim>1</dim>
					<dim>1</dim>
				</port>
				<port id="1">
					<dim>32</dim>
					<dim>1</dim>
					<dim>1</dim>
					<dim>1</dim>
				</port>
			</input>
			<output>
				<port id="2" precision="FP32">
					<dim>32</dim>
					<dim>32</dim>
					<dim>1</dim>
					<dim>1</dim>
				</port>
			</output>
		</layer>
		<layer id="399" name="571" type="Convolution" version="opset1">
			<data auto_pad="explicit" dilations="1,1" pads_begin="0,0" pads_end="0,0" strides="1,1"/>
			<rt_info>
				<attribute name="fused_names" value="571" version="0"/>
			</rt_info>
			<input>
				<port id="0">
					<dim>1</dim>
					<dim>32</dim>
					<dim>64</dim>
					<dim>32</dim>
				</port>
				<port id="1">
					<dim>32</dim>
					<dim>32</dim>
					<dim>1</dim>
					<dim>1</dim>
				</port>
			</input>
			<output>
				<port id="2" names="571" precision="FP32">
					<dim>1</dim>
					<dim>32</dim>
					<dim>64</dim>
					<dim>32</dim>
				</port>
			</output>
		</layer>
		<layer id="400" name="571/add_" type="Add" version="opset1">
			<data auto_broadcast="numpy"/>
			<input>
				<port id="0">
					<dim>1</dim>
					<dim>32</dim>
					<dim>64</dim>
					<dim>32</dim>
				</port>
				<port id="1">
					<dim>1</dim>
					<dim>32</dim>
					<dim>1</dim>
					<dim>1</dim>
				</port>
			</input>
			<output>
				<port id="2" precision="FP32">
					<dim>1</dim>
					<dim>32</dim>
					<dim>64</dim>
					<dim>32</dim>
				</port>
			</output>
		</layer>
		<layer id="401" name="Multiply_28394/fq_input_0" type="FakeQuantize" version="opset1">
			<data auto_broadcast="numpy" levels="256"/>
			<input>
				<port id="0">
					<dim>1</dim>
					<dim>32</dim>
					<dim>64</dim>
					<dim>32</dim>
				</port>
				<port id="1">
					<dim>1</dim>
					<dim>32</dim>
					<dim>1</dim>
					<dim>1</dim>
				</port>
				<port id="2">
					<dim>1</dim>
					<dim>32</dim>
					<dim>1</dim>
					<dim>1</dim>
				</port>
				<port id="3">
					<dim>1</dim>
					<dim>32</dim>
					<dim>1</dim>
					<dim>1</dim>
				</port>
				<port id="4">
					<dim>1</dim>
					<dim>32</dim>
					<dim>1</dim>
					<dim>1</dim>
				</port>
			</input>
			<output>
				<port id="5" precision="FP32">
					<dim>1</dim>
					<dim>32</dim>
					<dim>64</dim>
					<dim>32</dim>
				</port>
			</output>
		</layer>
		<layer id="402" name="29046/value2904836024" type="Const" version="opset1">
			<data element_type="i64" offset="13110" shape="5" size="40"/>
			<output>
				<port id="0" precision="I64">
					<dim>5</dim>
				</port>
			</output>
		</layer>
		<layer id="403" name="Multiply_28956121718863/restored_convert/quantized2353533165" type="Const" version="opset1">
			<data element_type="i8" offset="13150" shape="32,1,3,3" size="288"/>
			<output>
				<port id="0" precision="I8">
					<dim>32</dim>
					<dim>1</dim>
					<dim>3</dim>
					<dim>3</dim>
				</port>
			</output>
		</layer>
		<layer id="404" name="Multiply_28956121718863/restored_convert/quantized/to_f32" type="Convert" version="opset1">
			<data destination_type="f32"/>
			<input>
				<port id="0">
					<dim>32</dim>
					<dim>1</dim>
					<dim>3</dim>
					<dim>3</dim>
				</port>
			</input>
			<output>
				<port id="1" precision="FP32">
					<dim>32</dim>
					<dim>1</dim>
					<dim>3</dim>
					<dim>3</dim>
				</port>
			</output>
		</layer>
		<layer id="405" name="Multiply_28394/fq_weights_1/zero_point2355433285" type="Const" version="opset1">
			<data element_type="f32" offset="13438" shape="32,1,1,1" size="128"/>
			<output>
				<port id="0" precision="FP32">
					<dim>32</dim>
					<dim>1</dim>
					<dim>1</dim>
					<dim>1</dim>
				</port>
			</output>
		</layer>
		<layer id="406" name="Multiply_28394/fq_weights_1/minus_zp" type="Subtract" version="opset1">
			<data auto_broadcast="numpy"/>
			<input>
				<port id="0">
					<dim>32</dim>
					<dim>1</dim>
					<dim>3</dim>
					<dim>3</dim>
				</port>
				<port id="1">
					<dim>32</dim>
					<dim>1</dim>
					<dim>1</dim>
					<dim>1</dim>
				</port>
			</input>
			<output>
				<port id="2" precision="FP32">
					<dim>32</dim>
					<dim>1</dim>
					<dim>3</dim>
					<dim>3</dim>
				</port>
			</output>
		</layer>
		<layer id="407" name="Multiply_28394/fq_weights_1/scale2354335589" type="Const" version="opset1">
			<data element_type="f32" offset="13566" shape="32,1,1,1" size="128"/>
			<output>
				<port id="0" precision="FP32">
					<dim>32</dim>
					<dim>1</dim>
					<dim>1</dim>
					<dim>1</dim>
				</port>
			</output>
		</layer>
		<layer id="408" name="Multiply_28394/fq_weights_1/mulpiply_by_scale" type="Multiply" version="opset1">
			<data auto_broadcast="numpy"/>
			<input>
				<port id="0">
					<dim>32</dim>
					<dim>1</dim>
					<dim>3</dim>
					<dim>3</dim>
				</port>
				<port id="1">
					<dim>32</dim>
					<dim>1</dim>
					<dim>1</dim>
					<dim>1</dim>
				</port>
			</input>
			<output>
				<port id="2" precision="FP32">
					<dim>32</dim>
					<dim>1</dim>
					<dim>3</dim>
					<dim>3</dim>
				</port>
			</output>
		</layer>
		<layer id="409" name="29046" type="Reshape" version="opset1">
			<data special_zero="true"/>
			<input>
				<port id="0">
					<dim>32</dim>
					<dim>1</dim>
					<dim>3</dim>
					<dim>3</dim>
				</port>
				<port id="1">
					<dim>5</dim>
				</port>
			</input>
			<output>
				<port id="2" precision="FP32">
					<dim>32</dim>
					<dim>1</dim>
					<dim>1</dim>
					<dim>3</dim>
					<dim>3</dim>
				</port>
			</output>
		</layer>
		<layer id="410" name="Multiply_28394" type="GroupConvolution" version="opset1">
			<data auto_pad="explicit" dilations="1,1" pads_begin="1,1" pads_end="1,1" strides="1,1"/>
			<rt_info>
				<attribute name="fused_names" value="573, conv2.0.conv2a.bn.bias, conv2.0.conv2a.bn.running_mean, conv2.0.conv2a.bn.running_var, conv2.0.conv2a.bn.weight" version="0"/>
			</rt_info>
			<input>
				<port id="0">
					<dim>1</dim>
					<dim>32</dim>
					<dim>64</dim>
					<dim>32</dim>
				</port>
				<port id="1">
					<dim>32</dim>
					<dim>1</dim>
					<dim>1</dim>
					<dim>3</dim>
					<dim>3</dim>
				</port>
			</input>
			<output>
				<port id="2" names="572" precision="FP32">
					<dim>1</dim>
					<dim>32</dim>
					<dim>64</dim>
					<dim>32</dim>
				</port>
			</output>
		</layer>
		<layer id="411" name="Constant_28399122035475" type="Const" version="opset1">
			<data element_type="f16" offset="13694" shape="1,32,1,1" size="64"/>
			<output>
				<port id="0" precision="FP16">
					<dim>1</dim>
					<dim>32</dim>
					<dim>1</dim>
					<dim>1</dim>
				</port>
			</output>
		</layer>
		<layer id="412" name="Constant_28399122018864/restored_convert" type="Convert" version="opset1">
			<data destination_type="f32"/>
			<rt_info>
				<attribute name="decompression" version="0"/>
			</rt_info>
			<input>
				<port id="0">
					<dim>1</dim>
					<dim>32</dim>
					<dim>1</dim>
					<dim>1</dim>
				</port>
			</input>
			<output>
				<port id="1" precision="FP32">
					<dim>1</dim>
					<dim>32</dim>
					<dim>1</dim>
					<dim>1</dim>
				</port>
			</output>
		</layer>
		<layer id="413" name="573" type="Add" version="opset1">
			<data auto_broadcast="numpy"/>
			<rt_info>
				<attribute name="fused_names" value="573, conv2.0.conv2a.bn.bias, conv2.0.conv2a.bn.running_mean, conv2.0.conv2a.bn.running_var, conv2.0.conv2a.bn.weight" version="0"/>
			</rt_info>
			<input>
				<port id="0">
					<dim>1</dim>
					<dim>32</dim>
					<dim>64</dim>
					<dim>32</dim>
				</port>
				<port id="1">
					<dim>1</dim>
					<dim>32</dim>
					<dim>1</dim>
					<dim>1</dim>
				</port>
			</input>
			<output>
				<port id="2" names="573" precision="FP32">
					<dim>1</dim>
					<dim>32</dim>
					<dim>64</dim>
					<dim>32</dim>
				</port>
			</output>
		</layer>
		<layer id="414" name="574" type="ReLU" version="opset1">
			<rt_info>
				<attribute name="fused_names" value="574" version="0"/>
			</rt_info>
			<input>
				<port id="0">
					<dim>1</dim>
					<dim>32</dim>
					<dim>64</dim>
					<dim>32</dim>
				</port>
			</input>
			<output>
				<port id="1" names="574" precision="FP32">
					<dim>1</dim>
					<dim>32</dim>
					<dim>64</dim>
					<dim>32</dim>
				</port>
			</output>
		</layer>
		<layer id="415" name="611/fq_input_0" type="FakeQuantize" version="opset1">
			<data auto_broadcast="numpy" levels="256"/>
			<input>
				<port id="0">
					<dim>1</dim>
					<dim>32</dim>
					<dim>64</dim>
					<dim>32</dim>
				</port>
				<port id="1"/>
				<port id="2"/>
				<port id="3"/>
				<port id="4"/>
			</input>
			<output>
				<port id="5" precision="FP32">
					<dim>1</dim>
					<dim>32</dim>
					<dim>64</dim>
					<dim>32</dim>
				</port>
			</output>
		</layer>
		<layer id="416" name="Range_15561223" type="Const" version="opset1">
			<data element_type="i64" offset="8" shape="2" size="16"/>
			<output>
				<port id="0" precision="I64">
					<dim>2</dim>
				</port>
			</output>
		</layer>
		<layer id="417" name="611" type="ReduceMean" version="opset1">
			<data keep_dims="true"/>
			<rt_info>
				<attribute name="fused_names" value="611, Range_1556" version="0"/>
			</rt_info>
			<input>
				<port id="0">
					<dim>1</dim>
					<dim>32</dim>
					<dim>64</dim>
					<dim>32</dim>
				</port>
				<port id="1">
					<dim>2</dim>
				</port>
			</input>
			<output>
				<port id="2" names="611" precision="FP32">
					<dim>1</dim>
					<dim>32</dim>
					<dim>1</dim>
					<dim>1</dim>
				</port>
			</output>
		</layer>
		<layer id="418" name="conv2.0.gate.fc1.weight122633429" type="Const" version="opset1">
			<data element_type="f16" offset="13758" shape="2,32,1,1" size="128"/>
			<output>
				<port id="0" precision="FP16">
					<dim>2</dim>
					<dim>32</dim>
					<dim>1</dim>
					<dim>1</dim>
				</port>
			</output>
		</layer>
		<layer id="419" name="conv2.0.gate.fc1.weight122618866/restored_convert" type="Convert" version="opset1">
			<data destination_type="f32"/>
			<rt_info>
				<attribute name="decompression" version="0"/>
				<attribute name="fused_names" value="conv2.0.gate.fc1.weight" version="0"/>
			</rt_info>
			<input>
				<port id="0">
					<dim>2</dim>
					<dim>32</dim>
					<dim>1</dim>
					<dim>1</dim>
				</port>
			</input>
			<output>
				<port id="1" names="conv2.0.gate.fc1.weight" precision="FP32">
					<dim>2</dim>
					<dim>32</dim>
					<dim>1</dim>
					<dim>1</dim>
				</port>
			</output>
		</layer>
		<layer id="420" name="Convolution_1581" type="Convolution" version="opset1">
			<data auto_pad="explicit" dilations="1,1" pads_begin="0,0" pads_end="0,0" strides="1,1"/>
			<rt_info>
				<attribute name="fused_names" value="Convolution_1581" version="0"/>
			</rt_info>
			<input>
				<port id="0">
					<dim>1</dim>
					<dim>32</dim>
					<dim>1</dim>
					<dim>1</dim>
				</port>
				<port id="1">
					<dim>2</dim>
					<dim>32</dim>
					<dim>1</dim>
					<dim>1</dim>
				</port>
			</input>
			<output>
				<port id="2" precision="FP32">
					<dim>1</dim>
					<dim>2</dim>
					<dim>1</dim>
					<dim>1</dim>
				</port>
			</output>
		</layer>
		<layer id="421" name="Reshape_1601122934119" type="Const" version="opset1">
			<data element_type="f16" offset="13886" shape="1,2,1,1" size="4"/>
			<output>
				<port id="0" precision="FP16">
					<dim>1</dim>
					<dim>2</dim>
					<dim>1</dim>
					<dim>1</dim>
				</port>
			</output>
		</layer>
		<layer id="422" name="Reshape_1601122918867/restored_convert" type="Convert" version="opset1">
			<data destination_type="f32"/>
			<rt_info>
				<attribute name="decompression" version="0"/>
			</rt_info>
			<input>
				<port id="0">
					<dim>1</dim>
					<dim>2</dim>
					<dim>1</dim>
					<dim>1</dim>
				</port>
			</input>
			<output>
				<port id="1" precision="FP32">
					<dim>1</dim>
					<dim>2</dim>
					<dim>1</dim>
					<dim>1</dim>
				</port>
			</output>
		</layer>
		<layer id="423" name="612" type="Add" version="opset1">
			<data auto_broadcast="numpy"/>
			<rt_info>
				<attribute name="fused_names" value="612, Concat_1600, Reshape_1601" version="0"/>
			</rt_info>
			<input>
				<port id="0">
					<dim>1</dim>
					<dim>2</dim>
					<dim>1</dim>
					<dim>1</dim>
				</port>
				<port id="1">
					<dim>1</dim>
					<dim>2</dim>
					<dim>1</dim>
					<dim>1</dim>
				</port>
			</input>
			<output>
				<port id="2" names="612" precision="FP32">
					<dim>1</dim>
					<dim>2</dim>
					<dim>1</dim>
					<dim>1</dim>
				</port>
			</output>
		</layer>
		<layer id="424" name="613" type="ReLU" version="opset1">
			<rt_info>
				<attribute name="fused_names" value="613" version="0"/>
			</rt_info>
			<input>
				<port id="0">
					<dim>1</dim>
					<dim>2</dim>
					<dim>1</dim>
					<dim>1</dim>
				</port>
			</input>
			<output>
				<port id="1" names="613" precision="FP32">
					<dim>1</dim>
					<dim>2</dim>
					<dim>1</dim>
					<dim>1</dim>
				</port>
			</output>
		</layer>
		<layer id="425" name="conv2.0.gate.fc2.weight123337005" type="Const" version="opset1">
			<data element_type="f16" offset="13890" shape="32,2,1,1" size="128"/>
			<output>
				<port id="0" precision="FP16">
					<dim>32</dim>
					<dim>2</dim>
					<dim>1</dim>
					<dim>1</dim>
				</port>
			</output>
		</layer>
		<layer id="426" name="conv2.0.gate.fc2.weight123318868/restored_convert" type="Convert" version="opset1">
			<data destination_type="f32"/>
			<rt_info>
				<attribute name="decompression" version="0"/>
				<attribute name="fused_names" value="conv2.0.gate.fc2.weight" version="0"/>
			</rt_info>
			<input>
				<port id="0">
					<dim>32</dim>
					<dim>2</dim>
					<dim>1</dim>
					<dim>1</dim>
				</port>
			</input>
			<output>
				<port id="1" names="conv2.0.gate.fc2.weight" precision="FP32">
					<dim>32</dim>
					<dim>2</dim>
					<dim>1</dim>
					<dim>1</dim>
				</port>
			</output>
		</layer>
		<layer id="427" name="Convolution_1630" type="Convolution" version="opset1">
			<data auto_pad="explicit" dilations="1,1" pads_begin="0,0" pads_end="0,0" strides="1,1"/>
			<rt_info>
				<attribute name="fused_names" value="Convolution_1630" version="0"/>
			</rt_info>
			<input>
				<port id="0">
					<dim>1</dim>
					<dim>2</dim>
					<dim>1</dim>
					<dim>1</dim>
				</port>
				<port id="1">
					<dim>32</dim>
					<dim>2</dim>
					<dim>1</dim>
					<dim>1</dim>
				</port>
			</input>
			<output>
				<port id="2" precision="FP32">
					<dim>1</dim>
					<dim>32</dim>
					<dim>1</dim>
					<dim>1</dim>
				</port>
			</output>
		</layer>
		<layer id="428" name="Reshape_1650123634653" type="Const" version="opset1">
			<data element_type="f16" offset="14018" shape="1,32,1,1" size="64"/>
			<output>
				<port id="0" precision="FP16">
					<dim>1</dim>
					<dim>32</dim>
					<dim>1</dim>
					<dim>1</dim>
				</port>
			</output>
		</layer>
		<layer id="429" name="Reshape_1650123618869/restored_convert" type="Convert" version="opset1">
			<data destination_type="f32"/>
			<rt_info>
				<attribute name="decompression" version="0"/>
			</rt_info>
			<input>
				<port id="0">
					<dim>1</dim>
					<dim>32</dim>
					<dim>1</dim>
					<dim>1</dim>
				</port>
			</input>
			<output>
				<port id="1" precision="FP32">
					<dim>1</dim>
					<dim>32</dim>
					<dim>1</dim>
					<dim>1</dim>
				</port>
			</output>
		</layer>
		<layer id="430" name="614" type="Add" version="opset1">
			<data auto_broadcast="numpy"/>
			<rt_info>
				<attribute name="fused_names" value="614, Concat_1649, Reshape_1650" version="0"/>
			</rt_info>
			<input>
				<port id="0">
					<dim>1</dim>
					<dim>32</dim>
					<dim>1</dim>
					<dim>1</dim>
				</port>
				<port id="1">
					<dim>1</dim>
					<dim>32</dim>
					<dim>1</dim>
					<dim>1</dim>
				</port>
			</input>
			<output>
				<port id="2" names="614" precision="FP32">
					<dim>1</dim>
					<dim>32</dim>
					<dim>1</dim>
					<dim>1</dim>
				</port>
			</output>
		</layer>
		<layer id="431" name="615" type="Sigmoid" version="opset1">
			<rt_info>
				<attribute name="fused_names" value="615" version="0"/>
			</rt_info>
			<input>
				<port id="0">
					<dim>1</dim>
					<dim>32</dim>
					<dim>1</dim>
					<dim>1</dim>
				</port>
			</input>
			<output>
				<port id="1" names="615" precision="FP32">
					<dim>1</dim>
					<dim>32</dim>
					<dim>1</dim>
					<dim>1</dim>
				</port>
			</output>
		</layer>
		<layer id="432" name="616/fq_input_1" type="FakeQuantize" version="opset1">
			<data auto_broadcast="numpy" levels="256"/>
			<input>
				<port id="0">
					<dim>1</dim>
					<dim>32</dim>
					<dim>1</dim>
					<dim>1</dim>
				</port>
				<port id="1"/>
				<port id="2"/>
				<port id="3"/>
				<port id="4"/>
			</input>
			<output>
				<port id="5" precision="FP32">
					<dim>1</dim>
					<dim>32</dim>
					<dim>1</dim>
					<dim>1</dim>
				</port>
			</output>
		</layer>
		<layer id="433" name="616" type="Multiply" version="opset1">
			<data auto_broadcast="numpy"/>
			<rt_info>
				<attribute name="fused_names" value="616" version="0"/>
			</rt_info>
			<input>
				<port id="0">
					<dim>1</dim>
					<dim>32</dim>
					<dim>64</dim>
					<dim>32</dim>
				</port>
				<port id="1">
					<dim>1</dim>
					<dim>32</dim>
					<dim>1</dim>
					<dim>1</dim>
				</port>
			</input>
			<output>
				<port id="2" names="616" precision="FP32">
					<dim>1</dim>
					<dim>32</dim>
					<dim>64</dim>
					<dim>32</dim>
				</port>
			</output>
		</layer>
		<layer id="434" name="623/fq_input_0" type="FakeQuantize" version="opset1">
			<data auto_broadcast="numpy" levels="256"/>
			<input>
				<port id="0">
					<dim>1</dim>
					<dim>32</dim>
					<dim>64</dim>
					<dim>32</dim>
				</port>
				<port id="1"/>
				<port id="2"/>
				<port id="3"/>
				<port id="4"/>
			</input>
			<output>
				<port id="5" precision="FP32">
					<dim>1</dim>
					<dim>32</dim>
					<dim>64</dim>
					<dim>32</dim>
				</port>
			</output>
		</layer>
		<layer id="435" name="7595759935520" type="Const" version="opset1">
			<data element_type="f32" offset="7406" shape="" size="4"/>
			<output>
				<port id="0" precision="FP32"/>
			</output>
		</layer>
		<layer id="436" name="7596760035985" type="Const" version="opset1">
			<data element_type="f32" offset="14082" shape="" size="4"/>
			<output>
				<port id="0" precision="FP32"/>
			</output>
		</layer>
		<layer id="437" name="7597760135694" type="Const" version="opset1">
			<data element_type="f32" offset="7406" shape="" size="4"/>
			<output>
				<port id="0" precision="FP32"/>
			</output>
		</layer>
		<layer id="438" name="7598760237323" type="Const" version="opset1">
			<data element_type="f32" offset="14082" shape="" size="4"/>
			<output>
				<port id="0" precision="FP32"/>
			</output>
		</layer>
		<layer id="439" name="6035603933345" type="Const" version="opset1">
			<data element_type="f32" offset="7406" shape="" size="4"/>
			<output>
				<port id="0" precision="FP32"/>
			</output>
		</layer>
		<layer id="440" name="6036604033114" type="Const" version="opset1">
			<data element_type="f32" offset="14086" shape="" size="4"/>
			<output>
				<port id="0" precision="FP32"/>
			</output>
		</layer>
		<layer id="441" name="6037604133891" type="Const" version="opset1">
			<data element_type="f32" offset="7406" shape="" size="4"/>
			<output>
				<port id="0" precision="FP32"/>
			</output>
		</layer>
		<layer id="442" name="6038604233492" type="Const" version="opset1">
			<data element_type="f32" offset="14086" shape="" size="4"/>
			<output>
				<port id="0" precision="FP32"/>
			</output>
		</layer>
		<layer id="443" name="4625462933402" type="Const" version="opset1">
			<data element_type="f32" offset="7406" shape="" size="4"/>
			<output>
				<port id="0" precision="FP32"/>
			</output>
		</layer>
		<layer id="444" name="4626463035229" type="Const" version="opset1">
			<data element_type="f32" offset="14090" shape="" size="4"/>
			<output>
				<port id="0" precision="FP32"/>
			</output>
		</layer>
		<layer id="445" name="4627463133093" type="Const" version="opset1">
			<data element_type="f32" offset="7406" shape="" size="4"/>
			<output>
				<port id="0" precision="FP32"/>
			</output>
		</layer>
		<layer id="446" name="4628463234446" type="Const" version="opset1">
			<data element_type="f32" offset="14090" shape="" size="4"/>
			<output>
				<port id="0" precision="FP32"/>
			</output>
		</layer>
		<layer id="447" name="7405740935418" type="Const" version="opset1">
			<data element_type="f32" offset="14094" shape="1,32,1,1" size="128"/>
			<output>
				<port id="0" precision="FP32">
					<dim>1</dim>
					<dim>32</dim>
					<dim>1</dim>
					<dim>1</dim>
				</port>
			</output>
		</layer>
		<layer id="448" name="7406741033291" type="Const" version="opset1">
			<data element_type="f32" offset="14222" shape="1,32,1,1" size="128"/>
			<output>
				<port id="0" precision="FP32">
					<dim>1</dim>
					<dim>32</dim>
					<dim>1</dim>
					<dim>1</dim>
				</port>
			</output>
		</layer>
		<layer id="449" name="7407741133339" type="Const" version="opset1">
			<data element_type="f32" offset="14094" shape="1,32,1,1" size="128"/>
			<output>
				<port id="0" precision="FP32">
					<dim>1</dim>
					<dim>32</dim>
					<dim>1</dim>
					<dim>1</dim>
				</port>
			</output>
		</layer>
		<layer id="450" name="7408741234392" type="Const" version="opset1">
			<data element_type="f32" offset="14222" shape="1,32,1,1" size="128"/>
			<output>
				<port id="0" precision="FP32">
					<dim>1</dim>
					<dim>32</dim>
					<dim>1</dim>
					<dim>1</dim>
				</port>
			</output>
		</layer>
		<layer id="451" name="3046304835376" type="Const" version="opset1">
			<data element_type="f32" offset="32" shape="1,32,1,1" size="128"/>
			<output>
				<port id="0" precision="FP32">
					<dim>1</dim>
					<dim>32</dim>
					<dim>1</dim>
					<dim>1</dim>
				</port>
			</output>
		</layer>
		<layer id="452" name="5165516937704" type="Const" version="opset1">
			<data element_type="f32" offset="7406" shape="" size="4"/>
			<output>
				<port id="0" precision="FP32"/>
			</output>
		</layer>
		<layer id="453" name="5166517034350" type="Const" version="opset1">
			<data element_type="f32" offset="14350" shape="" size="4"/>
			<output>
				<port id="0" precision="FP32"/>
			</output>
		</layer>
		<layer id="454" name="5167517135364" type="Const" version="opset1">
			<data element_type="f32" offset="7406" shape="" size="4"/>
			<output>
				<port id="0" precision="FP32"/>
			</output>
		</layer>
		<layer id="455" name="5168517236216" type="Const" version="opset1">
			<data element_type="f32" offset="14350" shape="" size="4"/>
			<output>
				<port id="0" precision="FP32"/>
			</output>
		</layer>
		<layer id="456" name="6795679936516" type="Const" version="opset1">
			<data element_type="f32" offset="14354" shape="1,32,1,1" size="128"/>
			<output>
				<port id="0" precision="FP32">
					<dim>1</dim>
					<dim>32</dim>
					<dim>1</dim>
					<dim>1</dim>
				</port>
			</output>
		</layer>
		<layer id="457" name="6796680034440" type="Const" version="opset1">
			<data element_type="f32" offset="14482" shape="1,32,1,1" size="128"/>
			<output>
				<port id="0" precision="FP32">
					<dim>1</dim>
					<dim>32</dim>
					<dim>1</dim>
					<dim>1</dim>
				</port>
			</output>
		</layer>
		<layer id="458" name="6797680134680" type="Const" version="opset1">
			<data element_type="f32" offset="14354" shape="1,32,1,1" size="128"/>
			<output>
				<port id="0" precision="FP32">
					<dim>1</dim>
					<dim>32</dim>
					<dim>1</dim>
					<dim>1</dim>
				</port>
			</output>
		</layer>
		<layer id="459" name="6798680235460" type="Const" version="opset1">
			<data element_type="f32" offset="14482" shape="1,32,1,1" size="128"/>
			<output>
				<port id="0" precision="FP32">
					<dim>1</dim>
					<dim>32</dim>
					<dim>1</dim>
					<dim>1</dim>
				</port>
			</output>
		</layer>
		<layer id="460" name="3042304433477" type="Const" version="opset1">
			<data element_type="f32" offset="32" shape="1,32,1,1" size="128"/>
			<output>
				<port id="0" precision="FP32">
					<dim>1</dim>
					<dim>32</dim>
					<dim>1</dim>
					<dim>1</dim>
				</port>
			</output>
		</layer>
		<layer id="461" name="conv2.0.conv2b.0.conv1.weight124118870/restored_convert/quantized2503537488" type="Const" version="opset1">
			<data element_type="i8" offset="14610" shape="32,32,1,1" size="1024"/>
			<output>
				<port id="0" precision="I8">
					<dim>32</dim>
					<dim>32</dim>
					<dim>1</dim>
					<dim>1</dim>
				</port>
			</output>
		</layer>
		<layer id="462" name="conv2.0.conv2b.0.conv1.weight124118870/restored_convert/quantized/to_f32" type="Convert" version="opset1">
			<data destination_type="f32"/>
			<input>
				<port id="0">
					<dim>32</dim>
					<dim>32</dim>
					<dim>1</dim>
					<dim>1</dim>
				</port>
			</input>
			<output>
				<port id="1" precision="FP32">
					<dim>32</dim>
					<dim>32</dim>
					<dim>1</dim>
					<dim>1</dim>
				</port>
			</output>
		</layer>
		<layer id="463" name="575/fq_weights_1/zero_point2505434899" type="Const" version="opset1">
			<data element_type="f32" offset="15634" shape="32,1,1,1" size="128"/>
			<output>
				<port id="0" precision="FP32">
					<dim>32</dim>
					<dim>1</dim>
					<dim>1</dim>
					<dim>1</dim>
				</port>
			</output>
		</layer>
		<layer id="464" name="575/fq_weights_1/minus_zp" type="Subtract" version="opset1">
			<data auto_broadcast="numpy"/>
			<input>
				<port id="0">
					<dim>32</dim>
					<dim>32</dim>
					<dim>1</dim>
					<dim>1</dim>
				</port>
				<port id="1">
					<dim>32</dim>
					<dim>1</dim>
					<dim>1</dim>
					<dim>1</dim>
				</port>
			</input>
			<output>
				<port id="2" precision="FP32">
					<dim>32</dim>
					<dim>32</dim>
					<dim>1</dim>
					<dim>1</dim>
				</port>
			</output>
		</layer>
		<layer id="465" name="575/fq_weights_1/scale2504334893" type="Const" version="opset1">
			<data element_type="f32" offset="15762" shape="32,1,1,1" size="128"/>
			<output>
				<port id="0" precision="FP32">
					<dim>32</dim>
					<dim>1</dim>
					<dim>1</dim>
					<dim>1</dim>
				</port>
			</output>
		</layer>
		<layer id="466" name="575/fq_weights_1/mulpiply_by_scale" type="Multiply" version="opset1">
			<data auto_broadcast="numpy"/>
			<input>
				<port id="0">
					<dim>32</dim>
					<dim>32</dim>
					<dim>1</dim>
					<dim>1</dim>
				</port>
				<port id="1">
					<dim>32</dim>
					<dim>1</dim>
					<dim>1</dim>
					<dim>1</dim>
				</port>
			</input>
			<output>
				<port id="2" precision="FP32">
					<dim>32</dim>
					<dim>32</dim>
					<dim>1</dim>
					<dim>1</dim>
				</port>
			</output>
		</layer>
		<layer id="467" name="575" type="Convolution" version="opset1">
			<data auto_pad="explicit" dilations="1,1" pads_begin="0,0" pads_end="0,0" strides="1,1"/>
			<rt_info>
				<attribute name="fused_names" value="575" version="0"/>
			</rt_info>
			<input>
				<port id="0">
					<dim>1</dim>
					<dim>32</dim>
					<dim>64</dim>
					<dim>32</dim>
				</port>
				<port id="1">
					<dim>32</dim>
					<dim>32</dim>
					<dim>1</dim>
					<dim>1</dim>
				</port>
			</input>
			<output>
				<port id="2" names="575" precision="FP32">
					<dim>1</dim>
					<dim>32</dim>
					<dim>64</dim>
					<dim>32</dim>
				</port>
			</output>
		</layer>
		<layer id="468" name="575/add_" type="Add" version="opset1">
			<data auto_broadcast="numpy"/>
			<input>
				<port id="0">
					<dim>1</dim>
					<dim>32</dim>
					<dim>64</dim>
					<dim>32</dim>
				</port>
				<port id="1">
					<dim>1</dim>
					<dim>32</dim>
					<dim>1</dim>
					<dim>1</dim>
				</port>
			</input>
			<output>
				<port id="2" precision="FP32">
					<dim>1</dim>
					<dim>32</dim>
					<dim>64</dim>
					<dim>32</dim>
				</port>
			</output>
		</layer>
		<layer id="469" name="Multiply_28401/fq_input_0" type="FakeQuantize" version="opset1">
			<data auto_broadcast="numpy" levels="256"/>
			<input>
				<port id="0">
					<dim>1</dim>
					<dim>32</dim>
					<dim>64</dim>
					<dim>32</dim>
				</port>
				<port id="1">
					<dim>1</dim>
					<dim>32</dim>
					<dim>1</dim>
					<dim>1</dim>
				</port>
				<port id="2">
					<dim>1</dim>
					<dim>32</dim>
					<dim>1</dim>
					<dim>1</dim>
				</port>
				<port id="3">
					<dim>1</dim>
					<dim>32</dim>
					<dim>1</dim>
					<dim>1</dim>
				</port>
				<port id="4">
					<dim>1</dim>
					<dim>32</dim>
					<dim>1</dim>
					<dim>1</dim>
				</port>
			</input>
			<output>
				<port id="5" precision="FP32">
					<dim>1</dim>
					<dim>32</dim>
					<dim>64</dim>
					<dim>32</dim>
				</port>
			</output>
		</layer>
		<layer id="470" name="29050/value2905234272" type="Const" version="opset1">
			<data element_type="i64" offset="13110" shape="5" size="40"/>
			<output>
				<port id="0" precision="I64">
					<dim>5</dim>
				</port>
			</output>
		</layer>
		<layer id="471" name="Multiply_28964124418871/restored_convert/quantized2398534791" type="Const" version="opset1">
			<data element_type="i8" offset="15890" shape="32,1,3,3" size="288"/>
			<output>
				<port id="0" precision="I8">
					<dim>32</dim>
					<dim>1</dim>
					<dim>3</dim>
					<dim>3</dim>
				</port>
			</output>
		</layer>
		<layer id="472" name="Multiply_28964124418871/restored_convert/quantized/to_f32" type="Convert" version="opset1">
			<data destination_type="f32"/>
			<input>
				<port id="0">
					<dim>32</dim>
					<dim>1</dim>
					<dim>3</dim>
					<dim>3</dim>
				</port>
			</input>
			<output>
				<port id="1" precision="FP32">
					<dim>32</dim>
					<dim>1</dim>
					<dim>3</dim>
					<dim>3</dim>
				</port>
			</output>
		</layer>
		<layer id="473" name="Multiply_28401/fq_weights_1/zero_point2400435859" type="Const" version="opset1">
			<data element_type="f32" offset="16178" shape="32,1,1,1" size="128"/>
			<output>
				<port id="0" precision="FP32">
					<dim>32</dim>
					<dim>1</dim>
					<dim>1</dim>
					<dim>1</dim>
				</port>
			</output>
		</layer>
		<layer id="474" name="Multiply_28401/fq_weights_1/minus_zp" type="Subtract" version="opset1">
			<data auto_broadcast="numpy"/>
			<input>
				<port id="0">
					<dim>32</dim>
					<dim>1</dim>
					<dim>3</dim>
					<dim>3</dim>
				</port>
				<port id="1">
					<dim>32</dim>
					<dim>1</dim>
					<dim>1</dim>
					<dim>1</dim>
				</port>
			</input>
			<output>
				<port id="2" precision="FP32">
					<dim>32</dim>
					<dim>1</dim>
					<dim>3</dim>
					<dim>3</dim>
				</port>
			</output>
		</layer>
		<layer id="475" name="Multiply_28401/fq_weights_1/scale2399335493" type="Const" version="opset1">
			<data element_type="f32" offset="16306" shape="32,1,1,1" size="128"/>
			<output>
				<port id="0" precision="FP32">
					<dim>32</dim>
					<dim>1</dim>
					<dim>1</dim>
					<dim>1</dim>
				</port>
			</output>
		</layer>
		<layer id="476" name="Multiply_28401/fq_weights_1/mulpiply_by_scale" type="Multiply" version="opset1">
			<data auto_broadcast="numpy"/>
			<input>
				<port id="0">
					<dim>32</dim>
					<dim>1</dim>
					<dim>3</dim>
					<dim>3</dim>
				</port>
				<port id="1">
					<dim>32</dim>
					<dim>1</dim>
					<dim>1</dim>
					<dim>1</dim>
				</port>
			</input>
			<output>
				<port id="2" precision="FP32">
					<dim>32</dim>
					<dim>1</dim>
					<dim>3</dim>
					<dim>3</dim>
				</port>
			</output>
		</layer>
		<layer id="477" name="29050" type="Reshape" version="opset1">
			<data special_zero="true"/>
			<input>
				<port id="0">
					<dim>32</dim>
					<dim>1</dim>
					<dim>3</dim>
					<dim>3</dim>
				</port>
				<port id="1">
					<dim>5</dim>
				</port>
			</input>
			<output>
				<port id="2" precision="FP32">
					<dim>32</dim>
					<dim>1</dim>
					<dim>1</dim>
					<dim>3</dim>
					<dim>3</dim>
				</port>
			</output>
		</layer>
		<layer id="478" name="Multiply_28401" type="GroupConvolution" version="opset1">
			<data auto_pad="explicit" dilations="1,1" pads_begin="1,1" pads_end="1,1" strides="1,1"/>
			<rt_info>
				<attribute name="fused_names" value="577, conv2.0.conv2b.0.bn.bias, conv2.0.conv2b.0.bn.running_mean, conv2.0.conv2b.0.bn.running_var, conv2.0.conv2b.0.bn.weight" version="0"/>
			</rt_info>
			<input>
				<port id="0">
					<dim>1</dim>
					<dim>32</dim>
					<dim>64</dim>
					<dim>32</dim>
				</port>
				<port id="1">
					<dim>32</dim>
					<dim>1</dim>
					<dim>1</dim>
					<dim>3</dim>
					<dim>3</dim>
				</port>
			</input>
			<output>
				<port id="2" names="576" precision="FP32">
					<dim>1</dim>
					<dim>32</dim>
					<dim>64</dim>
					<dim>32</dim>
				</port>
			</output>
		</layer>
		<layer id="479" name="Constant_28406124733861" type="Const" version="opset1">
			<data element_type="f16" offset="16434" shape="1,32,1,1" size="64"/>
			<output>
				<port id="0" precision="FP16">
					<dim>1</dim>
					<dim>32</dim>
					<dim>1</dim>
					<dim>1</dim>
				</port>
			</output>
		</layer>
		<layer id="480" name="Constant_28406124718872/restored_convert" type="Convert" version="opset1">
			<data destination_type="f32"/>
			<rt_info>
				<attribute name="decompression" version="0"/>
			</rt_info>
			<input>
				<port id="0">
					<dim>1</dim>
					<dim>32</dim>
					<dim>1</dim>
					<dim>1</dim>
				</port>
			</input>
			<output>
				<port id="1" precision="FP32">
					<dim>1</dim>
					<dim>32</dim>
					<dim>1</dim>
					<dim>1</dim>
				</port>
			</output>
		</layer>
		<layer id="481" name="577" type="Add" version="opset1">
			<data auto_broadcast="numpy"/>
			<rt_info>
				<attribute name="fused_names" value="577, conv2.0.conv2b.0.bn.bias, conv2.0.conv2b.0.bn.running_mean, conv2.0.conv2b.0.bn.running_var, conv2.0.conv2b.0.bn.weight" version="0"/>
			</rt_info>
			<input>
				<port id="0">
					<dim>1</dim>
					<dim>32</dim>
					<dim>64</dim>
					<dim>32</dim>
				</port>
				<port id="1">
					<dim>1</dim>
					<dim>32</dim>
					<dim>1</dim>
					<dim>1</dim>
				</port>
			</input>
			<output>
				<port id="2" names="577" precision="FP32">
					<dim>1</dim>
					<dim>32</dim>
					<dim>64</dim>
					<dim>32</dim>
				</port>
			</output>
		</layer>
		<layer id="482" name="578" type="ReLU" version="opset1">
			<rt_info>
				<attribute name="fused_names" value="578" version="0"/>
			</rt_info>
			<input>
				<port id="0">
					<dim>1</dim>
					<dim>32</dim>
					<dim>64</dim>
					<dim>32</dim>
				</port>
			</input>
			<output>
				<port id="1" names="578" precision="FP32">
					<dim>1</dim>
					<dim>32</dim>
					<dim>64</dim>
					<dim>32</dim>
				</port>
			</output>
		</layer>
		<layer id="483" name="579/fq_input_0" type="FakeQuantize" version="opset1">
			<data auto_broadcast="numpy" levels="256"/>
			<input>
				<port id="0">
					<dim>1</dim>
					<dim>32</dim>
					<dim>64</dim>
					<dim>32</dim>
				</port>
				<port id="1"/>
				<port id="2"/>
				<port id="3"/>
				<port id="4"/>
			</input>
			<output>
				<port id="5" precision="FP32">
					<dim>1</dim>
					<dim>32</dim>
					<dim>64</dim>
					<dim>32</dim>
				</port>
			</output>
		</layer>
		<layer id="484" name="conv2.0.conv2b.1.conv1.weight125118873/restored_convert/quantized2488535847" type="Const" version="opset1">
			<data element_type="i8" offset="16498" shape="32,32,1,1" size="1024"/>
			<output>
				<port id="0" precision="I8">
					<dim>32</dim>
					<dim>32</dim>
					<dim>1</dim>
					<dim>1</dim>
				</port>
			</output>
		</layer>
		<layer id="485" name="conv2.0.conv2b.1.conv1.weight125118873/restored_convert/quantized/to_f32" type="Convert" version="opset1">
			<data destination_type="f32"/>
			<input>
				<port id="0">
					<dim>32</dim>
					<dim>32</dim>
					<dim>1</dim>
					<dim>1</dim>
				</port>
			</input>
			<output>
				<port id="1" precision="FP32">
					<dim>32</dim>
					<dim>32</dim>
					<dim>1</dim>
					<dim>1</dim>
				</port>
			</output>
		</layer>
		<layer id="486" name="579/fq_weights_1/zero_point2490436471" type="Const" version="opset1">
			<data element_type="f32" offset="17522" shape="32,1,1,1" size="128"/>
			<output>
				<port id="0" precision="FP32">
					<dim>32</dim>
					<dim>1</dim>
					<dim>1</dim>
					<dim>1</dim>
				</port>
			</output>
		</layer>
		<layer id="487" name="579/fq_weights_1/minus_zp" type="Subtract" version="opset1">
			<data auto_broadcast="numpy"/>
			<input>
				<port id="0">
					<dim>32</dim>
					<dim>32</dim>
					<dim>1</dim>
					<dim>1</dim>
				</port>
				<port id="1">
					<dim>32</dim>
					<dim>1</dim>
					<dim>1</dim>
					<dim>1</dim>
				</port>
			</input>
			<output>
				<port id="2" precision="FP32">
					<dim>32</dim>
					<dim>32</dim>
					<dim>1</dim>
					<dim>1</dim>
				</port>
			</output>
		</layer>
		<layer id="488" name="579/fq_weights_1/scale2489337062" type="Const" version="opset1">
			<data element_type="f32" offset="17650" shape="32,1,1,1" size="128"/>
			<output>
				<port id="0" precision="FP32">
					<dim>32</dim>
					<dim>1</dim>
					<dim>1</dim>
					<dim>1</dim>
				</port>
			</output>
		</layer>
		<layer id="489" name="579/fq_weights_1/mulpiply_by_scale" type="Multiply" version="opset1">
			<data auto_broadcast="numpy"/>
			<input>
				<port id="0">
					<dim>32</dim>
					<dim>32</dim>
					<dim>1</dim>
					<dim>1</dim>
				</port>
				<port id="1">
					<dim>32</dim>
					<dim>1</dim>
					<dim>1</dim>
					<dim>1</dim>
				</port>
			</input>
			<output>
				<port id="2" precision="FP32">
					<dim>32</dim>
					<dim>32</dim>
					<dim>1</dim>
					<dim>1</dim>
				</port>
			</output>
		</layer>
		<layer id="490" name="579" type="Convolution" version="opset1">
			<data auto_pad="explicit" dilations="1,1" pads_begin="0,0" pads_end="0,0" strides="1,1"/>
			<rt_info>
				<attribute name="fused_names" value="579" version="0"/>
			</rt_info>
			<input>
				<port id="0">
					<dim>1</dim>
					<dim>32</dim>
					<dim>64</dim>
					<dim>32</dim>
				</port>
				<port id="1">
					<dim>32</dim>
					<dim>32</dim>
					<dim>1</dim>
					<dim>1</dim>
				</port>
			</input>
			<output>
				<port id="2" names="579" precision="FP32">
					<dim>1</dim>
					<dim>32</dim>
					<dim>64</dim>
					<dim>32</dim>
				</port>
			</output>
		</layer>
		<layer id="491" name="579/add_" type="Add" version="opset1">
			<data auto_broadcast="numpy"/>
			<input>
				<port id="0">
					<dim>1</dim>
					<dim>32</dim>
					<dim>64</dim>
					<dim>32</dim>
				</port>
				<port id="1">
					<dim>1</dim>
					<dim>32</dim>
					<dim>1</dim>
					<dim>1</dim>
				</port>
			</input>
			<output>
				<port id="2" precision="FP32">
					<dim>1</dim>
					<dim>32</dim>
					<dim>64</dim>
					<dim>32</dim>
				</port>
			</output>
		</layer>
		<layer id="492" name="Multiply_28408/fq_input_0" type="FakeQuantize" version="opset1">
			<data auto_broadcast="numpy" levels="256"/>
			<input>
				<port id="0">
					<dim>1</dim>
					<dim>32</dim>
					<dim>64</dim>
					<dim>32</dim>
				</port>
				<port id="1">
					<dim>1</dim>
					<dim>32</dim>
					<dim>1</dim>
					<dim>1</dim>
				</port>
				<port id="2">
					<dim>1</dim>
					<dim>32</dim>
					<dim>1</dim>
					<dim>1</dim>
				</port>
				<port id="3">
					<dim>1</dim>
					<dim>32</dim>
					<dim>1</dim>
					<dim>1</dim>
				</port>
				<port id="4">
					<dim>1</dim>
					<dim>32</dim>
					<dim>1</dim>
					<dim>1</dim>
				</port>
			</input>
			<output>
				<port id="5" precision="FP32">
					<dim>1</dim>
					<dim>32</dim>
					<dim>64</dim>
					<dim>32</dim>
				</port>
			</output>
		</layer>
		<layer id="493" name="29054/value2905634935" type="Const" version="opset1">
			<data element_type="i64" offset="13110" shape="5" size="40"/>
			<output>
				<port id="0" precision="I64">
					<dim>5</dim>
				</port>
			</output>
		</layer>
		<layer id="494" name="Multiply_28972125418874/restored_convert/quantized2407532754" type="Const" version="opset1">
			<data element_type="i8" offset="17778" shape="32,1,3,3" size="288"/>
			<output>
				<port id="0" precision="I8">
					<dim>32</dim>
					<dim>1</dim>
					<dim>3</dim>
					<dim>3</dim>
				</port>
			</output>
		</layer>
		<layer id="495" name="Multiply_28972125418874/restored_convert/quantized/to_f32" type="Convert" version="opset1">
			<data destination_type="f32"/>
			<input>
				<port id="0">
					<dim>32</dim>
					<dim>1</dim>
					<dim>3</dim>
					<dim>3</dim>
				</port>
			</input>
			<output>
				<port id="1" precision="FP32">
					<dim>32</dim>
					<dim>1</dim>
					<dim>3</dim>
					<dim>3</dim>
				</port>
			</output>
		</layer>
		<layer id="496" name="Multiply_28408/fq_weights_1/zero_point2409433204" type="Const" version="opset1">
			<data element_type="f32" offset="18066" shape="32,1,1,1" size="128"/>
			<output>
				<port id="0" precision="FP32">
					<dim>32</dim>
					<dim>1</dim>
					<dim>1</dim>
					<dim>1</dim>
				</port>
			</output>
		</layer>
		<layer id="497" name="Multiply_28408/fq_weights_1/minus_zp" type="Subtract" version="opset1">
			<data auto_broadcast="numpy"/>
			<input>
				<port id="0">
					<dim>32</dim>
					<dim>1</dim>
					<dim>3</dim>
					<dim>3</dim>
				</port>
				<port id="1">
					<dim>32</dim>
					<dim>1</dim>
					<dim>1</dim>
					<dim>1</dim>
				</port>
			</input>
			<output>
				<port id="2" precision="FP32">
					<dim>32</dim>
					<dim>1</dim>
					<dim>3</dim>
					<dim>3</dim>
				</port>
			</output>
		</layer>
		<layer id="498" name="Multiply_28408/fq_weights_1/scale2408333555" type="Const" version="opset1">
			<data element_type="f32" offset="18194" shape="32,1,1,1" size="128"/>
			<output>
				<port id="0" precision="FP32">
					<dim>32</dim>
					<dim>1</dim>
					<dim>1</dim>
					<dim>1</dim>
				</port>
			</output>
		</layer>
		<layer id="499" name="Multiply_28408/fq_weights_1/mulpiply_by_scale" type="Multiply" version="opset1">
			<data auto_broadcast="numpy"/>
			<input>
				<port id="0">
					<dim>32</dim>
					<dim>1</dim>
					<dim>3</dim>
					<dim>3</dim>
				</port>
				<port id="1">
					<dim>32</dim>
					<dim>1</dim>
					<dim>1</dim>
					<dim>1</dim>
				</port>
			</input>
			<output>
				<port id="2" precision="FP32">
					<dim>32</dim>
					<dim>1</dim>
					<dim>3</dim>
					<dim>3</dim>
				</port>
			</output>
		</layer>
		<layer id="500" name="29054" type="Reshape" version="opset1">
			<data special_zero="true"/>
			<input>
				<port id="0">
					<dim>32</dim>
					<dim>1</dim>
					<dim>3</dim>
					<dim>3</dim>
				</port>
				<port id="1">
					<dim>5</dim>
				</port>
			</input>
			<output>
				<port id="2" precision="FP32">
					<dim>32</dim>
					<dim>1</dim>
					<dim>1</dim>
					<dim>3</dim>
					<dim>3</dim>
				</port>
			</output>
		</layer>
		<layer id="501" name="Multiply_28408" type="GroupConvolution" version="opset1">
			<data auto_pad="explicit" dilations="1,1" pads_begin="1,1" pads_end="1,1" strides="1,1"/>
			<rt_info>
				<attribute name="fused_names" value="581, conv2.0.conv2b.1.bn.bias, conv2.0.conv2b.1.bn.running_mean, conv2.0.conv2b.1.bn.running_var, conv2.0.conv2b.1.bn.weight" version="0"/>
			</rt_info>
			<input>
				<port id="0">
					<dim>1</dim>
					<dim>32</dim>
					<dim>64</dim>
					<dim>32</dim>
				</port>
				<port id="1">
					<dim>32</dim>
					<dim>1</dim>
					<dim>1</dim>
					<dim>3</dim>
					<dim>3</dim>
				</port>
			</input>
			<output>
				<port id="2" names="580" precision="FP32">
					<dim>1</dim>
					<dim>32</dim>
					<dim>64</dim>
					<dim>32</dim>
				</port>
			</output>
		</layer>
		<layer id="502" name="Constant_28413125733912" type="Const" version="opset1">
			<data element_type="f16" offset="18322" shape="1,32,1,1" size="64"/>
			<output>
				<port id="0" precision="FP16">
					<dim>1</dim>
					<dim>32</dim>
					<dim>1</dim>
					<dim>1</dim>
				</port>
			</output>
		</layer>
		<layer id="503" name="Constant_28413125718875/restored_convert" type="Convert" version="opset1">
			<data destination_type="f32"/>
			<rt_info>
				<attribute name="decompression" version="0"/>
			</rt_info>
			<input>
				<port id="0">
					<dim>1</dim>
					<dim>32</dim>
					<dim>1</dim>
					<dim>1</dim>
				</port>
			</input>
			<output>
				<port id="1" precision="FP32">
					<dim>1</dim>
					<dim>32</dim>
					<dim>1</dim>
					<dim>1</dim>
				</port>
			</output>
		</layer>
		<layer id="504" name="581" type="Add" version="opset1">
			<data auto_broadcast="numpy"/>
			<rt_info>
				<attribute name="fused_names" value="581, conv2.0.conv2b.1.bn.bias, conv2.0.conv2b.1.bn.running_mean, conv2.0.conv2b.1.bn.running_var, conv2.0.conv2b.1.bn.weight" version="0"/>
			</rt_info>
			<input>
				<port id="0">
					<dim>1</dim>
					<dim>32</dim>
					<dim>64</dim>
					<dim>32</dim>
				</port>
				<port id="1">
					<dim>1</dim>
					<dim>32</dim>
					<dim>1</dim>
					<dim>1</dim>
				</port>
			</input>
			<output>
				<port id="2" names="581" precision="FP32">
					<dim>1</dim>
					<dim>32</dim>
					<dim>64</dim>
					<dim>32</dim>
				</port>
			</output>
		</layer>
		<layer id="505" name="582" type="ReLU" version="opset1">
			<rt_info>
				<attribute name="fused_names" value="582" version="0"/>
			</rt_info>
			<input>
				<port id="0">
					<dim>1</dim>
					<dim>32</dim>
					<dim>64</dim>
					<dim>32</dim>
				</port>
			</input>
			<output>
				<port id="1" names="582" precision="FP32">
					<dim>1</dim>
					<dim>32</dim>
					<dim>64</dim>
					<dim>32</dim>
				</port>
			</output>
		</layer>
		<layer id="506" name="617/fq_input_0" type="FakeQuantize" version="opset1">
			<data auto_broadcast="numpy" levels="256"/>
			<input>
				<port id="0">
					<dim>1</dim>
					<dim>32</dim>
					<dim>64</dim>
					<dim>32</dim>
				</port>
				<port id="1"/>
				<port id="2"/>
				<port id="3"/>
				<port id="4"/>
			</input>
			<output>
				<port id="5" precision="FP32">
					<dim>1</dim>
					<dim>32</dim>
					<dim>64</dim>
					<dim>32</dim>
				</port>
			</output>
		</layer>
		<layer id="507" name="Range_16871260" type="Const" version="opset1">
			<data element_type="i64" offset="8" shape="2" size="16"/>
			<output>
				<port id="0" precision="I64">
					<dim>2</dim>
				</port>
			</output>
		</layer>
		<layer id="508" name="617" type="ReduceMean" version="opset1">
			<data keep_dims="true"/>
			<rt_info>
				<attribute name="fused_names" value="617, Range_1687" version="0"/>
			</rt_info>
			<input>
				<port id="0">
					<dim>1</dim>
					<dim>32</dim>
					<dim>64</dim>
					<dim>32</dim>
				</port>
				<port id="1">
					<dim>2</dim>
				</port>
			</input>
			<output>
				<port id="2" names="617" precision="FP32">
					<dim>1</dim>
					<dim>32</dim>
					<dim>1</dim>
					<dim>1</dim>
				</port>
			</output>
		</layer>
		<layer id="509" name="Convolution_1712" type="Convolution" version="opset1">
			<data auto_pad="explicit" dilations="1,1" pads_begin="0,0" pads_end="0,0" strides="1,1"/>
			<rt_info>
				<attribute name="fused_names" value="Convolution_1712" version="0"/>
			</rt_info>
			<input>
				<port id="0">
					<dim>1</dim>
					<dim>32</dim>
					<dim>1</dim>
					<dim>1</dim>
				</port>
				<port id="1">
					<dim>2</dim>
					<dim>32</dim>
					<dim>1</dim>
					<dim>1</dim>
				</port>
			</input>
			<output>
				<port id="2" precision="FP32">
					<dim>1</dim>
					<dim>2</dim>
					<dim>1</dim>
					<dim>1</dim>
				</port>
			</output>
		</layer>
		<layer id="510" name="Reshape_1732126433342" type="Const" version="opset1">
			<data element_type="f16" offset="13886" shape="1,2,1,1" size="4"/>
			<output>
				<port id="0" precision="FP16">
					<dim>1</dim>
					<dim>2</dim>
					<dim>1</dim>
					<dim>1</dim>
				</port>
			</output>
		</layer>
…
		<edge from-layer="2505" from-port="0" to-layer="2653" to-port="3"/>
		<edge from-layer="2506" from-port="0" to-layer="2653" to-port="4"/>
		<edge from-layer="2502" from-port="5" to-layer="2654" to-port="0"/>
		<edge from-layer="2653" from-port="5" to-layer="2654" to-port="1"/>
		<edge from-layer="2654" from-port="2" to-layer="2655" to-port="0"/>
		<edge from-layer="148" from-port="0" to-layer="2655" to-port="1"/>
		<edge from-layer="149" from-port="0" to-layer="2655" to-port="2"/>
		<edge from-layer="150" from-port="0" to-layer="2655" to-port="3"/>
		<edge from-layer="151" from-port="0" to-layer="2655" to-port="4"/>
		<edge from-layer="2656" from-port="0" to-layer="2657" to-port="0"/>
		<edge from-layer="2657" from-port="1" to-layer="2659" to-port="0"/>
		<edge from-layer="2658" from-port="0" to-layer="2659" to-port="1"/>
		<edge from-layer="2659" from-port="2" to-layer="2661" to-port="0"/>
		<edge from-layer="2660" from-port="0" to-layer="2661" to-port="1"/>
		<edge from-layer="2655" from-port="5" to-layer="2662" to-port="0"/>
		<edge from-layer="2661" from-port="2" to-layer="2662" to-port="1"/>
		<edge from-layer="2663" from-port="0" to-layer="2664" to-port="0"/>
		<edge from-layer="2662" from-port="2" to-layer="2665" to-port="0"/>
		<edge from-layer="2664" from-port="1" to-layer="2665" to-port="1"/>
		<edge from-layer="2665" from-port="2" to-layer="2666" to-port="0"/>
		<edge from-layer="144" from-port="0" to-layer="2666" to-port="1"/>
		<edge from-layer="145" from-port="0" to-layer="2666" to-port="2"/>
		<edge from-layer="146" from-port="0" to-layer="2666" to-port="3"/>
		<edge from-layer="147" from-port="0" to-layer="2666" to-port="4"/>
		<edge from-layer="2671" from-port="0" to-layer="2672" to-port="0"/>
		<edge from-layer="2672" from-port="1" to-layer="2674" to-port="0"/>
		<edge from-layer="2673" from-port="0" to-layer="2674" to-port="1"/>
		<edge from-layer="2674" from-port="2" to-layer="2676" to-port="0"/>
		<edge from-layer="2675" from-port="0" to-layer="2676" to-port="1"/>
		<edge from-layer="2238" from-port="5" to-layer="2677" to-port="0"/>
		<edge from-layer="2676" from-port="2" to-layer="2677" to-port="1"/>
		<edge from-layer="2678" from-port="0" to-layer="2679" to-port="0"/>
		<edge from-layer="2677" from-port="2" to-layer="2680" to-port="0"/>
		<edge from-layer="2679" from-port="1" to-layer="2680" to-port="1"/>
		<edge from-layer="2680" from-port="2" to-layer="2681" to-port="0"/>
		<edge from-layer="2667" from-port="0" to-layer="2681" to-port="1"/>
		<edge from-layer="2668" from-port="0" to-layer="2681" to-port="2"/>
		<edge from-layer="2669" from-port="0" to-layer="2681" to-port="3"/>
		<edge from-layer="2670" from-port="0" to-layer="2681" to-port="4"/>
		<edge from-layer="2666" from-port="5" to-layer="2682" to-port="0"/>
		<edge from-layer="2681" from-port="5" to-layer="2682" to-port="1"/>
		<edge from-layer="2682" from-port="2" to-layer="2683" to-port="0"/>
		<edge from-layer="2683" from-port="1" to-layer="2684" to-port="0"/>
		<edge from-layer="140" from-port="0" to-layer="2684" to-port="1"/>
		<edge from-layer="141" from-port="0" to-layer="2684" to-port="2"/>
		<edge from-layer="142" from-port="0" to-layer="2684" to-port="3"/>
		<edge from-layer="143" from-port="0" to-layer="2684" to-port="4"/>
		<edge from-layer="2685" from-port="0" to-layer="2686" to-port="0"/>
		<edge from-layer="2686" from-port="1" to-layer="2688" to-port="0"/>
		<edge from-layer="2687" from-port="0" to-layer="2688" to-port="1"/>
		<edge from-layer="2688" from-port="2" to-layer="2690" to-port="0"/>
		<edge from-layer="2689" from-port="0" to-layer="2690" to-port="1"/>
		<edge from-layer="2684" from-port="5" to-layer="2691" to-port="0"/>
		<edge from-layer="2690" from-port="2" to-layer="2691" to-port="1"/>
		<edge from-layer="2692" from-port="0" to-layer="2693" to-port="0"/>
		<edge from-layer="2691" from-port="2" to-layer="2694" to-port="0"/>
		<edge from-layer="2693" from-port="1" to-layer="2694" to-port="1"/>
		<edge from-layer="2694" from-port="2" to-layer="2695" to-port="0"/>
		<edge from-layer="2695" from-port="1" to-layer="2696" to-port="0"/>
		<edge from-layer="136" from-port="0" to-layer="2696" to-port="1"/>
		<edge from-layer="137" from-port="0" to-layer="2696" to-port="2"/>
		<edge from-layer="138" from-port="0" to-layer="2696" to-port="3"/>
		<edge from-layer="139" from-port="0" to-layer="2696" to-port="4"/>
		<edge from-layer="2697" from-port="0" to-layer="2698" to-port="0"/>
		<edge from-layer="2698" from-port="1" to-layer="2700" to-port="0"/>
		<edge from-layer="2699" from-port="0" to-layer="2700" to-port="1"/>
		<edge from-layer="2700" from-port="2" to-layer="2702" to-port="0"/>
		<edge from-layer="2701" from-port="0" to-layer="2702" to-port="1"/>
		<edge from-layer="2696" from-port="5" to-layer="2703" to-port="0"/>
		<edge from-layer="2702" from-port="2" to-layer="2703" to-port="1"/>
		<edge from-layer="2703" from-port="2" to-layer="2704" to-port="0"/>
		<edge from-layer="135" from-port="0" to-layer="2704" to-port="1"/>
		<edge from-layer="2704" from-port="2" to-layer="2705" to-port="0"/>
		<edge from-layer="131" from-port="0" to-layer="2705" to-port="1"/>
		<edge from-layer="132" from-port="0" to-layer="2705" to-port="2"/>
		<edge from-layer="133" from-port="0" to-layer="2705" to-port="3"/>
		<edge from-layer="134" from-port="0" to-layer="2705" to-port="4"/>
		<edge from-layer="2707" from-port="0" to-layer="2708" to-port="0"/>
		<edge from-layer="2708" from-port="1" to-layer="2710" to-port="0"/>
		<edge from-layer="2709" from-port="0" to-layer="2710" to-port="1"/>
		<edge from-layer="2710" from-port="2" to-layer="2712" to-port="0"/>
		<edge from-layer="2711" from-port="0" to-layer="2712" to-port="1"/>
		<edge from-layer="2712" from-port="2" to-layer="2713" to-port="0"/>
		<edge from-layer="2706" from-port="0" to-layer="2713" to-port="1"/>
		<edge from-layer="2705" from-port="5" to-layer="2714" to-port="0"/>
		<edge from-layer="2713" from-port="2" to-layer="2714" to-port="1"/>
		<edge from-layer="2715" from-port="0" to-layer="2716" to-port="0"/>
		<edge from-layer="2714" from-port="2" to-layer="2717" to-port="0"/>
		<edge from-layer="2716" from-port="1" to-layer="2717" to-port="1"/>
		<edge from-layer="2717" from-port="2" to-layer="2718" to-port="0"/>
		<edge from-layer="2718" from-port="1" to-layer="2719" to-port="0"/>
		<edge from-layer="127" from-port="0" to-layer="2719" to-port="1"/>
		<edge from-layer="128" from-port="0" to-layer="2719" to-port="2"/>
		<edge from-layer="129" from-port="0" to-layer="2719" to-port="3"/>
		<edge from-layer="130" from-port="0" to-layer="2719" to-port="4"/>
		<edge from-layer="2719" from-port="5" to-layer="2721" to-port="0"/>
		<edge from-layer="2720" from-port="0" to-layer="2721" to-port="1"/>
		<edge from-layer="2721" from-port="2" to-layer="2722" to-port="0"/>
		<edge from-layer="123" from-port="0" to-layer="2722" to-port="1"/>
		<edge from-layer="124" from-port="0" to-layer="2722" to-port="2"/>
		<edge from-layer="125" from-port="0" to-layer="2722" to-port="3"/>
		<edge from-layer="126" from-port="0" to-layer="2722" to-port="4"/>
		<edge from-layer="2722" from-port="5" to-layer="2723" to-port="0"/>
		<edge from-layer="122" from-port="0" to-layer="2723" to-port="1"/>
		<edge from-layer="2723" from-port="2" to-layer="2724" to-port="0"/>
		<edge from-layer="121" from-port="0" to-layer="2724" to-port="1"/>
		<edge from-layer="2724" from-port="2" to-layer="2725" to-port="0"/>
		<edge from-layer="117" from-port="0" to-layer="2725" to-port="1"/>
		<edge from-layer="118" from-port="0" to-layer="2725" to-port="2"/>
		<edge from-layer="119" from-port="0" to-layer="2725" to-port="3"/>
		<edge from-layer="120" from-port="0" to-layer="2725" to-port="4"/>
		<edge from-layer="2721" from-port="2" to-layer="2726" to-port="0"/>
		<edge from-layer="2725" from-port="5" to-layer="2727" to-port="0"/>
		<edge from-layer="2726" from-port="1" to-layer="2727" to-port="1"/>
		<edge from-layer="2728" from-port="0" to-layer="2729" to-port="0"/>
		<edge from-layer="2727" from-port="2" to-layer="2730" to-port="0"/>
		<edge from-layer="2729" from-port="1" to-layer="2730" to-port="1"/>
		<edge from-layer="2731" from-port="0" to-layer="2732" to-port="0"/>
		<edge from-layer="2730" from-port="2" to-layer="2733" to-port="0"/>
		<edge from-layer="2732" from-port="1" to-layer="2733" to-port="1"/>
		<edge from-layer="2733" from-port="2" to-layer="2734" to-port="0"/>
		<edge from-layer="2734" from-port="1" to-layer="2735" to-port="0"/>
		<edge from-layer="113" from-port="0" to-layer="2735" to-port="1"/>
		<edge from-layer="114" from-port="0" to-layer="2735" to-port="2"/>
		<edge from-layer="115" from-port="0" to-layer="2735" to-port="3"/>
		<edge from-layer="116" from-port="0" to-layer="2735" to-port="4"/>
		<edge from-layer="2719" from-port="5" to-layer="2736" to-port="0"/>
		<edge from-layer="2735" from-port="5" to-layer="2736" to-port="1"/>
		<edge from-layer="2736" from-port="2" to-layer="2737" to-port="0"/>
		<edge from-layer="109" from-port="0" to-layer="2737" to-port="1"/>
		<edge from-layer="110" from-port="0" to-layer="2737" to-port="2"/>
		<edge from-layer="111" from-port="0" to-layer="2737" to-port="3"/>
		<edge from-layer="112" from-port="0" to-layer="2737" to-port="4"/>
		<edge from-layer="2774" from-port="0" to-layer="2775" to-port="0"/>
		<edge from-layer="2775" from-port="1" to-layer="2777" to-port="0"/>
		<edge from-layer="2776" from-port="0" to-layer="2777" to-port="1"/>
		<edge from-layer="2777" from-port="2" to-layer="2779" to-port="0"/>
		<edge from-layer="2778" from-port="0" to-layer="2779" to-port="1"/>
		<edge from-layer="2696" from-port="5" to-layer="2780" to-port="0"/>
		<edge from-layer="2779" from-port="2" to-layer="2780" to-port="1"/>
		<edge from-layer="2780" from-port="2" to-layer="2781" to-port="0"/>
		<edge from-layer="2773" from-port="0" to-layer="2781" to-port="1"/>
		<edge from-layer="2781" from-port="2" to-layer="2782" to-port="0"/>
		<edge from-layer="2769" from-port="0" to-layer="2782" to-port="1"/>
		<edge from-layer="2770" from-port="0" to-layer="2782" to-port="2"/>
		<edge from-layer="2771" from-port="0" to-layer="2782" to-port="3"/>
		<edge from-layer="2772" from-port="0" to-layer="2782" to-port="4"/>
		<edge from-layer="2784" from-port="0" to-layer="2785" to-port="0"/>
		<edge from-layer="2785" from-port="1" to-layer="2787" to-port="0"/>
		<edge from-layer="2786" from-port="0" to-layer="2787" to-port="1"/>
		<edge from-layer="2787" from-port="2" to-layer="2789" to-port="0"/>
		<edge from-layer="2788" from-port="0" to-layer="2789" to-port="1"/>
		<edge from-layer="2789" from-port="2" to-layer="2790" to-port="0"/>
		<edge from-layer="2783" from-port="0" to-layer="2790" to-port="1"/>
		<edge from-layer="2782" from-port="5" to-layer="2791" to-port="0"/>
		<edge from-layer="2790" from-port="2" to-layer="2791" to-port="1"/>
		<edge from-layer="2792" from-port="0" to-layer="2793" to-port="0"/>
		<edge from-layer="2791" from-port="2" to-layer="2794" to-port="0"/>
		<edge from-layer="2793" from-port="1" to-layer="2794" to-port="1"/>
		<edge from-layer="2794" from-port="2" to-layer="2795" to-port="0"/>
		<edge from-layer="2795" from-port="1" to-layer="2796" to-port="0"/>
		<edge from-layer="2765" from-port="0" to-layer="2796" to-port="1"/>
		<edge from-layer="2766" from-port="0" to-layer="2796" to-port="2"/>
		<edge from-layer="2767" from-port="0" to-layer="2796" to-port="3"/>
		<edge from-layer="2768" from-port="0" to-layer="2796" to-port="4"/>
		<edge from-layer="2797" from-port="0" to-layer="2798" to-port="0"/>
		<edge from-layer="2798" from-port="1" to-layer="2800" to-port="0"/>
		<edge from-layer="2799" from-port="0" to-layer="2800" to-port="1"/>
		<edge from-layer="2800" from-port="2" to-layer="2802" to-port="0"/>
		<edge from-layer="2801" from-port="0" to-layer="2802" to-port="1"/>
		<edge from-layer="2796" from-port="5" to-layer="2803" to-port="0"/>
		<edge from-layer="2802" from-port="2" to-layer="2803" to-port="1"/>
		<edge from-layer="2803" from-port="2" to-layer="2804" to-port="0"/>
		<edge from-layer="2764" from-port="0" to-layer="2804" to-port="1"/>
		<edge from-layer="2804" from-port="2" to-layer="2805" to-port="0"/>
		<edge from-layer="2760" from-port="0" to-layer="2805" to-port="1"/>
		<edge from-layer="2761" from-port="0" to-layer="2805" to-port="2"/>
		<edge from-layer="2762" from-port="0" to-layer="2805" to-port="3"/>
		<edge from-layer="2763" from-port="0" to-layer="2805" to-port="4"/>
		<edge from-layer="2807" from-port="0" to-layer="2808" to-port="0"/>
		<edge from-layer="2808" from-port="1" to-layer="2810" to-port="0"/>
		<edge from-layer="2809" from-port="0" to-layer="2810" to-port="1"/>
		<edge from-layer="2810" from-port="2" to-layer="2812" to-port="0"/>
		<edge from-layer="2811" from-port="0" to-layer="2812" to-port="1"/>
		<edge from-layer="2812" from-port="2" to-layer="2813" to-port="0"/>
		<edge from-layer="2806" from-port="0" to-layer="2813" to-port="1"/>
		<edge from-layer="2805" from-port="5" to-layer="2814" to-port="0"/>
		<edge from-layer="2813" from-port="2" to-layer="2814" to-port="1"/>
		<edge from-layer="2815" from-port="0" to-layer="2816" to-port="0"/>
		<edge from-layer="2814" from-port="2" to-layer="2817" to-port="0"/>
		<edge from-layer="2816" from-port="1" to-layer="2817" to-port="1"/>
		<edge from-layer="2817" from-port="2" to-layer="2818" to-port="0"/>
		<edge from-layer="2818" from-port="1" to-layer="2819" to-port="0"/>
		<edge from-layer="2756" from-port="0" to-layer="2819" to-port="1"/>
		<edge from-layer="2757" from-port="0" to-layer="2819" to-port="2"/>
		<edge from-layer="2758" from-port="0" to-layer="2819" to-port="3"/>
		<edge from-layer="2759" from-port="0" to-layer="2819" to-port="4"/>
		<edge from-layer="2819" from-port="5" to-layer="2821" to-port="0"/>
		<edge from-layer="2820" from-port="0" to-layer="2821" to-port="1"/>
		<edge from-layer="2821" from-port="2" to-layer="2822" to-port="0"/>
		<edge from-layer="2752" from-port="0" to-layer="2822" to-port="1"/>
		<edge from-layer="2753" from-port="0" to-layer="2822" to-port="2"/>
		<edge from-layer="2754" from-port="0" to-layer="2822" to-port="3"/>
		<edge from-layer="2755" from-port="0" to-layer="2822" to-port="4"/>
		<edge from-layer="2822" from-port="5" to-layer="2823" to-port="0"/>
		<edge from-layer="2751" from-port="0" to-layer="2823" to-port="1"/>
		<edge from-layer="2823" from-port="2" to-layer="2824" to-port="0"/>
		<edge from-layer="2750" from-port="0" to-layer="2824" to-port="1"/>
		<edge from-layer="2824" from-port="2" to-layer="2825" to-port="0"/>
		<edge from-layer="2746" from-port="0" to-layer="2825" to-port="1"/>
		<edge from-layer="2747" from-port="0" to-layer="2825" to-port="2"/>
		<edge from-layer="2748" from-port="0" to-layer="2825" to-port="3"/>
		<edge from-layer="2749" from-port="0" to-layer="2825" to-port="4"/>
		<edge from-layer="2821" from-port="2" to-layer="2826" to-port="0"/>
		<edge from-layer="2825" from-port="5" to-layer="2827" to-port="0"/>
		<edge from-layer="2826" from-port="1" to-layer="2827" to-port="1"/>
		<edge from-layer="2828" from-port="0" to-layer="2829" to-port="0"/>
		<edge from-layer="2827" from-port="2" to-layer="2830" to-port="0"/>
		<edge from-layer="2829" from-port="1" to-layer="2830" to-port="1"/>
		<edge from-layer="2831" from-port="0" to-layer="2832" to-port="0"/>
		<edge from-layer="2830" from-port="2" to-layer="2833" to-port="0"/>
		<edge from-layer="2832" from-port="1" to-layer="2833" to-port="1"/>
		<edge from-layer="2833" from-port="2" to-layer="2834" to-port="0"/>
		<edge from-layer="2834" from-port="1" to-layer="2835" to-port="0"/>
		<edge from-layer="2742" from-port="0" to-layer="2835" to-port="1"/>
		<edge from-layer="2743" from-port="0" to-layer="2835" to-port="2"/>
		<edge from-layer="2744" from-port="0" to-layer="2835" to-port="3"/>
		<edge from-layer="2745" from-port="0" to-layer="2835" to-port="4"/>
		<edge from-layer="2819" from-port="5" to-layer="2836" to-port="0"/>
		<edge from-layer="2835" from-port="5" to-layer="2836" to-port="1"/>
		<edge from-layer="2836" from-port="2" to-layer="2837" to-port="0"/>
		<edge from-layer="2738" from-port="0" to-layer="2837" to-port="1"/>
		<edge from-layer="2739" from-port="0" to-layer="2837" to-port="2"/>
		<edge from-layer="2740" from-port="0" to-layer="2837" to-port="3"/>
		<edge from-layer="2741" from-port="0" to-layer="2837" to-port="4"/>
		<edge from-layer="2737" from-port="5" to-layer="2838" to-port="0"/>
		<edge from-layer="2837" from-port="5" to-layer="2838" to-port="1"/>
		<edge from-layer="2838" from-port="2" to-layer="2839" to-port="0"/>
		<edge from-layer="105" from-port="0" to-layer="2839" to-port="1"/>
		<edge from-layer="106" from-port="0" to-layer="2839" to-port="2"/>
		<edge from-layer="107" from-port="0" to-layer="2839" to-port="3"/>
		<edge from-layer="108" from-port="0" to-layer="2839" to-port="4"/>
		<edge from-layer="2885" from-port="0" to-layer="2886" to-port="0"/>
		<edge from-layer="2886" from-port="1" to-layer="2888" to-port="0"/>
		<edge from-layer="2887" from-port="0" to-layer="2888" to-port="1"/>
		<edge from-layer="2888" from-port="2" to-layer="2890" to-port="0"/>
		<edge from-layer="2889" from-port="0" to-layer="2890" to-port="1"/>
		<edge from-layer="2696" from-port="5" to-layer="2891" to-port="0"/>
		<edge from-layer="2890" from-port="2" to-layer="2891" to-port="1"/>
		<edge from-layer="2891" from-port="2" to-layer="2892" to-port="0"/>
		<edge from-layer="2884" from-port="0" to-layer="2892" to-port="1"/>
		<edge from-layer="2892" from-port="2" to-layer="2893" to-port="0"/>
		<edge from-layer="2880" from-port="0" to-layer="2893" to-port="1"/>
		<edge from-layer="2881" from-port="0" to-layer="2893" to-port="2"/>
		<edge from-layer="2882" from-port="0" to-layer="2893" to-port="3"/>
		<edge from-layer="2883" from-port="0" to-layer="2893" to-port="4"/>
		<edge from-layer="2895" from-port="0" to-layer="2896" to-port="0"/>
		<edge from-layer="2896" from-port="1" to-layer="2898" to-port="0"/>
		<edge from-layer="2897" from-port="0" to-layer="2898" to-port="1"/>
		<edge from-layer="2898" from-port="2" to-layer="2900" to-port="0"/>
		<edge from-layer="2899" from-port="0" to-layer="2900" to-port="1"/>
		<edge from-layer="2900" from-port="2" to-layer="2901" to-port="0"/>
		<edge from-layer="2894" from-port="0" to-layer="2901" to-port="1"/>
		<edge from-layer="2893" from-port="5" to-layer="2902" to-port="0"/>
		<edge from-layer="2901" from-port="2" to-layer="2902" to-port="1"/>
		<edge from-layer="2903" from-port="0" to-layer="2904" to-port="0"/>
		<edge from-layer="2902" from-port="2" to-layer="2905" to-port="0"/>
		<edge from-layer="2904" from-port="1" to-layer="2905" to-port="1"/>
		<edge from-layer="2905" from-port="2" to-layer="2906" to-port="0"/>
		<edge from-layer="2906" from-port="1" to-layer="2907" to-port="0"/>
		<edge from-layer="2876" from-port="0" to-layer="2907" to-port="1"/>
		<edge from-layer="2877" from-port="0" to-layer="2907" to-port="2"/>
		<edge from-layer="2878" from-port="0" to-layer="2907" to-port="3"/>
		<edge from-layer="2879" from-port="0" to-layer="2907" to-port="4"/>
		<edge from-layer="2908" from-port="0" to-layer="2909" to-port="0"/>
		<edge from-layer="2909" from-port="1" to-layer="2911" to-port="0"/>
		<edge from-layer="2910" from-port="0" to-layer="2911" to-port="1"/>
		<edge from-layer="2911" from-port="2" to-layer="2913" to-port="0"/>
		<edge from-layer="2912" from-port="0" to-layer="2913" to-port="1"/>
		<edge from-layer="2907" from-port="5" to-layer="2914" to-port="0"/>
		<edge from-layer="2913" from-port="2" to-layer="2914" to-port="1"/>
		<edge from-layer="2914" from-port="2" to-layer="2915" to-port="0"/>
		<edge from-layer="2875" from-port="0" to-layer="2915" to-port="1"/>
		<edge from-layer="2915" from-port="2" to-layer="2916" to-port="0"/>
		<edge from-layer="2871" from-port="0" to-layer="2916" to-port="1"/>
		<edge from-layer="2872" from-port="0" to-layer="2916" to-port="2"/>
		<edge from-layer="2873" from-port="0" to-layer="2916" to-port="3"/>
		<edge from-layer="2874" from-port="0" to-layer="2916" to-port="4"/>
		<edge from-layer="2918" from-port="0" to-layer="2919" to-port="0"/>
		<edge from-layer="2919" from-port="1" to-layer="2921" to-port="0"/>
		<edge from-layer="2920" from-port="0" to-layer="2921" to-port="1"/>
		<edge from-layer="2921" from-port="2" to-layer="2923" to-port="0"/>
		<edge from-layer="2922" from-port="0" to-layer="2923" to-port="1"/>
		<edge from-layer="2923" from-port="2" to-layer="2924" to-port="0"/>
		<edge from-layer="2917" from-port="0" to-layer="2924" to-port="1"/>
		<edge from-layer="2916" from-port="5" to-layer="2925" to-port="0"/>
		<edge from-layer="2924" from-port="2" to-layer="2925" to-port="1"/>
		<edge from-layer="2926" from-port="0" to-layer="2927" to-port="0"/>
		<edge from-layer="2925" from-port="2" to-layer="2928" to-port="0"/>
		<edge from-layer="2927" from-port="1" to-layer="2928" to-port="1"/>
		<edge from-layer="2928" from-port="2" to-layer="2929" to-port="0"/>
		<edge from-layer="2929" from-port="1" to-layer="2930" to-port="0"/>
		<edge from-layer="2867" from-port="0" to-layer="2930" to-port="1"/>
		<edge from-layer="2868" from-port="0" to-layer="2930" to-port="2"/>
		<edge from-layer="2869" from-port="0" to-layer="2930" to-port="3"/>
		<edge from-layer="2870" from-port="0" to-layer="2930" to-port="4"/>
		<edge from-layer="2931" from-port="0" to-layer="2932" to-port="0"/>
		<edge from-layer="2932" from-port="1" to-layer="2934" to-port="0"/>
		<edge from-layer="2933" from-port="0" to-layer="2934" to-port="1"/>
		<edge from-layer="2934" from-port="2" to-layer="2936" to-port="0"/>
		<edge from-layer="2935" from-port="0" to-layer="2936" to-port="1"/>
		<edge from-layer="2930" from-port="5" to-layer="2937" to-port="0"/>
		<edge from-layer="2936" from-port="2" to-layer="2937" to-port="1"/>
		<edge from-layer="2937" from-port="2" to-layer="2938" to-port="0"/>
		<edge from-layer="2866" from-port="0" to-layer="2938" to-port="1"/>
		<edge from-layer="2938" from-port="2" to-layer="2939" to-port="0"/>
		<edge from-layer="2862" from-port="0" to-layer="2939" to-port="1"/>
		<edge from-layer="2863" from-port="0" to-layer="2939" to-port="2"/>
		<edge from-layer="2864" from-port="0" to-layer="2939" to-port="3"/>
		<edge from-layer="2865" from-port="0" to-layer="2939" to-port="4"/>
		<edge from-layer="2941" from-port="0" to-layer="2942" to-port="0"/>
		<edge from-layer="2942" from-port="1" to-layer="2944" to-port="0"/>
		<edge from-layer="2943" from-port="0" to-layer="2944" to-port="1"/>
		<edge from-layer="2944" from-port="2" to-layer="2946" to-port="0"/>
		<edge from-layer="2945" from-port="0" to-layer="2946" to-port="1"/>
		<edge from-layer="2946" from-port="2" to-layer="2947" to-port="0"/>
		<edge from-layer="2940" from-port="0" to-layer="2947" to-port="1"/>
		<edge from-layer="2939" from-port="5" to-layer="2948" to-port="0"/>
		<edge from-layer="2947" from-port="2" to-layer="2948" to-port="1"/>
		<edge from-layer="2949" from-port="0" to-layer="2950" to-port="0"/>
		<edge from-layer="2948" from-port="2" to-layer="2951" to-port="0"/>
		<edge from-layer="2950" from-port="1" to-layer="2951" to-port="1"/>
		<edge from-layer="2951" from-port="2" to-layer="2952" to-port="0"/>
		<edge from-layer="2952" from-port="1" to-layer="2953" to-port="0"/>
		<edge from-layer="2858" from-port="0" to-layer="2953" to-port="1"/>
		<edge from-layer="2859" from-port="0" to-layer="2953" to-port="2"/>
		<edge from-layer="2860" from-port="0" to-layer="2953" to-port="3"/>
		<edge from-layer="2861" from-port="0" to-layer="2953" to-port="4"/>
		<edge from-layer="2953" from-port="5" to-layer="2955" to-port="0"/>
		<edge from-layer="2954" from-port="0" to-layer="2955" to-port="1"/>
		<edge from-layer="2955" from-port="2" to-layer="2956" to-port="0"/>
		<edge from-layer="2854" from-port="0" to-layer="2956" to-port="1"/>
		<edge from-layer="2855" from-port="0" to-layer="2956" to-port="2"/>
		<edge from-layer="2856" from-port="0" to-layer="2956" to-port="3"/>
		<edge from-layer="2857" from-port="0" to-layer="2956" to-port="4"/>
		<edge from-layer="2956" from-port="5" to-layer="2957" to-port="0"/>
		<edge from-layer="2853" from-port="0" to-layer="2957" to-port="1"/>
		<edge from-layer="2957" from-port="2" to-layer="2958" to-port="0"/>
		<edge from-layer="2852" from-port="0" to-layer="2958" to-port="1"/>
		<edge from-layer="2958" from-port="2" to-layer="2959" to-port="0"/>
		<edge from-layer="2848" from-port="0" to-layer="2959" to-port="1"/>
		<edge from-layer="2849" from-port="0" to-layer="2959" to-port="2"/>
		<edge from-layer="2850" from-port="0" to-layer="2959" to-port="3"/>
		<edge from-layer="2851" from-port="0" to-layer="2959" to-port="4"/>
		<edge from-layer="2955" from-port="2" to-layer="2960" to-port="0"/>
		<edge from-layer="2959" from-port="5" to-layer="2961" to-port="0"/>
		<edge from-layer="2960" from-port="1" to-layer="2961" to-port="1"/>
		<edge from-layer="2962" from-port="0" to-layer="2963" to-port="0"/>
		<edge from-layer="2961" from-port="2" to-layer="2964" to-port="0"/>
		<edge from-layer="2963" from-port="1" to-layer="2964" to-port="1"/>
		<edge from-layer="2965" from-port="0" to-layer="2966" to-port="0"/>
		<edge from-layer="2964" from-port="2" to-layer="2967" to-port="0"/>
		<edge from-layer="2966" from-port="1" to-layer="2967" to-port="1"/>
		<edge from-layer="2967" from-port="2" to-layer="2968" to-port="0"/>
		<edge from-layer="2968" from-port="1" to-layer="2969" to-port="0"/>
		<edge from-layer="2844" from-port="0" to-layer="2969" to-port="1"/>
		<edge from-layer="2845" from-port="0" to-layer="2969" to-port="2"/>
		<edge from-layer="2846" from-port="0" to-layer="2969" to-port="3"/>
		<edge from-layer="2847" from-port="0" to-layer="2969" to-port="4"/>
		<edge from-layer="2953" from-port="5" to-layer="2970" to-port="0"/>
		<edge from-layer="2969" from-port="5" to-layer="2970" to-port="1"/>
		<edge from-layer="2970" from-port="2" to-layer="2971" to-port="0"/>
		<edge from-layer="2840" from-port="0" to-layer="2971" to-port="1"/>
		<edge from-layer="2841" from-port="0" to-layer="2971" to-port="2"/>
		<edge from-layer="2842" from-port="0" to-layer="2971" to-port="3"/>
		<edge from-layer="2843" from-port="0" to-layer="2971" to-port="4"/>
		<edge from-layer="2839" from-port="5" to-layer="2972" to-port="0"/>
		<edge from-layer="2971" from-port="5" to-layer="2972" to-port="1"/>
		<edge from-layer="2972" from-port="2" to-layer="2973" to-port="0"/>
		<edge from-layer="101" from-port="0" to-layer="2973" to-port="1"/>
		<edge from-layer="102" from-port="0" to-layer="2973" to-port="2"/>
		<edge from-layer="103" from-port="0" to-layer="2973" to-port="3"/>
		<edge from-layer="104" from-port="0" to-layer="2973" to-port="4"/>
		<edge from-layer="3028" from-port="0" to-layer="3029" to-port="0"/>
		<edge from-layer="3029" from-port="1" to-layer="3031" to-port="0"/>
		<edge from-layer="3030" from-port="0" to-layer="3031" to-port="1"/>
		<edge from-layer="3031" from-port="2" to-layer="3033" to-port="0"/>
		<edge from-layer="3032" from-port="0" to-layer="3033" to-port="1"/>
		<edge from-layer="2696" from-port="5" to-layer="3034" to-port="0"/>
		<edge from-layer="3033" from-port="2" to-layer="3034" to-port="1"/>
		<edge from-layer="3034" from-port="2" to-layer="3035" to-port="0"/>
		<edge from-layer="3027" from-port="0" to-layer="3035" to-port="1"/>
		<edge from-layer="3035" from-port="2" to-layer="3036" to-port="0"/>
		<edge from-layer="3023" from-port="0" to-layer="3036" to-port="1"/>
		<edge from-layer="3024" from-port="0" to-layer="3036" to-port="2"/>
		<edge from-layer="3025" from-port="0" to-layer="3036" to-port="3"/>
		<edge from-layer="3026" from-port="0" to-layer="3036" to-port="4"/>
		<edge from-layer="3038" from-port="0" to-layer="3039" to-port="0"/>
		<edge from-layer="3039" from-port="1" to-layer="3041" to-port="0"/>
		<edge from-layer="3040" from-port="0" to-layer="3041" to-port="1"/>
		<edge from-layer="3041" from-port="2" to-layer="3043" to-port="0"/>
		<edge from-layer="3042" from-port="0" to-layer="3043" to-port="1"/>
		<edge from-layer="3043" from-port="2" to-layer="3044" to-port="0"/>
		<edge from-layer="3037" from-port="0" to-layer="3044" to-port="1"/>
		<edge from-layer="3036" from-port="5" to-layer="3045" to-port="0"/>
		<edge from-layer="3044" from-port="2" to-layer="3045" to-port="1"/>
		<edge from-layer="3046" from-port="0" to-layer="3047" to-port="0"/>
		<edge from-layer="3045" from-port="2" to-layer="3048" to-port="0"/>
		<edge from-layer="3047" from-port="1" to-layer="3048" to-port="1"/>
		<edge from-layer="3048" from-port="2" to-layer="3049" to-port="0"/>
		<edge from-layer="3049" from-port="1" to-layer="3050" to-port="0"/>
		<edge from-layer="3019" from-port="0" to-layer="3050" to-port="1"/>
		<edge from-layer="3020" from-port="0" to-layer="3050" to-port="2"/>
		<edge from-layer="3021" from-port="0" to-layer="3050" to-port="3"/>
		<edge from-layer="3022" from-port="0" to-layer="3050" to-port="4"/>
		<edge from-layer="3051" from-port="0" to-layer="3052" to-port="0"/>
		<edge from-layer="3052" from-port="1" to-layer="3054" to-port="0"/>
		<edge from-layer="3053" from-port="0" to-layer="3054" to-port="1"/>
		<edge from-layer="3054" from-port="2" to-layer="3056" to-port="0"/>
		<edge from-layer="3055" from-port="0" to-layer="3056" to-port="1"/>
		<edge from-layer="3050" from-port="5" to-layer="3057" to-port="0"/>
		<edge from-layer="3056" from-port="2" to-layer="3057" to-port="1"/>
		<edge from-layer="3057" from-port="2" to-layer="3058" to-port="0"/>
		<edge from-layer="3018" from-port="0" to-layer="3058" to-port="1"/>
		<edge from-layer="3058" from-port="2" to-layer="3059" to-port="0"/>
		<edge from-layer="3014" from-port="0" to-layer="3059" to-port="1"/>
		<edge from-layer="3015" from-port="0" to-layer="3059" to-port="2"/>
		<edge from-layer="3016" from-port="0" to-layer="3059" to-port="3"/>
		<edge from-layer="3017" from-port="0" to-layer="3059" to-port="4"/>
		<edge from-layer="3061" from-port="0" to-layer="3062" to-port="0"/>
		<edge from-layer="3062" from-port="1" to-layer="3064" to-port="0"/>
		<edge from-layer="3063" from-port="0" to-layer="3064" to-port="1"/>
		<edge from-layer="3064" from-port="2" to-layer="3066" to-port="0"/>
		<edge from-layer="3065" from-port="0" to-layer="3066" to-port="1"/>
		<edge from-layer="3066" from-port="2" to-layer="3067" to-port="0"/>
		<edge from-layer="3060" from-port="0" to-layer="3067" to-port="1"/>
		<edge from-layer="3059" from-port="5" to-layer="3068" to-port="0"/>
		<edge from-layer="3067" from-port="2" to-layer="3068" to-port="1"/>
		<edge from-layer="3069" from-port="0" to-layer="3070" to-port="0"/>
		<edge from-layer="3068" from-port="2" to-layer="3071" to-port="0"/>
		<edge from-layer="3070" from-port="1" to-layer="3071" to-port="1"/>
		<edge from-layer="3071" from-port="2" to-layer="3072" to-port="0"/>
		<edge from-layer="3072" from-port="1" to-layer="3073" to-port="0"/>
		<edge from-layer="3010" from-port="0" to-layer="3073" to-port="1"/>
		<edge from-layer="3011" from-port="0" to-layer="3073" to-port="2"/>
		<edge from-layer="3012" from-port="0" to-layer="3073" to-port="3"/>
		<edge from-layer="3013" from-port="0" to-layer="3073" to-port="4"/>
		<edge from-layer="3074" from-port="0" to-layer="3075" to-port="0"/>
		<edge from-layer="3075" from-port="1" to-layer="3077" to-port="0"/>
		<edge from-layer="3076" from-port="0" to-layer="3077" to-port="1"/>
		<edge from-layer="3077" from-port="2" to-layer="3079" to-port="0"/>
		<edge from-layer="3078" from-port="0" to-layer="3079" to-port="1"/>
		<edge from-layer="3073" from-port="5" to-layer="3080" to-port="0"/>
		<edge from-layer="3079" from-port="2" to-layer="3080" to-port="1"/>
		<edge from-layer="3080" from-port="2" to-layer="3081" to-port="0"/>
		<edge from-layer="3009" from-port="0" to-layer="3081" to-port="1"/>
		<edge from-layer="3081" from-port="2" to-layer="3082" to-port="0"/>
		<edge from-layer="3005" from-port="0" to-layer="3082" to-port="1"/>
		<edge from-layer="3006" from-port="0" to-layer="3082" to-port="2"/>
		<edge from-layer="3007" from-port="0" to-layer="3082" to-port="3"/>
		<edge from-layer="3008" from-port="0" to-layer="3082" to-port="4"/>
		<edge from-layer="3084" from-port="0" to-layer="3085" to-port="0"/>
		<edge from-layer="3085" from-port="1" to-layer="3087" to-port="0"/>
		<edge from-layer="3086" from-port="0" to-layer="3087" to-port="1"/>
		<edge from-layer="3087" from-port="2" to-layer="3089" to-port="0"/>
		<edge from-layer="3088" from-port="0" to-layer="3089" to-port="1"/>
		<edge from-layer="3089" from-port="2" to-layer="3090" to-port="0"/>
		<edge from-layer="3083" from-port="0" to-layer="3090" to-port="1"/>
		<edge from-layer="3082" from-port="5" to-layer="3091" to-port="0"/>
		<edge from-layer="3090" from-port="2" to-layer="3091" to-port="1"/>
		<edge from-layer="3092" from-port="0" to-layer="3093" to-port="0"/>
		<edge from-layer="3091" from-port="2" to-layer="3094" to-port="0"/>
		<edge from-layer="3093" from-port="1" to-layer="3094" to-port="1"/>
		<edge from-layer="3094" from-port="2" to-layer="3095" to-port="0"/>
		<edge from-layer="3095" from-port="1" to-layer="3096" to-port="0"/>
		<edge from-layer="3001" from-port="0" to-layer="3096" to-port="1"/>
		<edge from-layer="3002" from-port="0" to-layer="3096" to-port="2"/>
		<edge from-layer="3003" from-port="0" to-layer="3096" to-port="3"/>
		<edge from-layer="3004" from-port="0" to-layer="3096" to-port="4"/>
		<edge from-layer="3097" from-port="0" to-layer="3098" to-port="0"/>
		<edge from-layer="3098" from-port="1" to-layer="3100" to-port="0"/>
		<edge from-layer="3099" from-port="0" to-layer="3100" to-port="1"/>
		<edge from-layer="3100" from-port="2" to-layer="3102" to-port="0"/>
		<edge from-layer="3101" from-port="0" to-layer="3102" to-port="1"/>
		<edge from-layer="3096" from-port="5" to-layer="3103" to-port="0"/>
		<edge from-layer="3102" from-port="2" to-layer="3103" to-port="1"/>
		<edge from-layer="3103" from-port="2" to-layer="3104" to-port="0"/>
		<edge from-layer="3000" from-port="0" to-layer="3104" to-port="1"/>
		<edge from-layer="3104" from-port="2" to-layer="3105" to-port="0"/>
		<edge from-layer="2996" from-port="0" to-layer="3105" to-port="1"/>
		<edge from-layer="2997" from-port="0" to-layer="3105" to-port="2"/>
		<edge from-layer="2998" from-port="0" to-layer="3105" to-port="3"/>
		<edge from-layer="2999" from-port="0" to-layer="3105" to-port="4"/>
		<edge from-layer="3107" from-port="0" to-layer="3108" to-port="0"/>
		<edge from-layer="3108" from-port="1" to-layer="3110" to-port="0"/>
		<edge from-layer="3109" from-port="0" to-layer="3110" to-port="1"/>
		<edge from-layer="3110" from-port="2" to-layer="3112" to-port="0"/>
		<edge from-layer="3111" from-port="0" to-layer="3112" to-port="1"/>
		<edge from-layer="3112" from-port="2" to-layer="3113" to-port="0"/>
		<edge from-layer="3106" from-port="0" to-layer="3113" to-port="1"/>
		<edge from-layer="3105" from-port="5" to-layer="3114" to-port="0"/>
		<edge from-layer="3113" from-port="2" to-layer="3114" to-port="1"/>
		<edge from-layer="3115" from-port="0" to-layer="3116" to-port="0"/>
		<edge from-layer="3114" from-port="2" to-layer="3117" to-port="0"/>
		<edge from-layer="3116" from-port="1" to-layer="3117" to-port="1"/>
		<edge from-layer="3117" from-port="2" to-layer="3118" to-port="0"/>
		<edge from-layer="3118" from-port="1" to-layer="3119" to-port="0"/>
		<edge from-layer="2992" from-port="0" to-layer="3119" to-port="1"/>
		<edge from-layer="2993" from-port="0" to-layer="3119" to-port="2"/>
		<edge from-layer="2994" from-port="0" to-layer="3119" to-port="3"/>
		<edge from-layer="2995" from-port="0" to-layer="3119" to-port="4"/>
		<edge from-layer="3119" from-port="5" to-layer="3121" to-port="0"/>
		<edge from-layer="3120" from-port="0" to-layer="3121" to-port="1"/>
		<edge from-layer="3121" from-port="2" to-layer="3122" to-port="0"/>
		<edge from-layer="2988" from-port="0" to-layer="3122" to-port="1"/>
		<edge from-layer="2989" from-port="0" to-layer="3122" to-port="2"/>
		<edge from-layer="2990" from-port="0" to-layer="3122" to-port="3"/>
		<edge from-layer="2991" from-port="0" to-layer="3122" to-port="4"/>
		<edge from-layer="3122" from-port="5" to-layer="3123" to-port="0"/>
		<edge from-layer="2987" from-port="0" to-layer="3123" to-port="1"/>
		<edge from-layer="3123" from-port="2" to-layer="3124" to-port="0"/>
		<edge from-layer="2986" from-port="0" to-layer="3124" to-port="1"/>
		<edge from-layer="3124" from-port="2" to-layer="3125" to-port="0"/>
		<edge from-layer="2982" from-port="0" to-layer="3125" to-port="1"/>
		<edge from-layer="2983" from-port="0" to-layer="3125" to-port="2"/>
		<edge from-layer="2984" from-port="0" to-layer="3125" to-port="3"/>
		<edge from-layer="2985" from-port="0" to-layer="3125" to-port="4"/>
		<edge from-layer="3121" from-port="2" to-layer="3126" to-port="0"/>
		<edge from-layer="3125" from-port="5" to-layer="3127" to-port="0"/>
		<edge from-layer="3126" from-port="1" to-layer="3127" to-port="1"/>
		<edge from-layer="3128" from-port="0" to-layer="3129" to-port="0"/>
		<edge from-layer="3127" from-port="2" to-layer="3130" to-port="0"/>
		<edge from-layer="3129" from-port="1" to-layer="3130" to-port="1"/>
		<edge from-layer="3131" from-port="0" to-layer="3132" to-port="0"/>
		<edge from-layer="3130" from-port="2" to-layer="3133" to-port="0"/>
		<edge from-layer="3132" from-port="1" to-layer="3133" to-port="1"/>
		<edge from-layer="3133" from-port="2" to-layer="3134" to-port="0"/>
		<edge from-layer="3134" from-port="1" to-layer="3135" to-port="0"/>
		<edge from-layer="2978" from-port="0" to-layer="3135" to-port="1"/>
		<edge from-layer="2979" from-port="0" to-layer="3135" to-port="2"/>
		<edge from-layer="2980" from-port="0" to-layer="3135" to-port="3"/>
		<edge from-layer="2981" from-port="0" to-layer="3135" to-port="4"/>
		<edge from-layer="3119" from-port="5" to-layer="3136" to-port="0"/>
		<edge from-layer="3135" from-port="5" to-layer="3136" to-port="1"/>
		<edge from-layer="3136" from-port="2" to-layer="3137" to-port="0"/>
		<edge from-layer="2974" from-port="0" to-layer="3137" to-port="1"/>
		<edge from-layer="2975" from-port="0" to-layer="3137" to-port="2"/>
		<edge from-layer="2976" from-port="0" to-layer="3137" to-port="3"/>
		<edge from-layer="2977" from-port="0" to-layer="3137" to-port="4"/>
		<edge from-layer="2973" from-port="5" to-layer="3138" to-port="0"/>
		<edge from-layer="3137" from-port="5" to-layer="3138" to-port="1"/>
		<edge from-layer="3138" from-port="2" to-layer="3139" to-port="0"/>
		<edge from-layer="97" from-port="0" to-layer="3139" to-port="1"/>
		<edge from-layer="98" from-port="0" to-layer="3139" to-port="2"/>
		<edge from-layer="99" from-port="0" to-layer="3139" to-port="3"/>
		<edge from-layer="100" from-port="0" to-layer="3139" to-port="4"/>
		<edge from-layer="3140" from-port="0" to-layer="3141" to-port="0"/>
		<edge from-layer="3141" from-port="1" to-layer="3143" to-port="0"/>
		<edge from-layer="3142" from-port="0" to-layer="3143" to-port="1"/>
		<edge from-layer="3143" from-port="2" to-layer="3145" to-port="0"/>
		<edge from-layer="3144" from-port="0" to-layer="3145" to-port="1"/>
		<edge from-layer="3139" from-port="5" to-layer="3146" to-port="0"/>
		<edge from-layer="3145" from-port="2" to-layer="3146" to-port="1"/>
		<edge from-layer="3147" from-port="0" to-layer="3148" to-port="0"/>
		<edge from-layer="3146" from-port="2" to-layer="3149" to-port="0"/>
		<edge from-layer="3148" from-port="1" to-layer="3149" to-port="1"/>
		<edge from-layer="3149" from-port="2" to-layer="3150" to-port="0"/>
		<edge from-layer="93" from-port="0" to-layer="3150" to-port="1"/>
		<edge from-layer="94" from-port="0" to-layer="3150" to-port="2"/>
		<edge from-layer="95" from-port="0" to-layer="3150" to-port="3"/>
		<edge from-layer="96" from-port="0" to-layer="3150" to-port="4"/>
		<edge from-layer="3150" from-port="5" to-layer="3151" to-port="0"/>
		<edge from-layer="2684" from-port="5" to-layer="3151" to-port="1"/>
		<edge from-layer="3151" from-port="2" to-layer="3152" to-port="0"/>
		<edge from-layer="3152" from-port="1" to-layer="3153" to-port="0"/>
		<edge from-layer="89" from-port="0" to-layer="3153" to-port="1"/>
		<edge from-layer="90" from-port="0" to-layer="3153" to-port="2"/>
		<edge from-layer="91" from-port="0" to-layer="3153" to-port="3"/>
		<edge from-layer="92" from-port="0" to-layer="3153" to-port="4"/>
		<edge from-layer="3154" from-port="0" to-layer="3155" to-port="0"/>
		<edge from-layer="3155" from-port="1" to-layer="3157" to-port="0"/>
		<edge from-layer="3156" from-port="0" to-layer="3157" to-port="1"/>
		<edge from-layer="3157" from-port="2" to-layer="3159" to-port="0"/>
		<edge from-layer="3158" from-port="0" to-layer="3159" to-port="1"/>
		<edge from-layer="3153" from-port="5" to-layer="3160" to-port="0"/>
		<edge from-layer="3159" from-port="2" to-layer="3160" to-port="1"/>
		<edge from-layer="3161" from-port="0" to-layer="3162" to-port="0"/>
		<edge from-layer="3160" from-port="2" to-layer="3163" to-port="0"/>
		<edge from-layer="3162" from-port="1" to-layer="3163" to-port="1"/>
		<edge from-layer="3163" from-port="2" to-layer="3164" to-port="0"/>
		<edge from-layer="3164" from-port="1" to-layer="3165" to-port="0"/>
		<edge from-layer="85" from-port="0" to-layer="3165" to-port="1"/>
		<edge from-layer="86" from-port="0" to-layer="3165" to-port="2"/>
		<edge from-layer="87" from-port="0" to-layer="3165" to-port="3"/>
		<edge from-layer="88" from-port="0" to-layer="3165" to-port="4"/>
		<edge from-layer="3167" from-port="0" to-layer="3168" to-port="0"/>
		<edge from-layer="3168" from-port="1" to-layer="3170" to-port="0"/>
		<edge from-layer="3169" from-port="0" to-layer="3170" to-port="1"/>
		<edge from-layer="3170" from-port="2" to-layer="3172" to-port="0"/>
		<edge from-layer="3171" from-port="0" to-layer="3172" to-port="1"/>
		<edge from-layer="3172" from-port="2" to-layer="3173" to-port="0"/>
		<edge from-layer="3166" from-port="0" to-layer="3173" to-port="1"/>
		<edge from-layer="3165" from-port="5" to-layer="3174" to-port="0"/>
		<edge from-layer="3173" from-port="2" to-layer="3174" to-port="1"/>
		<edge from-layer="3175" from-port="0" to-layer="3176" to-port="0"/>
		<edge from-layer="3174" from-port="2" to-layer="3177" to-port="0"/>
		<edge from-layer="3176" from-port="1" to-layer="3177" to-port="1"/>
		<edge from-layer="3177" from-port="2" to-layer="3178" to-port="0"/>
		<edge from-layer="81" from-port="0" to-layer="3178" to-port="1"/>
		<edge from-layer="82" from-port="0" to-layer="3178" to-port="2"/>
		<edge from-layer="83" from-port="0" to-layer="3178" to-port="3"/>
		<edge from-layer="84" from-port="0" to-layer="3178" to-port="4"/>
		<edge from-layer="3178" from-port="5" to-layer="3179" to-port="0"/>
		<edge from-layer="80" from-port="0" to-layer="3179" to-port="1"/>
		<edge from-layer="3180" from-port="0" to-layer="3181" to-port="0"/>
		<edge from-layer="3181" from-port="1" to-layer="3183" to-port="0"/>
		<edge from-layer="3182" from-port="0" to-layer="3183" to-port="1"/>
		<edge from-layer="3183" from-port="2" to-layer="3185" to-port="0"/>
		<edge from-layer="3184" from-port="0" to-layer="3185" to-port="1"/>
		<edge from-layer="3179" from-port="2" to-layer="3186" to-port="0"/>
		<edge from-layer="3185" from-port="2" to-layer="3186" to-port="1"/>
		<edge from-layer="3187" from-port="0" to-layer="3188" to-port="0"/>
		<edge from-layer="3186" from-port="2" to-layer="3189" to-port="0"/>
		<edge from-layer="3188" from-port="1" to-layer="3189" to-port="1"/>
		<edge from-layer="3189" from-port="2" to-layer="3190" to-port="0"/>
		<edge from-layer="76" from-port="0" to-layer="3190" to-port="1"/>
		<edge from-layer="77" from-port="0" to-layer="3190" to-port="2"/>
		<edge from-layer="78" from-port="0" to-layer="3190" to-port="3"/>
		<edge from-layer="79" from-port="0" to-layer="3190" to-port="4"/>
		<edge from-layer="3179" from-port="2" to-layer="3191" to-port="0"/>
		<edge from-layer="3191" from-port="1" to-layer="3194" to-port="0"/>
		<edge from-layer="3192" from-port="0" to-layer="3194" to-port="1"/>
		<edge from-layer="3193" from-port="0" to-layer="3194" to-port="2"/>
		<edge from-layer="3194" from-port="3" to-layer="3197" to-port="0"/>
		<edge from-layer="3195" from-port="0" to-layer="3197" to-port="1"/>
		<edge from-layer="3196" from-port="0" to-layer="3197" to-port="2"/>
		<edge from-layer="3190" from-port="5" to-layer="3198" to-port="0"/>
		<edge from-layer="3197" from-port="3" to-layer="3198" to-port="1"/>
		<edge from-layer="3199" from-port="0" to-layer="3200" to-port="0"/>
		<edge from-layer="3198" from-port="2" to-layer="3201" to-port="0"/>
		<edge from-layer="3200" from-port="1" to-layer="3201" to-port="1"/>
		<edge from-layer="3202" from-port="0" to-layer="3203" to-port="0"/>
		<edge from-layer="3201" from-port="2" to-layer="3204" to-port="0"/>
		<edge from-layer="3203" from-port="1" to-layer="3204" to-port="1"/>
		<edge from-layer="3205" from-port="0" to-layer="3206" to-port="0"/>
		<edge from-layer="3204" from-port="2" to-layer="3207" to-port="0"/>
		<edge from-layer="3206" from-port="1" to-layer="3207" to-port="1"/>
		<edge from-layer="3207" from-port="2" to-layer="3209" to-port="0"/>
		<edge from-layer="3208" from-port="0" to-layer="3209" to-port="1"/>
		<edge from-layer="3209" from-port="2" to-layer="3210" to-port="0"/>
	</edges>
	<meta_data>
		<MO_version value="custom_HEAD_73caba0f677dd6dbf9e464753baad9afa26b28dc"/>
		<Runtime_version value="custom_HEAD_73caba0f677dd6dbf9e464753baad9afa26b28dc"/>
		<legacy_path value="True"/>
		<cli_parameters>
			<caffe_parser_path value="DIR"/>
			<compress_fp16 value="True"/>
			<data_type value="FP32"/>
			<disable_nhwc_to_nchw value="False"/>
			<disable_omitting_optional value="False"/>
			<disable_resnet_optimization value="False"/>
			<disable_weights_compression value="False"/>
			<enable_concat_optimization value="False"/>
			<enable_flattening_nested_params value="False"/>
			<enable_ssd_gluoncv value="False"/>
			<extensions value="DIR"/>
			<framework value="onnx"/>
			<freeze_placeholder_with_value value="{}"/>
			<generate_deprecated_IR_V7 value="False"/>
			<input value="data"/>
			<input_model value="DIR/person-reidentification-retail-0287.onnx"/>
			<input_model_is_text value="False"/>
			<input_shape value="[1,3,256,128]"/>
			<k value="DIR/CustomLayersMapping.xml"/>
			<keep_shape_ops value="True"/>
			<layout value="data(nchw)"/>
			<layout_values value="{'data': {'source_layout': 'nchw', 'target_layout': None, 'is_input': True}}"/>
			<legacy_ir_generation value="False"/>
			<legacy_mxnet_model value="False"/>
			<log_level value="ERROR"/>
			<mean_scale_values value="{'data': {'mean': array([123.675, 116.28 , 103.53 ]), 'scale': array([58.395, 57.12 , 57.375])}}"/>
			<mean_values value="data[123.675,116.28,103.53]"/>
			<model_name value="person-reidentification-retail-0287"/>
			<output value="['reid_embedding']"/>
			<output_dir value="DIR"/>
			<placeholder_data_types value="{}"/>
			<placeholder_shapes value="{'data': (1, 3, 256, 128)}"/>
			<progress value="False"/>
			<remove_memory value="False"/>
			<remove_output_softmax value="False"/>
			<reverse_input_channels value="True"/>
			<save_params_from_nd value="False"/>
			<scale_values value="data[58.395,57.12,57.375]"/>
			<silent value="False"/>
			<source_layout value="()"/>
			<static_shape value="False"/>
			<stream_output value="False"/>
			<target_layout value="()"/>
			<transform value=""/>
			<use_legacy_frontend value="False"/>
			<use_new_frontend value="False"/>
			<unset unset_cli_parameters="batch, counts, disable_fusing, disable_gfusing, finegrain_fusing, input_checkpoint, input_meta_graph, input_proto, input_symbol, mean_file, mean_file_offsets, move_to_preprocess, nd_prefix_name, pretrained_model_name, saved_model_dir, saved_model_tags, scale, tensorboard_logdir, tensorflow_custom_layer_libraries, tensorflow_custom_operations_config_update, tensorflow_object_detection_api_pipeline_config, tensorflow_use_custom_operations_config, transformations_config"/>
		</cli_parameters>
	</meta_data>
	<quantization_parameters>
		<config>{
		'compression': {
			'algorithms': [
				{
					'name': 'DefaultQuantization',
					'params': {
						'num_samples_for_tuning': 2000,
						'preset': 'performance',
						'stat_subset_size': 300,
						'use_layerwise_tuning': false
					}
				}
			],
			'dump_intermediate_model': true,
			'target_device': 'ANY'
		},
		'engine': {
			'models': [
				{
					'name': 'person-reidentification-retail-0287',
					'launchers': [
						{
							'framework': 'openvino',
							'adapter': 'reid',
							'device': 'cpu'
						}
					],
					'datasets': [
						{
							'name': 'market1501',
							'data_source': 'PATH',
							'annotation_conversion': {
								'converter': 'market1501_reid',
								'data_dir': 'PATH'
							},
							'annotation': 'PATH',
							'preprocessing': [
								{
									'type': 'resize',
									'dst_width': 128,
									'dst_height': 256,
									'use_pillow': true,
									'interpolation': 'BILINEAR'
								}
							],
							'metrics': [
								{
									'name': 'rank@1',
									'type': 'cmc',
									'top_k': 1,
									'reference': 0.929
								},
								{
									'type': 'reid_map',
									'reference': 0.766
								}
							],
							'_command_line_mapping': {
								'data_dir': 'PATH'
							}
						}
					]
				}
			],
			'stat_requests_number': null,
			'eval_requests_number': null,
			'type': 'accuracy_checker'
		}
	}</config>
		<version value="invalid version"/>
		<cli_params value="{'quantize': None, 'preset': None, 'model': None, 'weights': None, 'name': None, 'engine': None, 'ac_config': None, 'max_drop': None, 'evaluate': False, 'output_dir': 'PATH', 'direct_dump': True, 'log_level': 'INFO', 'pbar': False, 'stream_output': False, 'keep_uncompressed_weights': False, 'data_source': None, 'shape': None, 'data_type': 'image', 'generate_data': False}"/>
	</quantization_parameters>
</net>
