<?xml version="1.0" ?>
<net name="torch-jit-export" version="11">
	<layers>
		<layer id="0" name="image" type="Parameter" version="opset1">
			<data shape="1,3,320,320" element_type="f32"/>
			<rt_info>
				<attribute name="fused_names" version="0" value="image"/>
				<attribute name="old_api_map_element_type" version="0" value="f16"/>
			</rt_info>
			<output>
				<port id="0" precision="FP32" names="image">
					<dim>1</dim>
					<dim>3</dim>
					<dim>320</dim>
					<dim>320</dim>
					<rt_info>
						<attribute name="layout" version="0" layout="[N,C,H,W]"/>
					</rt_info>
				</port>
			</output>
		</layer>
		<layer id="1" name="1260_compressed" type="Const" version="opset1">
			<data element_type="f16" shape="1600, 2" offset="0" size="6400"/>
			<output>
				<port id="0" precision="FP16">
					<dim>1600</dim>
					<dim>2</dim>
				</port>
			</output>
		</layer>
		<layer id="2" name="1260" type="Convert" version="opset1">
			<data destination_type="f32"/>
			<rt_info>
				<attribute name="decompression" version="0"/>
				<attribute name="fused_names" version="0" value="1260"/>
			</rt_info>
			<input>
				<port id="0" precision="FP16">
					<dim>1600</dim>
					<dim>2</dim>
				</port>
			</input>
			<output>
				<port id="1" precision="FP32" names="1260">
					<dim>1600</dim>
					<dim>2</dim>
				</port>
			</output>
		</layer>
		<layer id="3" name="Gather_58615_compressed" type="Const" version="opset1">
			<data element_type="f16" shape="1, 3, 1, 1" offset="6400" size="6"/>
			<output>
				<port id="0" precision="FP16">
					<dim>1</dim>
					<dim>3</dim>
					<dim>1</dim>
					<dim>1</dim>
				</port>
			</output>
		</layer>
		<layer id="4" name="Gather_58615" type="Convert" version="opset1">
			<data destination_type="f32"/>
			<rt_info>
				<attribute name="decompression" version="0"/>
			</rt_info>
			<input>
				<port id="0" precision="FP16">
					<dim>1</dim>
					<dim>3</dim>
					<dim>1</dim>
					<dim>1</dim>
				</port>
			</input>
			<output>
				<port id="1" precision="FP32">
					<dim>1</dim>
					<dim>3</dim>
					<dim>1</dim>
					<dim>1</dim>
				</port>
			</output>
		</layer>
		<layer id="5" name="Subtract_12291" type="Subtract" version="opset1">
			<data auto_broadcast="numpy"/>
			<rt_info>
				<attribute name="fused_names" version="0" value="Subtract_12291"/>
				<attribute name="preprocessing" version="0"/>
			</rt_info>
			<input>
				<port id="0" precision="FP32">
					<dim>1</dim>
					<dim>3</dim>
					<dim>320</dim>
					<dim>320</dim>
				</port>
				<port id="1" precision="FP32">
					<dim>1</dim>
					<dim>3</dim>
					<dim>1</dim>
					<dim>1</dim>
				</port>
			</input>
			<output>
				<port id="2" precision="FP32">
					<dim>1</dim>
					<dim>3</dim>
					<dim>320</dim>
					<dim>320</dim>
				</port>
			</output>
		</layer>
		<layer id="6" name="Gather_58618_compressed" type="Const" version="opset1">
			<data element_type="f16" shape="24, 3, 3, 3" offset="6406" size="1296"/>
			<output>
				<port id="0" precision="FP16">
					<dim>24</dim>
					<dim>3</dim>
					<dim>3</dim>
					<dim>3</dim>
				</port>
			</output>
		</layer>
		<layer id="7" name="Gather_58618" type="Convert" version="opset1">
			<data destination_type="f32"/>
			<rt_info>
				<attribute name="decompression" version="0"/>
			</rt_info>
			<input>
				<port id="0" precision="FP16">
					<dim>24</dim>
					<dim>3</dim>
					<dim>3</dim>
					<dim>3</dim>
				</port>
			</input>
			<output>
				<port id="1" precision="FP32">
					<dim>24</dim>
					<dim>3</dim>
					<dim>3</dim>
					<dim>3</dim>
				</port>
			</output>
		</layer>
		<layer id="8" name="Multiply_56526" type="Convolution" version="opset1">
			<data strides="2, 2" dilations="1, 1" pads_begin="1, 1" pads_end="1, 1" auto_pad="explicit"/>
			<rt_info>
				<attribute name="fused_names" version="0" value="390, 391, Constant_12292, Divide_12293, backbone.features.init_block.conv.bn.bias, backbone.features.init_block.conv.bn.running_mean, backbone.features.init_block.conv.bn.running_var, backbone.features.init_block.conv.bn.weight, backbone.features.init_block.conv.conv.weight"/>
				<attribute name="preprocessing" version="0"/>
			</rt_info>
			<input>
				<port id="0" precision="FP32">
					<dim>1</dim>
					<dim>3</dim>
					<dim>320</dim>
					<dim>320</dim>
				</port>
				<port id="1" precision="FP32">
					<dim>24</dim>
					<dim>3</dim>
					<dim>3</dim>
					<dim>3</dim>
				</port>
			</input>
			<output>
				<port id="2" precision="FP32">
					<dim>1</dim>
					<dim>24</dim>
					<dim>160</dim>
					<dim>160</dim>
				</port>
			</output>
		</layer>
		<layer id="9" name="Constant_56531_compressed" type="Const" version="opset1">
			<data element_type="f16" shape="1, 24, 1, 1" offset="7702" size="48"/>
			<output>
				<port id="0" precision="FP16">
					<dim>1</dim>
					<dim>24</dim>
					<dim>1</dim>
					<dim>1</dim>
				</port>
			</output>
		</layer>
		<layer id="10" name="Constant_56531" type="Convert" version="opset1">
			<data destination_type="f32"/>
			<rt_info>
				<attribute name="decompression" version="0"/>
			</rt_info>
			<input>
				<port id="0" precision="FP16">
					<dim>1</dim>
					<dim>24</dim>
					<dim>1</dim>
					<dim>1</dim>
				</port>
			</input>
			<output>
				<port id="1" precision="FP32">
					<dim>1</dim>
					<dim>24</dim>
					<dim>1</dim>
					<dim>1</dim>
				</port>
			</output>
		</layer>
		<layer id="11" name="391" type="Add" version="opset1">
			<data auto_broadcast="numpy"/>
			<rt_info>
				<attribute name="fused_names" version="0" value="391, backbone.features.init_block.conv.bn.bias, backbone.features.init_block.conv.bn.running_mean, backbone.features.init_block.conv.bn.running_var, backbone.features.init_block.conv.bn.weight"/>
			</rt_info>
			<input>
				<port id="0" precision="FP32">
					<dim>1</dim>
					<dim>24</dim>
					<dim>160</dim>
					<dim>160</dim>
				</port>
				<port id="1" precision="FP32">
					<dim>1</dim>
					<dim>24</dim>
					<dim>1</dim>
					<dim>1</dim>
				</port>
			</input>
			<output>
				<port id="2" precision="FP32" names="391">
					<dim>1</dim>
					<dim>24</dim>
					<dim>160</dim>
					<dim>160</dim>
				</port>
			</output>
		</layer>
		<layer id="12" name="392" type="ReLU" version="opset1">
			<rt_info>
				<attribute name="fused_names" version="0" value="392"/>
			</rt_info>
			<input>
				<port id="0" precision="FP32">
					<dim>1</dim>
					<dim>24</dim>
					<dim>160</dim>
					<dim>160</dim>
				</port>
			</input>
			<output>
				<port id="1" precision="FP32" names="392">
					<dim>1</dim>
					<dim>24</dim>
					<dim>160</dim>
					<dim>160</dim>
				</port>
			</output>
		</layer>
		<layer id="13" name="393" type="MaxPool" version="opset8">
			<data strides="2, 2" dilations="1, 1" pads_begin="0, 0" pads_end="0, 0" kernel="3, 3" rounding_type="ceil" auto_pad="explicit" index_element_type="i64" axis="0"/>
			<rt_info>
				<attribute name="fused_names" version="0" value="393"/>
			</rt_info>
			<input>
				<port id="0" precision="FP32">
					<dim>1</dim>
					<dim>24</dim>
					<dim>160</dim>
					<dim>160</dim>
				</port>
			</input>
			<output>
				<port id="1" precision="FP32" names="393">
					<dim>1</dim>
					<dim>24</dim>
					<dim>80</dim>
					<dim>80</dim>
				</port>
				<port id="2" precision="I64">
					<dim>1</dim>
					<dim>24</dim>
					<dim>80</dim>
					<dim>80</dim>
				</port>
			</output>
		</layer>
		<layer id="14" name="Multiply_56953_compressed" type="Const" version="opset1">
			<data element_type="f16" shape="24, 1, 1, 3, 3" offset="7750" size="432"/>
			<output>
				<port id="0" precision="FP16">
					<dim>24</dim>
					<dim>1</dim>
					<dim>1</dim>
					<dim>3</dim>
					<dim>3</dim>
				</port>
			</output>
		</layer>
		<layer id="15" name="Multiply_56953" type="Convert" version="opset1">
			<data destination_type="f32"/>
			<rt_info>
				<attribute name="decompression" version="0"/>
			</rt_info>
			<input>
				<port id="0" precision="FP16">
					<dim>24</dim>
					<dim>1</dim>
					<dim>1</dim>
					<dim>3</dim>
					<dim>3</dim>
				</port>
			</input>
			<output>
				<port id="1" precision="FP32">
					<dim>24</dim>
					<dim>1</dim>
					<dim>1</dim>
					<dim>3</dim>
					<dim>3</dim>
				</port>
			</output>
		</layer>
		<layer id="16" name="Multiply_56533" type="GroupConvolution" version="opset1">
			<data strides="2, 2" pads_begin="1, 1" pads_end="1, 1" dilations="1, 1" auto_pad="explicit"/>
			<rt_info>
				<attribute name="fused_names" version="0" value="395, backbone.features.stage1.unit1.dw_bn4.bias, backbone.features.stage1.unit1.dw_bn4.running_mean, backbone.features.stage1.unit1.dw_bn4.running_var, backbone.features.stage1.unit1.dw_bn4.weight"/>
			</rt_info>
			<input>
				<port id="0" precision="FP32">
					<dim>1</dim>
					<dim>24</dim>
					<dim>80</dim>
					<dim>80</dim>
				</port>
				<port id="1" precision="FP32">
					<dim>24</dim>
					<dim>1</dim>
					<dim>1</dim>
					<dim>3</dim>
					<dim>3</dim>
				</port>
			</input>
			<output>
				<port id="2" precision="FP32" names="394">
					<dim>1</dim>
					<dim>24</dim>
					<dim>40</dim>
					<dim>40</dim>
				</port>
			</output>
		</layer>
		<layer id="17" name="Constant_56538_compressed" type="Const" version="opset1">
			<data element_type="f16" shape="1, 24, 1, 1" offset="8182" size="48"/>
			<output>
				<port id="0" precision="FP16">
					<dim>1</dim>
					<dim>24</dim>
					<dim>1</dim>
					<dim>1</dim>
				</port>
			</output>
		</layer>
		<layer id="18" name="Constant_56538" type="Convert" version="opset1">
			<data destination_type="f32"/>
			<rt_info>
				<attribute name="decompression" version="0"/>
			</rt_info>
			<input>
				<port id="0" precision="FP16">
					<dim>1</dim>
					<dim>24</dim>
					<dim>1</dim>
					<dim>1</dim>
				</port>
			</input>
			<output>
				<port id="1" precision="FP32">
					<dim>1</dim>
					<dim>24</dim>
					<dim>1</dim>
					<dim>1</dim>
				</port>
			</output>
		</layer>
		<layer id="19" name="395" type="Add" version="opset1">
			<data auto_broadcast="numpy"/>
			<rt_info>
				<attribute name="fused_names" version="0" value="395, backbone.features.stage1.unit1.dw_bn4.bias, backbone.features.stage1.unit1.dw_bn4.running_mean, backbone.features.stage1.unit1.dw_bn4.running_var, backbone.features.stage1.unit1.dw_bn4.weight"/>
			</rt_info>
			<input>
				<port id="0" precision="FP32">
					<dim>1</dim>
					<dim>24</dim>
					<dim>40</dim>
					<dim>40</dim>
				</port>
				<port id="1" precision="FP32">
					<dim>1</dim>
					<dim>24</dim>
					<dim>1</dim>
					<dim>1</dim>
				</port>
			</input>
			<output>
				<port id="2" precision="FP32" names="395">
					<dim>1</dim>
					<dim>24</dim>
					<dim>40</dim>
					<dim>40</dim>
				</port>
			</output>
		</layer>
		<layer id="20" name="Multiply_56961_compressed" type="Const" version="opset1">
			<data element_type="f16" shape="58, 24, 1, 1" offset="8230" size="2784"/>
			<output>
				<port id="0" precision="FP16">
					<dim>58</dim>
					<dim>24</dim>
					<dim>1</dim>
					<dim>1</dim>
				</port>
			</output>
		</layer>
		<layer id="21" name="Multiply_56961" type="Convert" version="opset1">
			<data destination_type="f32"/>
			<rt_info>
				<attribute name="decompression" version="0"/>
			</rt_info>
			<input>
				<port id="0" precision="FP16">
					<dim>58</dim>
					<dim>24</dim>
					<dim>1</dim>
					<dim>1</dim>
				</port>
			</input>
			<output>
				<port id="1" precision="FP32">
					<dim>58</dim>
					<dim>24</dim>
					<dim>1</dim>
					<dim>1</dim>
				</port>
			</output>
		</layer>
		<layer id="22" name="Multiply_56540" type="Convolution" version="opset1">
			<data strides="1, 1" dilations="1, 1" pads_begin="0, 0" pads_end="0, 0" auto_pad="explicit"/>
			<rt_info>
				<attribute name="fused_names" version="0" value="396, 397, backbone.features.stage1.unit1.expand_bn5.bias, backbone.features.stage1.unit1.expand_bn5.running_mean, backbone.features.stage1.unit1.expand_bn5.running_var, backbone.features.stage1.unit1.expand_bn5.weight"/>
			</rt_info>
			<input>
				<port id="0" precision="FP32">
					<dim>1</dim>
					<dim>24</dim>
					<dim>40</dim>
					<dim>40</dim>
				</port>
				<port id="1" precision="FP32">
					<dim>58</dim>
					<dim>24</dim>
					<dim>1</dim>
					<dim>1</dim>
				</port>
			</input>
			<output>
				<port id="2" precision="FP32">
					<dim>1</dim>
					<dim>58</dim>
					<dim>40</dim>
					<dim>40</dim>
				</port>
			</output>
		</layer>
		<layer id="23" name="Constant_56545_compressed" type="Const" version="opset1">
			<data element_type="f16" shape="1, 58, 1, 1" offset="11014" size="116"/>
			<output>
				<port id="0" precision="FP16">
					<dim>1</dim>
					<dim>58</dim>
					<dim>1</dim>
					<dim>1</dim>
				</port>
			</output>
		</layer>
		<layer id="24" name="Constant_56545" type="Convert" version="opset1">
			<data destination_type="f32"/>
			<rt_info>
				<attribute name="decompression" version="0"/>
			</rt_info>
			<input>
				<port id="0" precision="FP16">
					<dim>1</dim>
					<dim>58</dim>
					<dim>1</dim>
					<dim>1</dim>
				</port>
			</input>
			<output>
				<port id="1" precision="FP32">
					<dim>1</dim>
					<dim>58</dim>
					<dim>1</dim>
					<dim>1</dim>
				</port>
			</output>
		</layer>
		<layer id="25" name="397" type="Add" version="opset1">
			<data auto_broadcast="numpy"/>
			<rt_info>
				<attribute name="fused_names" version="0" value="397, backbone.features.stage1.unit1.expand_bn5.bias, backbone.features.stage1.unit1.expand_bn5.running_mean, backbone.features.stage1.unit1.expand_bn5.running_var, backbone.features.stage1.unit1.expand_bn5.weight"/>
			</rt_info>
			<input>
				<port id="0" precision="FP32">
					<dim>1</dim>
					<dim>58</dim>
					<dim>40</dim>
					<dim>40</dim>
				</port>
				<port id="1" precision="FP32">
					<dim>1</dim>
					<dim>58</dim>
					<dim>1</dim>
					<dim>1</dim>
				</port>
			</input>
			<output>
				<port id="2" precision="FP32" names="397">
					<dim>1</dim>
					<dim>58</dim>
					<dim>40</dim>
					<dim>40</dim>
				</port>
			</output>
		</layer>
		<layer id="26" name="398" type="ReLU" version="opset1">
			<rt_info>
				<attribute name="fused_names" version="0" value="398"/>
			</rt_info>
			<input>
				<port id="0" precision="FP32">
					<dim>1</dim>
					<dim>58</dim>
					<dim>40</dim>
					<dim>40</dim>
				</port>
			</input>
			<output>
				<port id="1" precision="FP32" names="398">
					<dim>1</dim>
					<dim>58</dim>
					<dim>40</dim>
					<dim>40</dim>
				</port>
			</output>
		</layer>
		<layer id="27" name="Multiply_56970_compressed" type="Const" version="opset1">
			<data element_type="f16" shape="58, 24, 1, 1" offset="11130" size="2784"/>
			<output>
				<port id="0" precision="FP16">
					<dim>58</dim>
					<dim>24</dim>
					<dim>1</dim>
					<dim>1</dim>
				</port>
			</output>
		</layer>
		<layer id="28" name="Multiply_56970" type="Convert" version="opset1">
			<data destination_type="f32"/>
			<rt_info>
				<attribute name="decompression" version="0"/>
			</rt_info>
			<input>
				<port id="0" precision="FP16">
					<dim>58</dim>
					<dim>24</dim>
					<dim>1</dim>
					<dim>1</dim>
				</port>
			</input>
			<output>
				<port id="1" precision="FP32">
					<dim>58</dim>
					<dim>24</dim>
					<dim>1</dim>
					<dim>1</dim>
				</port>
			</output>
		</layer>
		<layer id="29" name="Multiply_56547" type="Convolution" version="opset1">
			<data strides="1, 1" dilations="1, 1" pads_begin="0, 0" pads_end="0, 0" auto_pad="explicit"/>
			<rt_info>
				<attribute name="fused_names" version="0" value="399, 400, backbone.features.stage1.unit1.compress_bn1.bias, backbone.features.stage1.unit1.compress_bn1.running_mean, backbone.features.stage1.unit1.compress_bn1.running_var, backbone.features.stage1.unit1.compress_bn1.weight"/>
			</rt_info>
			<input>
				<port id="0" precision="FP32">
					<dim>1</dim>
					<dim>24</dim>
					<dim>80</dim>
					<dim>80</dim>
				</port>
				<port id="1" precision="FP32">
					<dim>58</dim>
					<dim>24</dim>
					<dim>1</dim>
					<dim>1</dim>
				</port>
			</input>
			<output>
				<port id="2" precision="FP32">
					<dim>1</dim>
					<dim>58</dim>
					<dim>80</dim>
					<dim>80</dim>
				</port>
			</output>
		</layer>
		<layer id="30" name="Constant_56552_compressed" type="Const" version="opset1">
			<data element_type="f16" shape="1, 58, 1, 1" offset="13914" size="116"/>
			<output>
				<port id="0" precision="FP16">
					<dim>1</dim>
					<dim>58</dim>
					<dim>1</dim>
					<dim>1</dim>
				</port>
			</output>
		</layer>
		<layer id="31" name="Constant_56552" type="Convert" version="opset1">
			<data destination_type="f32"/>
			<rt_info>
				<attribute name="decompression" version="0"/>
			</rt_info>
			<input>
				<port id="0" precision="FP16">
					<dim>1</dim>
					<dim>58</dim>
					<dim>1</dim>
					<dim>1</dim>
				</port>
			</input>
			<output>
				<port id="1" precision="FP32">
					<dim>1</dim>
					<dim>58</dim>
					<dim>1</dim>
					<dim>1</dim>
				</port>
			</output>
		</layer>
		<layer id="32" name="400" type="Add" version="opset1">
			<data auto_broadcast="numpy"/>
			<rt_info>
				<attribute name="fused_names" version="0" value="400, backbone.features.stage1.unit1.compress_bn1.bias, backbone.features.stage1.unit1.compress_bn1.running_mean, backbone.features.stage1.unit1.compress_bn1.running_var, backbone.features.stage1.unit1.compress_bn1.weight"/>
			</rt_info>
			<input>
				<port id="0" precision="FP32">
					<dim>1</dim>
					<dim>58</dim>
					<dim>80</dim>
					<dim>80</dim>
				</port>
				<port id="1" precision="FP32">
					<dim>1</dim>
					<dim>58</dim>
					<dim>1</dim>
					<dim>1</dim>
				</port>
			</input>
			<output>
				<port id="2" precision="FP32" names="400">
					<dim>1</dim>
					<dim>58</dim>
					<dim>80</dim>
					<dim>80</dim>
				</port>
			</output>
		</layer>
		<layer id="33" name="401" type="ReLU" version="opset1">
			<rt_info>
				<attribute name="fused_names" version="0" value="401"/>
			</rt_info>
			<input>
				<port id="0" precision="FP32">
					<dim>1</dim>
					<dim>58</dim>
					<dim>80</dim>
					<dim>80</dim>
				</port>
			</input>
			<output>
				<port id="1" precision="FP32" names="401">
					<dim>1</dim>
					<dim>58</dim>
					<dim>80</dim>
					<dim>80</dim>
				</port>
			</output>
		</layer>
		<layer id="34" name="Multiply_56979_compressed" type="Const" version="opset1">
			<data element_type="f16" shape="58, 1, 1, 3, 3" offset="14030" size="1044"/>
			<output>
				<port id="0" precision="FP16">
					<dim>58</dim>
					<dim>1</dim>
					<dim>1</dim>
					<dim>3</dim>
					<dim>3</dim>
				</port>
			</output>
		</layer>
		<layer id="35" name="Multiply_56979" type="Convert" version="opset1">
			<data destination_type="f32"/>
			<rt_info>
				<attribute name="decompression" version="0"/>
			</rt_info>
			<input>
				<port id="0" precision="FP16">
					<dim>58</dim>
					<dim>1</dim>
					<dim>1</dim>
					<dim>3</dim>
					<dim>3</dim>
				</port>
			</input>
			<output>
				<port id="1" precision="FP32">
					<dim>58</dim>
					<dim>1</dim>
					<dim>1</dim>
					<dim>3</dim>
					<dim>3</dim>
				</port>
			</output>
		</layer>
		<layer id="36" name="Multiply_56554" type="GroupConvolution" version="opset1">
			<data strides="2, 2" pads_begin="1, 1" pads_end="1, 1" dilations="1, 1" auto_pad="explicit"/>
			<rt_info>
				<attribute name="fused_names" version="0" value="403, backbone.features.stage1.unit1.dw_bn2.bias, backbone.features.stage1.unit1.dw_bn2.running_mean, backbone.features.stage1.unit1.dw_bn2.running_var, backbone.features.stage1.unit1.dw_bn2.weight"/>
			</rt_info>
			<input>
				<port id="0" precision="FP32">
					<dim>1</dim>
					<dim>58</dim>
					<dim>80</dim>
					<dim>80</dim>
				</port>
				<port id="1" precision="FP32">
					<dim>58</dim>
					<dim>1</dim>
					<dim>1</dim>
					<dim>3</dim>
					<dim>3</dim>
				</port>
			</input>
			<output>
				<port id="2" precision="FP32" names="402">
					<dim>1</dim>
					<dim>58</dim>
					<dim>40</dim>
					<dim>40</dim>
				</port>
			</output>
		</layer>
		<layer id="37" name="Constant_56559_compressed" type="Const" version="opset1">
			<data element_type="f16" shape="1, 58, 1, 1" offset="15074" size="116"/>
			<output>
				<port id="0" precision="FP16">
					<dim>1</dim>
					<dim>58</dim>
					<dim>1</dim>
					<dim>1</dim>
				</port>
			</output>
		</layer>
		<layer id="38" name="Constant_56559" type="Convert" version="opset1">
			<data destination_type="f32"/>
			<rt_info>
				<attribute name="decompression" version="0"/>
			</rt_info>
			<input>
				<port id="0" precision="FP16">
					<dim>1</dim>
					<dim>58</dim>
					<dim>1</dim>
					<dim>1</dim>
				</port>
			</input>
			<output>
				<port id="1" precision="FP32">
					<dim>1</dim>
					<dim>58</dim>
					<dim>1</dim>
					<dim>1</dim>
				</port>
			</output>
		</layer>
		<layer id="39" name="403" type="Add" version="opset1">
			<data auto_broadcast="numpy"/>
			<rt_info>
				<attribute name="fused_names" version="0" value="403, backbone.features.stage1.unit1.dw_bn2.bias, backbone.features.stage1.unit1.dw_bn2.running_mean, backbone.features.stage1.unit1.dw_bn2.running_var, backbone.features.stage1.unit1.dw_bn2.weight"/>
			</rt_info>
			<input>
				<port id="0" precision="FP32">
					<dim>1</dim>
					<dim>58</dim>
					<dim>40</dim>
					<dim>40</dim>
				</port>
				<port id="1" precision="FP32">
					<dim>1</dim>
					<dim>58</dim>
					<dim>1</dim>
					<dim>1</dim>
				</port>
			</input>
			<output>
				<port id="2" precision="FP32" names="403">
					<dim>1</dim>
					<dim>58</dim>
					<dim>40</dim>
					<dim>40</dim>
				</port>
			</output>
		</layer>
		<layer id="40" name="Multiply_56987_compressed" type="Const" version="opset1">
			<data element_type="f16" shape="58, 58, 1, 1" offset="15190" size="6728"/>
			<output>
				<port id="0" precision="FP16">
					<dim>58</dim>
					<dim>58</dim>
					<dim>1</dim>
					<dim>1</dim>
				</port>
			</output>
		</layer>
		<layer id="41" name="Multiply_56987" type="Convert" version="opset1">
			<data destination_type="f32"/>
			<rt_info>
				<attribute name="decompression" version="0"/>
			</rt_info>
			<input>
				<port id="0" precision="FP16">
					<dim>58</dim>
					<dim>58</dim>
					<dim>1</dim>
					<dim>1</dim>
				</port>
			</input>
			<output>
				<port id="1" precision="FP32">
					<dim>58</dim>
					<dim>58</dim>
					<dim>1</dim>
					<dim>1</dim>
				</port>
			</output>
		</layer>
		<layer id="42" name="Multiply_56561" type="Convolution" version="opset1">
			<data strides="1, 1" dilations="1, 1" pads_begin="0, 0" pads_end="0, 0" auto_pad="explicit"/>
			<rt_info>
				<attribute name="fused_names" version="0" value="404, 405, backbone.features.stage1.unit1.expand_bn3.bias, backbone.features.stage1.unit1.expand_bn3.running_mean, backbone.features.stage1.unit1.expand_bn3.running_var, backbone.features.stage1.unit1.expand_bn3.weight"/>
			</rt_info>
			<input>
				<port id="0" precision="FP32">
					<dim>1</dim>
					<dim>58</dim>
					<dim>40</dim>
					<dim>40</dim>
				</port>
				<port id="1" precision="FP32">
					<dim>58</dim>
					<dim>58</dim>
					<dim>1</dim>
					<dim>1</dim>
				</port>
			</input>
			<output>
				<port id="2" precision="FP32">
					<dim>1</dim>
					<dim>58</dim>
					<dim>40</dim>
					<dim>40</dim>
				</port>
			</output>
		</layer>
		<layer id="43" name="Constant_56566_compressed" type="Const" version="opset1">
			<data element_type="f16" shape="1, 58, 1, 1" offset="21918" size="116"/>
			<output>
				<port id="0" precision="FP16">
					<dim>1</dim>
					<dim>58</dim>
					<dim>1</dim>
					<dim>1</dim>
				</port>
			</output>
		</layer>
		<layer id="44" name="Constant_56566" type="Convert" version="opset1">
			<data destination_type="f32"/>
			<rt_info>
				<attribute name="decompression" version="0"/>
			</rt_info>
			<input>
				<port id="0" precision="FP16">
					<dim>1</dim>
					<dim>58</dim>
					<dim>1</dim>
					<dim>1</dim>
				</port>
			</input>
			<output>
				<port id="1" precision="FP32">
					<dim>1</dim>
					<dim>58</dim>
					<dim>1</dim>
					<dim>1</dim>
				</port>
			</output>
		</layer>
		<layer id="45" name="405" type="Add" version="opset1">
			<data auto_broadcast="numpy"/>
			<rt_info>
				<attribute name="fused_names" version="0" value="405, backbone.features.stage1.unit1.expand_bn3.bias, backbone.features.stage1.unit1.expand_bn3.running_mean, backbone.features.stage1.unit1.expand_bn3.running_var, backbone.features.stage1.unit1.expand_bn3.weight"/>
			</rt_info>
			<input>
				<port id="0" precision="FP32">
					<dim>1</dim>
					<dim>58</dim>
					<dim>40</dim>
					<dim>40</dim>
				</port>
				<port id="1" precision="FP32">
					<dim>1</dim>
					<dim>58</dim>
					<dim>1</dim>
					<dim>1</dim>
				</port>
			</input>
			<output>
				<port id="2" precision="FP32" names="405">
					<dim>1</dim>
					<dim>58</dim>
					<dim>40</dim>
					<dim>40</dim>
				</port>
			</output>
		</layer>
		<layer id="46" name="406" type="ReLU" version="opset1">
			<rt_info>
				<attribute name="fused_names" version="0" value="406"/>
			</rt_info>
			<input>
				<port id="0" precision="FP32">
					<dim>1</dim>
					<dim>58</dim>
					<dim>40</dim>
					<dim>40</dim>
				</port>
			</input>
			<output>
				<port id="1" precision="FP32" names="406">
					<dim>1</dim>
					<dim>58</dim>
					<dim>40</dim>
					<dim>40</dim>
				</port>
			</output>
		</layer>
		<layer id="47" name="407" type="Concat" version="opset1">
			<data axis="1"/>
			<rt_info>
				<attribute name="fused_names" version="0" value="407"/>
			</rt_info>
			<input>
				<port id="0" precision="FP32">
					<dim>1</dim>
					<dim>58</dim>
					<dim>40</dim>
					<dim>40</dim>
				</port>
				<port id="1" precision="FP32">
					<dim>1</dim>
					<dim>58</dim>
					<dim>40</dim>
					<dim>40</dim>
				</port>
			</input>
			<output>
				<port id="2" precision="FP32" names="407">
					<dim>1</dim>
					<dim>116</dim>
					<dim>40</dim>
					<dim>40</dim>
				</port>
			</output>
		</layer>
		<layer id="48" name="Constant_42045" type="Const" version="opset1">
			<data element_type="i64" shape="1" offset="22034" size="8"/>
			<output>
				<port id="0" precision="I64">
					<dim>1</dim>
				</port>
			</output>
		</layer>
		<layer id="49" name="424" type="Const" version="opset1">
			<data element_type="i64" shape="1" offset="22042" size="8"/>
			<output>
				<port id="0" precision="I64" names="424">
					<dim>1</dim>
				</port>
			</output>
		</layer>
		<layer id="50" name="409" type="ShapeOf" version="opset3">
			<data output_type="i64"/>
			<rt_info>
				<attribute name="fused_names" version="0" value="409, 412, 415, 418, 435"/>
			</rt_info>
			<input>
				<port id="0" precision="FP32">
					<dim>1</dim>
					<dim>116</dim>
					<dim>40</dim>
					<dim>40</dim>
				</port>
			</input>
			<output>
				<port id="1" precision="I64" names="409,412,415,418,435">
					<dim>4</dim>
				</port>
			</output>
		</layer>
		<layer id="51" name="411" type="Const" version="opset1">
			<data element_type="i64" shape="" offset="22050" size="8"/>
			<rt_info>
				<attribute name="fused_names" version="0" value="411"/>
			</rt_info>
			<output>
				<port id="0" precision="I64" names="411"/>
			</output>
		</layer>
		<layer id="52" name="Constant_503" type="Const" version="opset1">
			<data element_type="i64" shape="" offset="22034" size="8"/>
			<rt_info>
				<attribute name="fused_names" version="0" value="Constant_503"/>
			</rt_info>
			<output>
				<port id="0" precision="I64"/>
			</output>
		</layer>
		<layer id="53" name="413" type="Gather" version="opset8">
			<data batch_dims="0"/>
			<rt_info>
				<attribute name="fused_names" version="0" value="411, 413, Constant_503"/>
			</rt_info>
			<input>
				<port id="0" precision="I64">
					<dim>4</dim>
				</port>
				<port id="1" precision="I64"/>
				<port id="2" precision="I64"/>
			</input>
			<output>
				<port id="3" precision="I64" names="413"/>
			</output>
		</layer>
		<layer id="54" name="420" type="Const" version="opset1">
			<data element_type="i64" shape="" offset="22042" size="8"/>
			<rt_info>
				<attribute name="fused_names" version="0" value="420"/>
			</rt_info>
			<output>
				<port id="0" precision="I64" names="420"/>
			</output>
		</layer>
		<layer id="55" name="421" type="Divide" version="opset1">
			<data auto_broadcast="numpy" m_pythondiv="true"/>
			<rt_info>
				<attribute name="fused_names" version="0" value="420, 421"/>
			</rt_info>
			<input>
				<port id="0" precision="I64"/>
				<port id="1" precision="I64"/>
			</input>
			<output>
				<port id="2" precision="I64" names="421"/>
			</output>
		</layer>
		<layer id="56" name="Constant_520" type="Const" version="opset1">
			<data element_type="i64" shape="1" offset="22034" size="8"/>
			<rt_info>
				<attribute name="fused_names" version="0" value="Constant_520"/>
			</rt_info>
			<output>
				<port id="0" precision="I64">
					<dim>1</dim>
				</port>
			</output>
		</layer>
		<layer id="57" name="425" type="Unsqueeze" version="opset1">
			<rt_info>
				<attribute name="fused_names" version="0" value="425, Constant_520"/>
			</rt_info>
			<input>
				<port id="0" precision="I64"/>
				<port id="1" precision="I64">
					<dim>1</dim>
				</port>
			</input>
			<output>
				<port id="2" precision="I64" names="425">
					<dim>1</dim>
				</port>
			</output>
		</layer>
		<layer id="58" name="Constant_37909" type="Const" version="opset1">
			<data element_type="i64" shape="2" offset="22058" size="16"/>
			<rt_info>
				<attribute name="fused_names" version="0" value="424, 428"/>
			</rt_info>
			<output>
				<port id="0" precision="I64">
					<dim>2</dim>
				</port>
			</output>
		</layer>
		<layer id="59" name="Constant_37910" type="Const" version="opset1">
			<data element_type="i64" shape="" offset="22034" size="8"/>
			<output>
				<port id="0" precision="I64"/>
			</output>
		</layer>
		<layer id="60" name="Gather_37911" type="Gather" version="opset8">
			<data batch_dims="0"/>
			<rt_info>
				<attribute name="fused_names" version="0" value="424, 428"/>
			</rt_info>
			<input>
				<port id="0" precision="I64">
					<dim>4</dim>
				</port>
				<port id="1" precision="I64">
					<dim>2</dim>
				</port>
				<port id="2" precision="I64"/>
			</input>
			<output>
				<port id="3" precision="I64">
					<dim>2</dim>
				</port>
			</output>
		</layer>
		<layer id="61" name="428" type="Concat" version="opset1">
			<data axis="0"/>
			<rt_info>
				<attribute name="fused_names" version="0" value="424, 428"/>
			</rt_info>
			<input>
				<port id="0" precision="I64">
					<dim>1</dim>
				</port>
				<port id="1" precision="I64">
					<dim>1</dim>
				</port>
				<port id="2" precision="I64">
					<dim>1</dim>
				</port>
				<port id="3" precision="I64">
					<dim>2</dim>
				</port>
			</input>
			<output>
				<port id="4" precision="I64">
					<dim>5</dim>
				</port>
			</output>
		</layer>
		<layer id="62" name="429" type="Reshape" version="opset1">
			<data special_zero="true"/>
			<rt_info>
				<attribute name="fused_names" version="0" value="429"/>
			</rt_info>
			<input>
				<port id="0" precision="FP32">
					<dim>1</dim>
					<dim>116</dim>
					<dim>40</dim>
					<dim>40</dim>
				</port>
				<port id="1" precision="I64">
					<dim>5</dim>
				</port>
			</input>
			<output>
				<port id="2" precision="FP32" names="429">
					<dim>1</dim>
					<dim>2</dim>
					<dim>58</dim>
					<dim>40</dim>
					<dim>40</dim>
				</port>
			</output>
		</layer>
		<layer id="63" name="Constant_637" type="Const" version="opset1">
			<data element_type="i64" shape="5" offset="22074" size="40"/>
			<rt_info>
				<attribute name="fused_names" version="0" value="Constant_637"/>
			</rt_info>
			<output>
				<port id="0" precision="I64">
					<dim>5</dim>
				</port>
			</output>
		</layer>
		<layer id="64" name="430" type="Transpose" version="opset1">
			<rt_info>
				<attribute name="fused_names" version="0" value="430"/>
			</rt_info>
			<input>
				<port id="0" precision="FP32">
					<dim>1</dim>
					<dim>2</dim>
					<dim>58</dim>
					<dim>40</dim>
					<dim>40</dim>
				</port>
				<port id="1" precision="I64">
					<dim>5</dim>
				</port>
			</input>
			<output>
				<port id="2" precision="FP32" names="430">
					<dim>1</dim>
					<dim>58</dim>
					<dim>2</dim>
					<dim>40</dim>
					<dim>40</dim>
				</port>
			</output>
		</layer>
		<layer id="65" name="436" type="Reshape" version="opset1">
			<data special_zero="true"/>
			<rt_info>
				<attribute name="fused_names" version="0" value="436"/>
			</rt_info>
			<input>
				<port id="0" precision="FP32">
					<dim>1</dim>
					<dim>58</dim>
					<dim>2</dim>
					<dim>40</dim>
					<dim>40</dim>
				</port>
				<port id="1" precision="I64">
					<dim>4</dim>
				</port>
			</input>
			<output>
				<port id="2" precision="FP32" names="436">
					<dim>1</dim>
					<dim>116</dim>
					<dim>40</dim>
					<dim>40</dim>
				</port>
			</output>
		</layer>
		<layer id="66" name="Constant_726" type="Const" version="opset1">
			<data element_type="i64" shape="" offset="22050" size="8"/>
			<rt_info>
				<attribute name="fused_names" version="0" value="Constant_726"/>
			</rt_info>
			<output>
				<port id="0" precision="I64"/>
			</output>
		</layer>
		<layer id="67" name="Constant_727" type="Const" version="opset1">
			<data element_type="i64" shape="2" offset="22114" size="16"/>
			<rt_info>
				<attribute name="fused_names" version="0" value="Constant_727"/>
			</rt_info>
			<output>
				<port id="0" precision="I64">
					<dim>2</dim>
				</port>
			</output>
		</layer>
		<layer id="68" name="438" type="VariadicSplit" version="opset1">
			<rt_info>
				<attribute name="fused_names" version="0" value="438"/>
			</rt_info>
			<input>
				<port id="0" precision="FP32">
					<dim>1</dim>
					<dim>116</dim>
					<dim>40</dim>
					<dim>40</dim>
				</port>
				<port id="1" precision="I64"/>
				<port id="2" precision="I64">
					<dim>2</dim>
				</port>
			</input>
			<output>
				<port id="3" precision="FP32" names="437">
					<dim>1</dim>
					<dim>58</dim>
					<dim>40</dim>
					<dim>40</dim>
				</port>
				<port id="4" precision="FP32" names="438">
					<dim>1</dim>
					<dim>58</dim>
					<dim>40</dim>
					<dim>40</dim>
				</port>
			</output>
		</layer>
		<layer id="69" name="Multiply_56996_compressed" type="Const" version="opset1">
			<data element_type="f16" shape="58, 58, 1, 1" offset="22130" size="6728"/>
			<output>
				<port id="0" precision="FP16">
					<dim>58</dim>
					<dim>58</dim>
					<dim>1</dim>
					<dim>1</dim>
				</port>
			</output>
		</layer>
		<layer id="70" name="Multiply_56996" type="Convert" version="opset1">
			<data destination_type="f32"/>
			<rt_info>
				<attribute name="decompression" version="0"/>
			</rt_info>
			<input>
				<port id="0" precision="FP16">
					<dim>58</dim>
					<dim>58</dim>
					<dim>1</dim>
					<dim>1</dim>
				</port>
			</input>
			<output>
				<port id="1" precision="FP32">
					<dim>58</dim>
					<dim>58</dim>
					<dim>1</dim>
					<dim>1</dim>
				</port>
			</output>
		</layer>
		<layer id="71" name="Multiply_56568" type="Convolution" version="opset1">
			<data strides="1, 1" dilations="1, 1" pads_begin="0, 0" pads_end="0, 0" auto_pad="explicit"/>
			<rt_info>
				<attribute name="fused_names" version="0" value="439, 440, backbone.features.stage1.unit2.compress_bn1.bias, backbone.features.stage1.unit2.compress_bn1.running_mean, backbone.features.stage1.unit2.compress_bn1.running_var, backbone.features.stage1.unit2.compress_bn1.weight"/>
			</rt_info>
			<input>
				<port id="0" precision="FP32">
					<dim>1</dim>
					<dim>58</dim>
					<dim>40</dim>
					<dim>40</dim>
				</port>
				<port id="1" precision="FP32">
					<dim>58</dim>
					<dim>58</dim>
					<dim>1</dim>
					<dim>1</dim>
				</port>
			</input>
			<output>
				<port id="2" precision="FP32">
					<dim>1</dim>
					<dim>58</dim>
					<dim>40</dim>
					<dim>40</dim>
				</port>
			</output>
		</layer>
		<layer id="72" name="Constant_56573_compressed" type="Const" version="opset1">
			<data element_type="f16" shape="1, 58, 1, 1" offset="28858" size="116"/>
			<output>
				<port id="0" precision="FP16">
					<dim>1</dim>
					<dim>58</dim>
					<dim>1</dim>
					<dim>1</dim>
				</port>
			</output>
		</layer>
		<layer id="73" name="Constant_56573" type="Convert" version="opset1">
			<data destination_type="f32"/>
			<rt_info>
				<attribute name="decompression" version="0"/>
			</rt_info>
			<input>
				<port id="0" precision="FP16">
					<dim>1</dim>
					<dim>58</dim>
					<dim>1</dim>
					<dim>1</dim>
				</port>
			</input>
			<output>
				<port id="1" precision="FP32">
					<dim>1</dim>
					<dim>58</dim>
					<dim>1</dim>
					<dim>1</dim>
				</port>
			</output>
		</layer>
		<layer id="74" name="440" type="Add" version="opset1">
			<data auto_broadcast="numpy"/>
			<rt_info>
				<attribute name="fused_names" version="0" value="440, backbone.features.stage1.unit2.compress_bn1.bias, backbone.features.stage1.unit2.compress_bn1.running_mean, backbone.features.stage1.unit2.compress_bn1.running_var, backbone.features.stage1.unit2.compress_bn1.weight"/>
			</rt_info>
			<input>
				<port id="0" precision="FP32">
					<dim>1</dim>
					<dim>58</dim>
					<dim>40</dim>
					<dim>40</dim>
				</port>
				<port id="1" precision="FP32">
					<dim>1</dim>
					<dim>58</dim>
					<dim>1</dim>
					<dim>1</dim>
				</port>
			</input>
			<output>
				<port id="2" precision="FP32" names="440">
					<dim>1</dim>
					<dim>58</dim>
					<dim>40</dim>
					<dim>40</dim>
				</port>
			</output>
		</layer>
		<layer id="75" name="441" type="ReLU" version="opset1">
			<rt_info>
				<attribute name="fused_names" version="0" value="441"/>
			</rt_info>
			<input>
				<port id="0" precision="FP32">
					<dim>1</dim>
					<dim>58</dim>
					<dim>40</dim>
					<dim>40</dim>
				</port>
			</input>
			<output>
				<port id="1" precision="FP32" names="441">
					<dim>1</dim>
					<dim>58</dim>
					<dim>40</dim>
					<dim>40</dim>
				</port>
			</output>
		</layer>
		<layer id="76" name="Multiply_57005_compressed" type="Const" version="opset1">
			<data element_type="f16" shape="58, 1, 1, 3, 3" offset="28974" size="1044"/>
			<output>
				<port id="0" precision="FP16">
					<dim>58</dim>
					<dim>1</dim>
					<dim>1</dim>
					<dim>3</dim>
					<dim>3</dim>
				</port>
			</output>
		</layer>
		<layer id="77" name="Multiply_57005" type="Convert" version="opset1">
			<data destination_type="f32"/>
			<rt_info>
				<attribute name="decompression" version="0"/>
			</rt_info>
			<input>
				<port id="0" precision="FP16">
					<dim>58</dim>
					<dim>1</dim>
					<dim>1</dim>
					<dim>3</dim>
					<dim>3</dim>
				</port>
			</input>
			<output>
				<port id="1" precision="FP32">
					<dim>58</dim>
					<dim>1</dim>
					<dim>1</dim>
					<dim>3</dim>
					<dim>3</dim>
				</port>
			</output>
		</layer>
		<layer id="78" name="Multiply_56575" type="GroupConvolution" version="opset1">
			<data strides="1, 1" pads_begin="1, 1" pads_end="1, 1" dilations="1, 1" auto_pad="explicit"/>
			<rt_info>
				<attribute name="fused_names" version="0" value="443, backbone.features.stage1.unit2.dw_bn2.bias, backbone.features.stage1.unit2.dw_bn2.running_mean, backbone.features.stage1.unit2.dw_bn2.running_var, backbone.features.stage1.unit2.dw_bn2.weight"/>
			</rt_info>
			<input>
				<port id="0" precision="FP32">
					<dim>1</dim>
					<dim>58</dim>
					<dim>40</dim>
					<dim>40</dim>
				</port>
				<port id="1" precision="FP32">
					<dim>58</dim>
					<dim>1</dim>
					<dim>1</dim>
					<dim>3</dim>
					<dim>3</dim>
				</port>
			</input>
			<output>
				<port id="2" precision="FP32" names="442">
					<dim>1</dim>
					<dim>58</dim>
					<dim>40</dim>
					<dim>40</dim>
				</port>
			</output>
		</layer>
		<layer id="79" name="Constant_56580_compressed" type="Const" version="opset1">
			<data element_type="f16" shape="1, 58, 1, 1" offset="30018" size="116"/>
			<output>
				<port id="0" precision="FP16">
					<dim>1</dim>
					<dim>58</dim>
					<dim>1</dim>
					<dim>1</dim>
				</port>
			</output>
		</layer>
		<layer id="80" name="Constant_56580" type="Convert" version="opset1">
			<data destination_type="f32"/>
			<rt_info>
				<attribute name="decompression" version="0"/>
			</rt_info>
			<input>
				<port id="0" precision="FP16">
					<dim>1</dim>
					<dim>58</dim>
					<dim>1</dim>
					<dim>1</dim>
				</port>
			</input>
			<output>
				<port id="1" precision="FP32">
					<dim>1</dim>
					<dim>58</dim>
					<dim>1</dim>
					<dim>1</dim>
				</port>
			</output>
		</layer>
		<layer id="81" name="443" type="Add" version="opset1">
			<data auto_broadcast="numpy"/>
			<rt_info>
				<attribute name="fused_names" version="0" value="443, backbone.features.stage1.unit2.dw_bn2.bias, backbone.features.stage1.unit2.dw_bn2.running_mean, backbone.features.stage1.unit2.dw_bn2.running_var, backbone.features.stage1.unit2.dw_bn2.weight"/>
			</rt_info>
			<input>
				<port id="0" precision="FP32">
					<dim>1</dim>
					<dim>58</dim>
					<dim>40</dim>
					<dim>40</dim>
				</port>
				<port id="1" precision="FP32">
					<dim>1</dim>
					<dim>58</dim>
					<dim>1</dim>
					<dim>1</dim>
				</port>
			</input>
			<output>
				<port id="2" precision="FP32" names="443">
					<dim>1</dim>
					<dim>58</dim>
					<dim>40</dim>
					<dim>40</dim>
				</port>
			</output>
		</layer>
		<layer id="82" name="Multiply_57013_compressed" type="Const" version="opset1">
			<data element_type="f16" shape="58, 58, 1, 1" offset="30134" size="6728"/>
			<output>
				<port id="0" precision="FP16">
					<dim>58</dim>
					<dim>58</dim>
					<dim>1</dim>
					<dim>1</dim>
				</port>
			</output>
		</layer>
		<layer id="83" name="Multiply_57013" type="Convert" version="opset1">
			<data destination_type="f32"/>
			<rt_info>
				<attribute name="decompression" version="0"/>
			</rt_info>
			<input>
				<port id="0" precision="FP16">
					<dim>58</dim>
					<dim>58</dim>
					<dim>1</dim>
					<dim>1</dim>
				</port>
			</input>
			<output>
				<port id="1" precision="FP32">
					<dim>58</dim>
					<dim>58</dim>
					<dim>1</dim>
					<dim>1</dim>
				</port>
			</output>
		</layer>
		<layer id="84" name="Multiply_56582" type="Convolution" version="opset1">
			<data strides="1, 1" dilations="1, 1" pads_begin="0, 0" pads_end="0, 0" auto_pad="explicit"/>
			<rt_info>
				<attribute name="fused_names" version="0" value="444, 445, backbone.features.stage1.unit2.expand_bn3.bias, backbone.features.stage1.unit2.expand_bn3.running_mean, backbone.features.stage1.unit2.expand_bn3.running_var, backbone.features.stage1.unit2.expand_bn3.weight"/>
			</rt_info>
			<input>
				<port id="0" precision="FP32">
					<dim>1</dim>
					<dim>58</dim>
					<dim>40</dim>
					<dim>40</dim>
				</port>
				<port id="1" precision="FP32">
					<dim>58</dim>
					<dim>58</dim>
					<dim>1</dim>
					<dim>1</dim>
				</port>
			</input>
			<output>
				<port id="2" precision="FP32">
					<dim>1</dim>
					<dim>58</dim>
					<dim>40</dim>
					<dim>40</dim>
				</port>
			</output>
		</layer>
		<layer id="85" name="Constant_56587_compressed" type="Const" version="opset1">
			<data element_type="f16" shape="1, 58, 1, 1" offset="36862" size="116"/>
			<output>
				<port id="0" precision="FP16">
					<dim>1</dim>
					<dim>58</dim>
					<dim>1</dim>
					<dim>1</dim>
				</port>
			</output>
		</layer>
		<layer id="86" name="Constant_56587" type="Convert" version="opset1">
			<data destination_type="f32"/>
			<rt_info>
				<attribute name="decompression" version="0"/>
			</rt_info>
			<input>
				<port id="0" precision="FP16">
					<dim>1</dim>
					<dim>58</dim>
					<dim>1</dim>
					<dim>1</dim>
				</port>
			</input>
			<output>
				<port id="1" precision="FP32">
					<dim>1</dim>
					<dim>58</dim>
					<dim>1</dim>
					<dim>1</dim>
				</port>
			</output>
		</layer>
		<layer id="87" name="445" type="Add" version="opset1">
			<data auto_broadcast="numpy"/>
			<rt_info>
				<attribute name="fused_names" version="0" value="445, backbone.features.stage1.unit2.expand_bn3.bias, backbone.features.stage1.unit2.expand_bn3.running_mean, backbone.features.stage1.unit2.expand_bn3.running_var, backbone.features.stage1.unit2.expand_bn3.weight"/>
			</rt_info>
			<input>
				<port id="0" precision="FP32">
					<dim>1</dim>
					<dim>58</dim>
					<dim>40</dim>
					<dim>40</dim>
				</port>
				<port id="1" precision="FP32">
					<dim>1</dim>
					<dim>58</dim>
					<dim>1</dim>
					<dim>1</dim>
				</port>
			</input>
			<output>
				<port id="2" precision="FP32" names="445">
					<dim>1</dim>
					<dim>58</dim>
					<dim>40</dim>
					<dim>40</dim>
				</port>
			</output>
		</layer>
		<layer id="88" name="446" type="ReLU" version="opset1">
			<rt_info>
				<attribute name="fused_names" version="0" value="446"/>
			</rt_info>
			<input>
				<port id="0" precision="FP32">
					<dim>1</dim>
					<dim>58</dim>
					<dim>40</dim>
					<dim>40</dim>
				</port>
			</input>
			<output>
				<port id="1" precision="FP32" names="446">
					<dim>1</dim>
					<dim>58</dim>
					<dim>40</dim>
					<dim>40</dim>
				</port>
			</output>
		</layer>
		<layer id="89" name="447" type="Concat" version="opset1">
			<data axis="1"/>
			<rt_info>
				<attribute name="fused_names" version="0" value="447"/>
			</rt_info>
			<input>
				<port id="0" precision="FP32">
					<dim>1</dim>
					<dim>58</dim>
					<dim>40</dim>
					<dim>40</dim>
				</port>
				<port id="1" precision="FP32">
					<dim>1</dim>
					<dim>58</dim>
					<dim>40</dim>
					<dim>40</dim>
				</port>
			</input>
			<output>
				<port id="2" precision="FP32" names="447">
					<dim>1</dim>
					<dim>116</dim>
					<dim>40</dim>
					<dim>40</dim>
				</port>
			</output>
		</layer>
		<layer id="90" name="Constant_42147" type="Const" version="opset1">
			<data element_type="i64" shape="1" offset="22034" size="8"/>
			<output>
				<port id="0" precision="I64">
					<dim>1</dim>
				</port>
			</output>
		</layer>
		<layer id="91" name="464" type="Const" version="opset1">
			<data element_type="i64" shape="1" offset="22042" size="8"/>
			<output>
				<port id="0" precision="I64" names="464">
					<dim>1</dim>
				</port>
			</output>
		</layer>
		<layer id="92" name="449" type="ShapeOf" version="opset3">
			<data output_type="i64"/>
			<rt_info>
				<attribute name="fused_names" version="0" value="449, 452, 455, 458, 475"/>
			</rt_info>
			<input>
				<port id="0" precision="FP32">
					<dim>1</dim>
					<dim>116</dim>
					<dim>40</dim>
					<dim>40</dim>
				</port>
			</input>
			<output>
				<port id="1" precision="I64" names="449,452,455,458,475">
					<dim>4</dim>
				</port>
			</output>
		</layer>
		<layer id="93" name="451" type="Const" version="opset1">
			<data element_type="i64" shape="" offset="22050" size="8"/>
			<rt_info>
				<attribute name="fused_names" version="0" value="451"/>
			</rt_info>
			<output>
				<port id="0" precision="I64" names="451"/>
			</output>
		</layer>
		<layer id="94" name="Constant_820" type="Const" version="opset1">
			<data element_type="i64" shape="" offset="22034" size="8"/>
			<rt_info>
				<attribute name="fused_names" version="0" value="Constant_820"/>
			</rt_info>
			<output>
				<port id="0" precision="I64"/>
			</output>
		</layer>
		<layer id="95" name="453" type="Gather" version="opset8">
			<data batch_dims="0"/>
			<rt_info>
				<attribute name="fused_names" version="0" value="451, 453, Constant_820"/>
			</rt_info>
			<input>
				<port id="0" precision="I64">
					<dim>4</dim>
				</port>
				<port id="1" precision="I64"/>
				<port id="2" precision="I64"/>
			</input>
			<output>
				<port id="3" precision="I64" names="453"/>
			</output>
		</layer>
		<layer id="96" name="460" type="Const" version="opset1">
			<data element_type="i64" shape="" offset="22042" size="8"/>
			<rt_info>
				<attribute name="fused_names" version="0" value="460"/>
			</rt_info>
			<output>
				<port id="0" precision="I64" names="460"/>
			</output>
		</layer>
		<layer id="97" name="461" type="Divide" version="opset1">
			<data auto_broadcast="numpy" m_pythondiv="true"/>
			<rt_info>
				<attribute name="fused_names" version="0" value="460, 461"/>
			</rt_info>
			<input>
				<port id="0" precision="I64"/>
				<port id="1" precision="I64"/>
			</input>
			<output>
				<port id="2" precision="I64" names="461"/>
			</output>
		</layer>
		<layer id="98" name="Constant_837" type="Const" version="opset1">
			<data element_type="i64" shape="1" offset="22034" size="8"/>
			<rt_info>
				<attribute name="fused_names" version="0" value="Constant_837"/>
			</rt_info>
			<output>
				<port id="0" precision="I64">
					<dim>1</dim>
				</port>
			</output>
		</layer>
		<layer id="99" name="465" type="Unsqueeze" version="opset1">
			<rt_info>
				<attribute name="fused_names" version="0" value="465, Constant_837"/>
			</rt_info>
			<input>
				<port id="0" precision="I64"/>
				<port id="1" precision="I64">
					<dim>1</dim>
				</port>
			</input>
			<output>
				<port id="2" precision="I64" names="465">
					<dim>1</dim>
				</port>
			</output>
		</layer>
		<layer id="100" name="Constant_37926" type="Const" version="opset1">
			<data element_type="i64" shape="2" offset="22058" size="16"/>
			<rt_info>
				<attribute name="fused_names" version="0" value="464, 468"/>
			</rt_info>
			<output>
				<port id="0" precision="I64">
					<dim>2</dim>
				</port>
			</output>
		</layer>
		<layer id="101" name="Constant_37927" type="Const" version="opset1">
			<data element_type="i64" shape="" offset="22034" size="8"/>
			<output>
				<port id="0" precision="I64"/>
			</output>
		</layer>
		<layer id="102" name="Gather_37928" type="Gather" version="opset8">
			<data batch_dims="0"/>
			<rt_info>
				<attribute name="fused_names" version="0" value="464, 468"/>
			</rt_info>
			<input>
				<port id="0" precision="I64">
					<dim>4</dim>
				</port>
				<port id="1" precision="I64">
					<dim>2</dim>
				</port>
				<port id="2" precision="I64"/>
			</input>
			<output>
				<port id="3" precision="I64">
					<dim>2</dim>
				</port>
			</output>
		</layer>
		<layer id="103" name="468" type="Concat" version="opset1">
			<data axis="0"/>
			<rt_info>
				<attribute name="fused_names" version="0" value="464, 468"/>
			</rt_info>
			<input>
				<port id="0" precision="I64">
					<dim>1</dim>
				</port>
				<port id="1" precision="I64">
					<dim>1</dim>
				</port>
				<port id="2" precision="I64">
					<dim>1</dim>
				</port>
				<port id="3" precision="I64">
					<dim>2</dim>
				</port>
			</input>
			<output>
				<port id="4" precision="I64">
					<dim>5</dim>
				</port>
			</output>
		</layer>
		<layer id="104" name="469" type="Reshape" version="opset1">
			<data special_zero="true"/>
			<rt_info>
				<attribute name="fused_names" version="0" value="469"/>
			</rt_info>
			<input>
				<port id="0" precision="FP32">
					<dim>1</dim>
					<dim>116</dim>
					<dim>40</dim>
					<dim>40</dim>
				</port>
				<port id="1" precision="I64">
					<dim>5</dim>
				</port>
			</input>
			<output>
				<port id="2" precision="FP32" names="469">
					<dim>1</dim>
					<dim>2</dim>
					<dim>58</dim>
					<dim>40</dim>
					<dim>40</dim>
				</port>
			</output>
		</layer>
		<layer id="105" name="Constant_954" type="Const" version="opset1">
			<data element_type="i64" shape="5" offset="22074" size="40"/>
			<rt_info>
				<attribute name="fused_names" version="0" value="Constant_954"/>
			</rt_info>
			<output>
				<port id="0" precision="I64">
					<dim>5</dim>
				</port>
			</output>
		</layer>
		<layer id="106" name="470" type="Transpose" version="opset1">
			<rt_info>
				<attribute name="fused_names" version="0" value="470"/>
			</rt_info>
			<input>
				<port id="0" precision="FP32">
					<dim>1</dim>
					<dim>2</dim>
					<dim>58</dim>
					<dim>40</dim>
					<dim>40</dim>
				</port>
				<port id="1" precision="I64">
					<dim>5</dim>
				</port>
			</input>
			<output>
				<port id="2" precision="FP32" names="470">
					<dim>1</dim>
					<dim>58</dim>
					<dim>2</dim>
					<dim>40</dim>
					<dim>40</dim>
				</port>
			</output>
		</layer>
		<layer id="107" name="476" type="Reshape" version="opset1">
			<data special_zero="true"/>
			<rt_info>
				<attribute name="fused_names" version="0" value="476"/>
			</rt_info>
			<input>
				<port id="0" precision="FP32">
					<dim>1</dim>
					<dim>58</dim>
					<dim>2</dim>
					<dim>40</dim>
					<dim>40</dim>
				</port>
				<port id="1" precision="I64">
					<dim>4</dim>
				</port>
			</input>
			<output>
				<port id="2" precision="FP32" names="476">
					<dim>1</dim>
					<dim>116</dim>
					<dim>40</dim>
					<dim>40</dim>
				</port>
			</output>
		</layer>
		<layer id="108" name="Constant_1043" type="Const" version="opset1">
			<data element_type="i64" shape="" offset="22050" size="8"/>
			<rt_info>
				<attribute name="fused_names" version="0" value="Constant_1043"/>
			</rt_info>
			<output>
				<port id="0" precision="I64"/>
			</output>
		</layer>
		<layer id="109" name="Constant_1044" type="Const" version="opset1">
			<data element_type="i64" shape="2" offset="22114" size="16"/>
			<rt_info>
				<attribute name="fused_names" version="0" value="Constant_1044"/>
			</rt_info>
			<output>
				<port id="0" precision="I64">
					<dim>2</dim>
				</port>
			</output>
		</layer>
		<layer id="110" name="478" type="VariadicSplit" version="opset1">
			<rt_info>
				<attribute name="fused_names" version="0" value="478"/>
			</rt_info>
			<input>
				<port id="0" precision="FP32">
					<dim>1</dim>
					<dim>116</dim>
					<dim>40</dim>
					<dim>40</dim>
				</port>
				<port id="1" precision="I64"/>
				<port id="2" precision="I64">
					<dim>2</dim>
				</port>
			</input>
			<output>
				<port id="3" precision="FP32" names="477">
					<dim>1</dim>
					<dim>58</dim>
					<dim>40</dim>
					<dim>40</dim>
				</port>
				<port id="4" precision="FP32" names="478">
					<dim>1</dim>
					<dim>58</dim>
					<dim>40</dim>
					<dim>40</dim>
				</port>
			</output>
		</layer>
		<layer id="111" name="Multiply_57022_compressed" type="Const" version="opset1">
			<data element_type="f16" shape="58, 58, 1, 1" offset="36978" size="6728"/>
			<output>
				<port id="0" precision="FP16">
					<dim>58</dim>
					<dim>58</dim>
					<dim>1</dim>
					<dim>1</dim>
				</port>
			</output>
		</layer>
		<layer id="112" name="Multiply_57022" type="Convert" version="opset1">
			<data destination_type="f32"/>
			<rt_info>
				<attribute name="decompression" version="0"/>
			</rt_info>
			<input>
				<port id="0" precision="FP16">
					<dim>58</dim>
					<dim>58</dim>
					<dim>1</dim>
					<dim>1</dim>
				</port>
			</input>
			<output>
				<port id="1" precision="FP32">
					<dim>58</dim>
					<dim>58</dim>
					<dim>1</dim>
					<dim>1</dim>
				</port>
			</output>
		</layer>
		<layer id="113" name="Multiply_56589" type="Convolution" version="opset1">
			<data strides="1, 1" dilations="1, 1" pads_begin="0, 0" pads_end="0, 0" auto_pad="explicit"/>
			<rt_info>
				<attribute name="fused_names" version="0" value="479, 480, backbone.features.stage1.unit3.compress_bn1.bias, backbone.features.stage1.unit3.compress_bn1.running_mean, backbone.features.stage1.unit3.compress_bn1.running_var, backbone.features.stage1.unit3.compress_bn1.weight"/>
			</rt_info>
			<input>
				<port id="0" precision="FP32">
					<dim>1</dim>
					<dim>58</dim>
					<dim>40</dim>
					<dim>40</dim>
				</port>
				<port id="1" precision="FP32">
					<dim>58</dim>
					<dim>58</dim>
					<dim>1</dim>
					<dim>1</dim>
				</port>
			</input>
			<output>
				<port id="2" precision="FP32">
					<dim>1</dim>
					<dim>58</dim>
					<dim>40</dim>
					<dim>40</dim>
				</port>
			</output>
		</layer>
		<layer id="114" name="Constant_56594_compressed" type="Const" version="opset1">
			<data element_type="f16" shape="1, 58, 1, 1" offset="43706" size="116"/>
			<output>
				<port id="0" precision="FP16">
					<dim>1</dim>
					<dim>58</dim>
					<dim>1</dim>
					<dim>1</dim>
				</port>
			</output>
		</layer>
		<layer id="115" name="Constant_56594" type="Convert" version="opset1">
			<data destination_type="f32"/>
			<rt_info>
				<attribute name="decompression" version="0"/>
			</rt_info>
			<input>
				<port id="0" precision="FP16">
					<dim>1</dim>
					<dim>58</dim>
					<dim>1</dim>
					<dim>1</dim>
				</port>
			</input>
			<output>
				<port id="1" precision="FP32">
					<dim>1</dim>
					<dim>58</dim>
					<dim>1</dim>
					<dim>1</dim>
				</port>
			</output>
		</layer>
		<layer id="116" name="480" type="Add" version="opset1">
			<data auto_broadcast="numpy"/>
			<rt_info>
				<attribute name="fused_names" version="0" value="480, backbone.features.stage1.unit3.compress_bn1.bias, backbone.features.stage1.unit3.compress_bn1.running_mean, backbone.features.stage1.unit3.compress_bn1.running_var, backbone.features.stage1.unit3.compress_bn1.weight"/>
			</rt_info>
			<input>
				<port id="0" precision="FP32">
					<dim>1</dim>
					<dim>58</dim>
					<dim>40</dim>
					<dim>40</dim>
				</port>
				<port id="1" precision="FP32">
					<dim>1</dim>
					<dim>58</dim>
					<dim>1</dim>
					<dim>1</dim>
				</port>
			</input>
			<output>
				<port id="2" precision="FP32" names="480">
					<dim>1</dim>
					<dim>58</dim>
					<dim>40</dim>
					<dim>40</dim>
				</port>
			</output>
		</layer>
		<layer id="117" name="481" type="ReLU" version="opset1">
			<rt_info>
				<attribute name="fused_names" version="0" value="481"/>
			</rt_info>
			<input>
				<port id="0" precision="FP32">
					<dim>1</dim>
					<dim>58</dim>
					<dim>40</dim>
					<dim>40</dim>
				</port>
			</input>
			<output>
				<port id="1" precision="FP32" names="481">
					<dim>1</dim>
					<dim>58</dim>
					<dim>40</dim>
					<dim>40</dim>
				</port>
			</output>
		</layer>
		<layer id="118" name="Multiply_57031_compressed" type="Const" version="opset1">
			<data element_type="f16" shape="58, 1, 1, 3, 3" offset="43822" size="1044"/>
			<output>
				<port id="0" precision="FP16">
					<dim>58</dim>
					<dim>1</dim>
					<dim>1</dim>
					<dim>3</dim>
					<dim>3</dim>
				</port>
			</output>
		</layer>
		<layer id="119" name="Multiply_57031" type="Convert" version="opset1">
			<data destination_type="f32"/>
			<rt_info>
				<attribute name="decompression" version="0"/>
			</rt_info>
			<input>
				<port id="0" precision="FP16">
					<dim>58</dim>
					<dim>1</dim>
					<dim>1</dim>
					<dim>3</dim>
					<dim>3</dim>
				</port>
			</input>
			<output>
				<port id="1" precision="FP32">
					<dim>58</dim>
					<dim>1</dim>
					<dim>1</dim>
					<dim>3</dim>
					<dim>3</dim>
				</port>
			</output>
		</layer>
		<layer id="120" name="Multiply_56596" type="GroupConvolution" version="opset1">
			<data strides="1, 1" pads_begin="1, 1" pads_end="1, 1" dilations="1, 1" auto_pad="explicit"/>
			<rt_info>
				<attribute name="fused_names" version="0" value="483, backbone.features.stage1.unit3.dw_bn2.bias, backbone.features.stage1.unit3.dw_bn2.running_mean, backbone.features.stage1.unit3.dw_bn2.running_var, backbone.features.stage1.unit3.dw_bn2.weight"/>
			</rt_info>
			<input>
				<port id="0" precision="FP32">
					<dim>1</dim>
					<dim>58</dim>
					<dim>40</dim>
					<dim>40</dim>
				</port>
				<port id="1" precision="FP32">
					<dim>58</dim>
					<dim>1</dim>
					<dim>1</dim>
					<dim>3</dim>
					<dim>3</dim>
				</port>
			</input>
			<output>
				<port id="2" precision="FP32" names="482">
					<dim>1</dim>
					<dim>58</dim>
					<dim>40</dim>
					<dim>40</dim>
				</port>
			</output>
		</layer>
		<layer id="121" name="Constant_56601_compressed" type="Const" version="opset1">
			<data element_type="f16" shape="1, 58, 1, 1" offset="44866" size="116"/>
			<output>
				<port id="0" precision="FP16">
					<dim>1</dim>
					<dim>58</dim>
					<dim>1</dim>
					<dim>1</dim>
				</port>
			</output>
		</layer>
		<layer id="122" name="Constant_56601" type="Convert" version="opset1">
			<data destination_type="f32"/>
			<rt_info>
				<attribute name="decompression" version="0"/>
			</rt_info>
			<input>
				<port id="0" precision="FP16">
					<dim>1</dim>
					<dim>58</dim>
					<dim>1</dim>
					<dim>1</dim>
				</port>
			</input>
			<output>
				<port id="1" precision="FP32">
					<dim>1</dim>
					<dim>58</dim>
					<dim>1</dim>
					<dim>1</dim>
				</port>
			</output>
		</layer>
		<layer id="123" name="483" type="Add" version="opset1">
			<data auto_broadcast="numpy"/>
			<rt_info>
				<attribute name="fused_names" version="0" value="483, backbone.features.stage1.unit3.dw_bn2.bias, backbone.features.stage1.unit3.dw_bn2.running_mean, backbone.features.stage1.unit3.dw_bn2.running_var, backbone.features.stage1.unit3.dw_bn2.weight"/>
			</rt_info>
			<input>
				<port id="0" precision="FP32">
					<dim>1</dim>
					<dim>58</dim>
					<dim>40</dim>
					<dim>40</dim>
				</port>
				<port id="1" precision="FP32">
					<dim>1</dim>
					<dim>58</dim>
					<dim>1</dim>
					<dim>1</dim>
				</port>
			</input>
			<output>
				<port id="2" precision="FP32" names="483">
					<dim>1</dim>
					<dim>58</dim>
					<dim>40</dim>
					<dim>40</dim>
				</port>
			</output>
		</layer>
		<layer id="124" name="Multiply_57039_compressed" type="Const" version="opset1">
			<data element_type="f16" shape="58, 58, 1, 1" offset="44982" size="6728"/>
			<output>
				<port id="0" precision="FP16">
					<dim>58</dim>
					<dim>58</dim>
					<dim>1</dim>
					<dim>1</dim>
				</port>
			</output>
		</layer>
		<layer id="125" name="Multiply_57039" type="Convert" version="opset1">
			<data destination_type="f32"/>
			<rt_info>
				<attribute name="decompression" version="0"/>
			</rt_info>
			<input>
				<port id="0" precision="FP16">
					<dim>58</dim>
					<dim>58</dim>
					<dim>1</dim>
					<dim>1</dim>
				</port>
			</input>
			<output>
				<port id="1" precision="FP32">
					<dim>58</dim>
					<dim>58</dim>
					<dim>1</dim>
					<dim>1</dim>
				</port>
			</output>
		</layer>
		<layer id="126" name="Multiply_56603" type="Convolution" version="opset1">
			<data strides="1, 1" dilations="1, 1" pads_begin="0, 0" pads_end="0, 0" auto_pad="explicit"/>
			<rt_info>
				<attribute name="fused_names" version="0" value="484, 485, backbone.features.stage1.unit3.expand_bn3.bias, backbone.features.stage1.unit3.expand_bn3.running_mean, backbone.features.stage1.unit3.expand_bn3.running_var, backbone.features.stage1.unit3.expand_bn3.weight"/>
			</rt_info>
			<input>
				<port id="0" precision="FP32">
					<dim>1</dim>
					<dim>58</dim>
					<dim>40</dim>
					<dim>40</dim>
				</port>
				<port id="1" precision="FP32">
					<dim>58</dim>
					<dim>58</dim>
					<dim>1</dim>
					<dim>1</dim>
				</port>
			</input>
			<output>
				<port id="2" precision="FP32">
					<dim>1</dim>
					<dim>58</dim>
					<dim>40</dim>
					<dim>40</dim>
				</port>
			</output>
		</layer>
		<layer id="127" name="Constant_56608_compressed" type="Const" version="opset1">
			<data element_type="f16" shape="1, 58, 1, 1" offset="51710" size="116"/>
			<output>
				<port id="0" precision="FP16">
					<dim>1</dim>
					<dim>58</dim>
					<dim>1</dim>
					<dim>1</dim>
				</port>
			</output>
		</layer>
		<layer id="128" name="Constant_56608" type="Convert" version="opset1">
			<data destination_type="f32"/>
			<rt_info>
				<attribute name="decompression" version="0"/>
			</rt_info>
			<input>
				<port id="0" precision="FP16">
					<dim>1</dim>
					<dim>58</dim>
					<dim>1</dim>
					<dim>1</dim>
				</port>
			</input>
			<output>
				<port id="1" precision="FP32">
					<dim>1</dim>
					<dim>58</dim>
					<dim>1</dim>
					<dim>1</dim>
				</port>
			</output>
		</layer>
		<layer id="129" name="485" type="Add" version="opset1">
			<data auto_broadcast="numpy"/>
			<rt_info>
				<attribute name="fused_names" version="0" value="485, backbone.features.stage1.unit3.expand_bn3.bias, backbone.features.stage1.unit3.expand_bn3.running_mean, backbone.features.stage1.unit3.expand_bn3.running_var, backbone.features.stage1.unit3.expand_bn3.weight"/>
			</rt_info>
			<input>
				<port id="0" precision="FP32">
					<dim>1</dim>
					<dim>58</dim>
					<dim>40</dim>
					<dim>40</dim>
				</port>
				<port id="1" precision="FP32">
					<dim>1</dim>
					<dim>58</dim>
					<dim>1</dim>
					<dim>1</dim>
				</port>
			</input>
			<output>
				<port id="2" precision="FP32" names="485">
					<dim>1</dim>
					<dim>58</dim>
					<dim>40</dim>
					<dim>40</dim>
				</port>
			</output>
		</layer>
		<layer id="130" name="486" type="ReLU" version="opset1">
			<rt_info>
				<attribute name="fused_names" version="0" value="486"/>
			</rt_info>
			<input>
				<port id="0" precision="FP32">
					<dim>1</dim>
					<dim>58</dim>
					<dim>40</dim>
					<dim>40</dim>
				</port>
			</input>
			<output>
				<port id="1" precision="FP32" names="486">
					<dim>1</dim>
					<dim>58</dim>
					<dim>40</dim>
					<dim>40</dim>
				</port>
			</output>
		</layer>
		<layer id="131" name="487" type="Concat" version="opset1">
			<data axis="1"/>
			<rt_info>
				<attribute name="fused_names" version="0" value="487"/>
			</rt_info>
			<input>
				<port id="0" precision="FP32">
					<dim>1</dim>
					<dim>58</dim>
					<dim>40</dim>
					<dim>40</dim>
				</port>
				<port id="1" precision="FP32">
					<dim>1</dim>
					<dim>58</dim>
					<dim>40</dim>
					<dim>40</dim>
				</port>
			</input>
			<output>
				<port id="2" precision="FP32" names="487">
					<dim>1</dim>
					<dim>116</dim>
					<dim>40</dim>
					<dim>40</dim>
				</port>
			</output>
		</layer>
		<layer id="132" name="Constant_42249" type="Const" version="opset1">
			<data element_type="i64" shape="1" offset="22034" size="8"/>
			<output>
				<port id="0" precision="I64">
					<dim>1</dim>
				</port>
			</output>
		</layer>
		<layer id="133" name="504" type="Const" version="opset1">
			<data element_type="i64" shape="1" offset="22042" size="8"/>
			<output>
				<port id="0" precision="I64" names="504">
					<dim>1</dim>
				</port>
			</output>
		</layer>
		<layer id="134" name="489" type="ShapeOf" version="opset3">
			<data output_type="i64"/>
			<rt_info>
				<attribute name="fused_names" version="0" value="489, 492, 495, 498, 515"/>
			</rt_info>
			<input>
				<port id="0" precision="FP32">
					<dim>1</dim>
					<dim>116</dim>
					<dim>40</dim>
					<dim>40</dim>
				</port>
			</input>
			<output>
				<port id="1" precision="I64" names="489,492,495,498,515">
					<dim>4</dim>
				</port>
			</output>
		</layer>
		<layer id="135" name="491" type="Const" version="opset1">
			<data element_type="i64" shape="" offset="22050" size="8"/>
			<rt_info>
				<attribute name="fused_names" version="0" value="491"/>
			</rt_info>
			<output>
				<port id="0" precision="I64" names="491"/>
			</output>
		</layer>
		<layer id="136" name="Constant_1137" type="Const" version="opset1">
			<data element_type="i64" shape="" offset="22034" size="8"/>
			<rt_info>
				<attribute name="fused_names" version="0" value="Constant_1137"/>
			</rt_info>
			<output>
				<port id="0" precision="I64"/>
			</output>
		</layer>
		<layer id="137" name="493" type="Gather" version="opset8">
			<data batch_dims="0"/>
			<rt_info>
				<attribute name="fused_names" version="0" value="491, 493, Constant_1137"/>
			</rt_info>
			<input>
				<port id="0" precision="I64">
					<dim>4</dim>
				</port>
				<port id="1" precision="I64"/>
				<port id="2" precision="I64"/>
			</input>
			<output>
				<port id="3" precision="I64" names="493"/>
			</output>
		</layer>
		<layer id="138" name="500" type="Const" version="opset1">
			<data element_type="i64" shape="" offset="22042" size="8"/>
			<rt_info>
				<attribute name="fused_names" version="0" value="500"/>
			</rt_info>
			<output>
				<port id="0" precision="I64" names="500"/>
			</output>
		</layer>
		<layer id="139" name="501" type="Divide" version="opset1">
			<data auto_broadcast="numpy" m_pythondiv="true"/>
			<rt_info>
				<attribute name="fused_names" version="0" value="500, 501"/>
			</rt_info>
			<input>
				<port id="0" precision="I64"/>
				<port id="1" precision="I64"/>
			</input>
			<output>
				<port id="2" precision="I64" names="501"/>
			</output>
		</layer>
		<layer id="140" name="Constant_1154" type="Const" version="opset1">
			<data element_type="i64" shape="1" offset="22034" size="8"/>
			<rt_info>
				<attribute name="fused_names" version="0" value="Constant_1154"/>
			</rt_info>
			<output>
				<port id="0" precision="I64">
					<dim>1</dim>
				</port>
			</output>
		</layer>
		<layer id="141" name="505" type="Unsqueeze" version="opset1">
			<rt_info>
				<attribute name="fused_names" version="0" value="505, Constant_1154"/>
			</rt_info>
			<input>
				<port id="0" precision="I64"/>
				<port id="1" precision="I64">
					<dim>1</dim>
				</port>
			</input>
			<output>
				<port id="2" precision="I64" names="505">
					<dim>1</dim>
				</port>
			</output>
		</layer>
		<layer id="142" name="Constant_37943" type="Const" version="opset1">
			<data element_type="i64" shape="2" offset="22058" size="16"/>
			<rt_info>
				<attribute name="fused_names" version="0" value="504, 508"/>
			</rt_info>
			<output>
				<port id="0" precision="I64">
					<dim>2</dim>
				</port>
			</output>
		</layer>
		<layer id="143" name="Constant_37944" type="Const" version="opset1">
			<data element_type="i64" shape="" offset="22034" size="8"/>
			<output>
				<port id="0" precision="I64"/>
			</output>
		</layer>
		<layer id="144" name="Gather_37945" type="Gather" version="opset8">
			<data batch_dims="0"/>
			<rt_info>
				<attribute name="fused_names" version="0" value="504, 508"/>
			</rt_info>
			<input>
				<port id="0" precision="I64">
					<dim>4</dim>
				</port>
				<port id="1" precision="I64">
					<dim>2</dim>
				</port>
				<port id="2" precision="I64"/>
			</input>
			<output>
				<port id="3" precision="I64">
					<dim>2</dim>
				</port>
			</output>
		</layer>
		<layer id="145" name="508" type="Concat" version="opset1">
			<data axis="0"/>
			<rt_info>
				<attribute name="fused_names" version="0" value="504, 508"/>
			</rt_info>
			<input>
				<port id="0" precision="I64">
					<dim>1</dim>
				</port>
				<port id="1" precision="I64">
					<dim>1</dim>
				</port>
				<port id="2" precision="I64">
					<dim>1</dim>
				</port>
				<port id="3" precision="I64">
					<dim>2</dim>
				</port>
			</input>
			<output>
				<port id="4" precision="I64">
					<dim>5</dim>
				</port>
			</output>
		</layer>
		<layer id="146" name="509" type="Reshape" version="opset1">
			<data special_zero="true"/>
			<rt_info>
				<attribute name="fused_names" version="0" value="509"/>
			</rt_info>
			<input>
				<port id="0" precision="FP32">
					<dim>1</dim>
					<dim>116</dim>
					<dim>40</dim>
					<dim>40</dim>
				</port>
				<port id="1" precision="I64">
					<dim>5</dim>
				</port>
			</input>
			<output>
				<port id="2" precision="FP32" names="509">
					<dim>1</dim>
					<dim>2</dim>
					<dim>58</dim>
					<dim>40</dim>
					<dim>40</dim>
				</port>
			</output>
		</layer>
		<layer id="147" name="Constant_1271" type="Const" version="opset1">
			<data element_type="i64" shape="5" offset="22074" size="40"/>
			<rt_info>
				<attribute name="fused_names" version="0" value="Constant_1271"/>
			</rt_info>
			<output>
				<port id="0" precision="I64">
					<dim>5</dim>
				</port>
			</output>
		</layer>
		<layer id="148" name="510" type="Transpose" version="opset1">
			<rt_info>
				<attribute name="fused_names" version="0" value="510"/>
			</rt_info>
			<input>
				<port id="0" precision="FP32">
					<dim>1</dim>
					<dim>2</dim>
					<dim>58</dim>
					<dim>40</dim>
					<dim>40</dim>
				</port>
				<port id="1" precision="I64">
					<dim>5</dim>
				</port>
			</input>
			<output>
				<port id="2" precision="FP32" names="510">
					<dim>1</dim>
					<dim>58</dim>
					<dim>2</dim>
					<dim>40</dim>
					<dim>40</dim>
				</port>
			</output>
		</layer>
		<layer id="149" name="516" type="Reshape" version="opset1">
			<data special_zero="true"/>
			<rt_info>
				<attribute name="fused_names" version="0" value="516"/>
			</rt_info>
			<input>
				<port id="0" precision="FP32">
					<dim>1</dim>
					<dim>58</dim>
					<dim>2</dim>
					<dim>40</dim>
					<dim>40</dim>
				</port>
				<port id="1" precision="I64">
					<dim>4</dim>
				</port>
			</input>
			<output>
				<port id="2" precision="FP32" names="516">
					<dim>1</dim>
					<dim>116</dim>
					<dim>40</dim>
					<dim>40</dim>
				</port>
			</output>
		</layer>
		<layer id="150" name="Constant_1360" type="Const" version="opset1">
			<data element_type="i64" shape="" offset="22050" size="8"/>
			<rt_info>
				<attribute name="fused_names" version="0" value="Constant_1360"/>
			</rt_info>
			<output>
				<port id="0" precision="I64"/>
			</output>
		</layer>
		<layer id="151" name="Constant_1361" type="Const" version="opset1">
			<data element_type="i64" shape="2" offset="22114" size="16"/>
			<rt_info>
				<attribute name="fused_names" version="0" value="Constant_1361"/>
			</rt_info>
			<output>
				<port id="0" precision="I64">
					<dim>2</dim>
				</port>
			</output>
		</layer>
		<layer id="152" name="518" type="VariadicSplit" version="opset1">
			<rt_info>
				<attribute name="fused_names" version="0" value="518"/>
			</rt_info>
			<input>
				<port id="0" precision="FP32">
					<dim>1</dim>
					<dim>116</dim>
					<dim>40</dim>
					<dim>40</dim>
				</port>
				<port id="1" precision="I64"/>
				<port id="2" precision="I64">
					<dim>2</dim>
				</port>
			</input>
			<output>
				<port id="3" precision="FP32" names="517">
					<dim>1</dim>
					<dim>58</dim>
					<dim>40</dim>
					<dim>40</dim>
				</port>
				<port id="4" precision="FP32" names="518">
					<dim>1</dim>
					<dim>58</dim>
					<dim>40</dim>
					<dim>40</dim>
				</port>
			</output>
		</layer>
		<layer id="153" name="Multiply_57048_compressed" type="Const" version="opset1">
			<data element_type="f16" shape="58, 58, 1, 1" offset="51826" size="6728"/>
			<output>
				<port id="0" precision="FP16">
					<dim>58</dim>
					<dim>58</dim>
					<dim>1</dim>
					<dim>1</dim>
				</port>
			</output>
		</layer>
		<layer id="154" name="Multiply_57048" type="Convert" version="opset1">
			<data destination_type="f32"/>
			<rt_info>
				<attribute name="decompression" version="0"/>
			</rt_info>
			<input>
				<port id="0" precision="FP16">
					<dim>58</dim>
					<dim>58</dim>
					<dim>1</dim>
					<dim>1</dim>
				</port>
			</input>
			<output>
				<port id="1" precision="FP32">
					<dim>58</dim>
					<dim>58</dim>
					<dim>1</dim>
					<dim>1</dim>
				</port>
			</output>
		</layer>
		<layer id="155" name="Multiply_56610" type="Convolution" version="opset1">
			<data strides="1, 1" dilations="1, 1" pads_begin="0, 0" pads_end="0, 0" auto_pad="explicit"/>
			<rt_info>
				<attribute name="fused_names" version="0" value="519, 520, backbone.features.stage1.unit4.compress_bn1.bias, backbone.features.stage1.unit4.compress_bn1.running_mean, backbone.features.stage1.unit4.compress_bn1.running_var, backbone.features.stage1.unit4.compress_bn1.weight"/>
			</rt_info>
			<input>
				<port id="0" precision="FP32">
					<dim>1</dim>
					<dim>58</dim>
					<dim>40</dim>
					<dim>40</dim>
				</port>
				<port id="1" precision="FP32">
					<dim>58</dim>
					<dim>58</dim>
					<dim>1</dim>
					<dim>1</dim>
				</port>
			</input>
			<output>
				<port id="2" precision="FP32">
					<dim>1</dim>
					<dim>58</dim>
					<dim>40</dim>
					<dim>40</dim>
				</port>
			</output>
		</layer>
		<layer id="156" name="Constant_56615_compressed" type="Const" version="opset1">
			<data element_type="f16" shape="1, 58, 1, 1" offset="58554" size="116"/>
			<output>
				<port id="0" precision="FP16">
					<dim>1</dim>
					<dim>58</dim>
					<dim>1</dim>
					<dim>1</dim>
				</port>
			</output>
		</layer>
		<layer id="157" name="Constant_56615" type="Convert" version="opset1">
			<data destination_type="f32"/>
			<rt_info>
				<attribute name="decompression" version="0"/>
			</rt_info>
			<input>
				<port id="0" precision="FP16">
					<dim>1</dim>
					<dim>58</dim>
					<dim>1</dim>
					<dim>1</dim>
				</port>
			</input>
			<output>
				<port id="1" precision="FP32">
					<dim>1</dim>
					<dim>58</dim>
					<dim>1</dim>
					<dim>1</dim>
				</port>
			</output>
		</layer>
		<layer id="158" name="520" type="Add" version="opset1">
			<data auto_broadcast="numpy"/>
			<rt_info>
				<attribute name="fused_names" version="0" value="520, backbone.features.stage1.unit4.compress_bn1.bias, backbone.features.stage1.unit4.compress_bn1.running_mean, backbone.features.stage1.unit4.compress_bn1.running_var, backbone.features.stage1.unit4.compress_bn1.weight"/>
			</rt_info>
			<input>
				<port id="0" precision="FP32">
					<dim>1</dim>
					<dim>58</dim>
					<dim>40</dim>
					<dim>40</dim>
				</port>
				<port id="1" precision="FP32">
					<dim>1</dim>
					<dim>58</dim>
					<dim>1</dim>
					<dim>1</dim>
				</port>
			</input>
			<output>
				<port id="2" precision="FP32" names="520">
					<dim>1</dim>
					<dim>58</dim>
					<dim>40</dim>
					<dim>40</dim>
				</port>
			</output>
		</layer>
		<layer id="159" name="521" type="ReLU" version="opset1">
			<rt_info>
				<attribute name="fused_names" version="0" value="521"/>
			</rt_info>
			<input>
				<port id="0" precision="FP32">
					<dim>1</dim>
					<dim>58</dim>
					<dim>40</dim>
					<dim>40</dim>
				</port>
			</input>
			<output>
				<port id="1" precision="FP32" names="521">
					<dim>1</dim>
					<dim>58</dim>
					<dim>40</dim>
					<dim>40</dim>
				</port>
			</output>
		</layer>
		<layer id="160" name="Multiply_57057_compressed" type="Const" version="opset1">
			<data element_type="f16" shape="58, 1, 1, 3, 3" offset="58670" size="1044"/>
			<output>
				<port id="0" precision="FP16">
					<dim>58</dim>
					<dim>1</dim>
					<dim>1</dim>
					<dim>3</dim>
					<dim>3</dim>
				</port>
			</output>
		</layer>
		<layer id="161" name="Multiply_57057" type="Convert" version="opset1">
			<data destination_type="f32"/>
			<rt_info>
				<attribute name="decompression" version="0"/>
			</rt_info>
			<input>
				<port id="0" precision="FP16">
					<dim>58</dim>
					<dim>1</dim>
					<dim>1</dim>
					<dim>3</dim>
					<dim>3</dim>
				</port>
			</input>
			<output>
				<port id="1" precision="FP32">
					<dim>58</dim>
					<dim>1</dim>
					<dim>1</dim>
					<dim>3</dim>
					<dim>3</dim>
				</port>
			</output>
		</layer>
		<layer id="162" name="Multiply_56617" type="GroupConvolution" version="opset1">
			<data strides="1, 1" pads_begin="1, 1" pads_end="1, 1" dilations="1, 1" auto_pad="explicit"/>
			<rt_info>
				<attribute name="fused_names" version="0" value="523, backbone.features.stage1.unit4.dw_bn2.bias, backbone.features.stage1.unit4.dw_bn2.running_mean, backbone.features.stage1.unit4.dw_bn2.running_var, backbone.features.stage1.unit4.dw_bn2.weight"/>
			</rt_info>
			<input>
				<port id="0" precision="FP32">
					<dim>1</dim>
					<dim>58</dim>
					<dim>40</dim>
					<dim>40</dim>
				</port>
				<port id="1" precision="FP32">
					<dim>58</dim>
					<dim>1</dim>
					<dim>1</dim>
					<dim>3</dim>
					<dim>3</dim>
				</port>
			</input>
			<output>
				<port id="2" precision="FP32" names="522">
					<dim>1</dim>
					<dim>58</dim>
					<dim>40</dim>
					<dim>40</dim>
				</port>
			</output>
		</layer>
		<layer id="163" name="Constant_56622_compressed" type="Const" version="opset1">
			<data element_type="f16" shape="1, 58, 1, 1" offset="59714" size="116"/>
			<output>
				<port id="0" precision="FP16">
					<dim>1</dim>
					<dim>58</dim>
					<dim>1</dim>
					<dim>1</dim>
				</port>
			</output>
		</layer>
		<layer id="164" name="Constant_56622" type="Convert" version="opset1">
			<data destination_type="f32"/>
			<rt_info>
				<attribute name="decompression" version="0"/>
			</rt_info>
			<input>
				<port id="0" precision="FP16">
					<dim>1</dim>
					<dim>58</dim>
					<dim>1</dim>
					<dim>1</dim>
				</port>
			</input>
			<output>
				<port id="1" precision="FP32">
					<dim>1</dim>
					<dim>58</dim>
					<dim>1</dim>
					<dim>1</dim>
				</port>
			</output>
		</layer>
		<layer id="165" name="523" type="Add" version="opset1">
			<data auto_broadcast="numpy"/>
			<rt_info>
				<attribute name="fused_names" version="0" value="523, backbone.features.stage1.unit4.dw_bn2.bias, backbone.features.stage1.unit4.dw_bn2.running_mean, backbone.features.stage1.unit4.dw_bn2.running_var, backbone.features.stage1.unit4.dw_bn2.weight"/>
			</rt_info>
			<input>
				<port id="0" precision="FP32">
					<dim>1</dim>
					<dim>58</dim>
					<dim>40</dim>
					<dim>40</dim>
				</port>
				<port id="1" precision="FP32">
					<dim>1</dim>
					<dim>58</dim>
					<dim>1</dim>
					<dim>1</dim>
				</port>
			</input>
			<output>
				<port id="2" precision="FP32" names="523">
					<dim>1</dim>
					<dim>58</dim>
					<dim>40</dim>
					<dim>40</dim>
				</port>
			</output>
		</layer>
		<layer id="166" name="Multiply_57065_compressed" type="Const" version="opset1">
			<data element_type="f16" shape="58, 58, 1, 1" offset="59830" size="6728"/>
			<output>
				<port id="0" precision="FP16">
					<dim>58</dim>
					<dim>58</dim>
					<dim>1</dim>
					<dim>1</dim>
				</port>
			</output>
		</layer>
		<layer id="167" name="Multiply_57065" type="Convert" version="opset1">
			<data destination_type="f32"/>
			<rt_info>
				<attribute name="decompression" version="0"/>
			</rt_info>
			<input>
				<port id="0" precision="FP16">
					<dim>58</dim>
					<dim>58</dim>
					<dim>1</dim>
					<dim>1</dim>
				</port>
			</input>
			<output>
				<port id="1" precision="FP32">
					<dim>58</dim>
					<dim>58</dim>
					<dim>1</dim>
					<dim>1</dim>
				</port>
			</output>
		</layer>
		<layer id="168" name="Multiply_56624" type="Convolution" version="opset1">
			<data strides="1, 1" dilations="1, 1" pads_begin="0, 0" pads_end="0, 0" auto_pad="explicit"/>
			<rt_info>
				<attribute name="fused_names" version="0" value="524, 525, backbone.features.stage1.unit4.expand_bn3.bias, backbone.features.stage1.unit4.expand_bn3.running_mean, backbone.features.stage1.unit4.expand_bn3.running_var, backbone.features.stage1.unit4.expand_bn3.weight"/>
			</rt_info>
			<input>
				<port id="0" precision="FP32">
					<dim>1</dim>
					<dim>58</dim>
					<dim>40</dim>
					<dim>40</dim>
				</port>
				<port id="1" precision="FP32">
					<dim>58</dim>
					<dim>58</dim>
					<dim>1</dim>
					<dim>1</dim>
				</port>
			</input>
			<output>
				<port id="2" precision="FP32">
					<dim>1</dim>
					<dim>58</dim>
					<dim>40</dim>
					<dim>40</dim>
				</port>
			</output>
		</layer>
		<layer id="169" name="Constant_56629_compressed" type="Const" version="opset1">
			<data element_type="f16" shape="1, 58, 1, 1" offset="66558" size="116"/>
			<output>
				<port id="0" precision="FP16">
					<dim>1</dim>
					<dim>58</dim>
					<dim>1</dim>
					<dim>1</dim>
				</port>
			</output>
		</layer>
		<layer id="170" name="Constant_56629" type="Convert" version="opset1">
			<data destination_type="f32"/>
			<rt_info>
				<attribute name="decompression" version="0"/>
			</rt_info>
			<input>
				<port id="0" precision="FP16">
					<dim>1</dim>
					<dim>58</dim>
					<dim>1</dim>
					<dim>1</dim>
				</port>
			</input>
			<output>
				<port id="1" precision="FP32">
					<dim>1</dim>
					<dim>58</dim>
					<dim>1</dim>
					<dim>1</dim>
				</port>
			</output>
		</layer>
		<layer id="171" name="525" type="Add" version="opset1">
			<data auto_broadcast="numpy"/>
			<rt_info>
				<attribute name="fused_names" version="0" value="525, backbone.features.stage1.unit4.expand_bn3.bias, backbone.features.stage1.unit4.expand_bn3.running_mean, backbone.features.stage1.unit4.expand_bn3.running_var, backbone.features.stage1.unit4.expand_bn3.weight"/>
			</rt_info>
			<input>
				<port id="0" precision="FP32">
					<dim>1</dim>
					<dim>58</dim>
					<dim>40</dim>
					<dim>40</dim>
				</port>
				<port id="1" precision="FP32">
					<dim>1</dim>
					<dim>58</dim>
					<dim>1</dim>
					<dim>1</dim>
				</port>
			</input>
			<output>
				<port id="2" precision="FP32" names="525">
					<dim>1</dim>
					<dim>58</dim>
					<dim>40</dim>
					<dim>40</dim>
				</port>
			</output>
		</layer>
		<layer id="172" name="526" type="ReLU" version="opset1">
			<rt_info>
				<attribute name="fused_names" version="0" value="526"/>
			</rt_info>
			<input>
				<port id="0" precision="FP32">
					<dim>1</dim>
					<dim>58</dim>
					<dim>40</dim>
					<dim>40</dim>
				</port>
			</input>
			<output>
				<port id="1" precision="FP32" names="526">
					<dim>1</dim>
					<dim>58</dim>
					<dim>40</dim>
					<dim>40</dim>
				</port>
			</output>
		</layer>
		<layer id="173" name="527" type="Concat" version="opset1">
			<data axis="1"/>
			<rt_info>
				<attribute name="fused_names" version="0" value="527"/>
			</rt_info>
			<input>
				<port id="0" precision="FP32">
					<dim>1</dim>
					<dim>58</dim>
					<dim>40</dim>
					<dim>40</dim>
				</port>
				<port id="1" precision="FP32">
					<dim>1</dim>
					<dim>58</dim>
					<dim>40</dim>
					<dim>40</dim>
				</port>
			</input>
			<output>
				<port id="2" precision="FP32" names="527">
					<dim>1</dim>
					<dim>116</dim>
					<dim>40</dim>
					<dim>40</dim>
				</port>
			</output>
		</layer>
		<layer id="174" name="Constant_42351" type="Const" version="opset1">
			<data element_type="i64" shape="1" offset="22034" size="8"/>
			<output>
				<port id="0" precision="I64">
					<dim>1</dim>
				</port>
			</output>
		</layer>
		<layer id="175" name="544" type="Const" version="opset1">
			<data element_type="i64" shape="1" offset="22042" size="8"/>
			<output>
				<port id="0" precision="I64" names="544">
					<dim>1</dim>
				</port>
			</output>
		</layer>
		<layer id="176" name="529" type="ShapeOf" version="opset3">
			<data output_type="i64"/>
			<rt_info>
				<attribute name="fused_names" version="0" value="529, 532, 535, 538, 555"/>
			</rt_info>
			<input>
				<port id="0" precision="FP32">
					<dim>1</dim>
					<dim>116</dim>
					<dim>40</dim>
					<dim>40</dim>
				</port>
			</input>
			<output>
				<port id="1" precision="I64" names="529,532,535,538,555">
					<dim>4</dim>
				</port>
			</output>
		</layer>
		<layer id="177" name="531" type="Const" version="opset1">
			<data element_type="i64" shape="" offset="22050" size="8"/>
			<rt_info>
				<attribute name="fused_names" version="0" value="531"/>
			</rt_info>
			<output>
				<port id="0" precision="I64" names="531"/>
			</output>
		</layer>
		<layer id="178" name="Constant_1454" type="Const" version="opset1">
			<data element_type="i64" shape="" offset="22034" size="8"/>
			<rt_info>
				<attribute name="fused_names" version="0" value="Constant_1454"/>
			</rt_info>
			<output>
				<port id="0" precision="I64"/>
			</output>
		</layer>
		<layer id="179" name="533" type="Gather" version="opset8">
			<data batch_dims="0"/>
			<rt_info>
				<attribute name="fused_names" version="0" value="531, 533, Constant_1454"/>
			</rt_info>
			<input>
				<port id="0" precision="I64">
					<dim>4</dim>
				</port>
				<port id="1" precision="I64"/>
				<port id="2" precision="I64"/>
			</input>
			<output>
				<port id="3" precision="I64" names="533"/>
			</output>
		</layer>
		<layer id="180" name="540" type="Const" version="opset1">
			<data element_type="i64" shape="" offset="22042" size="8"/>
			<rt_info>
				<attribute name="fused_names" version="0" value="540"/>
			</rt_info>
			<output>
				<port id="0" precision="I64" names="540"/>
			</output>
		</layer>
		<layer id="181" name="541" type="Divide" version="opset1">
			<data auto_broadcast="numpy" m_pythondiv="true"/>
			<rt_info>
				<attribute name="fused_names" version="0" value="540, 541"/>
			</rt_info>
			<input>
				<port id="0" precision="I64"/>
				<port id="1" precision="I64"/>
			</input>
			<output>
				<port id="2" precision="I64" names="541"/>
			</output>
		</layer>
		<layer id="182" name="Constant_1471" type="Const" version="opset1">
			<data element_type="i64" shape="1" offset="22034" size="8"/>
			<rt_info>
				<attribute name="fused_names" version="0" value="Constant_1471"/>
			</rt_info>
			<output>
				<port id="0" precision="I64">
					<dim>1</dim>
				</port>
			</output>
		</layer>
		<layer id="183" name="545" type="Unsqueeze" version="opset1">
			<rt_info>
				<attribute name="fused_names" version="0" value="545, Constant_1471"/>
			</rt_info>
			<input>
				<port id="0" precision="I64"/>
				<port id="1" precision="I64">
					<dim>1</dim>
				</port>
			</input>
			<output>
				<port id="2" precision="I64" names="545">
					<dim>1</dim>
				</port>
			</output>
		</layer>
		<layer id="184" name="Constant_37960" type="Const" version="opset1">
			<data element_type="i64" shape="2" offset="22058" size="16"/>
			<rt_info>
				<attribute name="fused_names" version="0" value="544, 548"/>
			</rt_info>
			<output>
				<port id="0" precision="I64">
					<dim>2</dim>
				</port>
			</output>
		</layer>
		<layer id="185" name="Constant_37961" type="Const" version="opset1">
			<data element_type="i64" shape="" offset="22034" size="8"/>
			<output>
				<port id="0" precision="I64"/>
			</output>
		</layer>
		<layer id="186" name="Gather_37962" type="Gather" version="opset8">
			<data batch_dims="0"/>
			<rt_info>
				<attribute name="fused_names" version="0" value="544, 548"/>
			</rt_info>
			<input>
				<port id="0" precision="I64">
					<dim>4</dim>
				</port>
				<port id="1" precision="I64">
					<dim>2</dim>
				</port>
				<port id="2" precision="I64"/>
			</input>
			<output>
				<port id="3" precision="I64">
					<dim>2</dim>
				</port>
			</output>
		</layer>
		<layer id="187" name="548" type="Concat" version="opset1">
			<data axis="0"/>
			<rt_info>
				<attribute name="fused_names" version="0" value="544, 548"/>
			</rt_info>
			<input>
				<port id="0" precision="I64">
					<dim>1</dim>
				</port>
				<port id="1" precision="I64">
					<dim>1</dim>
				</port>
				<port id="2" precision="I64">
					<dim>1</dim>
				</port>
				<port id="3" precision="I64">
					<dim>2</dim>
				</port>
			</input>
			<output>
				<port id="4" precision="I64">
					<dim>5</dim>
				</port>
			</output>
		</layer>
		<layer id="188" name="549" type="Reshape" version="opset1">
			<data special_zero="true"/>
			<rt_info>
				<attribute name="fused_names" version="0" value="549"/>
			</rt_info>
			<input>
				<port id="0" precision="FP32">
					<dim>1</dim>
					<dim>116</dim>
					<dim>40</dim>
					<dim>40</dim>
				</port>
				<port id="1" precision="I64">
					<dim>5</dim>
				</port>
			</input>
			<output>
				<port id="2" precision="FP32" names="549">
					<dim>1</dim>
					<dim>2</dim>
					<dim>58</dim>
					<dim>40</dim>
					<dim>40</dim>
				</port>
			</output>
		</layer>
		<layer id="189" name="Constant_1588" type="Const" version="opset1">
			<data element_type="i64" shape="5" offset="22074" size="40"/>
			<rt_info>
				<attribute name="fused_names" version="0" value="Constant_1588"/>
			</rt_info>
			<output>
				<port id="0" precision="I64">
					<dim>5</dim>
				</port>
			</output>
		</layer>
		<layer id="190" name="550" type="Transpose" version="opset1">
			<rt_info>
				<attribute name="fused_names" version="0" value="550"/>
			</rt_info>
			<input>
				<port id="0" precision="FP32">
					<dim>1</dim>
					<dim>2</dim>
					<dim>58</dim>
					<dim>40</dim>
					<dim>40</dim>
				</port>
				<port id="1" precision="I64">
					<dim>5</dim>
				</port>
			</input>
			<output>
				<port id="2" precision="FP32" names="550">
					<dim>1</dim>
					<dim>58</dim>
					<dim>2</dim>
					<dim>40</dim>
					<dim>40</dim>
				</port>
			</output>
		</layer>
		<layer id="191" name="556" type="Reshape" version="opset1">
			<data special_zero="true"/>
			<rt_info>
				<attribute name="fused_names" version="0" value="556"/>
			</rt_info>
			<input>
				<port id="0" precision="FP32">
					<dim>1</dim>
					<dim>58</dim>
					<dim>2</dim>
					<dim>40</dim>
					<dim>40</dim>
				</port>
				<port id="1" precision="I64">
					<dim>4</dim>
				</port>
			</input>
			<output>
				<port id="2" precision="FP32" names="556">
					<dim>1</dim>
					<dim>116</dim>
					<dim>40</dim>
					<dim>40</dim>
				</port>
			</output>
		</layer>
		<layer id="192" name="neck.lateral_convs.0.conv.weight_compressed" type="Const" version="opset1">
			<data element_type="f16" shape="48, 116, 1, 1" offset="66674" size="11136"/>
			<output>
				<port id="0" precision="FP16">
					<dim>48</dim>
					<dim>116</dim>
					<dim>1</dim>
					<dim>1</dim>
				</port>
			</output>
		</layer>
		<layer id="193" name="neck.lateral_convs.0.conv.weight" type="Convert" version="opset1">
			<data destination_type="f32"/>
			<rt_info>
				<attribute name="decompression" version="0"/>
				<attribute name="fused_names" version="0" value="neck.lateral_convs.0.conv.weight"/>
			</rt_info>
			<input>
				<port id="0" precision="FP16">
					<dim>48</dim>
					<dim>116</dim>
					<dim>1</dim>
					<dim>1</dim>
				</port>
			</input>
			<output>
				<port id="1" precision="FP32" names="neck.lateral_convs.0.conv.weight">
					<dim>48</dim>
					<dim>116</dim>
					<dim>1</dim>
					<dim>1</dim>
				</port>
			</output>
		</layer>
		<layer id="194" name="Convolution_5635" type="Convolution" version="opset1">
			<data strides="1, 1" dilations="1, 1" pads_begin="0, 0" pads_end="0, 0" auto_pad="explicit"/>
			<rt_info>
				<attribute name="fused_names" version="0" value="Convolution_5635"/>
			</rt_info>
			<input>
				<port id="0" precision="FP32">
					<dim>1</dim>
					<dim>116</dim>
					<dim>40</dim>
					<dim>40</dim>
				</port>
				<port id="1" precision="FP32">
					<dim>48</dim>
					<dim>116</dim>
					<dim>1</dim>
					<dim>1</dim>
				</port>
			</input>
			<output>
				<port id="2" precision="FP32">
					<dim>1</dim>
					<dim>48</dim>
					<dim>40</dim>
					<dim>40</dim>
				</port>
			</output>
		</layer>
		<layer id="195" name="Reshape_5655_compressed" type="Const" version="opset1">
			<data element_type="f16" shape="1, 48, 1, 1" offset="77810" size="96"/>
			<output>
				<port id="0" precision="FP16">
					<dim>1</dim>
					<dim>48</dim>
					<dim>1</dim>
					<dim>1</dim>
				</port>
			</output>
		</layer>
		<layer id="196" name="Reshape_5655" type="Convert" version="opset1">
			<data destination_type="f32"/>
			<rt_info>
				<attribute name="decompression" version="0"/>
			</rt_info>
			<input>
				<port id="0" precision="FP16">
					<dim>1</dim>
					<dim>48</dim>
					<dim>1</dim>
					<dim>1</dim>
				</port>
			</input>
			<output>
				<port id="1" precision="FP32">
					<dim>1</dim>
					<dim>48</dim>
					<dim>1</dim>
					<dim>1</dim>
				</port>
			</output>
		</layer>
		<layer id="197" name="1043" type="Add" version="opset1">
			<data auto_broadcast="numpy"/>
			<rt_info>
				<attribute name="fused_names" version="0" value="1043, Concat_5654, Reshape_5655"/>
			</rt_info>
			<input>
				<port id="0" precision="FP32">
					<dim>1</dim>
					<dim>48</dim>
					<dim>40</dim>
					<dim>40</dim>
				</port>
				<port id="1" precision="FP32">
					<dim>1</dim>
					<dim>48</dim>
					<dim>1</dim>
					<dim>1</dim>
				</port>
			</input>
			<output>
				<port id="2" precision="FP32" names="1043">
					<dim>1</dim>
					<dim>48</dim>
					<dim>40</dim>
					<dim>40</dim>
				</port>
			</output>
		</layer>
		<layer id="198" name="Multiply_57074_compressed" type="Const" version="opset1">
			<data element_type="f16" shape="116, 1, 1, 3, 3" offset="77906" size="2088"/>
			<output>
				<port id="0" precision="FP16">
					<dim>116</dim>
					<dim>1</dim>
					<dim>1</dim>
					<dim>3</dim>
					<dim>3</dim>
				</port>
			</output>
		</layer>
		<layer id="199" name="Multiply_57074" type="Convert" version="opset1">
			<data destination_type="f32"/>
			<rt_info>
				<attribute name="decompression" version="0"/>
			</rt_info>
			<input>
				<port id="0" precision="FP16">
					<dim>116</dim>
					<dim>1</dim>
					<dim>1</dim>
					<dim>3</dim>
					<dim>3</dim>
				</port>
			</input>
			<output>
				<port id="1" precision="FP32">
					<dim>116</dim>
					<dim>1</dim>
					<dim>1</dim>
					<dim>3</dim>
					<dim>3</dim>
				</port>
			</output>
		</layer>
		<layer id="200" name="Multiply_56631" type="GroupConvolution" version="opset1">
			<data strides="2, 2" pads_begin="1, 1" pads_end="1, 1" dilations="1, 1" auto_pad="explicit"/>
			<rt_info>
				<attribute name="fused_names" version="0" value="558, backbone.features.stage2.unit1.dw_bn4.bias, backbone.features.stage2.unit1.dw_bn4.running_mean, backbone.features.stage2.unit1.dw_bn4.running_var, backbone.features.stage2.unit1.dw_bn4.weight"/>
			</rt_info>
			<input>
				<port id="0" precision="FP32">
					<dim>1</dim>
					<dim>116</dim>
					<dim>40</dim>
					<dim>40</dim>
				</port>
				<port id="1" precision="FP32">
					<dim>116</dim>
					<dim>1</dim>
					<dim>1</dim>
					<dim>3</dim>
					<dim>3</dim>
				</port>
			</input>
			<output>
				<port id="2" precision="FP32" names="557">
					<dim>1</dim>
					<dim>116</dim>
					<dim>20</dim>
					<dim>20</dim>
				</port>
			</output>
		</layer>
		<layer id="201" name="Constant_56636_compressed" type="Const" version="opset1">
			<data element_type="f16" shape="1, 116, 1, 1" offset="79994" size="232"/>
			<output>
				<port id="0" precision="FP16">
					<dim>1</dim>
					<dim>116</dim>
					<dim>1</dim>
					<dim>1</dim>
				</port>
			</output>
		</layer>
		<layer id="202" name="Constant_56636" type="Convert" version="opset1">
			<data destination_type="f32"/>
			<rt_info>
				<attribute name="decompression" version="0"/>
			</rt_info>
			<input>
				<port id="0" precision="FP16">
					<dim>1</dim>
					<dim>116</dim>
					<dim>1</dim>
					<dim>1</dim>
				</port>
			</input>
			<output>
				<port id="1" precision="FP32">
					<dim>1</dim>
					<dim>116</dim>
					<dim>1</dim>
					<dim>1</dim>
				</port>
			</output>
		</layer>
		<layer id="203" name="558" type="Add" version="opset1">
			<data auto_broadcast="numpy"/>
			<rt_info>
				<attribute name="fused_names" version="0" value="558, backbone.features.stage2.unit1.dw_bn4.bias, backbone.features.stage2.unit1.dw_bn4.running_mean, backbone.features.stage2.unit1.dw_bn4.running_var, backbone.features.stage2.unit1.dw_bn4.weight"/>
			</rt_info>
			<input>
				<port id="0" precision="FP32">
					<dim>1</dim>
					<dim>116</dim>
					<dim>20</dim>
					<dim>20</dim>
				</port>
				<port id="1" precision="FP32">
					<dim>1</dim>
					<dim>116</dim>
					<dim>1</dim>
					<dim>1</dim>
				</port>
			</input>
			<output>
				<port id="2" precision="FP32" names="558">
					<dim>1</dim>
					<dim>116</dim>
					<dim>20</dim>
					<dim>20</dim>
				</port>
			</output>
		</layer>
		<layer id="204" name="Multiply_57082_compressed" type="Const" version="opset1">
			<data element_type="f16" shape="116, 116, 1, 1" offset="80226" size="26912"/>
			<output>
				<port id="0" precision="FP16">
					<dim>116</dim>
					<dim>116</dim>
					<dim>1</dim>
					<dim>1</dim>
				</port>
			</output>
		</layer>
		<layer id="205" name="Multiply_57082" type="Convert" version="opset1">
			<data destination_type="f32"/>
			<rt_info>
				<attribute name="decompression" version="0"/>
			</rt_info>
			<input>
				<port id="0" precision="FP16">
					<dim>116</dim>
					<dim>116</dim>
					<dim>1</dim>
					<dim>1</dim>
				</port>
			</input>
			<output>
				<port id="1" precision="FP32">
					<dim>116</dim>
					<dim>116</dim>
					<dim>1</dim>
					<dim>1</dim>
				</port>
			</output>
		</layer>
		<layer id="206" name="Multiply_56638" type="Convolution" version="opset1">
			<data strides="1, 1" dilations="1, 1" pads_begin="0, 0" pads_end="0, 0" auto_pad="explicit"/>
			<rt_info>
				<attribute name="fused_names" version="0" value="559, 560, backbone.features.stage2.unit1.expand_bn5.bias, backbone.features.stage2.unit1.expand_bn5.running_mean, backbone.features.stage2.unit1.expand_bn5.running_var, backbone.features.stage2.unit1.expand_bn5.weight"/>
			</rt_info>
			<input>
				<port id="0" precision="FP32">
					<dim>1</dim>
					<dim>116</dim>
					<dim>20</dim>
					<dim>20</dim>
				</port>
				<port id="1" precision="FP32">
					<dim>116</dim>
					<dim>116</dim>
					<dim>1</dim>
					<dim>1</dim>
				</port>
			</input>
			<output>
				<port id="2" precision="FP32">
					<dim>1</dim>
					<dim>116</dim>
					<dim>20</dim>
					<dim>20</dim>
				</port>
			</output>
		</layer>
		<layer id="207" name="Constant_56643_compressed" type="Const" version="opset1">
			<data element_type="f16" shape="1, 116, 1, 1" offset="107138" size="232"/>
			<output>
				<port id="0" precision="FP16">
					<dim>1</dim>
					<dim>116</dim>
					<dim>1</dim>
					<dim>1</dim>
				</port>
			</output>
		</layer>
		<layer id="208" name="Constant_56643" type="Convert" version="opset1">
			<data destination_type="f32"/>
			<rt_info>
				<attribute name="decompression" version="0"/>
			</rt_info>
			<input>
				<port id="0" precision="FP16">
					<dim>1</dim>
					<dim>116</dim>
					<dim>1</dim>
					<dim>1</dim>
				</port>
			</input>
			<output>
				<port id="1" precision="FP32">
					<dim>1</dim>
					<dim>116</dim>
					<dim>1</dim>
					<dim>1</dim>
				</port>
			</output>
		</layer>
		<layer id="209" name="560" type="Add" version="opset1">
			<data auto_broadcast="numpy"/>
			<rt_info>
				<attribute name="fused_names" version="0" value="560, backbone.features.stage2.unit1.expand_bn5.bias, backbone.features.stage2.unit1.expand_bn5.running_mean, backbone.features.stage2.unit1.expand_bn5.running_var, backbone.features.stage2.unit1.expand_bn5.weight"/>
			</rt_info>
			<input>
				<port id="0" precision="FP32">
					<dim>1</dim>
					<dim>116</dim>
					<dim>20</dim>
					<dim>20</dim>
				</port>
				<port id="1" precision="FP32">
					<dim>1</dim>
					<dim>116</dim>
					<dim>1</dim>
					<dim>1</dim>
				</port>
			</input>
			<output>
				<port id="2" precision="FP32" names="560">
					<dim>1</dim>
					<dim>116</dim>
					<dim>20</dim>
					<dim>20</dim>
				</port>
			</output>
		</layer>
		<layer id="210" name="561" type="ReLU" version="opset1">
			<rt_info>
				<attribute name="fused_names" version="0" value="561"/>
			</rt_info>
			<input>
				<port id="0" precision="FP32">
					<dim>1</dim>
					<dim>116</dim>
					<dim>20</dim>
					<dim>20</dim>
				</port>
			</input>
			<output>
				<port id="1" precision="FP32" names="561">
					<dim>1</dim>
					<dim>116</dim>
					<dim>20</dim>
					<dim>20</dim>
				</port>
			</output>
		</layer>
		<layer id="211" name="Multiply_57091_compressed" type="Const" version="opset1">
			<data element_type="f16" shape="116, 116, 1, 1" offset="107370" size="26912"/>
			<output>
				<port id="0" precision="FP16">
					<dim>116</dim>
					<dim>116</dim>
					<dim>1</dim>
					<dim>1</dim>
				</port>
			</output>
		</layer>
		<layer id="212" name="Multiply_57091" type="Convert" version="opset1">
			<data destination_type="f32"/>
			<rt_info>
				<attribute name="decompression" version="0"/>
			</rt_info>
			<input>
				<port id="0" precision="FP16">
					<dim>116</dim>
					<dim>116</dim>
					<dim>1</dim>
					<dim>1</dim>
				</port>
			</input>
			<output>
				<port id="1" precision="FP32">
					<dim>116</dim>
					<dim>116</dim>
					<dim>1</dim>
					<dim>1</dim>
				</port>
			</output>
		</layer>
		<layer id="213" name="Multiply_56645" type="Convolution" version="opset1">
			<data strides="1, 1" dilations="1, 1" pads_begin="0, 0" pads_end="0, 0" auto_pad="explicit"/>
			<rt_info>
				<attribute name="fused_names" version="0" value="562, 563, backbone.features.stage2.unit1.compress_bn1.bias, backbone.features.stage2.unit1.compress_bn1.running_mean, backbone.features.stage2.unit1.compress_bn1.running_var, backbone.features.stage2.unit1.compress_bn1.weight"/>
			</rt_info>
			<input>
				<port id="0" precision="FP32">
					<dim>1</dim>
					<dim>116</dim>
					<dim>40</dim>
					<dim>40</dim>
				</port>
				<port id="1" precision="FP32">
					<dim>116</dim>
					<dim>116</dim>
					<dim>1</dim>
					<dim>1</dim>
				</port>
			</input>
			<output>
				<port id="2" precision="FP32">
					<dim>1</dim>
					<dim>116</dim>
					<dim>40</dim>
					<dim>40</dim>
				</port>
			</output>
		</layer>
		<layer id="214" name="Constant_56650_compressed" type="Const" version="opset1">
			<data element_type="f16" shape="1, 116, 1, 1" offset="134282" size="232"/>
			<output>
				<port id="0" precision="FP16">
					<dim>1</dim>
					<dim>116</dim>
					<dim>1</dim>
					<dim>1</dim>
				</port>
			</output>
		</layer>
		<layer id="215" name="Constant_56650" type="Convert" version="opset1">
			<data destination_type="f32"/>
			<rt_info>
				<attribute name="decompression" version="0"/>
			</rt_info>
			<input>
				<port id="0" precision="FP16">
					<dim>1</dim>
					<dim>116</dim>
					<dim>1</dim>
					<dim>1</dim>
				</port>
			</input>
			<output>
				<port id="1" precision="FP32">
					<dim>1</dim>
					<dim>116</dim>
					<dim>1</dim>
					<dim>1</dim>
				</port>
			</output>
		</layer>
		<layer id="216" name="563" type="Add" version="opset1">
			<data auto_broadcast="numpy"/>
			<rt_info>
				<attribute name="fused_names" version="0" value="563, backbone.features.stage2.unit1.compress_bn1.bias, backbone.features.stage2.unit1.compress_bn1.running_mean, backbone.features.stage2.unit1.compress_bn1.running_var, backbone.features.stage2.unit1.compress_bn1.weight"/>
			</rt_info>
			<input>
				<port id="0" precision="FP32">
					<dim>1</dim>
					<dim>116</dim>
					<dim>40</dim>
					<dim>40</dim>
				</port>
				<port id="1" precision="FP32">
					<dim>1</dim>
					<dim>116</dim>
					<dim>1</dim>
					<dim>1</dim>
				</port>
			</input>
			<output>
				<port id="2" precision="FP32" names="563">
					<dim>1</dim>
					<dim>116</dim>
					<dim>40</dim>
					<dim>40</dim>
				</port>
			</output>
		</layer>
		<layer id="217" name="564" type="ReLU" version="opset1">
			<rt_info>
				<attribute name="fused_names" version="0" value="564"/>
			</rt_info>
			<input>
				<port id="0" precision="FP32">
					<dim>1</dim>
					<dim>116</dim>
					<dim>40</dim>
					<dim>40</dim>
				</port>
			</input>
			<output>
				<port id="1" precision="FP32" names="564">
					<dim>1</dim>
					<dim>116</dim>
					<dim>40</dim>
					<dim>40</dim>
				</port>
			</output>
		</layer>
		<layer id="218" name="Multiply_57100_compressed" type="Const" version="opset1">
			<data element_type="f16" shape="116, 1, 1, 3, 3" offset="134514" size="2088"/>
			<output>
				<port id="0" precision="FP16">
					<dim>116</dim>
					<dim>1</dim>
					<dim>1</dim>
					<dim>3</dim>
					<dim>3</dim>
				</port>
			</output>
		</layer>
		<layer id="219" name="Multiply_57100" type="Convert" version="opset1">
			<data destination_type="f32"/>
			<rt_info>
				<attribute name="decompression" version="0"/>
			</rt_info>
			<input>
				<port id="0" precision="FP16">
					<dim>116</dim>
					<dim>1</dim>
					<dim>1</dim>
					<dim>3</dim>
					<dim>3</dim>
				</port>
			</input>
			<output>
				<port id="1" precision="FP32">
					<dim>116</dim>
					<dim>1</dim>
					<dim>1</dim>
					<dim>3</dim>
					<dim>3</dim>
				</port>
			</output>
		</layer>
		<layer id="220" name="Multiply_56652" type="GroupConvolution" version="opset1">
			<data strides="2, 2" pads_begin="1, 1" pads_end="1, 1" dilations="1, 1" auto_pad="explicit"/>
			<rt_info>
				<attribute name="fused_names" version="0" value="566, backbone.features.stage2.unit1.dw_bn2.bias, backbone.features.stage2.unit1.dw_bn2.running_mean, backbone.features.stage2.unit1.dw_bn2.running_var, backbone.features.stage2.unit1.dw_bn2.weight"/>
			</rt_info>
			<input>
				<port id="0" precision="FP32">
					<dim>1</dim>
					<dim>116</dim>
					<dim>40</dim>
					<dim>40</dim>
				</port>
				<port id="1" precision="FP32">
					<dim>116</dim>
					<dim>1</dim>
					<dim>1</dim>
					<dim>3</dim>
					<dim>3</dim>
				</port>
			</input>
			<output>
				<port id="2" precision="FP32" names="565">
					<dim>1</dim>
					<dim>116</dim>
					<dim>20</dim>
					<dim>20</dim>
				</port>
			</output>
		</layer>
		<layer id="221" name="Constant_56657_compressed" type="Const" version="opset1">
			<data element_type="f16" shape="1, 116, 1, 1" offset="136602" size="232"/>
			<output>
				<port id="0" precision="FP16">
					<dim>1</dim>
					<dim>116</dim>
					<dim>1</dim>
					<dim>1</dim>
				</port>
			</output>
		</layer>
		<layer id="222" name="Constant_56657" type="Convert" version="opset1">
			<data destination_type="f32"/>
			<rt_info>
				<attribute name="decompression" version="0"/>
			</rt_info>
			<input>
				<port id="0" precision="FP16">
					<dim>1</dim>
					<dim>116</dim>
					<dim>1</dim>
					<dim>1</dim>
				</port>
			</input>
			<output>
				<port id="1" precision="FP32">
					<dim>1</dim>
					<dim>116</dim>
					<dim>1</dim>
					<dim>1</dim>
				</port>
			</output>
		</layer>
		<layer id="223" name="566" type="Add" version="opset1">
			<data auto_broadcast="numpy"/>
			<rt_info>
				<attribute name="fused_names" version="0" value="566, backbone.features.stage2.unit1.dw_bn2.bias, backbone.features.stage2.unit1.dw_bn2.running_mean, backbone.features.stage2.unit1.dw_bn2.running_var, backbone.features.stage2.unit1.dw_bn2.weight"/>
			</rt_info>
			<input>
				<port id="0" precision="FP32">
					<dim>1</dim>
					<dim>116</dim>
					<dim>20</dim>
					<dim>20</dim>
				</port>
				<port id="1" precision="FP32">
					<dim>1</dim>
					<dim>116</dim>
					<dim>1</dim>
					<dim>1</dim>
				</port>
			</input>
			<output>
				<port id="2" precision="FP32" names="566">
					<dim>1</dim>
					<dim>116</dim>
					<dim>20</dim>
					<dim>20</dim>
				</port>
			</output>
		</layer>
		<layer id="224" name="Multiply_57108_compressed" type="Const" version="opset1">
			<data element_type="f16" shape="116, 116, 1, 1" offset="136834" size="26912"/>
			<output>
				<port id="0" precision="FP16">
					<dim>116</dim>
					<dim>116</dim>
					<dim>1</dim>
					<dim>1</dim>
				</port>
			</output>
		</layer>
		<layer id="225" name="Multiply_57108" type="Convert" version="opset1">
			<data destination_type="f32"/>
			<rt_info>
				<attribute name="decompression" version="0"/>
			</rt_info>
			<input>
				<port id="0" precision="FP16">
					<dim>116</dim>
					<dim>116</dim>
					<dim>1</dim>
					<dim>1</dim>
				</port>
			</input>
			<output>
				<port id="1" precision="FP32">
					<dim>116</dim>
					<dim>116</dim>
					<dim>1</dim>
					<dim>1</dim>
				</port>
			</output>
		</layer>
		<layer id="226" name="Multiply_56659" type="Convolution" version="opset1">
			<data strides="1, 1" dilations="1, 1" pads_begin="0, 0" pads_end="0, 0" auto_pad="explicit"/>
			<rt_info>
				<attribute name="fused_names" version="0" value="567, 568, backbone.features.stage2.unit1.expand_bn3.bias, backbone.features.stage2.unit1.expand_bn3.running_mean, backbone.features.stage2.unit1.expand_bn3.running_var, backbone.features.stage2.unit1.expand_bn3.weight"/>
			</rt_info>
			<input>
				<port id="0" precision="FP32">
					<dim>1</dim>
					<dim>116</dim>
					<dim>20</dim>
					<dim>20</dim>
				</port>
				<port id="1" precision="FP32">
					<dim>116</dim>
					<dim>116</dim>
					<dim>1</dim>
					<dim>1</dim>
				</port>
			</input>
			<output>
				<port id="2" precision="FP32">
					<dim>1</dim>
					<dim>116</dim>
					<dim>20</dim>
					<dim>20</dim>
				</port>
			</output>
		</layer>
		<layer id="227" name="Constant_56664_compressed" type="Const" version="opset1">
			<data element_type="f16" shape="1, 116, 1, 1" offset="163746" size="232"/>
			<output>
				<port id="0" precision="FP16">
					<dim>1</dim>
					<dim>116</dim>
					<dim>1</dim>
					<dim>1</dim>
				</port>
			</output>
		</layer>
		<layer id="228" name="Constant_56664" type="Convert" version="opset1">
			<data destination_type="f32"/>
			<rt_info>
				<attribute name="decompression" version="0"/>
			</rt_info>
			<input>
				<port id="0" precision="FP16">
					<dim>1</dim>
					<dim>116</dim>
					<dim>1</dim>
					<dim>1</dim>
				</port>
			</input>
			<output>
				<port id="1" precision="FP32">
					<dim>1</dim>
					<dim>116</dim>
					<dim>1</dim>
					<dim>1</dim>
				</port>
			</output>
		</layer>
		<layer id="229" name="568" type="Add" version="opset1">
			<data auto_broadcast="numpy"/>
			<rt_info>
				<attribute name="fused_names" version="0" value="568, backbone.features.stage2.unit1.expand_bn3.bias, backbone.features.stage2.unit1.expand_bn3.running_mean, backbone.features.stage2.unit1.expand_bn3.running_var, backbone.features.stage2.unit1.expand_bn3.weight"/>
			</rt_info>
			<input>
				<port id="0" precision="FP32">
					<dim>1</dim>
					<dim>116</dim>
					<dim>20</dim>
					<dim>20</dim>
				</port>
				<port id="1" precision="FP32">
					<dim>1</dim>
					<dim>116</dim>
					<dim>1</dim>
					<dim>1</dim>
				</port>
			</input>
			<output>
				<port id="2" precision="FP32" names="568">
					<dim>1</dim>
					<dim>116</dim>
					<dim>20</dim>
					<dim>20</dim>
				</port>
			</output>
		</layer>
		<layer id="230" name="569" type="ReLU" version="opset1">
			<rt_info>
				<attribute name="fused_names" version="0" value="569"/>
			</rt_info>
			<input>
				<port id="0" precision="FP32">
					<dim>1</dim>
					<dim>116</dim>
					<dim>20</dim>
					<dim>20</dim>
				</port>
			</input>
			<output>
				<port id="1" precision="FP32" names="569">
					<dim>1</dim>
					<dim>116</dim>
					<dim>20</dim>
					<dim>20</dim>
				</port>
			</output>
		</layer>
		<layer id="231" name="570" type="Concat" version="opset1">
			<data axis="1"/>
			<rt_info>
				<attribute name="fused_names" version="0" value="570"/>
			</rt_info>
			<input>
				<port id="0" precision="FP32">
					<dim>1</dim>
					<dim>116</dim>
					<dim>20</dim>
					<dim>20</dim>
				</port>
				<port id="1" precision="FP32">
					<dim>1</dim>
					<dim>116</dim>
					<dim>20</dim>
					<dim>20</dim>
				</port>
			</input>
			<output>
				<port id="2" precision="FP32" names="570">
					<dim>1</dim>
					<dim>232</dim>
					<dim>20</dim>
					<dim>20</dim>
				</port>
			</output>
		</layer>
		<layer id="232" name="Constant_42453" type="Const" version="opset1">
			<data element_type="i64" shape="1" offset="22034" size="8"/>
			<output>
				<port id="0" precision="I64">
					<dim>1</dim>
				</port>
			</output>
		</layer>
		<layer id="233" name="587" type="Const" version="opset1">
			<data element_type="i64" shape="1" offset="22042" size="8"/>
			<output>
				<port id="0" precision="I64" names="587">
					<dim>1</dim>
				</port>
			</output>
		</layer>
		<layer id="234" name="572" type="ShapeOf" version="opset3">
			<data output_type="i64"/>
			<rt_info>
				<attribute name="fused_names" version="0" value="572, 575, 578, 581, 598"/>
			</rt_info>
			<input>
				<port id="0" precision="FP32">
					<dim>1</dim>
					<dim>232</dim>
					<dim>20</dim>
					<dim>20</dim>
				</port>
			</input>
			<output>
				<port id="1" precision="I64" names="572,575,578,581,598">
					<dim>4</dim>
				</port>
			</output>
		</layer>
		<layer id="235" name="574" type="Const" version="opset1">
			<data element_type="i64" shape="" offset="22050" size="8"/>
			<rt_info>
				<attribute name="fused_names" version="0" value="574"/>
			</rt_info>
			<output>
				<port id="0" precision="I64" names="574"/>
			</output>
		</layer>
		<layer id="236" name="Constant_1848" type="Const" version="opset1">
			<data element_type="i64" shape="" offset="22034" size="8"/>
			<rt_info>
				<attribute name="fused_names" version="0" value="Constant_1848"/>
			</rt_info>
			<output>
				<port id="0" precision="I64"/>
			</output>
		</layer>
		<layer id="237" name="576" type="Gather" version="opset8">
			<data batch_dims="0"/>
			<rt_info>
				<attribute name="fused_names" version="0" value="574, 576, Constant_1848"/>
			</rt_info>
			<input>
				<port id="0" precision="I64">
					<dim>4</dim>
				</port>
				<port id="1" precision="I64"/>
				<port id="2" precision="I64"/>
			</input>
			<output>
				<port id="3" precision="I64" names="576"/>
			</output>
		</layer>
		<layer id="238" name="583" type="Const" version="opset1">
			<data element_type="i64" shape="" offset="22042" size="8"/>
			<rt_info>
				<attribute name="fused_names" version="0" value="583"/>
			</rt_info>
			<output>
				<port id="0" precision="I64" names="583"/>
			</output>
		</layer>
		<layer id="239" name="584" type="Divide" version="opset1">
			<data auto_broadcast="numpy" m_pythondiv="true"/>
			<rt_info>
				<attribute name="fused_names" version="0" value="583, 584"/>
			</rt_info>
			<input>
				<port id="0" precision="I64"/>
				<port id="1" precision="I64"/>
			</input>
			<output>
				<port id="2" precision="I64" names="584"/>
			</output>
		</layer>
		<layer id="240" name="Constant_1865" type="Const" version="opset1">
			<data element_type="i64" shape="1" offset="22034" size="8"/>
			<rt_info>
				<attribute name="fused_names" version="0" value="Constant_1865"/>
			</rt_info>
			<output>
				<port id="0" precision="I64">
					<dim>1</dim>
				</port>
			</output>
		</layer>
		<layer id="241" name="588" type="Unsqueeze" version="opset1">
			<rt_info>
				<attribute name="fused_names" version="0" value="588, Constant_1865"/>
			</rt_info>
			<input>
				<port id="0" precision="I64"/>
				<port id="1" precision="I64">
					<dim>1</dim>
				</port>
			</input>
			<output>
				<port id="2" precision="I64" names="588">
					<dim>1</dim>
				</port>
			</output>
		</layer>
		<layer id="242" name="Constant_37977" type="Const" version="opset1">
			<data element_type="i64" shape="2" offset="22058" size="16"/>
			<rt_info>
				<attribute name="fused_names" version="0" value="587, 591"/>
			</rt_info>
			<output>
				<port id="0" precision="I64">
					<dim>2</dim>
				</port>
			</output>
		</layer>
		<layer id="243" name="Constant_37978" type="Const" version="opset1">
			<data element_type="i64" shape="" offset="22034" size="8"/>
			<output>
				<port id="0" precision="I64"/>
			</output>
		</layer>
		<layer id="244" name="Gather_37979" type="Gather" version="opset8">
			<data batch_dims="0"/>
			<rt_info>
				<attribute name="fused_names" version="0" value="587, 591"/>
			</rt_info>
			<input>
				<port id="0" precision="I64">
					<dim>4</dim>
				</port>
				<port id="1" precision="I64">
					<dim>2</dim>
				</port>
				<port id="2" precision="I64"/>
			</input>
			<output>
				<port id="3" precision="I64">
					<dim>2</dim>
				</port>
			</output>
		</layer>
		<layer id="245" name="591" type="Concat" version="opset1">
			<data axis="0"/>
			<rt_info>
				<attribute name="fused_names" version="0" value="587, 591"/>
			</rt_info>
			<input>
				<port id="0" precision="I64">
					<dim>1</dim>
				</port>
				<port id="1" precision="I64">
					<dim>1</dim>
				</port>
				<port id="2" precision="I64">
					<dim>1</dim>
				</port>
				<port id="3" precision="I64">
					<dim>2</dim>
				</port>
			</input>
			<output>
				<port id="4" precision="I64">
					<dim>5</dim>
				</port>
			</output>
		</layer>
		<layer id="246" name="592" type="Reshape" version="opset1">
			<data special_zero="true"/>
			<rt_info>
				<attribute name="fused_names" version="0" value="592"/>
			</rt_info>
			<input>
				<port id="0" precision="FP32">
					<dim>1</dim>
					<dim>232</dim>
					<dim>20</dim>
					<dim>20</dim>
				</port>
				<port id="1" precision="I64">
					<dim>5</dim>
				</port>
			</input>
			<output>
				<port id="2" precision="FP32" names="592">
					<dim>1</dim>
					<dim>2</dim>
					<dim>116</dim>
					<dim>20</dim>
					<dim>20</dim>
				</port>
			</output>
		</layer>
		<layer id="247" name="Constant_1982" type="Const" version="opset1">
			<data element_type="i64" shape="5" offset="22074" size="40"/>
			<rt_info>
				<attribute name="fused_names" version="0" value="Constant_1982"/>
			</rt_info>
			<output>
				<port id="0" precision="I64">
					<dim>5</dim>
				</port>
			</output>
		</layer>
		<layer id="248" name="593" type="Transpose" version="opset1">
			<rt_info>
				<attribute name="fused_names" version="0" value="593"/>
			</rt_info>
			<input>
				<port id="0" precision="FP32">
					<dim>1</dim>
					<dim>2</dim>
					<dim>116</dim>
					<dim>20</dim>
					<dim>20</dim>
				</port>
				<port id="1" precision="I64">
					<dim>5</dim>
				</port>
			</input>
			<output>
				<port id="2" precision="FP32" names="593">
					<dim>1</dim>
					<dim>116</dim>
					<dim>2</dim>
					<dim>20</dim>
					<dim>20</dim>
				</port>
			</output>
		</layer>
		<layer id="249" name="599" type="Reshape" version="opset1">
			<data special_zero="true"/>
			<rt_info>
				<attribute name="fused_names" version="0" value="599"/>
			</rt_info>
			<input>
				<port id="0" precision="FP32">
					<dim>1</dim>
					<dim>116</dim>
					<dim>2</dim>
					<dim>20</dim>
					<dim>20</dim>
				</port>
				<port id="1" precision="I64">
					<dim>4</dim>
				</port>
			</input>
			<output>
				<port id="2" precision="FP32" names="599">
					<dim>1</dim>
					<dim>232</dim>
					<dim>20</dim>
					<dim>20</dim>
				</port>
			</output>
		</layer>
		<layer id="250" name="Constant_2071" type="Const" version="opset1">
			<data element_type="i64" shape="" offset="22050" size="8"/>
			<rt_info>
				<attribute name="fused_names" version="0" value="Constant_2071"/>
			</rt_info>
			<output>
				<port id="0" precision="I64"/>
			</output>
		</layer>
		<layer id="251" name="Constant_2072" type="Const" version="opset1">
			<data element_type="i64" shape="2" offset="163978" size="16"/>
			<rt_info>
				<attribute name="fused_names" version="0" value="Constant_2072"/>
			</rt_info>
			<output>
				<port id="0" precision="I64">
					<dim>2</dim>
				</port>
			</output>
		</layer>
		<layer id="252" name="601" type="VariadicSplit" version="opset1">
			<rt_info>
				<attribute name="fused_names" version="0" value="601"/>
			</rt_info>
			<input>
				<port id="0" precision="FP32">
					<dim>1</dim>
					<dim>232</dim>
					<dim>20</dim>
					<dim>20</dim>
				</port>
				<port id="1" precision="I64"/>
				<port id="2" precision="I64">
					<dim>2</dim>
				</port>
			</input>
			<output>
				<port id="3" precision="FP32" names="600">
					<dim>1</dim>
					<dim>116</dim>
					<dim>20</dim>
					<dim>20</dim>
				</port>
				<port id="4" precision="FP32" names="601">
					<dim>1</dim>
					<dim>116</dim>
					<dim>20</dim>
					<dim>20</dim>
				</port>
			</output>
		</layer>
		<layer id="253" name="Multiply_57117_compressed" type="Const" version="opset1">
			<data element_type="f16" shape="116, 116, 1, 1" offset="163994" size="26912"/>
			<output>
				<port id="0" precision="FP16">
					<dim>116</dim>
					<dim>116</dim>
					<dim>1</dim>
					<dim>1</dim>
				</port>
			</output>
		</layer>
		<layer id="254" name="Multiply_57117" type="Convert" version="opset1">
			<data destination_type="f32"/>
			<rt_info>
				<attribute name="decompression" version="0"/>
			</rt_info>
			<input>
				<port id="0" precision="FP16">
					<dim>116</dim>
					<dim>116</dim>
					<dim>1</dim>
					<dim>1</dim>
				</port>
			</input>
			<output>
				<port id="1" precision="FP32">
					<dim>116</dim>
					<dim>116</dim>
					<dim>1</dim>
					<dim>1</dim>
				</port>
			</output>
		</layer>
		<layer id="255" name="Multiply_56666" type="Convolution" version="opset1">
			<data strides="1, 1" dilations="1, 1" pads_begin="0, 0" pads_end="0, 0" auto_pad="explicit"/>
			<rt_info>
				<attribute name="fused_names" version="0" value="602, 603, backbone.features.stage2.unit2.compress_bn1.bias, backbone.features.stage2.unit2.compress_bn1.running_mean, backbone.features.stage2.unit2.compress_bn1.running_var, backbone.features.stage2.unit2.compress_bn1.weight"/>
			</rt_info>
			<input>
				<port id="0" precision="FP32">
					<dim>1</dim>
					<dim>116</dim>
					<dim>20</dim>
					<dim>20</dim>
				</port>
				<port id="1" precision="FP32">
					<dim>116</dim>
					<dim>116</dim>
					<dim>1</dim>
					<dim>1</dim>
				</port>
			</input>
			<output>
				<port id="2" precision="FP32">
					<dim>1</dim>
					<dim>116</dim>
					<dim>20</dim>
					<dim>20</dim>
				</port>
			</output>
		</layer>
		<layer id="256" name="Constant_56671_compressed" type="Const" version="opset1">
			<data element_type="f16" shape="1, 116, 1, 1" offset="190906" size="232"/>
			<output>
				<port id="0" precision="FP16">
					<dim>1</dim>
					<dim>116</dim>
					<dim>1</dim>
					<dim>1</dim>
				</port>
			</output>
		</layer>
		<layer id="257" name="Constant_56671" type="Convert" version="opset1">
			<data destination_type="f32"/>
			<rt_info>
				<attribute name="decompression" version="0"/>
			</rt_info>
			<input>
				<port id="0" precision="FP16">
					<dim>1</dim>
					<dim>116</dim>
					<dim>1</dim>
					<dim>1</dim>
				</port>
			</input>
			<output>
				<port id="1" precision="FP32">
					<dim>1</dim>
					<dim>116</dim>
					<dim>1</dim>
					<dim>1</dim>
				</port>
			</output>
		</layer>
		<layer id="258" name="603" type="Add" version="opset1">
			<data auto_broadcast="numpy"/>
			<rt_info>
				<attribute name="fused_names" version="0" value="603, backbone.features.stage2.unit2.compress_bn1.bias, backbone.features.stage2.unit2.compress_bn1.running_mean, backbone.features.stage2.unit2.compress_bn1.running_var, backbone.features.stage2.unit2.compress_bn1.weight"/>
			</rt_info>
			<input>
				<port id="0" precision="FP32">
					<dim>1</dim>
					<dim>116</dim>
					<dim>20</dim>
					<dim>20</dim>
				</port>
				<port id="1" precision="FP32">
					<dim>1</dim>
					<dim>116</dim>
					<dim>1</dim>
					<dim>1</dim>
				</port>
			</input>
			<output>
				<port id="2" precision="FP32" names="603">
					<dim>1</dim>
					<dim>116</dim>
					<dim>20</dim>
					<dim>20</dim>
				</port>
			</output>
		</layer>
		<layer id="259" name="604" type="ReLU" version="opset1">
			<rt_info>
				<attribute name="fused_names" version="0" value="604"/>
			</rt_info>
			<input>
				<port id="0" precision="FP32">
					<dim>1</dim>
					<dim>116</dim>
					<dim>20</dim>
					<dim>20</dim>
				</port>
			</input>
			<output>
				<port id="1" precision="FP32" names="604">
					<dim>1</dim>
					<dim>116</dim>
					<dim>20</dim>
					<dim>20</dim>
				</port>
			</output>
		</layer>
		<layer id="260" name="Multiply_57126_compressed" type="Const" version="opset1">
			<data element_type="f16" shape="116, 1, 1, 3, 3" offset="191138" size="2088"/>
			<output>
				<port id="0" precision="FP16">
					<dim>116</dim>
					<dim>1</dim>
					<dim>1</dim>
					<dim>3</dim>
					<dim>3</dim>
				</port>
			</output>
		</layer>
		<layer id="261" name="Multiply_57126" type="Convert" version="opset1">
			<data destination_type="f32"/>
			<rt_info>
				<attribute name="decompression" version="0"/>
			</rt_info>
			<input>
				<port id="0" precision="FP16">
					<dim>116</dim>
					<dim>1</dim>
					<dim>1</dim>
					<dim>3</dim>
					<dim>3</dim>
				</port>
			</input>
			<output>
				<port id="1" precision="FP32">
					<dim>116</dim>
					<dim>1</dim>
					<dim>1</dim>
					<dim>3</dim>
					<dim>3</dim>
				</port>
			</output>
		</layer>
		<layer id="262" name="Multiply_56673" type="GroupConvolution" version="opset1">
			<data strides="1, 1" pads_begin="1, 1" pads_end="1, 1" dilations="1, 1" auto_pad="explicit"/>
			<rt_info>
				<attribute name="fused_names" version="0" value="606, backbone.features.stage2.unit2.dw_bn2.bias, backbone.features.stage2.unit2.dw_bn2.running_mean, backbone.features.stage2.unit2.dw_bn2.running_var, backbone.features.stage2.unit2.dw_bn2.weight"/>
			</rt_info>
			<input>
				<port id="0" precision="FP32">
					<dim>1</dim>
					<dim>116</dim>
					<dim>20</dim>
					<dim>20</dim>
				</port>
				<port id="1" precision="FP32">
					<dim>116</dim>
					<dim>1</dim>
					<dim>1</dim>
					<dim>3</dim>
					<dim>3</dim>
				</port>
			</input>
			<output>
				<port id="2" precision="FP32" names="605">
					<dim>1</dim>
					<dim>116</dim>
					<dim>20</dim>
					<dim>20</dim>
				</port>
			</output>
		</layer>
		<layer id="263" name="Constant_56678_compressed" type="Const" version="opset1">
			<data element_type="f16" shape="1, 116, 1, 1" offset="193226" size="232"/>
			<output>
				<port id="0" precision="FP16">
					<dim>1</dim>
					<dim>116</dim>
					<dim>1</dim>
					<dim>1</dim>
				</port>
			</output>
		</layer>
		<layer id="264" name="Constant_56678" type="Convert" version="opset1">
			<data destination_type="f32"/>
			<rt_info>
				<attribute name="decompression" version="0"/>
			</rt_info>
			<input>
				<port id="0" precision="FP16">
					<dim>1</dim>
					<dim>116</dim>
					<dim>1</dim>
					<dim>1</dim>
				</port>
			</input>
			<output>
				<port id="1" precision="FP32">
					<dim>1</dim>
					<dim>116</dim>
					<dim>1</dim>
					<dim>1</dim>
				</port>
			</output>
		</layer>
		<layer id="265" name="606" type="Add" version="opset1">
			<data auto_broadcast="numpy"/>
			<rt_info>
				<attribute name="fused_names" version="0" value="606, backbone.features.stage2.unit2.dw_bn2.bias, backbone.features.stage2.unit2.dw_bn2.running_mean, backbone.features.stage2.unit2.dw_bn2.running_var, backbone.features.stage2.unit2.dw_bn2.weight"/>
			</rt_info>
			<input>
				<port id="0" precision="FP32">
					<dim>1</dim>
					<dim>116</dim>
					<dim>20</dim>
					<dim>20</dim>
				</port>
				<port id="1" precision="FP32">
					<dim>1</dim>
					<dim>116</dim>
					<dim>1</dim>
					<dim>1</dim>
				</port>
			</input>
			<output>
				<port id="2" precision="FP32" names="606">
					<dim>1</dim>
					<dim>116</dim>
					<dim>20</dim>
					<dim>20</dim>
				</port>
			</output>
		</layer>
		<layer id="266" name="Multiply_57134_compressed" type="Const" version="opset1">
			<data element_type="f16" shape="116, 116, 1, 1" offset="193458" size="26912"/>
			<output>
				<port id="0" precision="FP16">
					<dim>116</dim>
					<dim>116</dim>
					<dim>1</dim>
					<dim>1</dim>
				</port>
			</output>
		</layer>
		<layer id="267" name="Multiply_57134" type="Convert" version="opset1">
			<data destination_type="f32"/>
			<rt_info>
				<attribute name="decompression" version="0"/>
			</rt_info>
			<input>
				<port id="0" precision="FP16">
					<dim>116</dim>
					<dim>116</dim>
					<dim>1</dim>
					<dim>1</dim>
				</port>
			</input>
			<output>
				<port id="1" precision="FP32">
					<dim>116</dim>
					<dim>116</dim>
					<dim>1</dim>
					<dim>1</dim>
				</port>
			</output>
		</layer>
		<layer id="268" name="Multiply_56680" type="Convolution" version="opset1">
			<data strides="1, 1" dilations="1, 1" pads_begin="0, 0" pads_end="0, 0" auto_pad="explicit"/>
			<rt_info>
				<attribute name="fused_names" version="0" value="607, 608, backbone.features.stage2.unit2.expand_bn3.bias, backbone.features.stage2.unit2.expand_bn3.running_mean, backbone.features.stage2.unit2.expand_bn3.running_var, backbone.features.stage2.unit2.expand_bn3.weight"/>
			</rt_info>
			<input>
				<port id="0" precision="FP32">
					<dim>1</dim>
					<dim>116</dim>
					<dim>20</dim>
					<dim>20</dim>
				</port>
				<port id="1" precision="FP32">
					<dim>116</dim>
					<dim>116</dim>
					<dim>1</dim>
					<dim>1</dim>
				</port>
			</input>
			<output>
				<port id="2" precision="FP32">
					<dim>1</dim>
					<dim>116</dim>
					<dim>20</dim>
					<dim>20</dim>
				</port>
			</output>
		</layer>
		<layer id="269" name="Constant_56685_compressed" type="Const" version="opset1">
			<data element_type="f16" shape="1, 116, 1, 1" offset="220370" size="232"/>
			<output>
				<port id="0" precision="FP16">
					<dim>1</dim>
					<dim>116</dim>
					<dim>1</dim>
					<dim>1</dim>
				</port>
			</output>
		</layer>
		<layer id="270" name="Constant_56685" type="Convert" version="opset1">
			<data destination_type="f32"/>
			<rt_info>
				<attribute name="decompression" version="0"/>
			</rt_info>
			<input>
				<port id="0" precision="FP16">
					<dim>1</dim>
					<dim>116</dim>
					<dim>1</dim>
					<dim>1</dim>
				</port>
			</input>
			<output>
				<port id="1" precision="FP32">
					<dim>1</dim>
					<dim>116</dim>
					<dim>1</dim>
					<dim>1</dim>
				</port>
			</output>
		</layer>
		<layer id="271" name="608" type="Add" version="opset1">
			<data auto_broadcast="numpy"/>
			<rt_info>
				<attribute name="fused_names" version="0" value="608, backbone.features.stage2.unit2.expand_bn3.bias, backbone.features.stage2.unit2.expand_bn3.running_mean, backbone.features.stage2.unit2.expand_bn3.running_var, backbone.features.stage2.unit2.expand_bn3.weight"/>
			</rt_info>
			<input>
				<port id="0" precision="FP32">
					<dim>1</dim>
					<dim>116</dim>
					<dim>20</dim>
					<dim>20</dim>
				</port>
				<port id="1" precision="FP32">
					<dim>1</dim>
					<dim>116</dim>
					<dim>1</dim>
					<dim>1</dim>
				</port>
			</input>
			<output>
				<port id="2" precision="FP32" names="608">
					<dim>1</dim>
					<dim>116</dim>
					<dim>20</dim>
					<dim>20</dim>
				</port>
			</output>
		</layer>
		<layer id="272" name="609" type="ReLU" version="opset1">
			<rt_info>
				<attribute name="fused_names" version="0" value="609"/>
			</rt_info>
			<input>
				<port id="0" precision="FP32">
					<dim>1</dim>
					<dim>116</dim>
					<dim>20</dim>
					<dim>20</dim>
				</port>
			</input>
			<output>
				<port id="1" precision="FP32" names="609">
					<dim>1</dim>
					<dim>116</dim>
					<dim>20</dim>
					<dim>20</dim>
				</port>
			</output>
		</layer>
		<layer id="273" name="610" type="Concat" version="opset1">
			<data axis="1"/>
			<rt_info>
				<attribute name="fused_names" version="0" value="610"/>
			</rt_info>
			<input>
				<port id="0" precision="FP32">
					<dim>1</dim>
					<dim>116</dim>
					<dim>20</dim>
					<dim>20</dim>
				</port>
				<port id="1" precision="FP32">
					<dim>1</dim>
					<dim>116</dim>
					<dim>20</dim>
					<dim>20</dim>
				</port>
			</input>
			<output>
				<port id="2" precision="FP32" names="610">
					<dim>1</dim>
					<dim>232</dim>
					<dim>20</dim>
					<dim>20</dim>
				</port>
			</output>
		</layer>
		<layer id="274" name="Constant_42555" type="Const" version="opset1">
			<data element_type="i64" shape="1" offset="22034" size="8"/>
			<output>
				<port id="0" precision="I64">
					<dim>1</dim>
				</port>
			</output>
		</layer>
		<layer id="275" name="627" type="Const" version="opset1">
			<data element_type="i64" shape="1" offset="22042" size="8"/>
			<output>
				<port id="0" precision="I64" names="627">
					<dim>1</dim>
				</port>
			</output>
		</layer>
		<layer id="276" name="612" type="ShapeOf" version="opset3">
			<data output_type="i64"/>
			<rt_info>
				<attribute name="fused_names" version="0" value="612, 615, 618, 621, 638"/>
			</rt_info>
			<input>
				<port id="0" precision="FP32">
					<dim>1</dim>
					<dim>232</dim>
					<dim>20</dim>
					<dim>20</dim>
				</port>
			</input>
			<output>
				<port id="1" precision="I64" names="612,615,618,621,638">
					<dim>4</dim>
				</port>
			</output>
		</layer>
		<layer id="277" name="614" type="Const" version="opset1">
			<data element_type="i64" shape="" offset="22050" size="8"/>
			<rt_info>
				<attribute name="fused_names" version="0" value="614"/>
			</rt_info>
			<output>
				<port id="0" precision="I64" names="614"/>
			</output>
		</layer>
		<layer id="278" name="Constant_2165" type="Const" version="opset1">
			<data element_type="i64" shape="" offset="22034" size="8"/>
			<rt_info>
				<attribute name="fused_names" version="0" value="Constant_2165"/>
			</rt_info>
			<output>
				<port id="0" precision="I64"/>
			</output>
		</layer>
		<layer id="279" name="616" type="Gather" version="opset8">
			<data batch_dims="0"/>
			<rt_info>
				<attribute name="fused_names" version="0" value="614, 616, Constant_2165"/>
			</rt_info>
			<input>
				<port id="0" precision="I64">
					<dim>4</dim>
				</port>
				<port id="1" precision="I64"/>
				<port id="2" precision="I64"/>
			</input>
			<output>
				<port id="3" precision="I64" names="616"/>
			</output>
		</layer>
		<layer id="280" name="623" type="Const" version="opset1">
			<data element_type="i64" shape="" offset="22042" size="8"/>
			<rt_info>
				<attribute name="fused_names" version="0" value="623"/>
			</rt_info>
			<output>
				<port id="0" precision="I64" names="623"/>
			</output>
		</layer>
		<layer id="281" name="624" type="Divide" version="opset1">
			<data auto_broadcast="numpy" m_pythondiv="true"/>
			<rt_info>
				<attribute name="fused_names" version="0" value="623, 624"/>
			</rt_info>
			<input>
				<port id="0" precision="I64"/>
				<port id="1" precision="I64"/>
			</input>
			<output>
				<port id="2" precision="I64" names="624"/>
			</output>
		</layer>
		<layer id="282" name="Constant_2182" type="Const" version="opset1">
			<data element_type="i64" shape="1" offset="22034" size="8"/>
			<rt_info>
				<attribute name="fused_names" version="0" value="Constant_2182"/>
			</rt_info>
			<output>
				<port id="0" precision="I64">
					<dim>1</dim>
				</port>
			</output>
		</layer>
		<layer id="283" name="628" type="Unsqueeze" version="opset1">
			<rt_info>
				<attribute name="fused_names" version="0" value="628, Constant_2182"/>
			</rt_info>
			<input>
				<port id="0" precision="I64"/>
				<port id="1" precision="I64">
					<dim>1</dim>
				</port>
			</input>
			<output>
				<port id="2" precision="I64" names="628">
					<dim>1</dim>
				</port>
			</output>
		</layer>
		<layer id="284" name="Constant_37994" type="Const" version="opset1">
			<data element_type="i64" shape="2" offset="22058" size="16"/>
			<rt_info>
				<attribute name="fused_names" version="0" value="627, 631"/>
			</rt_info>
			<output>
				<port id="0" precision="I64">
					<dim>2</dim>
				</port>
			</output>
		</layer>
		<layer id="285" name="Constant_37995" type="Const" version="opset1">
			<data element_type="i64" shape="" offset="22034" size="8"/>
			<output>
				<port id="0" precision="I64"/>
			</output>
		</layer>
		<layer id="286" name="Gather_37996" type="Gather" version="opset8">
			<data batch_dims="0"/>
			<rt_info>
				<attribute name="fused_names" version="0" value="627, 631"/>
			</rt_info>
			<input>
				<port id="0" precision="I64">
					<dim>4</dim>
				</port>
				<port id="1" precision="I64">
					<dim>2</dim>
				</port>
				<port id="2" precision="I64"/>
			</input>
			<output>
				<port id="3" precision="I64">
					<dim>2</dim>
				</port>
			</output>
		</layer>
		<layer id="287" name="631" type="Concat" version="opset1">
			<data axis="0"/>
			<rt_info>
				<attribute name="fused_names" version="0" value="627, 631"/>
			</rt_info>
			<input>
				<port id="0" precision="I64">
					<dim>1</dim>
				</port>
				<port id="1" precision="I64">
					<dim>1</dim>
				</port>
				<port id="2" precision="I64">
					<dim>1</dim>
				</port>
				<port id="3" precision="I64">
					<dim>2</dim>
				</port>
			</input>
			<output>
				<port id="4" precision="I64">
					<dim>5</dim>
				</port>
			</output>
		</layer>
		<layer id="288" name="632" type="Reshape" version="opset1">
			<data special_zero="true"/>
			<rt_info>
				<attribute name="fused_names" version="0" value="632"/>
			</rt_info>
			<input>
				<port id="0" precision="FP32">
					<dim>1</dim>
					<dim>232</dim>
					<dim>20</dim>
					<dim>20</dim>
				</port>
				<port id="1" precision="I64">
					<dim>5</dim>
				</port>
			</input>
			<output>
				<port id="2" precision="FP32" names="632">
					<dim>1</dim>
					<dim>2</dim>
					<dim>116</dim>
					<dim>20</dim>
					<dim>20</dim>
				</port>
			</output>
		</layer>
		<layer id="289" name="Constant_2299" type="Const" version="opset1">
			<data element_type="i64" shape="5" offset="22074" size="40"/>
			<rt_info>
				<attribute name="fused_names" version="0" value="Constant_2299"/>
			</rt_info>
			<output>
				<port id="0" precision="I64">
					<dim>5</dim>
				</port>
			</output>
		</layer>
		<layer id="290" name="633" type="Transpose" version="opset1">
			<rt_info>
				<attribute name="fused_names" version="0" value="633"/>
			</rt_info>
			<input>
				<port id="0" precision="FP32">
					<dim>1</dim>
					<dim>2</dim>
					<dim>116</dim>
					<dim>20</dim>
					<dim>20</dim>
				</port>
				<port id="1" precision="I64">
					<dim>5</dim>
				</port>
			</input>
			<output>
				<port id="2" precision="FP32" names="633">
					<dim>1</dim>
					<dim>116</dim>
					<dim>2</dim>
					<dim>20</dim>
					<dim>20</dim>
				</port>
			</output>
		</layer>
		<layer id="291" name="639" type="Reshape" version="opset1">
			<data special_zero="true"/>
			<rt_info>
				<attribute name="fused_names" version="0" value="639"/>
			</rt_info>
			<input>
				<port id="0" precision="FP32">
					<dim>1</dim>
					<dim>116</dim>
					<dim>2</dim>
					<dim>20</dim>
					<dim>20</dim>
				</port>
				<port id="1" precision="I64">
					<dim>4</dim>
				</port>
			</input>
			<output>
				<port id="2" precision="FP32" names="639">
					<dim>1</dim>
					<dim>232</dim>
					<dim>20</dim>
					<dim>20</dim>
				</port>
			</output>
		</layer>
		<layer id="292" name="Constant_2388" type="Const" version="opset1">
			<data element_type="i64" shape="" offset="22050" size="8"/>
			<rt_info>
				<attribute name="fused_names" version="0" value="Constant_2388"/>
			</rt_info>
			<output>
				<port id="0" precision="I64"/>
			</output>
		</layer>
		<layer id="293" name="Constant_2389" type="Const" version="opset1">
			<data element_type="i64" shape="2" offset="163978" size="16"/>
			<rt_info>
				<attribute name="fused_names" version="0" value="Constant_2389"/>
			</rt_info>
			<output>
				<port id="0" precision="I64">
					<dim>2</dim>
				</port>
			</output>
		</layer>
		<layer id="294" name="641" type="VariadicSplit" version="opset1">
			<rt_info>
				<attribute name="fused_names" version="0" value="641"/>
			</rt_info>
			<input>
				<port id="0" precision="FP32">
					<dim>1</dim>
					<dim>232</dim>
					<dim>20</dim>
					<dim>20</dim>
				</port>
				<port id="1" precision="I64"/>
				<port id="2" precision="I64">
					<dim>2</dim>
				</port>
			</input>
			<output>
				<port id="3" precision="FP32" names="640">
					<dim>1</dim>
					<dim>116</dim>
					<dim>20</dim>
					<dim>20</dim>
				</port>
				<port id="4" precision="FP32" names="641">
					<dim>1</dim>
					<dim>116</dim>
					<dim>20</dim>
					<dim>20</dim>
				</port>
			</output>
		</layer>
		<layer id="295" name="Multiply_57143_compressed" type="Const" version="opset1">
			<data element_type="f16" shape="116, 116, 1, 1" offset="220602" size="26912"/>
			<output>
				<port id="0" precision="FP16">
					<dim>116</dim>
					<dim>116</dim>
					<dim>1</dim>
					<dim>1</dim>
				</port>
			</output>
		</layer>
		<layer id="296" name="Multiply_57143" type="Convert" version="opset1">
			<data destination_type="f32"/>
			<rt_info>
				<attribute name="decompression" version="0"/>
			</rt_info>
			<input>
				<port id="0" precision="FP16">
					<dim>116</dim>
					<dim>116</dim>
					<dim>1</dim>
					<dim>1</dim>
				</port>
			</input>
			<output>
				<port id="1" precision="FP32">
					<dim>116</dim>
					<dim>116</dim>
					<dim>1</dim>
					<dim>1</dim>
				</port>
			</output>
		</layer>
		<layer id="297" name="Multiply_56687" type="Convolution" version="opset1">
			<data strides="1, 1" dilations="1, 1" pads_begin="0, 0" pads_end="0, 0" auto_pad="explicit"/>
			<rt_info>
				<attribute name="fused_names" version="0" value="642, 643, backbone.features.stage2.unit3.compress_bn1.bias, backbone.features.stage2.unit3.compress_bn1.running_mean, backbone.features.stage2.unit3.compress_bn1.running_var, backbone.features.stage2.unit3.compress_bn1.weight"/>
			</rt_info>
			<input>
				<port id="0" precision="FP32">
					<dim>1</dim>
					<dim>116</dim>
					<dim>20</dim>
					<dim>20</dim>
				</port>
				<port id="1" precision="FP32">
					<dim>116</dim>
					<dim>116</dim>
					<dim>1</dim>
					<dim>1</dim>
				</port>
			</input>
			<output>
				<port id="2" precision="FP32">
					<dim>1</dim>
					<dim>116</dim>
					<dim>20</dim>
					<dim>20</dim>
				</port>
			</output>
		</layer>
		<layer id="298" name="Constant_56692_compressed" type="Const" version="opset1">
			<data element_type="f16" shape="1, 116, 1, 1" offset="247514" size="232"/>
			<output>
				<port id="0" precision="FP16">
					<dim>1</dim>
					<dim>116</dim>
					<dim>1</dim>
					<dim>1</dim>
				</port>
			</output>
		</layer>
		<layer id="299" name="Constant_56692" type="Convert" version="opset1">
			<data destination_type="f32"/>
			<rt_info>
				<attribute name="decompression" version="0"/>
			</rt_info>
			<input>
				<port id="0" precision="FP16">
					<dim>1</dim>
					<dim>116</dim>
					<dim>1</dim>
					<dim>1</dim>
				</port>
			</input>
			<output>
				<port id="1" precision="FP32">
					<dim>1</dim>
					<dim>116</dim>
					<dim>1</dim>
					<dim>1</dim>
				</port>
			</output>
		</layer>
		<layer id="300" name="643" type="Add" version="opset1">
			<data auto_broadcast="numpy"/>
			<rt_info>
				<attribute name="fused_names" version="0" value="643, backbone.features.stage2.unit3.compress_bn1.bias, backbone.features.stage2.unit3.compress_bn1.running_mean, backbone.features.stage2.unit3.compress_bn1.running_var, backbone.features.stage2.unit3.compress_bn1.weight"/>
			</rt_info>
			<input>
				<port id="0" precision="FP32">
					<dim>1</dim>
					<dim>116</dim>
					<dim>20</dim>
					<dim>20</dim>
				</port>
				<port id="1" precision="FP32">
					<dim>1</dim>
					<dim>116</dim>
					<dim>1</dim>
					<dim>1</dim>
				</port>
			</input>
			<output>
				<port id="2" precision="FP32" names="643">
					<dim>1</dim>
					<dim>116</dim>
					<dim>20</dim>
					<dim>20</dim>
				</port>
			</output>
		</layer>
		<layer id="301" name="644" type="ReLU" version="opset1">
			<rt_info>
				<attribute name="fused_names" version="0" value="644"/>
			</rt_info>
			<input>
				<port id="0" precision="FP32">
					<dim>1</dim>
					<dim>116</dim>
					<dim>20</dim>
					<dim>20</dim>
				</port>
			</input>
			<output>
				<port id="1" precision="FP32" names="644">
					<dim>1</dim>
					<dim>116</dim>
					<dim>20</dim>
					<dim>20</dim>
				</port>
			</output>
		</layer>
		<layer id="302" name="Multiply_57152_compressed" type="Const" version="opset1">
			<data element_type="f16" shape="116, 1, 1, 3, 3" offset="247746" size="2088"/>
			<output>
				<port id="0" precision="FP16">
					<dim>116</dim>
					<dim>1</dim>
					<dim>1</dim>
					<dim>3</dim>
					<dim>3</dim>
				</port>
			</output>
		</layer>
		<layer id="303" name="Multiply_57152" type="Convert" version="opset1">
			<data destination_type="f32"/>
			<rt_info>
				<attribute name="decompression" version="0"/>
			</rt_info>
			<input>
				<port id="0" precision="FP16">
					<dim>116</dim>
					<dim>1</dim>
					<dim>1</dim>
					<dim>3</dim>
					<dim>3</dim>
				</port>
			</input>
			<output>
				<port id="1" precision="FP32">
					<dim>116</dim>
					<dim>1</dim>
					<dim>1</dim>
					<dim>3</dim>
					<dim>3</dim>
				</port>
			</output>
		</layer>
		<layer id="304" name="Multiply_56694" type="GroupConvolution" version="opset1">
			<data strides="1, 1" pads_begin="1, 1" pads_end="1, 1" dilations="1, 1" auto_pad="explicit"/>
			<rt_info>
				<attribute name="fused_names" version="0" value="646, backbone.features.stage2.unit3.dw_bn2.bias, backbone.features.stage2.unit3.dw_bn2.running_mean, backbone.features.stage2.unit3.dw_bn2.running_var, backbone.features.stage2.unit3.dw_bn2.weight"/>
			</rt_info>
			<input>
				<port id="0" precision="FP32">
					<dim>1</dim>
					<dim>116</dim>
					<dim>20</dim>
					<dim>20</dim>
				</port>
				<port id="1" precision="FP32">
					<dim>116</dim>
					<dim>1</dim>
					<dim>1</dim>
					<dim>3</dim>
					<dim>3</dim>
				</port>
			</input>
			<output>
				<port id="2" precision="FP32" names="645">
					<dim>1</dim>
					<dim>116</dim>
					<dim>20</dim>
					<dim>20</dim>
				</port>
			</output>
		</layer>
		<layer id="305" name="Constant_56699_compressed" type="Const" version="opset1">
			<data element_type="f16" shape="1, 116, 1, 1" offset="249834" size="232"/>
			<output>
				<port id="0" precision="FP16">
					<dim>1</dim>
					<dim>116</dim>
					<dim>1</dim>
					<dim>1</dim>
				</port>
			</output>
		</layer>
		<layer id="306" name="Constant_56699" type="Convert" version="opset1">
			<data destination_type="f32"/>
			<rt_info>
				<attribute name="decompression" version="0"/>
			</rt_info>
			<input>
				<port id="0" precision="FP16">
					<dim>1</dim>
					<dim>116</dim>
					<dim>1</dim>
					<dim>1</dim>
				</port>
			</input>
			<output>
				<port id="1" precision="FP32">
					<dim>1</dim>
					<dim>116</dim>
					<dim>1</dim>
					<dim>1</dim>
				</port>
			</output>
		</layer>
		<layer id="307" name="646" type="Add" version="opset1">
			<data auto_broadcast="numpy"/>
			<rt_info>
				<attribute name="fused_names" version="0" value="646, backbone.features.stage2.unit3.dw_bn2.bias, backbone.features.stage2.unit3.dw_bn2.running_mean, backbone.features.stage2.unit3.dw_bn2.running_var, backbone.features.stage2.unit3.dw_bn2.weight"/>
			</rt_info>
			<input>
				<port id="0" precision="FP32">
					<dim>1</dim>
					<dim>116</dim>
					<dim>20</dim>
					<dim>20</dim>
				</port>
				<port id="1" precision="FP32">
					<dim>1</dim>
					<dim>116</dim>
					<dim>1</dim>
					<dim>1</dim>
				</port>
			</input>
			<output>
				<port id="2" precision="FP32" names="646">
					<dim>1</dim>
…
		<edge from-layer="1264" from-port="3" to-layer="1265" to-port="1"/>
		<edge from-layer="1265" from-port="2" to-layer="1267" to-port="0"/>
		<edge from-layer="1266" from-port="0" to-layer="1267" to-port="1"/>
		<edge from-layer="1267" from-port="2" to-layer="1268" to-port="0"/>
		<edge from-layer="1268" from-port="1" to-layer="1286" to-port="0"/>
		<edge from-layer="1268" from-port="1" to-layer="1801" to-port="0"/>
		<edge from-layer="1269" from-port="2" to-layer="1272" to-port="0"/>
		<edge from-layer="1270" from-port="0" to-layer="1271" to-port="0"/>
		<edge from-layer="1271" from-port="1" to-layer="1272" to-port="1"/>
		<edge from-layer="1272" from-port="2" to-layer="1275" to-port="0"/>
		<edge from-layer="1273" from-port="0" to-layer="1275" to-port="1"/>
		<edge from-layer="1274" from-port="0" to-layer="1275" to-port="2"/>
		<edge from-layer="1275" from-port="3" to-layer="1280" to-port="0"/>
		<edge from-layer="1275" from-port="3" to-layer="1276" to-port="0"/>
		<edge from-layer="1276" from-port="1" to-layer="1279" to-port="0"/>
		<edge from-layer="1277" from-port="0" to-layer="1279" to-port="1"/>
		<edge from-layer="1278" from-port="0" to-layer="1279" to-port="2"/>
		<edge from-layer="1279" from-port="3" to-layer="1280" to-port="1"/>
		<edge from-layer="1280" from-port="2" to-layer="1282" to-port="0"/>
		<edge from-layer="1281" from-port="0" to-layer="1282" to-port="1"/>
		<edge from-layer="1282" from-port="2" to-layer="1283" to-port="0"/>
		<edge from-layer="1283" from-port="1" to-layer="1285" to-port="0"/>
		<edge from-layer="1283" from-port="1" to-layer="1812" to-port="0"/>
		<edge from-layer="1284" from-port="0" to-layer="1285" to-port="1"/>
		<edge from-layer="1285" from-port="2" to-layer="1286" to-port="1"/>
		<edge from-layer="1286" from-port="2" to-layer="1288" to-port="0"/>
		<edge from-layer="1287" from-port="0" to-layer="1288" to-port="1"/>
		<edge from-layer="1288" from-port="2" to-layer="1290" to-port="0"/>
		<edge from-layer="1288" from-port="2" to-layer="1300" to-port="0"/>
		<edge from-layer="1289" from-port="0" to-layer="1291" to-port="0"/>
		<edge from-layer="1290" from-port="1" to-layer="1291" to-port="1"/>
		<edge from-layer="1291" from-port="2" to-layer="1292" to-port="0"/>
		<edge from-layer="1292" from-port="1" to-layer="1294" to-port="0"/>
		<edge from-layer="1293" from-port="0" to-layer="1294" to-port="1"/>
		<edge from-layer="1294" from-port="2" to-layer="1295" to-port="0"/>
		<edge from-layer="1295" from-port="1" to-layer="1297" to-port="0"/>
		<edge from-layer="1296" from-port="0" to-layer="1297" to-port="1"/>
		<edge from-layer="1297" from-port="2" to-layer="1299" to-port="0"/>
		<edge from-layer="1298" from-port="0" to-layer="1299" to-port="1"/>
		<edge from-layer="1299" from-port="2" to-layer="1300" to-port="1"/>
		<edge from-layer="1300" from-port="3" to-layer="1361" to-port="1"/>
		<edge from-layer="1300" from-port="3" to-layer="1812" to-port="1"/>
		<edge from-layer="1300" from-port="3" to-layer="1801" to-port="1"/>
		<edge from-layer="1300" from-port="3" to-layer="1302" to-port="1"/>
		<edge from-layer="1301" from-port="0" to-layer="1302" to-port="2"/>
		<edge from-layer="1302" from-port="3" to-layer="1391" to-port="0"/>
		<edge from-layer="1302" from-port="3" to-layer="1305" to-port="0"/>
		<edge from-layer="1302" from-port="3" to-layer="1381" to-port="0"/>
		<edge from-layer="1302" from-port="3" to-layer="1371" to-port="0"/>
		<edge from-layer="1303" from-port="0" to-layer="1305" to-port="1"/>
		<edge from-layer="1304" from-port="0" to-layer="1305" to-port="2"/>
		<edge from-layer="1305" from-port="3" to-layer="1365" to-port="0"/>
		<edge from-layer="1306" from-port="2" to-layer="1308" to-port="0"/>
		<edge from-layer="1307" from-port="0" to-layer="1308" to-port="1"/>
		<edge from-layer="1308" from-port="2" to-layer="1311" to-port="0"/>
		<edge from-layer="1309" from-port="0" to-layer="1310" to-port="0"/>
		<edge from-layer="1310" from-port="1" to-layer="1311" to-port="1"/>
		<edge from-layer="1311" from-port="2" to-layer="1314" to-port="0"/>
		<edge from-layer="1312" from-port="0" to-layer="1313" to-port="0"/>
		<edge from-layer="1313" from-port="1" to-layer="1314" to-port="1"/>
		<edge from-layer="1314" from-port="2" to-layer="1315" to-port="0"/>
		<edge from-layer="1315" from-port="1" to-layer="1316" to-port="0"/>
		<edge from-layer="1316" from-port="2" to-layer="1318" to-port="0"/>
		<edge from-layer="1317" from-port="0" to-layer="1318" to-port="1"/>
		<edge from-layer="1318" from-port="2" to-layer="1321" to-port="0"/>
		<edge from-layer="1319" from-port="0" to-layer="1320" to-port="0"/>
		<edge from-layer="1320" from-port="1" to-layer="1321" to-port="1"/>
		<edge from-layer="1321" from-port="2" to-layer="1324" to-port="0"/>
		<edge from-layer="1322" from-port="0" to-layer="1323" to-port="0"/>
		<edge from-layer="1323" from-port="1" to-layer="1324" to-port="1"/>
		<edge from-layer="1324" from-port="2" to-layer="1325" to-port="0"/>
		<edge from-layer="1325" from-port="1" to-layer="1326" to-port="0"/>
		<edge from-layer="1326" from-port="2" to-layer="1328" to-port="0"/>
		<edge from-layer="1327" from-port="0" to-layer="1328" to-port="1"/>
		<edge from-layer="1328" from-port="2" to-layer="1331" to-port="0"/>
		<edge from-layer="1329" from-port="0" to-layer="1330" to-port="0"/>
		<edge from-layer="1330" from-port="1" to-layer="1331" to-port="1"/>
		<edge from-layer="1331" from-port="2" to-layer="1334" to-port="0"/>
		<edge from-layer="1332" from-port="0" to-layer="1333" to-port="0"/>
		<edge from-layer="1333" from-port="1" to-layer="1334" to-port="1"/>
		<edge from-layer="1334" from-port="2" to-layer="1335" to-port="0"/>
		<edge from-layer="1335" from-port="1" to-layer="1336" to-port="0"/>
		<edge from-layer="1336" from-port="2" to-layer="1338" to-port="0"/>
		<edge from-layer="1337" from-port="0" to-layer="1338" to-port="1"/>
		<edge from-layer="1338" from-port="2" to-layer="1341" to-port="0"/>
		<edge from-layer="1339" from-port="0" to-layer="1340" to-port="0"/>
		<edge from-layer="1340" from-port="1" to-layer="1341" to-port="1"/>
		<edge from-layer="1341" from-port="2" to-layer="1344" to-port="0"/>
		<edge from-layer="1342" from-port="0" to-layer="1343" to-port="0"/>
		<edge from-layer="1343" from-port="1" to-layer="1344" to-port="1"/>
		<edge from-layer="1344" from-port="2" to-layer="1345" to-port="0"/>
		<edge from-layer="1345" from-port="1" to-layer="1348" to-port="0"/>
		<edge from-layer="1346" from-port="0" to-layer="1347" to-port="0"/>
		<edge from-layer="1347" from-port="1" to-layer="1348" to-port="1"/>
		<edge from-layer="1348" from-port="2" to-layer="1351" to-port="0"/>
		<edge from-layer="1349" from-port="0" to-layer="1350" to-port="0"/>
		<edge from-layer="1350" from-port="1" to-layer="1351" to-port="1"/>
		<edge from-layer="1351" from-port="2" to-layer="1352" to-port="0"/>
		<edge from-layer="1352" from-port="1" to-layer="1355" to-port="0"/>
		<edge from-layer="1353" from-port="0" to-layer="1355" to-port="1"/>
		<edge from-layer="1354" from-port="0" to-layer="1355" to-port="2"/>
		<edge from-layer="1355" from-port="3" to-layer="1357" to-port="0"/>
		<edge from-layer="1356" from-port="0" to-layer="1357" to-port="1"/>
		<edge from-layer="1357" from-port="2" to-layer="1359" to-port="0"/>
		<edge from-layer="1358" from-port="0" to-layer="1359" to-port="1"/>
		<edge from-layer="1359" from-port="2" to-layer="1361" to-port="0"/>
		<edge from-layer="1360" from-port="0" to-layer="1361" to-port="2"/>
		<edge from-layer="1361" from-port="3" to-layer="1384" to-port="0"/>
		<edge from-layer="1361" from-port="3" to-layer="1364" to-port="0"/>
		<edge from-layer="1361" from-port="3" to-layer="1394" to-port="0"/>
		<edge from-layer="1361" from-port="3" to-layer="1374" to-port="0"/>
		<edge from-layer="1362" from-port="0" to-layer="1364" to-port="1"/>
		<edge from-layer="1363" from-port="0" to-layer="1364" to-port="2"/>
		<edge from-layer="1364" from-port="3" to-layer="1365" to-port="1"/>
		<edge from-layer="1365" from-port="2" to-layer="1366" to-port="0"/>
		<edge from-layer="1366" from-port="1" to-layer="1368" to-port="0"/>
		<edge from-layer="1367" from-port="0" to-layer="1368" to-port="1"/>
		<edge from-layer="1368" from-port="2" to-layer="1399" to-port="0"/>
		<edge from-layer="1369" from-port="0" to-layer="1371" to-port="1"/>
		<edge from-layer="1370" from-port="0" to-layer="1371" to-port="2"/>
		<edge from-layer="1371" from-port="3" to-layer="1375" to-port="0"/>
		<edge from-layer="1372" from-port="0" to-layer="1374" to-port="1"/>
		<edge from-layer="1373" from-port="0" to-layer="1374" to-port="2"/>
		<edge from-layer="1374" from-port="3" to-layer="1375" to-port="1"/>
		<edge from-layer="1375" from-port="2" to-layer="1376" to-port="0"/>
		<edge from-layer="1376" from-port="1" to-layer="1378" to-port="0"/>
		<edge from-layer="1377" from-port="0" to-layer="1378" to-port="1"/>
		<edge from-layer="1378" from-port="2" to-layer="1399" to-port="1"/>
		<edge from-layer="1379" from-port="0" to-layer="1381" to-port="1"/>
		<edge from-layer="1380" from-port="0" to-layer="1381" to-port="2"/>
		<edge from-layer="1381" from-port="3" to-layer="1385" to-port="0"/>
		<edge from-layer="1382" from-port="0" to-layer="1384" to-port="1"/>
		<edge from-layer="1383" from-port="0" to-layer="1384" to-port="2"/>
		<edge from-layer="1384" from-port="3" to-layer="1385" to-port="1"/>
		<edge from-layer="1385" from-port="2" to-layer="1386" to-port="0"/>
		<edge from-layer="1386" from-port="1" to-layer="1388" to-port="0"/>
		<edge from-layer="1387" from-port="0" to-layer="1388" to-port="1"/>
		<edge from-layer="1388" from-port="2" to-layer="1399" to-port="2"/>
		<edge from-layer="1389" from-port="0" to-layer="1391" to-port="1"/>
		<edge from-layer="1390" from-port="0" to-layer="1391" to-port="2"/>
		<edge from-layer="1391" from-port="3" to-layer="1395" to-port="0"/>
		<edge from-layer="1392" from-port="0" to-layer="1394" to-port="1"/>
		<edge from-layer="1393" from-port="0" to-layer="1394" to-port="2"/>
		<edge from-layer="1394" from-port="3" to-layer="1395" to-port="1"/>
		<edge from-layer="1395" from-port="2" to-layer="1396" to-port="0"/>
		<edge from-layer="1396" from-port="1" to-layer="1398" to-port="0"/>
		<edge from-layer="1397" from-port="0" to-layer="1398" to-port="1"/>
		<edge from-layer="1398" from-port="2" to-layer="1399" to-port="3"/>
		<edge from-layer="1399" from-port="4" to-layer="1789" to-port="2"/>
		<edge from-layer="1400" from-port="0" to-layer="1401" to-port="0"/>
		<edge from-layer="1401" from-port="1" to-layer="1496" to-port="0"/>
		<edge from-layer="1402" from-port="0" to-layer="1403" to-port="0"/>
		<edge from-layer="1403" from-port="1" to-layer="1404" to-port="1"/>
		<edge from-layer="1404" from-port="2" to-layer="1407" to-port="0"/>
		<edge from-layer="1405" from-port="0" to-layer="1406" to-port="0"/>
		<edge from-layer="1406" from-port="1" to-layer="1407" to-port="1"/>
		<edge from-layer="1407" from-port="2" to-layer="1596" to-port="0"/>
		<edge from-layer="1407" from-port="2" to-layer="1500" to-port="0"/>
		<edge from-layer="1407" from-port="2" to-layer="1408" to-port="0"/>
		<edge from-layer="1408" from-port="2" to-layer="1410" to-port="0"/>
		<edge from-layer="1409" from-port="0" to-layer="1410" to-port="1"/>
		<edge from-layer="1410" from-port="2" to-layer="1413" to-port="0"/>
		<edge from-layer="1411" from-port="0" to-layer="1412" to-port="0"/>
		<edge from-layer="1412" from-port="1" to-layer="1413" to-port="1"/>
		<edge from-layer="1413" from-port="2" to-layer="1416" to-port="0"/>
		<edge from-layer="1414" from-port="0" to-layer="1415" to-port="0"/>
		<edge from-layer="1415" from-port="1" to-layer="1416" to-port="1"/>
		<edge from-layer="1416" from-port="2" to-layer="1417" to-port="0"/>
		<edge from-layer="1417" from-port="1" to-layer="1418" to-port="0"/>
		<edge from-layer="1418" from-port="2" to-layer="1420" to-port="0"/>
		<edge from-layer="1419" from-port="0" to-layer="1420" to-port="1"/>
		<edge from-layer="1420" from-port="2" to-layer="1423" to-port="0"/>
		<edge from-layer="1421" from-port="0" to-layer="1422" to-port="0"/>
		<edge from-layer="1422" from-port="1" to-layer="1423" to-port="1"/>
		<edge from-layer="1423" from-port="2" to-layer="1426" to-port="0"/>
		<edge from-layer="1424" from-port="0" to-layer="1425" to-port="0"/>
		<edge from-layer="1425" from-port="1" to-layer="1426" to-port="1"/>
		<edge from-layer="1426" from-port="2" to-layer="1427" to-port="0"/>
		<edge from-layer="1427" from-port="1" to-layer="1428" to-port="0"/>
		<edge from-layer="1428" from-port="2" to-layer="1430" to-port="0"/>
		<edge from-layer="1429" from-port="0" to-layer="1430" to-port="1"/>
		<edge from-layer="1430" from-port="2" to-layer="1433" to-port="0"/>
		<edge from-layer="1431" from-port="0" to-layer="1432" to-port="0"/>
		<edge from-layer="1432" from-port="1" to-layer="1433" to-port="1"/>
		<edge from-layer="1433" from-port="2" to-layer="1436" to-port="0"/>
		<edge from-layer="1434" from-port="0" to-layer="1435" to-port="0"/>
		<edge from-layer="1435" from-port="1" to-layer="1436" to-port="1"/>
		<edge from-layer="1436" from-port="2" to-layer="1437" to-port="0"/>
		<edge from-layer="1437" from-port="1" to-layer="1438" to-port="0"/>
		<edge from-layer="1438" from-port="2" to-layer="1440" to-port="0"/>
		<edge from-layer="1439" from-port="0" to-layer="1440" to-port="1"/>
		<edge from-layer="1440" from-port="2" to-layer="1443" to-port="0"/>
		<edge from-layer="1441" from-port="0" to-layer="1442" to-port="0"/>
		<edge from-layer="1442" from-port="1" to-layer="1443" to-port="1"/>
		<edge from-layer="1443" from-port="2" to-layer="1446" to-port="0"/>
		<edge from-layer="1444" from-port="0" to-layer="1445" to-port="0"/>
		<edge from-layer="1445" from-port="1" to-layer="1446" to-port="1"/>
		<edge from-layer="1446" from-port="2" to-layer="1447" to-port="0"/>
		<edge from-layer="1447" from-port="1" to-layer="1448" to-port="0"/>
		<edge from-layer="1447" from-port="1" to-layer="1463" to-port="0"/>
		<edge from-layer="1448" from-port="2" to-layer="1451" to-port="0"/>
		<edge from-layer="1449" from-port="0" to-layer="1450" to-port="0"/>
		<edge from-layer="1450" from-port="1" to-layer="1451" to-port="1"/>
		<edge from-layer="1451" from-port="2" to-layer="1454" to-port="0"/>
		<edge from-layer="1452" from-port="0" to-layer="1454" to-port="1"/>
		<edge from-layer="1453" from-port="0" to-layer="1454" to-port="2"/>
		<edge from-layer="1454" from-port="3" to-layer="1455" to-port="0"/>
		<edge from-layer="1454" from-port="3" to-layer="1459" to-port="0"/>
		<edge from-layer="1455" from-port="1" to-layer="1458" to-port="0"/>
		<edge from-layer="1456" from-port="0" to-layer="1458" to-port="1"/>
		<edge from-layer="1457" from-port="0" to-layer="1458" to-port="2"/>
		<edge from-layer="1458" from-port="3" to-layer="1459" to-port="1"/>
		<edge from-layer="1459" from-port="2" to-layer="1461" to-port="0"/>
		<edge from-layer="1460" from-port="0" to-layer="1461" to-port="1"/>
		<edge from-layer="1461" from-port="2" to-layer="1462" to-port="0"/>
		<edge from-layer="1462" from-port="1" to-layer="1480" to-port="0"/>
		<edge from-layer="1462" from-port="1" to-layer="1803" to-port="0"/>
		<edge from-layer="1463" from-port="2" to-layer="1466" to-port="0"/>
		<edge from-layer="1464" from-port="0" to-layer="1465" to-port="0"/>
		<edge from-layer="1465" from-port="1" to-layer="1466" to-port="1"/>
		<edge from-layer="1466" from-port="2" to-layer="1469" to-port="0"/>
		<edge from-layer="1467" from-port="0" to-layer="1469" to-port="1"/>
		<edge from-layer="1468" from-port="0" to-layer="1469" to-port="2"/>
		<edge from-layer="1469" from-port="3" to-layer="1474" to-port="0"/>
		<edge from-layer="1469" from-port="3" to-layer="1470" to-port="0"/>
		<edge from-layer="1470" from-port="1" to-layer="1473" to-port="0"/>
		<edge from-layer="1471" from-port="0" to-layer="1473" to-port="1"/>
		<edge from-layer="1472" from-port="0" to-layer="1473" to-port="2"/>
		<edge from-layer="1473" from-port="3" to-layer="1474" to-port="1"/>
		<edge from-layer="1474" from-port="2" to-layer="1476" to-port="0"/>
		<edge from-layer="1475" from-port="0" to-layer="1476" to-port="1"/>
		<edge from-layer="1476" from-port="2" to-layer="1477" to-port="0"/>
		<edge from-layer="1477" from-port="1" to-layer="1479" to-port="0"/>
		<edge from-layer="1477" from-port="1" to-layer="1814" to-port="0"/>
		<edge from-layer="1478" from-port="0" to-layer="1479" to-port="1"/>
		<edge from-layer="1479" from-port="2" to-layer="1480" to-port="1"/>
		<edge from-layer="1480" from-port="2" to-layer="1482" to-port="0"/>
		<edge from-layer="1481" from-port="0" to-layer="1482" to-port="1"/>
		<edge from-layer="1482" from-port="2" to-layer="1484" to-port="0"/>
		<edge from-layer="1482" from-port="2" to-layer="1494" to-port="0"/>
		<edge from-layer="1483" from-port="0" to-layer="1485" to-port="0"/>
		<edge from-layer="1484" from-port="1" to-layer="1485" to-port="1"/>
		<edge from-layer="1485" from-port="2" to-layer="1486" to-port="0"/>
		<edge from-layer="1486" from-port="1" to-layer="1488" to-port="0"/>
		<edge from-layer="1487" from-port="0" to-layer="1488" to-port="1"/>
		<edge from-layer="1488" from-port="2" to-layer="1489" to-port="0"/>
		<edge from-layer="1489" from-port="1" to-layer="1491" to-port="0"/>
		<edge from-layer="1490" from-port="0" to-layer="1491" to-port="1"/>
		<edge from-layer="1491" from-port="2" to-layer="1493" to-port="0"/>
		<edge from-layer="1492" from-port="0" to-layer="1493" to-port="1"/>
		<edge from-layer="1493" from-port="2" to-layer="1494" to-port="1"/>
		<edge from-layer="1494" from-port="3" to-layer="1555" to-port="1"/>
		<edge from-layer="1494" from-port="3" to-layer="1814" to-port="1"/>
		<edge from-layer="1494" from-port="3" to-layer="1496" to-port="1"/>
		<edge from-layer="1494" from-port="3" to-layer="1803" to-port="1"/>
		<edge from-layer="1495" from-port="0" to-layer="1496" to-port="2"/>
		<edge from-layer="1496" from-port="3" to-layer="1499" to-port="0"/>
		<edge from-layer="1496" from-port="3" to-layer="1565" to-port="0"/>
		<edge from-layer="1496" from-port="3" to-layer="1575" to-port="0"/>
		<edge from-layer="1496" from-port="3" to-layer="1585" to-port="0"/>
		<edge from-layer="1497" from-port="0" to-layer="1499" to-port="1"/>
		<edge from-layer="1498" from-port="0" to-layer="1499" to-port="2"/>
		<edge from-layer="1499" from-port="3" to-layer="1559" to-port="0"/>
		<edge from-layer="1500" from-port="2" to-layer="1502" to-port="0"/>
		<edge from-layer="1501" from-port="0" to-layer="1502" to-port="1"/>
		<edge from-layer="1502" from-port="2" to-layer="1505" to-port="0"/>
		<edge from-layer="1503" from-port="0" to-layer="1504" to-port="0"/>
		<edge from-layer="1504" from-port="1" to-layer="1505" to-port="1"/>
		<edge from-layer="1505" from-port="2" to-layer="1508" to-port="0"/>
		<edge from-layer="1506" from-port="0" to-layer="1507" to-port="0"/>
		<edge from-layer="1507" from-port="1" to-layer="1508" to-port="1"/>
		<edge from-layer="1508" from-port="2" to-layer="1509" to-port="0"/>
		<edge from-layer="1509" from-port="1" to-layer="1510" to-port="0"/>
		<edge from-layer="1510" from-port="2" to-layer="1512" to-port="0"/>
		<edge from-layer="1511" from-port="0" to-layer="1512" to-port="1"/>
		<edge from-layer="1512" from-port="2" to-layer="1515" to-port="0"/>
		<edge from-layer="1513" from-port="0" to-layer="1514" to-port="0"/>
		<edge from-layer="1514" from-port="1" to-layer="1515" to-port="1"/>
		<edge from-layer="1515" from-port="2" to-layer="1518" to-port="0"/>
		<edge from-layer="1516" from-port="0" to-layer="1517" to-port="0"/>
		<edge from-layer="1517" from-port="1" to-layer="1518" to-port="1"/>
		<edge from-layer="1518" from-port="2" to-layer="1519" to-port="0"/>
		<edge from-layer="1519" from-port="1" to-layer="1520" to-port="0"/>
		<edge from-layer="1520" from-port="2" to-layer="1522" to-port="0"/>
		<edge from-layer="1521" from-port="0" to-layer="1522" to-port="1"/>
		<edge from-layer="1522" from-port="2" to-layer="1525" to-port="0"/>
		<edge from-layer="1523" from-port="0" to-layer="1524" to-port="0"/>
		<edge from-layer="1524" from-port="1" to-layer="1525" to-port="1"/>
		<edge from-layer="1525" from-port="2" to-layer="1528" to-port="0"/>
		<edge from-layer="1526" from-port="0" to-layer="1527" to-port="0"/>
		<edge from-layer="1527" from-port="1" to-layer="1528" to-port="1"/>
		<edge from-layer="1528" from-port="2" to-layer="1529" to-port="0"/>
		<edge from-layer="1529" from-port="1" to-layer="1530" to-port="0"/>
		<edge from-layer="1530" from-port="2" to-layer="1532" to-port="0"/>
		<edge from-layer="1531" from-port="0" to-layer="1532" to-port="1"/>
		<edge from-layer="1532" from-port="2" to-layer="1535" to-port="0"/>
		<edge from-layer="1533" from-port="0" to-layer="1534" to-port="0"/>
		<edge from-layer="1534" from-port="1" to-layer="1535" to-port="1"/>
		<edge from-layer="1535" from-port="2" to-layer="1538" to-port="0"/>
		<edge from-layer="1536" from-port="0" to-layer="1537" to-port="0"/>
		<edge from-layer="1537" from-port="1" to-layer="1538" to-port="1"/>
		<edge from-layer="1538" from-port="2" to-layer="1539" to-port="0"/>
		<edge from-layer="1539" from-port="1" to-layer="1542" to-port="0"/>
		<edge from-layer="1540" from-port="0" to-layer="1541" to-port="0"/>
		<edge from-layer="1541" from-port="1" to-layer="1542" to-port="1"/>
		<edge from-layer="1542" from-port="2" to-layer="1545" to-port="0"/>
		<edge from-layer="1543" from-port="0" to-layer="1544" to-port="0"/>
		<edge from-layer="1544" from-port="1" to-layer="1545" to-port="1"/>
		<edge from-layer="1545" from-port="2" to-layer="1546" to-port="0"/>
		<edge from-layer="1546" from-port="1" to-layer="1549" to-port="0"/>
		<edge from-layer="1547" from-port="0" to-layer="1549" to-port="1"/>
		<edge from-layer="1548" from-port="0" to-layer="1549" to-port="2"/>
		<edge from-layer="1549" from-port="3" to-layer="1551" to-port="0"/>
		<edge from-layer="1550" from-port="0" to-layer="1551" to-port="1"/>
		<edge from-layer="1551" from-port="2" to-layer="1553" to-port="0"/>
		<edge from-layer="1552" from-port="0" to-layer="1553" to-port="1"/>
		<edge from-layer="1553" from-port="2" to-layer="1555" to-port="0"/>
		<edge from-layer="1554" from-port="0" to-layer="1555" to-port="2"/>
		<edge from-layer="1555" from-port="3" to-layer="1578" to-port="0"/>
		<edge from-layer="1555" from-port="3" to-layer="1568" to-port="0"/>
		<edge from-layer="1555" from-port="3" to-layer="1558" to-port="0"/>
		<edge from-layer="1555" from-port="3" to-layer="1588" to-port="0"/>
		<edge from-layer="1556" from-port="0" to-layer="1558" to-port="1"/>
		<edge from-layer="1557" from-port="0" to-layer="1558" to-port="2"/>
		<edge from-layer="1558" from-port="3" to-layer="1559" to-port="1"/>
		<edge from-layer="1559" from-port="2" to-layer="1560" to-port="0"/>
		<edge from-layer="1560" from-port="1" to-layer="1562" to-port="0"/>
		<edge from-layer="1561" from-port="0" to-layer="1562" to-port="1"/>
		<edge from-layer="1562" from-port="2" to-layer="1593" to-port="0"/>
		<edge from-layer="1563" from-port="0" to-layer="1565" to-port="1"/>
		<edge from-layer="1564" from-port="0" to-layer="1565" to-port="2"/>
		<edge from-layer="1565" from-port="3" to-layer="1569" to-port="0"/>
		<edge from-layer="1566" from-port="0" to-layer="1568" to-port="1"/>
		<edge from-layer="1567" from-port="0" to-layer="1568" to-port="2"/>
		<edge from-layer="1568" from-port="3" to-layer="1569" to-port="1"/>
		<edge from-layer="1569" from-port="2" to-layer="1570" to-port="0"/>
		<edge from-layer="1570" from-port="1" to-layer="1572" to-port="0"/>
		<edge from-layer="1571" from-port="0" to-layer="1572" to-port="1"/>
		<edge from-layer="1572" from-port="2" to-layer="1593" to-port="1"/>
		<edge from-layer="1573" from-port="0" to-layer="1575" to-port="1"/>
		<edge from-layer="1574" from-port="0" to-layer="1575" to-port="2"/>
		<edge from-layer="1575" from-port="3" to-layer="1579" to-port="0"/>
		<edge from-layer="1576" from-port="0" to-layer="1578" to-port="1"/>
		<edge from-layer="1577" from-port="0" to-layer="1578" to-port="2"/>
		<edge from-layer="1578" from-port="3" to-layer="1579" to-port="1"/>
		<edge from-layer="1579" from-port="2" to-layer="1580" to-port="0"/>
		<edge from-layer="1580" from-port="1" to-layer="1582" to-port="0"/>
		<edge from-layer="1581" from-port="0" to-layer="1582" to-port="1"/>
		<edge from-layer="1582" from-port="2" to-layer="1593" to-port="2"/>
		<edge from-layer="1583" from-port="0" to-layer="1585" to-port="1"/>
		<edge from-layer="1584" from-port="0" to-layer="1585" to-port="2"/>
		<edge from-layer="1585" from-port="3" to-layer="1589" to-port="0"/>
		<edge from-layer="1586" from-port="0" to-layer="1588" to-port="1"/>
		<edge from-layer="1587" from-port="0" to-layer="1588" to-port="2"/>
		<edge from-layer="1588" from-port="3" to-layer="1589" to-port="1"/>
		<edge from-layer="1589" from-port="2" to-layer="1590" to-port="0"/>
		<edge from-layer="1590" from-port="1" to-layer="1592" to-port="0"/>
		<edge from-layer="1591" from-port="0" to-layer="1592" to-port="1"/>
		<edge from-layer="1592" from-port="2" to-layer="1593" to-port="3"/>
		<edge from-layer="1593" from-port="4" to-layer="1789" to-port="3"/>
		<edge from-layer="1594" from-port="0" to-layer="1595" to-port="0"/>
		<edge from-layer="1595" from-port="1" to-layer="1691" to-port="0"/>
		<edge from-layer="1596" from-port="1" to-layer="1599" to-port="0"/>
		<edge from-layer="1597" from-port="0" to-layer="1598" to-port="0"/>
		<edge from-layer="1598" from-port="1" to-layer="1599" to-port="1"/>
		<edge from-layer="1599" from-port="2" to-layer="1602" to-port="0"/>
		<edge from-layer="1600" from-port="0" to-layer="1601" to-port="0"/>
		<edge from-layer="1601" from-port="1" to-layer="1602" to-port="1"/>
		<edge from-layer="1602" from-port="2" to-layer="1603" to-port="0"/>
		<edge from-layer="1602" from-port="2" to-layer="1695" to-port="0"/>
		<edge from-layer="1603" from-port="2" to-layer="1605" to-port="0"/>
		<edge from-layer="1604" from-port="0" to-layer="1605" to-port="1"/>
		<edge from-layer="1605" from-port="2" to-layer="1608" to-port="0"/>
		<edge from-layer="1606" from-port="0" to-layer="1607" to-port="0"/>
		<edge from-layer="1607" from-port="1" to-layer="1608" to-port="1"/>
		<edge from-layer="1608" from-port="2" to-layer="1611" to-port="0"/>
		<edge from-layer="1609" from-port="0" to-layer="1610" to-port="0"/>
		<edge from-layer="1610" from-port="1" to-layer="1611" to-port="1"/>
		<edge from-layer="1611" from-port="2" to-layer="1612" to-port="0"/>
		<edge from-layer="1612" from-port="1" to-layer="1613" to-port="0"/>
		<edge from-layer="1613" from-port="2" to-layer="1615" to-port="0"/>
		<edge from-layer="1614" from-port="0" to-layer="1615" to-port="1"/>
		<edge from-layer="1615" from-port="2" to-layer="1618" to-port="0"/>
		<edge from-layer="1616" from-port="0" to-layer="1617" to-port="0"/>
		<edge from-layer="1617" from-port="1" to-layer="1618" to-port="1"/>
		<edge from-layer="1618" from-port="2" to-layer="1621" to-port="0"/>
		<edge from-layer="1619" from-port="0" to-layer="1620" to-port="0"/>
		<edge from-layer="1620" from-port="1" to-layer="1621" to-port="1"/>
		<edge from-layer="1621" from-port="2" to-layer="1622" to-port="0"/>
		<edge from-layer="1622" from-port="1" to-layer="1623" to-port="0"/>
		<edge from-layer="1623" from-port="2" to-layer="1625" to-port="0"/>
		<edge from-layer="1624" from-port="0" to-layer="1625" to-port="1"/>
		<edge from-layer="1625" from-port="2" to-layer="1628" to-port="0"/>
		<edge from-layer="1626" from-port="0" to-layer="1627" to-port="0"/>
		<edge from-layer="1627" from-port="1" to-layer="1628" to-port="1"/>
		<edge from-layer="1628" from-port="2" to-layer="1631" to-port="0"/>
		<edge from-layer="1629" from-port="0" to-layer="1630" to-port="0"/>
		<edge from-layer="1630" from-port="1" to-layer="1631" to-port="1"/>
		<edge from-layer="1631" from-port="2" to-layer="1632" to-port="0"/>
		<edge from-layer="1632" from-port="1" to-layer="1633" to-port="0"/>
		<edge from-layer="1633" from-port="2" to-layer="1635" to-port="0"/>
		<edge from-layer="1634" from-port="0" to-layer="1635" to-port="1"/>
		<edge from-layer="1635" from-port="2" to-layer="1638" to-port="0"/>
		<edge from-layer="1636" from-port="0" to-layer="1637" to-port="0"/>
		<edge from-layer="1637" from-port="1" to-layer="1638" to-port="1"/>
		<edge from-layer="1638" from-port="2" to-layer="1641" to-port="0"/>
		<edge from-layer="1639" from-port="0" to-layer="1640" to-port="0"/>
		<edge from-layer="1640" from-port="1" to-layer="1641" to-port="1"/>
		<edge from-layer="1641" from-port="2" to-layer="1642" to-port="0"/>
		<edge from-layer="1642" from-port="1" to-layer="1643" to-port="0"/>
		<edge from-layer="1642" from-port="1" to-layer="1658" to-port="0"/>
		<edge from-layer="1643" from-port="2" to-layer="1646" to-port="0"/>
		<edge from-layer="1644" from-port="0" to-layer="1645" to-port="0"/>
		<edge from-layer="1645" from-port="1" to-layer="1646" to-port="1"/>
		<edge from-layer="1646" from-port="2" to-layer="1649" to-port="0"/>
		<edge from-layer="1647" from-port="0" to-layer="1649" to-port="1"/>
		<edge from-layer="1648" from-port="0" to-layer="1649" to-port="2"/>
		<edge from-layer="1649" from-port="3" to-layer="1654" to-port="0"/>
		<edge from-layer="1649" from-port="3" to-layer="1650" to-port="0"/>
		<edge from-layer="1650" from-port="1" to-layer="1653" to-port="0"/>
		<edge from-layer="1651" from-port="0" to-layer="1653" to-port="1"/>
		<edge from-layer="1652" from-port="0" to-layer="1653" to-port="2"/>
		<edge from-layer="1653" from-port="3" to-layer="1654" to-port="1"/>
		<edge from-layer="1654" from-port="2" to-layer="1656" to-port="0"/>
		<edge from-layer="1655" from-port="0" to-layer="1656" to-port="1"/>
		<edge from-layer="1656" from-port="2" to-layer="1657" to-port="0"/>
		<edge from-layer="1657" from-port="1" to-layer="1675" to-port="0"/>
		<edge from-layer="1657" from-port="1" to-layer="1805" to-port="0"/>
		<edge from-layer="1658" from-port="2" to-layer="1661" to-port="0"/>
		<edge from-layer="1659" from-port="0" to-layer="1660" to-port="0"/>
		<edge from-layer="1660" from-port="1" to-layer="1661" to-port="1"/>
		<edge from-layer="1661" from-port="2" to-layer="1664" to-port="0"/>
		<edge from-layer="1662" from-port="0" to-layer="1664" to-port="1"/>
		<edge from-layer="1663" from-port="0" to-layer="1664" to-port="2"/>
		<edge from-layer="1664" from-port="3" to-layer="1665" to-port="0"/>
		<edge from-layer="1664" from-port="3" to-layer="1669" to-port="0"/>
		<edge from-layer="1665" from-port="1" to-layer="1668" to-port="0"/>
		<edge from-layer="1666" from-port="0" to-layer="1668" to-port="1"/>
		<edge from-layer="1667" from-port="0" to-layer="1668" to-port="2"/>
		<edge from-layer="1668" from-port="3" to-layer="1669" to-port="1"/>
		<edge from-layer="1669" from-port="2" to-layer="1671" to-port="0"/>
		<edge from-layer="1670" from-port="0" to-layer="1671" to-port="1"/>
		<edge from-layer="1671" from-port="2" to-layer="1672" to-port="0"/>
		<edge from-layer="1672" from-port="1" to-layer="1674" to-port="0"/>
		<edge from-layer="1672" from-port="1" to-layer="1816" to-port="0"/>
		<edge from-layer="1673" from-port="0" to-layer="1674" to-port="1"/>
		<edge from-layer="1674" from-port="2" to-layer="1675" to-port="1"/>
		<edge from-layer="1675" from-port="2" to-layer="1677" to-port="0"/>
		<edge from-layer="1676" from-port="0" to-layer="1677" to-port="1"/>
		<edge from-layer="1677" from-port="2" to-layer="1689" to-port="0"/>
		<edge from-layer="1677" from-port="2" to-layer="1679" to-port="0"/>
		<edge from-layer="1678" from-port="0" to-layer="1680" to-port="0"/>
		<edge from-layer="1679" from-port="1" to-layer="1680" to-port="1"/>
		<edge from-layer="1680" from-port="2" to-layer="1681" to-port="0"/>
		<edge from-layer="1681" from-port="1" to-layer="1683" to-port="0"/>
		<edge from-layer="1682" from-port="0" to-layer="1683" to-port="1"/>
		<edge from-layer="1683" from-port="2" to-layer="1684" to-port="0"/>
		<edge from-layer="1684" from-port="1" to-layer="1686" to-port="0"/>
		<edge from-layer="1685" from-port="0" to-layer="1686" to-port="1"/>
		<edge from-layer="1686" from-port="2" to-layer="1688" to-port="0"/>
		<edge from-layer="1687" from-port="0" to-layer="1688" to-port="1"/>
		<edge from-layer="1688" from-port="2" to-layer="1689" to-port="1"/>
		<edge from-layer="1689" from-port="3" to-layer="1750" to-port="1"/>
		<edge from-layer="1689" from-port="3" to-layer="1805" to-port="1"/>
		<edge from-layer="1689" from-port="3" to-layer="1691" to-port="1"/>
		<edge from-layer="1689" from-port="3" to-layer="1816" to-port="1"/>
		<edge from-layer="1690" from-port="0" to-layer="1691" to-port="2"/>
		<edge from-layer="1691" from-port="3" to-layer="1694" to-port="0"/>
		<edge from-layer="1691" from-port="3" to-layer="1780" to-port="0"/>
		<edge from-layer="1691" from-port="3" to-layer="1770" to-port="0"/>
		<edge from-layer="1691" from-port="3" to-layer="1760" to-port="0"/>
		<edge from-layer="1692" from-port="0" to-layer="1694" to-port="1"/>
		<edge from-layer="1693" from-port="0" to-layer="1694" to-port="2"/>
		<edge from-layer="1694" from-port="3" to-layer="1754" to-port="0"/>
		<edge from-layer="1695" from-port="2" to-layer="1697" to-port="0"/>
		<edge from-layer="1696" from-port="0" to-layer="1697" to-port="1"/>
		<edge from-layer="1697" from-port="2" to-layer="1700" to-port="0"/>
		<edge from-layer="1698" from-port="0" to-layer="1699" to-port="0"/>
		<edge from-layer="1699" from-port="1" to-layer="1700" to-port="1"/>
		<edge from-layer="1700" from-port="2" to-layer="1703" to-port="0"/>
		<edge from-layer="1701" from-port="0" to-layer="1702" to-port="0"/>
		<edge from-layer="1702" from-port="1" to-layer="1703" to-port="1"/>
		<edge from-layer="1703" from-port="2" to-layer="1704" to-port="0"/>
		<edge from-layer="1704" from-port="1" to-layer="1705" to-port="0"/>
		<edge from-layer="1705" from-port="2" to-layer="1707" to-port="0"/>
		<edge from-layer="1706" from-port="0" to-layer="1707" to-port="1"/>
		<edge from-layer="1707" from-port="2" to-layer="1710" to-port="0"/>
		<edge from-layer="1708" from-port="0" to-layer="1709" to-port="0"/>
		<edge from-layer="1709" from-port="1" to-layer="1710" to-port="1"/>
		<edge from-layer="1710" from-port="2" to-layer="1713" to-port="0"/>
		<edge from-layer="1711" from-port="0" to-layer="1712" to-port="0"/>
		<edge from-layer="1712" from-port="1" to-layer="1713" to-port="1"/>
		<edge from-layer="1713" from-port="2" to-layer="1714" to-port="0"/>
		<edge from-layer="1714" from-port="1" to-layer="1715" to-port="0"/>
		<edge from-layer="1715" from-port="2" to-layer="1717" to-port="0"/>
		<edge from-layer="1716" from-port="0" to-layer="1717" to-port="1"/>
		<edge from-layer="1717" from-port="2" to-layer="1720" to-port="0"/>
		<edge from-layer="1718" from-port="0" to-layer="1719" to-port="0"/>
		<edge from-layer="1719" from-port="1" to-layer="1720" to-port="1"/>
		<edge from-layer="1720" from-port="2" to-layer="1723" to-port="0"/>
		<edge from-layer="1721" from-port="0" to-layer="1722" to-port="0"/>
		<edge from-layer="1722" from-port="1" to-layer="1723" to-port="1"/>
		<edge from-layer="1723" from-port="2" to-layer="1724" to-port="0"/>
		<edge from-layer="1724" from-port="1" to-layer="1725" to-port="0"/>
		<edge from-layer="1725" from-port="2" to-layer="1727" to-port="0"/>
		<edge from-layer="1726" from-port="0" to-layer="1727" to-port="1"/>
		<edge from-layer="1727" from-port="2" to-layer="1730" to-port="0"/>
		<edge from-layer="1728" from-port="0" to-layer="1729" to-port="0"/>
		<edge from-layer="1729" from-port="1" to-layer="1730" to-port="1"/>
		<edge from-layer="1730" from-port="2" to-layer="1733" to-port="0"/>
		<edge from-layer="1731" from-port="0" to-layer="1732" to-port="0"/>
		<edge from-layer="1732" from-port="1" to-layer="1733" to-port="1"/>
		<edge from-layer="1733" from-port="2" to-layer="1734" to-port="0"/>
		<edge from-layer="1734" from-port="1" to-layer="1737" to-port="0"/>
		<edge from-layer="1735" from-port="0" to-layer="1736" to-port="0"/>
		<edge from-layer="1736" from-port="1" to-layer="1737" to-port="1"/>
		<edge from-layer="1737" from-port="2" to-layer="1740" to-port="0"/>
		<edge from-layer="1738" from-port="0" to-layer="1739" to-port="0"/>
		<edge from-layer="1739" from-port="1" to-layer="1740" to-port="1"/>
		<edge from-layer="1740" from-port="2" to-layer="1741" to-port="0"/>
		<edge from-layer="1741" from-port="1" to-layer="1744" to-port="0"/>
		<edge from-layer="1742" from-port="0" to-layer="1744" to-port="1"/>
		<edge from-layer="1743" from-port="0" to-layer="1744" to-port="2"/>
		<edge from-layer="1744" from-port="3" to-layer="1746" to-port="0"/>
		<edge from-layer="1745" from-port="0" to-layer="1746" to-port="1"/>
		<edge from-layer="1746" from-port="2" to-layer="1748" to-port="0"/>
		<edge from-layer="1747" from-port="0" to-layer="1748" to-port="1"/>
		<edge from-layer="1748" from-port="2" to-layer="1750" to-port="0"/>
		<edge from-layer="1749" from-port="0" to-layer="1750" to-port="2"/>
		<edge from-layer="1750" from-port="3" to-layer="1783" to-port="0"/>
		<edge from-layer="1750" from-port="3" to-layer="1773" to-port="0"/>
		<edge from-layer="1750" from-port="3" to-layer="1753" to-port="0"/>
		<edge from-layer="1750" from-port="3" to-layer="1763" to-port="0"/>
		<edge from-layer="1751" from-port="0" to-layer="1753" to-port="1"/>
		<edge from-layer="1752" from-port="0" to-layer="1753" to-port="2"/>
		<edge from-layer="1753" from-port="3" to-layer="1754" to-port="1"/>
		<edge from-layer="1754" from-port="2" to-layer="1755" to-port="0"/>
		<edge from-layer="1755" from-port="1" to-layer="1757" to-port="0"/>
		<edge from-layer="1756" from-port="0" to-layer="1757" to-port="1"/>
		<edge from-layer="1757" from-port="2" to-layer="1788" to-port="0"/>
		<edge from-layer="1758" from-port="0" to-layer="1760" to-port="1"/>
		<edge from-layer="1759" from-port="0" to-layer="1760" to-port="2"/>
		<edge from-layer="1760" from-port="3" to-layer="1764" to-port="0"/>
		<edge from-layer="1761" from-port="0" to-layer="1763" to-port="1"/>
		<edge from-layer="1762" from-port="0" to-layer="1763" to-port="2"/>
		<edge from-layer="1763" from-port="3" to-layer="1764" to-port="1"/>
		<edge from-layer="1764" from-port="2" to-layer="1765" to-port="0"/>
		<edge from-layer="1765" from-port="1" to-layer="1767" to-port="0"/>
		<edge from-layer="1766" from-port="0" to-layer="1767" to-port="1"/>
		<edge from-layer="1767" from-port="2" to-layer="1788" to-port="1"/>
		<edge from-layer="1768" from-port="0" to-layer="1770" to-port="1"/>
		<edge from-layer="1769" from-port="0" to-layer="1770" to-port="2"/>
		<edge from-layer="1770" from-port="3" to-layer="1774" to-port="0"/>
		<edge from-layer="1771" from-port="0" to-layer="1773" to-port="1"/>
		<edge from-layer="1772" from-port="0" to-layer="1773" to-port="2"/>
		<edge from-layer="1773" from-port="3" to-layer="1774" to-port="1"/>
		<edge from-layer="1774" from-port="2" to-layer="1775" to-port="0"/>
		<edge from-layer="1775" from-port="1" to-layer="1777" to-port="0"/>
		<edge from-layer="1776" from-port="0" to-layer="1777" to-port="1"/>
		<edge from-layer="1777" from-port="2" to-layer="1788" to-port="2"/>
		<edge from-layer="1778" from-port="0" to-layer="1780" to-port="1"/>
		<edge from-layer="1779" from-port="0" to-layer="1780" to-port="2"/>
		<edge from-layer="1780" from-port="3" to-layer="1784" to-port="0"/>
		<edge from-layer="1781" from-port="0" to-layer="1783" to-port="1"/>
		<edge from-layer="1782" from-port="0" to-layer="1783" to-port="2"/>
		<edge from-layer="1783" from-port="3" to-layer="1784" to-port="1"/>
		<edge from-layer="1784" from-port="2" to-layer="1785" to-port="0"/>
		<edge from-layer="1785" from-port="1" to-layer="1787" to-port="0"/>
		<edge from-layer="1786" from-port="0" to-layer="1787" to-port="1"/>
		<edge from-layer="1787" from-port="2" to-layer="1788" to-port="3"/>
		<edge from-layer="1788" from-port="4" to-layer="1789" to-port="4"/>
		<edge from-layer="1789" from-port="5" to-layer="1791" to-port="0"/>
		<edge from-layer="1790" from-port="0" to-layer="1791" to-port="1"/>
		<edge from-layer="1791" from-port="2" to-layer="1793" to-port="0"/>
		<edge from-layer="1792" from-port="0" to-layer="1793" to-port="1"/>
		<edge from-layer="1793" from-port="2" to-layer="1832" to-port="0"/>
		<edge from-layer="1793" from-port="2" to-layer="1837" to-port="0"/>
		<edge from-layer="1793" from-port="2" to-layer="1795" to-port="0"/>
		<edge from-layer="1794" from-port="0" to-layer="1795" to-port="1"/>
		<edge from-layer="1795" from-port="2" to-layer="1849" to-port="0"/>
		<edge from-layer="1796" from-port="0" to-layer="1797" to-port="2"/>
		<edge from-layer="1797" from-port="3" to-layer="1806" to-port="0"/>
		<edge from-layer="1798" from-port="0" to-layer="1799" to-port="2"/>
		<edge from-layer="1799" from-port="3" to-layer="1806" to-port="1"/>
		<edge from-layer="1800" from-port="0" to-layer="1801" to-port="2"/>
		<edge from-layer="1801" from-port="3" to-layer="1806" to-port="2"/>
		<edge from-layer="1802" from-port="0" to-layer="1803" to-port="2"/>
		<edge from-layer="1803" from-port="3" to-layer="1806" to-port="3"/>
		<edge from-layer="1804" from-port="0" to-layer="1805" to-port="2"/>
		<edge from-layer="1805" from-port="3" to-layer="1806" to-port="4"/>
		<edge from-layer="1806" from-port="5" to-layer="1822" to-port="0"/>
		<edge from-layer="1807" from-port="0" to-layer="1808" to-port="2"/>
		<edge from-layer="1808" from-port="3" to-layer="1817" to-port="0"/>
		<edge from-layer="1809" from-port="0" to-layer="1810" to-port="2"/>
		<edge from-layer="1810" from-port="3" to-layer="1817" to-port="1"/>
		<edge from-layer="1811" from-port="0" to-layer="1812" to-port="2"/>
		<edge from-layer="1812" from-port="3" to-layer="1817" to-port="2"/>
		<edge from-layer="1813" from-port="0" to-layer="1814" to-port="2"/>
		<edge from-layer="1814" from-port="3" to-layer="1817" to-port="3"/>
		<edge from-layer="1815" from-port="0" to-layer="1816" to-port="2"/>
		<edge from-layer="1816" from-port="3" to-layer="1817" to-port="4"/>
		<edge from-layer="1817" from-port="5" to-layer="1818" to-port="0"/>
		<edge from-layer="1817" from-port="5" to-layer="1821" to-port="0"/>
		<edge from-layer="1818" from-port="1" to-layer="1820" to-port="0"/>
		<edge from-layer="1819" from-port="0" to-layer="1820" to-port="1"/>
		<edge from-layer="1820" from-port="2" to-layer="1821" to-port="1"/>
		<edge from-layer="1821" from-port="2" to-layer="1822" to-port="1"/>
		<edge from-layer="1822" from-port="2" to-layer="1824" to-port="0"/>
		<edge from-layer="1823" from-port="0" to-layer="1824" to-port="1"/>
		<edge from-layer="1824" from-port="2" to-layer="1826" to-port="0"/>
		<edge from-layer="1825" from-port="0" to-layer="1826" to-port="1"/>
		<edge from-layer="1826" from-port="2" to-layer="1853" to-port="0"/>
		<edge from-layer="1826" from-port="2" to-layer="1832" to-port="1"/>
		<edge from-layer="1827" from-port="0" to-layer="1832" to-port="2"/>
		<edge from-layer="1828" from-port="0" to-layer="1829" to-port="0"/>
		<edge from-layer="1829" from-port="1" to-layer="1832" to-port="3"/>
		<edge from-layer="1830" from-port="0" to-layer="1831" to-port="0"/>
		<edge from-layer="1831" from-port="1" to-layer="1832" to-port="4"/>
		<edge from-layer="1832" from-port="5" to-layer="1836" to-port="0"/>
		<edge from-layer="1832" from-port="5" to-layer="1846" to-port="0"/>
		<edge from-layer="1833" from-port="0" to-layer="1836" to-port="1"/>
		<edge from-layer="1834" from-port="0" to-layer="1836" to-port="2"/>
		<edge from-layer="1835" from-port="0" to-layer="1836" to-port="3"/>
		<edge from-layer="1836" from-port="4" to-layer="1842" to-port="0"/>
		<edge from-layer="1836" from-port="4" to-layer="1858" to-port="0"/>
		<edge from-layer="1837" from-port="1" to-layer="1841" to-port="0"/>
		<edge from-layer="1838" from-port="0" to-layer="1841" to-port="1"/>
		<edge from-layer="1839" from-port="0" to-layer="1841" to-port="2"/>
		<edge from-layer="1840" from-port="0" to-layer="1841" to-port="3"/>
		<edge from-layer="1841" from-port="4" to-layer="1842" to-port="1"/>
		<edge from-layer="1842" from-port="2" to-layer="1847" to-port="0"/>
		<edge from-layer="1843" from-port="0" to-layer="1846" to-port="1"/>
		<edge from-layer="1844" from-port="0" to-layer="1846" to-port="2"/>
		<edge from-layer="1845" from-port="0" to-layer="1846" to-port="3"/>
		<edge from-layer="1846" from-port="4" to-layer="1847" to-port="1"/>
		<edge from-layer="1847" from-port="2" to-layer="1849" to-port="1"/>
		<edge from-layer="1847" from-port="2" to-layer="1855" to-port="1"/>
		<edge from-layer="1848" from-port="0" to-layer="1849" to-port="2"/>
		<edge from-layer="1849" from-port="3" to-layer="1851" to-port="0"/>
		<edge from-layer="1850" from-port="0" to-layer="1851" to-port="1"/>
		<edge from-layer="1851" from-port="2" to-layer="1861" to-port="0"/>
		<edge from-layer="1852" from-port="0" to-layer="1853" to-port="1"/>
		<edge from-layer="1853" from-port="2" to-layer="1855" to-port="0"/>
		<edge from-layer="1854" from-port="0" to-layer="1855" to-port="2"/>
		<edge from-layer="1855" from-port="3" to-layer="1857" to-port="0"/>
		<edge from-layer="1856" from-port="0" to-layer="1857" to-port="1"/>
		<edge from-layer="1857" from-port="2" to-layer="1861" to-port="1"/>
		<edge from-layer="1858" from-port="1" to-layer="1860" to-port="0"/>
		<edge from-layer="1859" from-port="0" to-layer="1860" to-port="1"/>
		<edge from-layer="1860" from-port="2" to-layer="1861" to-port="2"/>
		<edge from-layer="1861" from-port="3" to-layer="1864" to-port="0"/>
		<edge from-layer="1861" from-port="3" to-layer="1880" to-port="0"/>
		<edge from-layer="1862" from-port="0" to-layer="1864" to-port="1"/>
		<edge from-layer="1863" from-port="0" to-layer="1864" to-port="2"/>
		<edge from-layer="1864" from-port="3" to-layer="1866" to-port="0"/>
		<edge from-layer="1865" from-port="0" to-layer="1866" to-port="1"/>
		<edge from-layer="1866" from-port="2" to-layer="1868" to-port="0"/>
		<edge from-layer="1866" from-port="2" to-layer="1878" to-port="0"/>
		<edge from-layer="1867" from-port="0" to-layer="1869" to-port="0"/>
		<edge from-layer="1868" from-port="1" to-layer="1869" to-port="1"/>
		<edge from-layer="1869" from-port="2" to-layer="1870" to-port="0"/>
		<edge from-layer="1870" from-port="1" to-layer="1872" to-port="0"/>
		<edge from-layer="1871" from-port="0" to-layer="1872" to-port="1"/>
		<edge from-layer="1872" from-port="2" to-layer="1873" to-port="0"/>
		<edge from-layer="1873" from-port="1" to-layer="1875" to-port="0"/>
		<edge from-layer="1874" from-port="0" to-layer="1875" to-port="1"/>
		<edge from-layer="1875" from-port="2" to-layer="1877" to-port="0"/>
		<edge from-layer="1876" from-port="0" to-layer="1877" to-port="1"/>
		<edge from-layer="1877" from-port="2" to-layer="1878" to-port="1"/>
		<edge from-layer="1878" from-port="3" to-layer="1880" to-port="1"/>
		<edge from-layer="1879" from-port="0" to-layer="1880" to-port="2"/>
		<edge from-layer="1880" from-port="3" to-layer="1884" to-port="0"/>
		<edge from-layer="1881" from-port="0" to-layer="1884" to-port="1"/>
		<edge from-layer="1882" from-port="0" to-layer="1884" to-port="2"/>
		<edge from-layer="1883" from-port="0" to-layer="1884" to-port="3"/>
		<edge from-layer="1884" from-port="4" to-layer="1885" to-port="0"/>
	</edges>
	<meta_data>
		<MO_version value="2022.1.0-6910-173f328c53d"/>
		<Runtime_version value="2022.1.0-6910-173f328c53d"/>
		<legacy_path value="False"/>
		<cli_parameters>
			<caffe_parser_path value="DIR"/>
			<compress_fp16 value="True"/>
			<data_type value="FP32"/>
			<disable_nhwc_to_nchw value="False"/>
			<disable_omitting_optional value="False"/>
			<disable_resnet_optimization value="False"/>
			<disable_weights_compression value="False"/>
			<enable_concat_optimization value="False"/>
			<enable_flattening_nested_params value="False"/>
			<enable_ssd_gluoncv value="False"/>
			<extensions value="DIR"/>
			<framework value="onnx"/>
			<freeze_placeholder_with_value value="{}"/>
			<generate_deprecated_IR_V7 value="False"/>
			<input value="image"/>
			<input_model value="DIR/person-detection-asl-0001.onnx"/>
			<input_model_is_text value="False"/>
			<input_shape value="[1,3,320,320]"/>
			<k value="DIR/CustomLayersMapping.xml"/>
			<keep_shape_ops value="True"/>
			<layout value="image(nchw)"/>
			<layout_values value="{'image': {'source_layout': 'nchw', 'target_layout': None, 'is_input': True}}"/>
			<legacy_ir_generation value="False"/>
			<legacy_mxnet_model value="False"/>
			<log_level value="ERROR"/>
			<mean_scale_values value="{'image': {'mean': array([123.675, 116.28 , 103.53 ]), 'scale': array([58.395, 57.12 , 57.375])}}"/>
			<mean_values value="image[123.675,116.28,103.53]"/>
			<model_name value="person-detection-asl-0001"/>
			<output value="['boxes']"/>
			<output_dir value="DIR"/>
			<placeholder_data_types value="{}"/>
			<placeholder_shapes value="{'image': (1, 3, 320, 320)}"/>
			<progress value="False"/>
			<remove_memory value="False"/>
			<remove_output_softmax value="False"/>
			<reverse_input_channels value="True"/>
			<save_params_from_nd value="False"/>
			<scale_values value="image[58.395,57.12,57.375]"/>
			<silent value="False"/>
			<source_layout value="()"/>
			<static_shape value="False"/>
			<stream_output value="False"/>
			<target_layout value="()"/>
			<transform value=""/>
			<use_legacy_frontend value="False"/>
			<use_new_frontend value="False"/>
			<unset unset_cli_parameters="batch, counts, disable_fusing, disable_gfusing, finegrain_fusing, input_checkpoint, input_meta_graph, input_proto, input_symbol, mean_file, mean_file_offsets, move_to_preprocess, nd_prefix_name, pretrained_model_name, saved_model_dir, saved_model_tags, scale, tensorboard_logdir, tensorflow_custom_layer_libraries, tensorflow_custom_operations_config_update, tensorflow_object_detection_api_pipeline_config, tensorflow_use_custom_operations_config, transformations_config"/>
		</cli_parameters>
	</meta_data>
</net>
