<?xml version="1.0" ?>
<net name="ResMobNet_v4 (LReLU) with single SSD head" version="11">
	<layers>
		<layer id="24" name="data" type="Parameter" version="opset1">
			<data element_type="f32" shape="1,3,320,544"/>
			<rt_info>
				<attribute name="fused_names" value="data" version="0"/>
				<attribute name="old_api_map_element_type" value="f16" version="0"/>
			</rt_info>
			<output>
				<port id="0" names="data" precision="FP32">
					<dim>1</dim>
					<dim>3</dim>
					<dim>320</dim>
					<dim>544</dim>
					<rt_info>
						<attribute layout="[N,C,H,W]" name="layout" version="0"/>
					</rt_info>
				</port>
			</output>
		</layer>
		<layer id="0" name="3657366126076" type="Const" version="opset1">
			<data element_type="f32" offset="0" shape="" size="4"/>
			<output>
				<port id="0" precision="FP32"/>
			</output>
		</layer>
		<layer id="1" name="3658366226802" type="Const" version="opset1">
			<data element_type="f32" offset="4" shape="" size="4"/>
			<output>
				<port id="0" precision="FP32"/>
			</output>
		</layer>
		<layer id="2" name="3659366326142" type="Const" version="opset1">
			<data element_type="f32" offset="0" shape="" size="4"/>
			<output>
				<port id="0" precision="FP32"/>
			</output>
		</layer>
		<layer id="3" name="3660366425554" type="Const" version="opset1">
			<data element_type="f32" offset="4" shape="" size="4"/>
			<output>
				<port id="0" precision="FP32"/>
			</output>
		</layer>
		<layer id="4" name="5217522125617" type="Const" version="opset1">
			<data element_type="f32" offset="8" shape="" size="4"/>
			<output>
				<port id="0" precision="FP32"/>
			</output>
		</layer>
		<layer id="5" name="5218522225671" type="Const" version="opset1">
			<data element_type="f32" offset="12" shape="" size="4"/>
			<output>
				<port id="0" precision="FP32"/>
			</output>
		</layer>
		<layer id="6" name="5219522326493" type="Const" version="opset1">
			<data element_type="f32" offset="8" shape="" size="4"/>
			<output>
				<port id="0" precision="FP32"/>
			</output>
		</layer>
		<layer id="7" name="5220522427315" type="Const" version="opset1">
			<data element_type="f32" offset="12" shape="" size="4"/>
			<output>
				<port id="0" precision="FP32"/>
			</output>
		</layer>
		<layer id="8" name="5297530126115" type="Const" version="opset1">
			<data element_type="f32" offset="16" shape="" size="4"/>
			<output>
				<port id="0" precision="FP32"/>
			</output>
		</layer>
		<layer id="9" name="5298530225371" type="Const" version="opset1">
			<data element_type="f32" offset="20" shape="" size="4"/>
			<output>
				<port id="0" precision="FP32"/>
			</output>
		</layer>
		<layer id="10" name="5299530327369" type="Const" version="opset1">
			<data element_type="f32" offset="16" shape="" size="4"/>
			<output>
				<port id="0" precision="FP32"/>
			</output>
		</layer>
		<layer id="11" name="5300530424663" type="Const" version="opset1">
			<data element_type="f32" offset="20" shape="" size="4"/>
			<output>
				<port id="0" precision="FP32"/>
			</output>
		</layer>
		<layer id="12" name="4177418127057" type="Const" version="opset1">
			<data element_type="f32" offset="24" shape="" size="4"/>
			<output>
				<port id="0" precision="FP32"/>
			</output>
		</layer>
		<layer id="13" name="4178418227321" type="Const" version="opset1">
			<data element_type="f32" offset="28" shape="" size="4"/>
			<output>
				<port id="0" precision="FP32"/>
			</output>
		</layer>
		<layer id="14" name="4179418326376" type="Const" version="opset1">
			<data element_type="f32" offset="24" shape="" size="4"/>
			<output>
				<port id="0" precision="FP32"/>
			</output>
		</layer>
		<layer id="15" name="4180418425446" type="Const" version="opset1">
			<data element_type="f32" offset="28" shape="" size="4"/>
			<output>
				<port id="0" precision="FP32"/>
			</output>
		</layer>
		<layer id="16" name="5817582125503" type="Const" version="opset1">
			<data element_type="f32" offset="32" shape="" size="4"/>
			<output>
				<port id="0" precision="FP32"/>
			</output>
		</layer>
		<layer id="17" name="5818582226322" type="Const" version="opset1">
			<data element_type="f32" offset="36" shape="" size="4"/>
			<output>
				<port id="0" precision="FP32"/>
			</output>
		</layer>
		<layer id="18" name="5819582325365" type="Const" version="opset1">
			<data element_type="f32" offset="32" shape="" size="4"/>
			<output>
				<port id="0" precision="FP32"/>
			</output>
		</layer>
		<layer id="19" name="5820582427906" type="Const" version="opset1">
			<data element_type="f32" offset="36" shape="" size="4"/>
			<output>
				<port id="0" precision="FP32"/>
			</output>
		</layer>
		<layer id="20" name="3677368124822" type="Const" version="opset1">
			<data element_type="f32" offset="40" shape="" size="4"/>
			<output>
				<port id="0" precision="FP32"/>
			</output>
		</layer>
		<layer id="21" name="3678368226736" type="Const" version="opset1">
			<data element_type="f32" offset="44" shape="" size="4"/>
			<output>
				<port id="0" precision="FP32"/>
			</output>
		</layer>
		<layer id="22" name="3679368325701" type="Const" version="opset1">
			<data element_type="f32" offset="40" shape="" size="4"/>
			<output>
				<port id="0" precision="FP32"/>
			</output>
		</layer>
		<layer id="23" name="3680368427984" type="Const" version="opset1">
			<data element_type="f32" offset="44" shape="" size="4"/>
			<output>
				<port id="0" precision="FP32"/>
			</output>
		</layer>
		<layer id="25" name="data_mul_24444108626511" type="Const" version="opset1">
			<data element_type="f16" offset="48" shape="1,3,1,1" size="6"/>
			<output>
				<port id="0" precision="FP16">
					<dim>1</dim>
					<dim>3</dim>
					<dim>1</dim>
					<dim>1</dim>
				</port>
			</output>
		</layer>
		<layer id="26" name="data_mul_24444108613917/restored_convert" type="Convert" version="opset1">
			<data destination_type="f32"/>
			<rt_info>
				<attribute name="decompression" version="0"/>
				<attribute name="fused_names" value="data_mul_24444" version="0"/>
			</rt_info>
			<input>
				<port id="0">
					<dim>1</dim>
					<dim>3</dim>
					<dim>1</dim>
					<dim>1</dim>
				</port>
			</input>
			<output>
				<port id="1" precision="FP32">
					<dim>1</dim>
					<dim>3</dim>
					<dim>1</dim>
					<dim>1</dim>
				</port>
			</output>
		</layer>
		<layer id="27" name="data/norm/bn/mean/Fused_Mul_" type="Multiply" version="opset1">
			<data auto_broadcast="numpy"/>
			<rt_info>
				<attribute name="fused_names" value="data/norm/bn/mean/Fused_Mul_" version="0"/>
			</rt_info>
			<input>
				<port id="0">
					<dim>1</dim>
					<dim>3</dim>
					<dim>320</dim>
					<dim>544</dim>
				</port>
				<port id="1">
					<dim>1</dim>
					<dim>3</dim>
					<dim>1</dim>
					<dim>1</dim>
				</port>
			</input>
			<output>
				<port id="2" precision="FP32">
					<dim>1</dim>
					<dim>3</dim>
					<dim>320</dim>
					<dim>544</dim>
				</port>
			</output>
		</layer>
		<layer id="28" name="data_add_24446108924876" type="Const" version="opset1">
			<data element_type="f16" offset="54" shape="1,3,1,1" size="6"/>
			<output>
				<port id="0" precision="FP16">
					<dim>1</dim>
					<dim>3</dim>
					<dim>1</dim>
					<dim>1</dim>
				</port>
			</output>
		</layer>
		<layer id="29" name="data_add_24446108913918/restored_convert" type="Convert" version="opset1">
			<data destination_type="f32"/>
			<rt_info>
				<attribute name="decompression" version="0"/>
				<attribute name="fused_names" value="data_add_24446" version="0"/>
			</rt_info>
			<input>
				<port id="0">
					<dim>1</dim>
					<dim>3</dim>
					<dim>1</dim>
					<dim>1</dim>
				</port>
			</input>
			<output>
				<port id="1" precision="FP32">
					<dim>1</dim>
					<dim>3</dim>
					<dim>1</dim>
					<dim>1</dim>
				</port>
			</output>
		</layer>
		<layer id="30" name="data/norm/bn/variance/Fused_Add_" type="Add" version="opset1">
			<data auto_broadcast="numpy"/>
			<rt_info>
				<attribute name="fused_names" value="data/norm/bn/variance/Fused_Add_" version="0"/>
			</rt_info>
			<input>
				<port id="0">
					<dim>1</dim>
					<dim>3</dim>
					<dim>320</dim>
					<dim>544</dim>
				</port>
				<port id="1">
					<dim>1</dim>
					<dim>3</dim>
					<dim>1</dim>
					<dim>1</dim>
				</port>
			</input>
			<output>
				<port id="2" names="data/norm/bn" precision="FP32">
					<dim>1</dim>
					<dim>3</dim>
					<dim>320</dim>
					<dim>544</dim>
				</port>
			</output>
		</layer>
		<layer id="31" name="init_block1/dim_inc/conv/fq_input_0" type="FakeQuantize" version="opset1">
			<data auto_broadcast="numpy" levels="256"/>
			<input>
				<port id="0">
					<dim>1</dim>
					<dim>3</dim>
					<dim>320</dim>
					<dim>544</dim>
				</port>
				<port id="1"/>
				<port id="2"/>
				<port id="3"/>
				<port id="4"/>
			</input>
			<output>
				<port id="5" precision="FP32">
					<dim>1</dim>
					<dim>3</dim>
					<dim>320</dim>
					<dim>544</dim>
				</port>
			</output>
		</layer>
		<layer id="32" name="init_block1/dim_inc/bn/mean/Fused_Mul__copy109213919/restored_convert/quantized1690326934" type="Const" version="opset1">
			<data element_type="i8" offset="60" shape="32,3,3,3" size="864"/>
			<output>
				<port id="0" precision="I8">
					<dim>32</dim>
					<dim>3</dim>
					<dim>3</dim>
					<dim>3</dim>
				</port>
			</output>
		</layer>
		<layer id="33" name="init_block1/dim_inc/bn/mean/Fused_Mul__copy109213919/restored_convert/quantized/to_f32" type="Convert" version="opset1">
			<data destination_type="f32"/>
			<input>
				<port id="0">
					<dim>32</dim>
					<dim>3</dim>
					<dim>3</dim>
					<dim>3</dim>
				</port>
			</input>
			<output>
				<port id="1" precision="FP32">
					<dim>32</dim>
					<dim>3</dim>
					<dim>3</dim>
					<dim>3</dim>
				</port>
			</output>
		</layer>
		<layer id="34" name="init_block1/dim_inc/conv/fq_weights_1/zero_point1692227438" type="Const" version="opset1">
			<data element_type="f32" offset="924" shape="32,1,1,1" size="128"/>
			<output>
				<port id="0" precision="FP32">
					<dim>32</dim>
					<dim>1</dim>
					<dim>1</dim>
					<dim>1</dim>
				</port>
			</output>
		</layer>
		<layer id="35" name="init_block1/dim_inc/conv/fq_weights_1/minus_zp" type="Subtract" version="opset1">
			<data auto_broadcast="numpy"/>
			<input>
				<port id="0">
					<dim>32</dim>
					<dim>3</dim>
					<dim>3</dim>
					<dim>3</dim>
				</port>
				<port id="1">
					<dim>32</dim>
					<dim>1</dim>
					<dim>1</dim>
					<dim>1</dim>
				</port>
			</input>
			<output>
				<port id="2" precision="FP32">
					<dim>32</dim>
					<dim>3</dim>
					<dim>3</dim>
					<dim>3</dim>
				</port>
			</output>
		</layer>
		<layer id="36" name="init_block1/dim_inc/conv/fq_weights_1/scale1691124972" type="Const" version="opset1">
			<data element_type="f32" offset="1052" shape="32,1,1,1" size="128"/>
			<output>
				<port id="0" precision="FP32">
					<dim>32</dim>
					<dim>1</dim>
					<dim>1</dim>
					<dim>1</dim>
				</port>
			</output>
		</layer>
		<layer id="37" name="init_block1/dim_inc/conv/fq_weights_1/mulpiply_by_scale" type="Multiply" version="opset1">
			<data auto_broadcast="numpy"/>
			<input>
				<port id="0">
					<dim>32</dim>
					<dim>3</dim>
					<dim>3</dim>
					<dim>3</dim>
				</port>
				<port id="1">
					<dim>32</dim>
					<dim>1</dim>
					<dim>1</dim>
					<dim>1</dim>
				</port>
			</input>
			<output>
				<port id="2" precision="FP32">
					<dim>32</dim>
					<dim>3</dim>
					<dim>3</dim>
					<dim>3</dim>
				</port>
			</output>
		</layer>
		<layer id="38" name="init_block1/dim_inc/conv" type="Convolution" version="opset1">
			<data auto_pad="explicit" dilations="1,1" pads_begin="1,1" pads_end="1,1" strides="2,2"/>
			<rt_info>
				<attribute name="fused_names" value="init_block1/dim_inc/conv" version="0"/>
			</rt_info>
			<input>
				<port id="0">
					<dim>1</dim>
					<dim>3</dim>
					<dim>320</dim>
					<dim>544</dim>
				</port>
				<port id="1">
					<dim>32</dim>
					<dim>3</dim>
					<dim>3</dim>
					<dim>3</dim>
				</port>
			</input>
			<output>
				<port id="2" precision="FP32">
					<dim>1</dim>
					<dim>32</dim>
					<dim>160</dim>
					<dim>272</dim>
				</port>
			</output>
		</layer>
		<layer id="39" name="data_add_2444924454109527756" type="Const" version="opset1">
			<data element_type="f16" offset="1180" shape="1,32,1,1" size="64"/>
			<output>
				<port id="0" precision="FP16">
					<dim>1</dim>
					<dim>32</dim>
					<dim>1</dim>
					<dim>1</dim>
				</port>
			</output>
		</layer>
		<layer id="40" name="data_add_2444924454109513920/restored_convert" type="Convert" version="opset1">
			<data destination_type="f32"/>
			<rt_info>
				<attribute name="decompression" version="0"/>
				<attribute name="fused_names" value="data_add_2444924454" version="0"/>
			</rt_info>
			<input>
				<port id="0">
					<dim>1</dim>
					<dim>32</dim>
					<dim>1</dim>
					<dim>1</dim>
				</port>
			</input>
			<output>
				<port id="1" precision="FP32">
					<dim>1</dim>
					<dim>32</dim>
					<dim>1</dim>
					<dim>1</dim>
				</port>
			</output>
		</layer>
		<layer id="41" name="init_block1/dim_inc/bn/variance/Fused_Add_" type="Add" version="opset1">
			<data auto_broadcast="numpy"/>
			<rt_info>
				<attribute name="fused_names" value="init_block1/dim_inc/bn/variance/Fused_Add_" version="0"/>
			</rt_info>
			<input>
				<port id="0">
					<dim>1</dim>
					<dim>32</dim>
					<dim>160</dim>
					<dim>272</dim>
				</port>
				<port id="1">
					<dim>1</dim>
					<dim>32</dim>
					<dim>1</dim>
					<dim>1</dim>
				</port>
			</input>
			<output>
				<port id="2" names="init_block1/dim_inc/conv" precision="FP32">
					<dim>1</dim>
					<dim>32</dim>
					<dim>160</dim>
					<dim>272</dim>
				</port>
			</output>
		</layer>
		<layer id="42" name="init_block1/dim_inc/fn" type="ReLU" version="opset1">
			<rt_info>
				<attribute name="fused_names" value="init_block1/dim_inc/fn" version="0"/>
			</rt_info>
			<input>
				<port id="0">
					<dim>1</dim>
					<dim>32</dim>
					<dim>160</dim>
					<dim>272</dim>
				</port>
			</input>
			<output>
				<port id="1" names="init_block1/dim_inc/conv" precision="FP32">
					<dim>1</dim>
					<dim>32</dim>
					<dim>160</dim>
					<dim>272</dim>
				</port>
			</output>
		</layer>
		<layer id="43" name="bottleneck1_1/add/fq_input_0" type="FakeQuantize" version="opset1">
			<data auto_broadcast="numpy" levels="256"/>
			<input>
				<port id="0">
					<dim>1</dim>
					<dim>32</dim>
					<dim>160</dim>
					<dim>272</dim>
				</port>
				<port id="1"/>
				<port id="2"/>
				<port id="3"/>
				<port id="4"/>
			</input>
			<output>
				<port id="5" precision="FP32">
					<dim>1</dim>
					<dim>32</dim>
					<dim>160</dim>
					<dim>272</dim>
				</port>
			</output>
		</layer>
		<layer id="44" name="5827583127945" type="Const" version="opset1">
			<data element_type="f32" offset="1244" shape="" size="4"/>
			<output>
				<port id="0" precision="FP32"/>
			</output>
		</layer>
		<layer id="45" name="5828583227864" type="Const" version="opset1">
			<data element_type="f32" offset="1248" shape="" size="4"/>
			<output>
				<port id="0" precision="FP32"/>
			</output>
		</layer>
		<layer id="46" name="5829583327255" type="Const" version="opset1">
			<data element_type="f32" offset="1244" shape="" size="4"/>
			<output>
				<port id="0" precision="FP32"/>
			</output>
		</layer>
		<layer id="47" name="5830583427828" type="Const" version="opset1">
			<data element_type="f32" offset="1248" shape="" size="4"/>
			<output>
				<port id="0" precision="FP32"/>
			</output>
		</layer>
		<layer id="48" name="5157516127690" type="Const" version="opset1">
			<data element_type="f32" offset="1252" shape="" size="4"/>
			<output>
				<port id="0" precision="FP32"/>
			</output>
		</layer>
		<layer id="49" name="5158516227522" type="Const" version="opset1">
			<data element_type="f32" offset="1256" shape="" size="4"/>
			<output>
				<port id="0" precision="FP32"/>
			</output>
		</layer>
		<layer id="50" name="5159516325209" type="Const" version="opset1">
			<data element_type="f32" offset="1252" shape="" size="4"/>
			<output>
				<port id="0" precision="FP32"/>
			</output>
		</layer>
		<layer id="51" name="5160516424609" type="Const" version="opset1">
			<data element_type="f32" offset="1256" shape="" size="4"/>
			<output>
				<port id="0" precision="FP32"/>
			</output>
		</layer>
		<layer id="52" name="5517552125779" type="Const" version="opset1">
			<data element_type="f32" offset="1260" shape="1,8,1,1" size="32"/>
			<output>
				<port id="0" precision="FP32">
					<dim>1</dim>
					<dim>8</dim>
					<dim>1</dim>
					<dim>1</dim>
				</port>
			</output>
		</layer>
		<layer id="53" name="5518552224768" type="Const" version="opset1">
			<data element_type="f32" offset="1292" shape="1,8,1,1" size="32"/>
			<output>
				<port id="0" precision="FP32">
					<dim>1</dim>
					<dim>8</dim>
					<dim>1</dim>
					<dim>1</dim>
				</port>
			</output>
		</layer>
		<layer id="54" name="5519552327342" type="Const" version="opset1">
			<data element_type="f32" offset="1260" shape="1,8,1,1" size="32"/>
			<output>
				<port id="0" precision="FP32">
					<dim>1</dim>
					<dim>8</dim>
					<dim>1</dim>
					<dim>1</dim>
				</port>
			</output>
		</layer>
		<layer id="55" name="5520552427636" type="Const" version="opset1">
			<data element_type="f32" offset="1292" shape="1,8,1,1" size="32"/>
			<output>
				<port id="0" precision="FP32">
					<dim>1</dim>
					<dim>8</dim>
					<dim>1</dim>
					<dim>1</dim>
				</port>
			</output>
		</layer>
		<layer id="56" name="bottleneck1_1/dim_red/bn/mean/Fused_Mul__copy109913921/restored_convert/quantized1786325950" type="Const" version="opset1">
			<data element_type="i8" offset="1324" shape="8,32,1,1" size="256"/>
			<output>
				<port id="0" precision="I8">
					<dim>8</dim>
					<dim>32</dim>
					<dim>1</dim>
					<dim>1</dim>
				</port>
			</output>
		</layer>
		<layer id="57" name="bottleneck1_1/dim_red/bn/mean/Fused_Mul__copy109913921/restored_convert/quantized/to_f32" type="Convert" version="opset1">
			<data destination_type="f32"/>
			<input>
				<port id="0">
					<dim>8</dim>
					<dim>32</dim>
					<dim>1</dim>
					<dim>1</dim>
				</port>
			</input>
			<output>
				<port id="1" precision="FP32">
					<dim>8</dim>
					<dim>32</dim>
					<dim>1</dim>
					<dim>1</dim>
				</port>
			</output>
		</layer>
		<layer id="58" name="bottleneck1_1/dim_red/conv/fq_weights_1/zero_point1788227393" type="Const" version="opset1">
			<data element_type="f32" offset="1580" shape="8,1,1,1" size="32"/>
			<output>
				<port id="0" precision="FP32">
					<dim>8</dim>
					<dim>1</dim>
					<dim>1</dim>
					<dim>1</dim>
				</port>
			</output>
		</layer>
		<layer id="59" name="bottleneck1_1/dim_red/conv/fq_weights_1/minus_zp" type="Subtract" version="opset1">
			<data auto_broadcast="numpy"/>
			<input>
				<port id="0">
					<dim>8</dim>
					<dim>32</dim>
					<dim>1</dim>
					<dim>1</dim>
				</port>
				<port id="1">
					<dim>8</dim>
					<dim>1</dim>
					<dim>1</dim>
					<dim>1</dim>
				</port>
			</input>
			<output>
				<port id="2" precision="FP32">
					<dim>8</dim>
					<dim>32</dim>
					<dim>1</dim>
					<dim>1</dim>
				</port>
			</output>
		</layer>
		<layer id="60" name="bottleneck1_1/dim_red/conv/fq_weights_1/scale1787124894" type="Const" version="opset1">
			<data element_type="f32" offset="1612" shape="8,1,1,1" size="32"/>
			<output>
				<port id="0" precision="FP32">
					<dim>8</dim>
					<dim>1</dim>
					<dim>1</dim>
					<dim>1</dim>
				</port>
			</output>
		</layer>
		<layer id="61" name="bottleneck1_1/dim_red/conv/fq_weights_1/mulpiply_by_scale" type="Multiply" version="opset1">
			<data auto_broadcast="numpy"/>
			<input>
				<port id="0">
					<dim>8</dim>
					<dim>32</dim>
					<dim>1</dim>
					<dim>1</dim>
				</port>
				<port id="1">
					<dim>8</dim>
					<dim>1</dim>
					<dim>1</dim>
					<dim>1</dim>
				</port>
			</input>
			<output>
				<port id="2" precision="FP32">
					<dim>8</dim>
					<dim>32</dim>
					<dim>1</dim>
					<dim>1</dim>
				</port>
			</output>
		</layer>
		<layer id="62" name="bottleneck1_1/dim_red/conv" type="Convolution" version="opset1">
			<data auto_pad="explicit" dilations="1,1" pads_begin="0,0" pads_end="0,0" strides="1,1"/>
			<rt_info>
				<attribute name="fused_names" value="bottleneck1_1/dim_red/conv" version="0"/>
			</rt_info>
			<input>
				<port id="0">
					<dim>1</dim>
					<dim>32</dim>
					<dim>160</dim>
					<dim>272</dim>
				</port>
				<port id="1">
					<dim>8</dim>
					<dim>32</dim>
					<dim>1</dim>
					<dim>1</dim>
				</port>
			</input>
			<output>
				<port id="2" precision="FP32">
					<dim>1</dim>
					<dim>8</dim>
					<dim>160</dim>
					<dim>272</dim>
				</port>
			</output>
		</layer>
		<layer id="63" name="data_add_2445724462110224741" type="Const" version="opset1">
			<data element_type="f16" offset="1644" shape="1,8,1,1" size="16"/>
			<output>
				<port id="0" precision="FP16">
					<dim>1</dim>
					<dim>8</dim>
					<dim>1</dim>
					<dim>1</dim>
				</port>
			</output>
		</layer>
		<layer id="64" name="data_add_2445724462110213922/restored_convert" type="Convert" version="opset1">
			<data destination_type="f32"/>
			<rt_info>
				<attribute name="decompression" version="0"/>
				<attribute name="fused_names" value="data_add_2445724462" version="0"/>
			</rt_info>
			<input>
				<port id="0">
					<dim>1</dim>
					<dim>8</dim>
					<dim>1</dim>
					<dim>1</dim>
				</port>
			</input>
			<output>
				<port id="1" precision="FP32">
					<dim>1</dim>
					<dim>8</dim>
					<dim>1</dim>
					<dim>1</dim>
				</port>
			</output>
		</layer>
		<layer id="65" name="bottleneck1_1/dim_red/bn/variance/Fused_Add_" type="Add" version="opset1">
			<data auto_broadcast="numpy"/>
			<rt_info>
				<attribute name="fused_names" value="bottleneck1_1/dim_red/bn/variance/Fused_Add_" version="0"/>
			</rt_info>
			<input>
				<port id="0">
					<dim>1</dim>
					<dim>8</dim>
					<dim>160</dim>
					<dim>272</dim>
				</port>
				<port id="1">
					<dim>1</dim>
					<dim>8</dim>
					<dim>1</dim>
					<dim>1</dim>
				</port>
			</input>
			<output>
				<port id="2" names="bottleneck1_1/dim_red/conv" precision="FP32">
					<dim>1</dim>
					<dim>8</dim>
					<dim>160</dim>
					<dim>272</dim>
				</port>
			</output>
		</layer>
		<layer id="66" name="bottleneck1_1/dim_red/fn/weights3126039782110526910" type="Const" version="opset1">
			<data element_type="f16" offset="1660" shape="1" size="2"/>
			<output>
				<port id="0" precision="FP16">
					<dim>1</dim>
				</port>
			</output>
		</layer>
		<layer id="67" name="bottleneck1_1/dim_red/fn/weights3126039782110513923/restored_convert" type="Convert" version="opset1">
			<data destination_type="f32"/>
			<rt_info>
				<attribute name="decompression" version="0"/>
				<attribute name="fused_names" value="bottleneck1_1/dim_red/fn/weights3126039782" version="0"/>
			</rt_info>
			<input>
				<port id="0">
					<dim>1</dim>
				</port>
			</input>
			<output>
				<port id="1" precision="FP32">
					<dim>1</dim>
				</port>
			</output>
		</layer>
		<layer id="68" name="bottleneck1_1/dim_red/fn" type="PReLU" version="opset1">
			<rt_info>
				<attribute name="fused_names" value="bottleneck1_1/dim_red/fn" version="0"/>
			</rt_info>
			<input>
				<port id="0">
					<dim>1</dim>
					<dim>8</dim>
					<dim>160</dim>
					<dim>272</dim>
				</port>
				<port id="1">
					<dim>1</dim>
				</port>
			</input>
			<output>
				<port id="2" names="bottleneck1_1/dim_red/conv" precision="FP32">
					<dim>1</dim>
					<dim>8</dim>
					<dim>160</dim>
					<dim>272</dim>
				</port>
			</output>
		</layer>
		<layer id="69" name="bottleneck1_1/inner/dw1/conv/fq_input_0" type="FakeQuantize" version="opset1">
			<data auto_broadcast="numpy" levels="256"/>
			<input>
				<port id="0">
					<dim>1</dim>
					<dim>8</dim>
					<dim>160</dim>
					<dim>272</dim>
				</port>
				<port id="1">
					<dim>1</dim>
					<dim>8</dim>
					<dim>1</dim>
					<dim>1</dim>
				</port>
				<port id="2">
					<dim>1</dim>
					<dim>8</dim>
					<dim>1</dim>
					<dim>1</dim>
				</port>
				<port id="3">
					<dim>1</dim>
					<dim>8</dim>
					<dim>1</dim>
					<dim>1</dim>
				</port>
				<port id="4">
					<dim>1</dim>
					<dim>8</dim>
					<dim>1</dim>
					<dim>1</dim>
				</port>
			</input>
			<output>
				<port id="5" precision="FP32">
					<dim>1</dim>
					<dim>8</dim>
					<dim>160</dim>
					<dim>272</dim>
				</port>
			</output>
		</layer>
		<layer id="70" name="21998/value2200024723" type="Const" version="opset1">
			<data element_type="i64" offset="1662" shape="5" size="40"/>
			<output>
				<port id="0" precision="I64">
					<dim>5</dim>
				</port>
			</output>
		</layer>
		<layer id="71" name="bottleneck1_1/inner/dw1/bn/mean/Fused_Mul__copy110813924/restored_convert/quantized1930327543" type="Const" version="opset1">
			<data element_type="i8" offset="1702" shape="8,1,3,3" size="72"/>
			<output>
				<port id="0" precision="I8">
					<dim>8</dim>
					<dim>1</dim>
					<dim>3</dim>
					<dim>3</dim>
				</port>
			</output>
		</layer>
		<layer id="72" name="bottleneck1_1/inner/dw1/bn/mean/Fused_Mul__copy110813924/restored_convert/quantized/to_f32" type="Convert" version="opset1">
			<data destination_type="f32"/>
			<input>
				<port id="0">
					<dim>8</dim>
					<dim>1</dim>
					<dim>3</dim>
					<dim>3</dim>
				</port>
			</input>
			<output>
				<port id="1" precision="FP32">
					<dim>8</dim>
					<dim>1</dim>
					<dim>3</dim>
					<dim>3</dim>
				</port>
			</output>
		</layer>
		<layer id="73" name="bottleneck1_1/inner/dw1/conv/fq_weights_1/zero_point1932227762" type="Const" version="opset1">
			<data element_type="f32" offset="1774" shape="8,1,1,1" size="32"/>
			<output>
				<port id="0" precision="FP32">
					<dim>8</dim>
					<dim>1</dim>
					<dim>1</dim>
					<dim>1</dim>
				</port>
			</output>
		</layer>
		<layer id="74" name="bottleneck1_1/inner/dw1/conv/fq_weights_1/minus_zp" type="Subtract" version="opset1">
			<data auto_broadcast="numpy"/>
			<input>
				<port id="0">
					<dim>8</dim>
					<dim>1</dim>
					<dim>3</dim>
					<dim>3</dim>
				</port>
				<port id="1">
					<dim>8</dim>
					<dim>1</dim>
					<dim>1</dim>
					<dim>1</dim>
				</port>
			</input>
			<output>
				<port id="2" precision="FP32">
					<dim>8</dim>
					<dim>1</dim>
					<dim>3</dim>
					<dim>3</dim>
				</port>
			</output>
		</layer>
		<layer id="75" name="bottleneck1_1/inner/dw1/conv/fq_weights_1/scale1931125014" type="Const" version="opset1">
			<data element_type="f32" offset="1806" shape="8,1,1,1" size="32"/>
			<output>
				<port id="0" precision="FP32">
					<dim>8</dim>
					<dim>1</dim>
					<dim>1</dim>
					<dim>1</dim>
				</port>
			</output>
		</layer>
		<layer id="76" name="bottleneck1_1/inner/dw1/conv/fq_weights_1/mulpiply_by_scale" type="Multiply" version="opset1">
			<data auto_broadcast="numpy"/>
			<input>
				<port id="0">
					<dim>8</dim>
					<dim>1</dim>
					<dim>3</dim>
					<dim>3</dim>
				</port>
				<port id="1">
					<dim>8</dim>
					<dim>1</dim>
					<dim>1</dim>
					<dim>1</dim>
				</port>
			</input>
			<output>
				<port id="2" precision="FP32">
					<dim>8</dim>
					<dim>1</dim>
					<dim>3</dim>
					<dim>3</dim>
				</port>
			</output>
		</layer>
		<layer id="77" name="21998" type="Reshape" version="opset1">
			<data special_zero="true"/>
			<input>
				<port id="0">
					<dim>8</dim>
					<dim>1</dim>
					<dim>3</dim>
					<dim>3</dim>
				</port>
				<port id="1">
					<dim>5</dim>
				</port>
			</input>
			<output>
				<port id="2" precision="FP32">
					<dim>8</dim>
					<dim>1</dim>
					<dim>1</dim>
					<dim>3</dim>
					<dim>3</dim>
				</port>
			</output>
		</layer>
		<layer id="78" name="bottleneck1_1/inner/dw1/conv" type="GroupConvolution" version="opset1">
			<data auto_pad="explicit" dilations="1,1" pads_begin="1,1" pads_end="1,1" strides="1,1"/>
			<rt_info>
				<attribute name="fused_names" value="bottleneck1_1/inner/dw1/conv" version="0"/>
			</rt_info>
			<input>
				<port id="0">
					<dim>1</dim>
					<dim>8</dim>
					<dim>160</dim>
					<dim>272</dim>
				</port>
				<port id="1">
					<dim>8</dim>
					<dim>1</dim>
					<dim>1</dim>
					<dim>3</dim>
					<dim>3</dim>
				</port>
			</input>
			<output>
				<port id="2" precision="FP32">
					<dim>1</dim>
					<dim>8</dim>
					<dim>160</dim>
					<dim>272</dim>
				</port>
			</output>
		</layer>
		<layer id="79" name="data_add_2446524470111127318" type="Const" version="opset1">
			<data element_type="f16" offset="1838" shape="1,8,1,1" size="16"/>
			<output>
				<port id="0" precision="FP16">
					<dim>1</dim>
					<dim>8</dim>
					<dim>1</dim>
					<dim>1</dim>
				</port>
			</output>
		</layer>
		<layer id="80" name="data_add_2446524470111113925/restored_convert" type="Convert" version="opset1">
			<data destination_type="f32"/>
			<rt_info>
				<attribute name="decompression" version="0"/>
				<attribute name="fused_names" value="data_add_2446524470" version="0"/>
			</rt_info>
			<input>
				<port id="0">
					<dim>1</dim>
					<dim>8</dim>
					<dim>1</dim>
					<dim>1</dim>
				</port>
			</input>
			<output>
				<port id="1" precision="FP32">
					<dim>1</dim>
					<dim>8</dim>
					<dim>1</dim>
					<dim>1</dim>
				</port>
			</output>
		</layer>
		<layer id="81" name="bottleneck1_1/inner/dw1/bn/variance/Fused_Add_" type="Add" version="opset1">
			<data auto_broadcast="numpy"/>
			<rt_info>
				<attribute name="fused_names" value="bottleneck1_1/inner/dw1/bn/variance/Fused_Add_" version="0"/>
			</rt_info>
			<input>
				<port id="0">
					<dim>1</dim>
					<dim>8</dim>
					<dim>160</dim>
					<dim>272</dim>
				</port>
				<port id="1">
					<dim>1</dim>
					<dim>8</dim>
					<dim>1</dim>
					<dim>1</dim>
				</port>
			</input>
			<output>
				<port id="2" names="bottleneck1_1/inner/dw1/conv" precision="FP32">
					<dim>1</dim>
					<dim>8</dim>
					<dim>160</dim>
					<dim>272</dim>
				</port>
			</output>
		</layer>
		<layer id="82" name="bottleneck1_1/inner/dw1/fn/weights3089239548111426349" type="Const" version="opset1">
			<data element_type="f16" offset="1660" shape="1" size="2"/>
			<output>
				<port id="0" precision="FP16">
					<dim>1</dim>
				</port>
			</output>
		</layer>
		<layer id="83" name="bottleneck1_1/inner/dw1/fn/weights3089239548111413926/restored_convert" type="Convert" version="opset1">
			<data destination_type="f32"/>
			<rt_info>
				<attribute name="decompression" version="0"/>
				<attribute name="fused_names" value="bottleneck1_1/inner/dw1/fn/weights3089239548" version="0"/>
			</rt_info>
			<input>
				<port id="0">
					<dim>1</dim>
				</port>
			</input>
			<output>
				<port id="1" precision="FP32">
					<dim>1</dim>
				</port>
			</output>
		</layer>
		<layer id="84" name="bottleneck1_1/inner/dw1/fn" type="PReLU" version="opset1">
			<rt_info>
				<attribute name="fused_names" value="bottleneck1_1/inner/dw1/fn" version="0"/>
			</rt_info>
			<input>
				<port id="0">
					<dim>1</dim>
					<dim>8</dim>
					<dim>160</dim>
					<dim>272</dim>
				</port>
				<port id="1">
					<dim>1</dim>
				</port>
			</input>
			<output>
				<port id="2" names="bottleneck1_1/inner/dw1/conv" precision="FP32">
					<dim>1</dim>
					<dim>8</dim>
					<dim>160</dim>
					<dim>272</dim>
				</port>
			</output>
		</layer>
		<layer id="85" name="bottleneck1_1/dim_inc/conv/fq_input_0" type="FakeQuantize" version="opset1">
			<data auto_broadcast="numpy" levels="256"/>
			<input>
				<port id="0">
					<dim>1</dim>
					<dim>8</dim>
					<dim>160</dim>
					<dim>272</dim>
				</port>
				<port id="1"/>
				<port id="2"/>
				<port id="3"/>
				<port id="4"/>
			</input>
			<output>
				<port id="5" precision="FP32">
					<dim>1</dim>
					<dim>8</dim>
					<dim>160</dim>
					<dim>272</dim>
				</port>
			</output>
		</layer>
		<layer id="86" name="bottleneck1_1/dim_inc/bn/mean/Fused_Mul__copy111713927/restored_convert/quantized1750326676" type="Const" version="opset1">
			<data element_type="i8" offset="1854" shape="32,8,1,1" size="256"/>
			<output>
				<port id="0" precision="I8">
					<dim>32</dim>
					<dim>8</dim>
					<dim>1</dim>
					<dim>1</dim>
				</port>
			</output>
		</layer>
		<layer id="87" name="bottleneck1_1/dim_inc/bn/mean/Fused_Mul__copy111713927/restored_convert/quantized/to_f32" type="Convert" version="opset1">
			<data destination_type="f32"/>
			<input>
				<port id="0">
					<dim>32</dim>
					<dim>8</dim>
					<dim>1</dim>
					<dim>1</dim>
				</port>
			</input>
			<output>
				<port id="1" precision="FP32">
					<dim>32</dim>
					<dim>8</dim>
					<dim>1</dim>
					<dim>1</dim>
				</port>
			</output>
		</layer>
		<layer id="88" name="bottleneck1_1/dim_inc/conv/fq_weights_1/zero_point1752226286" type="Const" version="opset1">
			<data element_type="f32" offset="2110" shape="32,1,1,1" size="128"/>
			<output>
				<port id="0" precision="FP32">
					<dim>32</dim>
					<dim>1</dim>
					<dim>1</dim>
					<dim>1</dim>
				</port>
			</output>
		</layer>
		<layer id="89" name="bottleneck1_1/dim_inc/conv/fq_weights_1/minus_zp" type="Subtract" version="opset1">
			<data auto_broadcast="numpy"/>
			<input>
				<port id="0">
					<dim>32</dim>
					<dim>8</dim>
					<dim>1</dim>
					<dim>1</dim>
				</port>
				<port id="1">
					<dim>32</dim>
					<dim>1</dim>
					<dim>1</dim>
					<dim>1</dim>
				</port>
			</input>
			<output>
				<port id="2" precision="FP32">
					<dim>32</dim>
					<dim>8</dim>
					<dim>1</dim>
					<dim>1</dim>
				</port>
			</output>
		</layer>
		<layer id="90" name="bottleneck1_1/dim_inc/conv/fq_weights_1/scale1751127270" type="Const" version="opset1">
			<data element_type="f32" offset="2238" shape="32,1,1,1" size="128"/>
			<output>
				<port id="0" precision="FP32">
					<dim>32</dim>
					<dim>1</dim>
					<dim>1</dim>
					<dim>1</dim>
				</port>
			</output>
		</layer>
		<layer id="91" name="bottleneck1_1/dim_inc/conv/fq_weights_1/mulpiply_by_scale" type="Multiply" version="opset1">
			<data auto_broadcast="numpy"/>
			<input>
				<port id="0">
					<dim>32</dim>
					<dim>8</dim>
					<dim>1</dim>
					<dim>1</dim>
				</port>
				<port id="1">
					<dim>32</dim>
					<dim>1</dim>
					<dim>1</dim>
					<dim>1</dim>
				</port>
			</input>
			<output>
				<port id="2" precision="FP32">
					<dim>32</dim>
					<dim>8</dim>
					<dim>1</dim>
					<dim>1</dim>
				</port>
			</output>
		</layer>
		<layer id="92" name="bottleneck1_1/dim_inc/conv" type="Convolution" version="opset1">
			<data auto_pad="explicit" dilations="1,1" pads_begin="0,0" pads_end="0,0" strides="1,1"/>
			<rt_info>
				<attribute name="fused_names" value="bottleneck1_1/dim_inc/conv" version="0"/>
			</rt_info>
			<input>
				<port id="0">
					<dim>1</dim>
					<dim>8</dim>
					<dim>160</dim>
					<dim>272</dim>
				</port>
				<port id="1">
					<dim>32</dim>
					<dim>8</dim>
					<dim>1</dim>
					<dim>1</dim>
				</port>
			</input>
			<output>
				<port id="2" precision="FP32">
					<dim>1</dim>
					<dim>32</dim>
					<dim>160</dim>
					<dim>272</dim>
				</port>
			</output>
		</layer>
		<layer id="93" name="data_add_2447324478112027978" type="Const" version="opset1">
			<data element_type="f16" offset="2366" shape="1,32,1,1" size="64"/>
			<output>
				<port id="0" precision="FP16">
					<dim>1</dim>
					<dim>32</dim>
					<dim>1</dim>
					<dim>1</dim>
				</port>
			</output>
		</layer>
		<layer id="94" name="data_add_2447324478112013928/restored_convert" type="Convert" version="opset1">
			<data destination_type="f32"/>
			<rt_info>
				<attribute name="decompression" version="0"/>
				<attribute name="fused_names" value="data_add_2447324478" version="0"/>
			</rt_info>
			<input>
				<port id="0">
					<dim>1</dim>
					<dim>32</dim>
					<dim>1</dim>
					<dim>1</dim>
				</port>
			</input>
			<output>
				<port id="1" precision="FP32">
					<dim>1</dim>
					<dim>32</dim>
					<dim>1</dim>
					<dim>1</dim>
				</port>
			</output>
		</layer>
		<layer id="95" name="bottleneck1_1/dim_inc/bn/variance/Fused_Add_" type="Add" version="opset1">
			<data auto_broadcast="numpy"/>
			<rt_info>
				<attribute name="fused_names" value="bottleneck1_1/dim_inc/bn/variance/Fused_Add_" version="0"/>
			</rt_info>
			<input>
				<port id="0">
					<dim>1</dim>
					<dim>32</dim>
					<dim>160</dim>
					<dim>272</dim>
				</port>
				<port id="1">
					<dim>1</dim>
					<dim>32</dim>
					<dim>1</dim>
					<dim>1</dim>
				</port>
			</input>
			<output>
				<port id="2" names="bottleneck1_1/dim_inc/conv" precision="FP32">
					<dim>1</dim>
					<dim>32</dim>
					<dim>160</dim>
					<dim>272</dim>
				</port>
			</output>
		</layer>
		<layer id="96" name="bottleneck1_1/add/fq_input_1" type="FakeQuantize" version="opset1">
			<data auto_broadcast="numpy" levels="256"/>
			<input>
				<port id="0">
					<dim>1</dim>
					<dim>32</dim>
					<dim>160</dim>
					<dim>272</dim>
				</port>
				<port id="1"/>
				<port id="2"/>
				<port id="3"/>
				<port id="4"/>
			</input>
			<output>
				<port id="5" precision="FP32">
					<dim>1</dim>
					<dim>32</dim>
					<dim>160</dim>
					<dim>272</dim>
				</port>
			</output>
		</layer>
		<layer id="97" name="bottleneck1_1/add" type="Add" version="opset1">
			<data auto_broadcast="numpy"/>
			<rt_info>
				<attribute name="fused_names" value="bottleneck1_1/add" version="0"/>
			</rt_info>
			<input>
				<port id="0">
					<dim>1</dim>
					<dim>32</dim>
					<dim>160</dim>
					<dim>272</dim>
				</port>
				<port id="1">
					<dim>1</dim>
					<dim>32</dim>
					<dim>160</dim>
					<dim>272</dim>
				</port>
			</input>
			<output>
				<port id="2" names="bottleneck1_1/add" precision="FP32">
					<dim>1</dim>
					<dim>32</dim>
					<dim>160</dim>
					<dim>272</dim>
				</port>
			</output>
		</layer>
		<layer id="98" name="bottleneck1_1/fn/weights3103240199112424960" type="Const" version="opset1">
			<data element_type="f16" offset="1660" shape="1" size="2"/>
			<output>
				<port id="0" precision="FP16">
					<dim>1</dim>
				</port>
			</output>
		</layer>
		<layer id="99" name="bottleneck1_1/fn/weights3103240199112413929/restored_convert" type="Convert" version="opset1">
			<data destination_type="f32"/>
			<rt_info>
				<attribute name="decompression" version="0"/>
				<attribute name="fused_names" value="bottleneck1_1/fn/weights3103240199" version="0"/>
			</rt_info>
			<input>
				<port id="0">
					<dim>1</dim>
				</port>
			</input>
			<output>
				<port id="1" precision="FP32">
					<dim>1</dim>
				</port>
			</output>
		</layer>
		<layer id="100" name="bottleneck1_1/fn" type="PReLU" version="opset1">
			<rt_info>
				<attribute name="fused_names" value="bottleneck1_1/fn" version="0"/>
			</rt_info>
			<input>
				<port id="0">
					<dim>1</dim>
					<dim>32</dim>
					<dim>160</dim>
					<dim>272</dim>
				</port>
				<port id="1">
					<dim>1</dim>
				</port>
			</input>
			<output>
				<port id="2" names="bottleneck1_1/add" precision="FP32">
					<dim>1</dim>
					<dim>32</dim>
					<dim>160</dim>
					<dim>272</dim>
				</port>
			</output>
		</layer>
		<layer id="101" name="bottleneck1_2/add/fq_input_0" type="FakeQuantize" version="opset1">
			<data auto_broadcast="numpy" levels="256"/>
			<input>
				<port id="0">
					<dim>1</dim>
					<dim>32</dim>
					<dim>160</dim>
					<dim>272</dim>
				</port>
				<port id="1"/>
				<port id="2"/>
				<port id="3"/>
				<port id="4"/>
			</input>
			<output>
				<port id="5" precision="FP32">
					<dim>1</dim>
					<dim>32</dim>
					<dim>160</dim>
					<dim>272</dim>
				</port>
			</output>
		</layer>
		<layer id="102" name="4187419126883" type="Const" version="opset1">
			<data element_type="f32" offset="2430" shape="" size="4"/>
			<output>
				<port id="0" precision="FP32"/>
			</output>
		</layer>
		<layer id="103" name="4188419224687" type="Const" version="opset1">
			<data element_type="f32" offset="2434" shape="" size="4"/>
			<output>
				<port id="0" precision="FP32"/>
			</output>
		</layer>
		<layer id="104" name="4189419325758" type="Const" version="opset1">
			<data element_type="f32" offset="2430" shape="" size="4"/>
			<output>
				<port id="0" precision="FP32"/>
			</output>
		</layer>
		<layer id="105" name="4190419427750" type="Const" version="opset1">
			<data element_type="f32" offset="2434" shape="" size="4"/>
			<output>
				<port id="0" precision="FP32"/>
			</output>
		</layer>
		<layer id="106" name="5197520127774" type="Const" version="opset1">
			<data element_type="f32" offset="2438" shape="" size="4"/>
			<output>
				<port id="0" precision="FP32"/>
			</output>
		</layer>
		<layer id="107" name="5198520228014" type="Const" version="opset1">
			<data element_type="f32" offset="2442" shape="" size="4"/>
			<output>
				<port id="0" precision="FP32"/>
			</output>
		</layer>
		<layer id="108" name="5199520325146" type="Const" version="opset1">
			<data element_type="f32" offset="2438" shape="" size="4"/>
			<output>
				<port id="0" precision="FP32"/>
			</output>
		</layer>
		<layer id="109" name="5200520427711" type="Const" version="opset1">
			<data element_type="f32" offset="2442" shape="" size="4"/>
			<output>
				<port id="0" precision="FP32"/>
			</output>
		</layer>
		<layer id="110" name="4837484127177" type="Const" version="opset1">
			<data element_type="f32" offset="2446" shape="1,8,1,1" size="32"/>
			<output>
				<port id="0" precision="FP32">
					<dim>1</dim>
					<dim>8</dim>
					<dim>1</dim>
					<dim>1</dim>
				</port>
			</output>
		</layer>
		<layer id="111" name="4838484227822" type="Const" version="opset1">
			<data element_type="f32" offset="2478" shape="1,8,1,1" size="32"/>
			<output>
				<port id="0" precision="FP32">
					<dim>1</dim>
					<dim>8</dim>
					<dim>1</dim>
					<dim>1</dim>
				</port>
			</output>
		</layer>
		<layer id="112" name="4839484326814" type="Const" version="opset1">
			<data element_type="f32" offset="2446" shape="1,8,1,1" size="32"/>
			<output>
				<port id="0" precision="FP32">
					<dim>1</dim>
					<dim>8</dim>
					<dim>1</dim>
					<dim>1</dim>
				</port>
			</output>
		</layer>
		<layer id="113" name="4840484426481" type="Const" version="opset1">
			<data element_type="f32" offset="2478" shape="1,8,1,1" size="32"/>
			<output>
				<port id="0" precision="FP32">
					<dim>1</dim>
					<dim>8</dim>
					<dim>1</dim>
					<dim>1</dim>
				</port>
			</output>
		</layer>
		<layer id="114" name="bottleneck1_2/dim_red/bn/mean/Fused_Mul__copy112713930/restored_convert/quantized1696326601" type="Const" version="opset1">
			<data element_type="i8" offset="2510" shape="8,32,1,1" size="256"/>
			<output>
				<port id="0" precision="I8">
					<dim>8</dim>
					<dim>32</dim>
					<dim>1</dim>
					<dim>1</dim>
				</port>
			</output>
		</layer>
		<layer id="115" name="bottleneck1_2/dim_red/bn/mean/Fused_Mul__copy112713930/restored_convert/quantized/to_f32" type="Convert" version="opset1">
			<data destination_type="f32"/>
			<input>
				<port id="0">
					<dim>8</dim>
					<dim>32</dim>
					<dim>1</dim>
					<dim>1</dim>
				</port>
			</input>
			<output>
				<port id="1" precision="FP32">
					<dim>8</dim>
					<dim>32</dim>
					<dim>1</dim>
					<dim>1</dim>
				</port>
			</output>
		</layer>
		<layer id="116" name="bottleneck1_2/dim_red/conv/fq_weights_1/zero_point1698225152" type="Const" version="opset1">
			<data element_type="f32" offset="2766" shape="8,1,1,1" size="32"/>
			<output>
				<port id="0" precision="FP32">
					<dim>8</dim>
					<dim>1</dim>
					<dim>1</dim>
					<dim>1</dim>
				</port>
			</output>
		</layer>
		<layer id="117" name="bottleneck1_2/dim_red/conv/fq_weights_1/minus_zp" type="Subtract" version="opset1">
			<data auto_broadcast="numpy"/>
			<input>
				<port id="0">
					<dim>8</dim>
					<dim>32</dim>
					<dim>1</dim>
					<dim>1</dim>
				</port>
				<port id="1">
					<dim>8</dim>
					<dim>1</dim>
					<dim>1</dim>
					<dim>1</dim>
				</port>
			</input>
			<output>
				<port id="2" precision="FP32">
					<dim>8</dim>
					<dim>32</dim>
					<dim>1</dim>
					<dim>1</dim>
				</port>
			</output>
		</layer>
		<layer id="118" name="bottleneck1_2/dim_red/conv/fq_weights_1/scale1697126751" type="Const" version="opset1">
			<data element_type="f32" offset="2798" shape="8,1,1,1" size="32"/>
			<output>
				<port id="0" precision="FP32">
					<dim>8</dim>
					<dim>1</dim>
					<dim>1</dim>
					<dim>1</dim>
				</port>
			</output>
		</layer>
		<layer id="119" name="bottleneck1_2/dim_red/conv/fq_weights_1/mulpiply_by_scale" type="Multiply" version="opset1">
			<data auto_broadcast="numpy"/>
			<input>
				<port id="0">
					<dim>8</dim>
					<dim>32</dim>
					<dim>1</dim>
					<dim>1</dim>
				</port>
				<port id="1">
					<dim>8</dim>
					<dim>1</dim>
					<dim>1</dim>
					<dim>1</dim>
				</port>
			</input>
			<output>
				<port id="2" precision="FP32">
					<dim>8</dim>
					<dim>32</dim>
					<dim>1</dim>
					<dim>1</dim>
				</port>
			</output>
		</layer>
		<layer id="120" name="bottleneck1_2/dim_red/conv" type="Convolution" version="opset1">
			<data auto_pad="explicit" dilations="1,1" pads_begin="0,0" pads_end="0,0" strides="1,1"/>
			<rt_info>
				<attribute name="fused_names" value="bottleneck1_2/dim_red/conv" version="0"/>
			</rt_info>
			<input>
				<port id="0">
					<dim>1</dim>
					<dim>32</dim>
					<dim>160</dim>
					<dim>272</dim>
				</port>
				<port id="1">
					<dim>8</dim>
					<dim>32</dim>
					<dim>1</dim>
					<dim>1</dim>
				</port>
			</input>
			<output>
				<port id="2" precision="FP32">
					<dim>1</dim>
					<dim>8</dim>
					<dim>160</dim>
					<dim>272</dim>
				</port>
			</output>
		</layer>
		<layer id="121" name="data_add_2448124486113027309" type="Const" version="opset1">
			<data element_type="f16" offset="2830" shape="1,8,1,1" size="16"/>
			<output>
				<port id="0" precision="FP16">
					<dim>1</dim>
					<dim>8</dim>
					<dim>1</dim>
					<dim>1</dim>
				</port>
			</output>
		</layer>
		<layer id="122" name="data_add_2448124486113013931/restored_convert" type="Convert" version="opset1">
			<data destination_type="f32"/>
			<rt_info>
				<attribute name="decompression" version="0"/>
				<attribute name="fused_names" value="data_add_2448124486" version="0"/>
			</rt_info>
			<input>
				<port id="0">
					<dim>1</dim>
					<dim>8</dim>
					<dim>1</dim>
					<dim>1</dim>
				</port>
			</input>
			<output>
				<port id="1" precision="FP32">
					<dim>1</dim>
					<dim>8</dim>
					<dim>1</dim>
					<dim>1</dim>
				</port>
			</output>
		</layer>
		<layer id="123" name="bottleneck1_2/dim_red/bn/variance/Fused_Add_" type="Add" version="opset1">
			<data auto_broadcast="numpy"/>
			<rt_info>
				<attribute name="fused_names" value="bottleneck1_2/dim_red/bn/variance/Fused_Add_" version="0"/>
			</rt_info>
			<input>
				<port id="0">
					<dim>1</dim>
					<dim>8</dim>
					<dim>160</dim>
					<dim>272</dim>
				</port>
				<port id="1">
					<dim>1</dim>
					<dim>8</dim>
					<dim>1</dim>
					<dim>1</dim>
				</port>
			</input>
			<output>
				<port id="2" names="bottleneck1_2/dim_red/conv" precision="FP32">
					<dim>1</dim>
					<dim>8</dim>
					<dim>160</dim>
					<dim>272</dim>
				</port>
			</output>
		</layer>
		<layer id="124" name="bottleneck1_2/dim_red/fn/weights3097640370113326829" type="Const" version="opset1">
			<data element_type="f16" offset="1660" shape="1" size="2"/>
			<output>
				<port id="0" precision="FP16">
					<dim>1</dim>
				</port>
			</output>
		</layer>
		<layer id="125" name="bottleneck1_2/dim_red/fn/weights3097640370113313932/restored_convert" type="Convert" version="opset1">
			<data destination_type="f32"/>
			<rt_info>
				<attribute name="decompression" version="0"/>
				<attribute name="fused_names" value="bottleneck1_2/dim_red/fn/weights3097640370" version="0"/>
			</rt_info>
			<input>
				<port id="0">
					<dim>1</dim>
				</port>
			</input>
			<output>
				<port id="1" precision="FP32">
					<dim>1</dim>
				</port>
			</output>
		</layer>
		<layer id="126" name="bottleneck1_2/dim_red/fn" type="PReLU" version="opset1">
			<rt_info>
				<attribute name="fused_names" value="bottleneck1_2/dim_red/fn" version="0"/>
			</rt_info>
			<input>
				<port id="0">
					<dim>1</dim>
					<dim>8</dim>
					<dim>160</dim>
					<dim>272</dim>
				</port>
				<port id="1">
					<dim>1</dim>
				</port>
			</input>
			<output>
				<port id="2" names="bottleneck1_2/dim_red/conv" precision="FP32">
					<dim>1</dim>
					<dim>8</dim>
					<dim>160</dim>
					<dim>272</dim>
				</port>
			</output>
		</layer>
		<layer id="127" name="bottleneck1_2/inner/dw1/conv/fq_input_0" type="FakeQuantize" version="opset1">
			<data auto_broadcast="numpy" levels="256"/>
			<input>
				<port id="0">
					<dim>1</dim>
					<dim>8</dim>
					<dim>160</dim>
					<dim>272</dim>
				</port>
				<port id="1">
					<dim>1</dim>
					<dim>8</dim>
					<dim>1</dim>
					<dim>1</dim>
				</port>
				<port id="2">
					<dim>1</dim>
					<dim>8</dim>
					<dim>1</dim>
					<dim>1</dim>
				</port>
				<port id="3">
					<dim>1</dim>
					<dim>8</dim>
					<dim>1</dim>
					<dim>1</dim>
				</port>
				<port id="4">
					<dim>1</dim>
					<dim>8</dim>
					<dim>1</dim>
					<dim>1</dim>
				</port>
			</input>
			<output>
				<port id="5" precision="FP32">
					<dim>1</dim>
					<dim>8</dim>
					<dim>160</dim>
					<dim>272</dim>
				</port>
			</output>
		</layer>
		<layer id="128" name="22002/value2200426856" type="Const" version="opset1">
			<data element_type="i64" offset="1662" shape="5" size="40"/>
			<output>
				<port id="0" precision="I64">
					<dim>5</dim>
				</port>
			</output>
		</layer>
		<layer id="129" name="bottleneck1_2/inner/dw1/bn/mean/Fused_Mul__copy113613933/restored_convert/quantized1660325341" type="Const" version="opset1">
			<data element_type="i8" offset="2846" shape="8,1,3,3" size="72"/>
			<output>
				<port id="0" precision="I8">
					<dim>8</dim>
					<dim>1</dim>
					<dim>3</dim>
					<dim>3</dim>
				</port>
			</output>
		</layer>
		<layer id="130" name="bottleneck1_2/inner/dw1/bn/mean/Fused_Mul__copy113613933/restored_convert/quantized/to_f32" type="Convert" version="opset1">
			<data destination_type="f32"/>
			<input>
				<port id="0">
					<dim>8</dim>
					<dim>1</dim>
					<dim>3</dim>
					<dim>3</dim>
				</port>
			</input>
			<output>
				<port id="1" precision="FP32">
					<dim>8</dim>
					<dim>1</dim>
					<dim>3</dim>
					<dim>3</dim>
				</port>
			</output>
		</layer>
		<layer id="131" name="bottleneck1_2/inner/dw1/conv/fq_weights_1/zero_point1662227435" type="Const" version="opset1">
			<data element_type="f32" offset="2918" shape="8,1,1,1" size="32"/>
			<output>
				<port id="0" precision="FP32">
					<dim>8</dim>
					<dim>1</dim>
					<dim>1</dim>
					<dim>1</dim>
				</port>
			</output>
		</layer>
		<layer id="132" name="bottleneck1_2/inner/dw1/conv/fq_weights_1/minus_zp" type="Subtract" version="opset1">
			<data auto_broadcast="numpy"/>
			<input>
				<port id="0">
					<dim>8</dim>
					<dim>1</dim>
					<dim>3</dim>
					<dim>3</dim>
				</port>
				<port id="1">
					<dim>8</dim>
					<dim>1</dim>
					<dim>1</dim>
					<dim>1</dim>
				</port>
			</input>
			<output>
				<port id="2" precision="FP32">
					<dim>8</dim>
					<dim>1</dim>
					<dim>3</dim>
					<dim>3</dim>
				</port>
			</output>
		</layer>
		<layer id="133" name="bottleneck1_2/inner/dw1/conv/fq_weights_1/scale1661128077" type="Const" version="opset1">
			<data element_type="f32" offset="2950" shape="8,1,1,1" size="32"/>
			<output>
				<port id="0" precision="FP32">
					<dim>8</dim>
					<dim>1</dim>
					<dim>1</dim>
					<dim>1</dim>
				</port>
			</output>
		</layer>
		<layer id="134" name="bottleneck1_2/inner/dw1/conv/fq_weights_1/mulpiply_by_scale" type="Multiply" version="opset1">
			<data auto_broadcast="numpy"/>
			<input>
				<port id="0">
					<dim>8</dim>
					<dim>1</dim>
					<dim>3</dim>
					<dim>3</dim>
				</port>
				<port id="1">
					<dim>8</dim>
					<dim>1</dim>
					<dim>1</dim>
					<dim>1</dim>
				</port>
			</input>
			<output>
				<port id="2" precision="FP32">
					<dim>8</dim>
					<dim>1</dim>
					<dim>3</dim>
					<dim>3</dim>
				</port>
			</output>
		</layer>
		<layer id="135" name="22002" type="Reshape" version="opset1">
			<data special_zero="true"/>
			<input>
				<port id="0">
					<dim>8</dim>
					<dim>1</dim>
					<dim>3</dim>
					<dim>3</dim>
				</port>
				<port id="1">
					<dim>5</dim>
				</port>
			</input>
			<output>
				<port id="2" precision="FP32">
					<dim>8</dim>
					<dim>1</dim>
					<dim>1</dim>
					<dim>3</dim>
					<dim>3</dim>
				</port>
			</output>
		</layer>
		<layer id="136" name="bottleneck1_2/inner/dw1/conv" type="GroupConvolution" version="opset1">
			<data auto_pad="explicit" dilations="1,1" pads_begin="1,1" pads_end="1,1" strides="1,1"/>
			<rt_info>
				<attribute name="fused_names" value="bottleneck1_2/inner/dw1/conv" version="0"/>
			</rt_info>
			<input>
				<port id="0">
					<dim>1</dim>
					<dim>8</dim>
					<dim>160</dim>
					<dim>272</dim>
				</port>
				<port id="1">
					<dim>8</dim>
					<dim>1</dim>
					<dim>1</dim>
					<dim>3</dim>
					<dim>3</dim>
				</port>
			</input>
			<output>
				<port id="2" precision="FP32">
					<dim>1</dim>
					<dim>8</dim>
					<dim>160</dim>
					<dim>272</dim>
				</port>
			</output>
		</layer>
		<layer id="137" name="data_add_2448924494113928098" type="Const" version="opset1">
			<data element_type="f16" offset="2982" shape="1,8,1,1" size="16"/>
			<output>
				<port id="0" precision="FP16">
					<dim>1</dim>
					<dim>8</dim>
					<dim>1</dim>
					<dim>1</dim>
				</port>
			</output>
		</layer>
		<layer id="138" name="data_add_2448924494113913934/restored_convert" type="Convert" version="opset1">
			<data destination_type="f32"/>
			<rt_info>
				<attribute name="decompression" version="0"/>
				<attribute name="fused_names" value="data_add_2448924494" version="0"/>
			</rt_info>
			<input>
				<port id="0">
					<dim>1</dim>
					<dim>8</dim>
					<dim>1</dim>
					<dim>1</dim>
				</port>
			</input>
			<output>
				<port id="1" precision="FP32">
					<dim>1</dim>
					<dim>8</dim>
					<dim>1</dim>
					<dim>1</dim>
				</port>
			</output>
		</layer>
		<layer id="139" name="bottleneck1_2/inner/dw1/bn/variance/Fused_Add_" type="Add" version="opset1">
			<data auto_broadcast="numpy"/>
			<rt_info>
				<attribute name="fused_names" value="bottleneck1_2/inner/dw1/bn/variance/Fused_Add_" version="0"/>
			</rt_info>
			<input>
				<port id="0">
					<dim>1</dim>
					<dim>8</dim>
					<dim>160</dim>
					<dim>272</dim>
				</port>
				<port id="1">
					<dim>1</dim>
					<dim>8</dim>
					<dim>1</dim>
					<dim>1</dim>
				</port>
			</input>
			<output>
				<port id="2" names="bottleneck1_2/inner/dw1/conv" precision="FP32">
					<dim>1</dim>
					<dim>8</dim>
					<dim>160</dim>
					<dim>272</dim>
				</port>
			</output>
		</layer>
		<layer id="140" name="bottleneck1_2/inner/dw1/fn/weights3112440277114226688" type="Const" version="opset1">
			<data element_type="f16" offset="1660" shape="1" size="2"/>
			<output>
				<port id="0" precision="FP16">
					<dim>1</dim>
				</port>
			</output>
		</layer>
		<layer id="141" name="bottleneck1_2/inner/dw1/fn/weights3112440277114213935/restored_convert" type="Convert" version="opset1">
			<data destination_type="f32"/>
			<rt_info>
				<attribute name="decompression" version="0"/>
				<attribute name="fused_names" value="bottleneck1_2/inner/dw1/fn/weights3112440277" version="0"/>
			</rt_info>
			<input>
				<port id="0">
					<dim>1</dim>
				</port>
			</input>
			<output>
				<port id="1" precision="FP32">
					<dim>1</dim>
				</port>
			</output>
		</layer>
		<layer id="142" name="bottleneck1_2/inner/dw1/fn" type="PReLU" version="opset1">
			<rt_info>
				<attribute name="fused_names" value="bottleneck1_2/inner/dw1/fn" version="0"/>
			</rt_info>
			<input>
				<port id="0">
					<dim>1</dim>
					<dim>8</dim>
					<dim>160</dim>
					<dim>272</dim>
				</port>
				<port id="1">
					<dim>1</dim>
				</port>
			</input>
			<output>
				<port id="2" names="bottleneck1_2/inner/dw1/conv" precision="FP32">
					<dim>1</dim>
					<dim>8</dim>
					<dim>160</dim>
					<dim>272</dim>
				</port>
			</output>
		</layer>
		<layer id="143" name="bottleneck1_2/dim_inc/conv/fq_input_0" type="FakeQuantize" version="opset1">
			<data auto_broadcast="numpy" levels="256"/>
			<input>
				<port id="0">
					<dim>1</dim>
					<dim>8</dim>
					<dim>160</dim>
					<dim>272</dim>
				</port>
				<port id="1"/>
				<port id="2"/>
				<port id="3"/>
				<port id="4"/>
			</input>
			<output>
				<port id="5" precision="FP32">
					<dim>1</dim>
					<dim>8</dim>
					<dim>160</dim>
					<dim>272</dim>
				</port>
			</output>
		</layer>
		<layer id="144" name="bottleneck1_2/dim_inc/bn/mean/Fused_Mul__copy114513936/restored_convert/quantized1600325086" type="Const" version="opset1">
			<data element_type="i8" offset="2998" shape="32,8,1,1" size="256"/>
			<output>
				<port id="0" precision="I8">
					<dim>32</dim>
					<dim>8</dim>
					<dim>1</dim>
					<dim>1</dim>
				</port>
			</output>
		</layer>
		<layer id="145" name="bottleneck1_2/dim_inc/bn/mean/Fused_Mul__copy114513936/restored_convert/quantized/to_f32" type="Convert" version="opset1">
			<data destination_type="f32"/>
			<input>
				<port id="0">
					<dim>32</dim>
					<dim>8</dim>
					<dim>1</dim>
					<dim>1</dim>
				</port>
			</input>
			<output>
				<port id="1" precision="FP32">
					<dim>32</dim>
					<dim>8</dim>
					<dim>1</dim>
					<dim>1</dim>
				</port>
			</output>
		</layer>
		<layer id="146" name="bottleneck1_2/dim_inc/conv/fq_weights_1/zero_point1602225905" type="Const" version="opset1">
			<data element_type="f32" offset="3254" shape="32,1,1,1" size="128"/>
			<output>
				<port id="0" precision="FP32">
					<dim>32</dim>
					<dim>1</dim>
					<dim>1</dim>
					<dim>1</dim>
				</port>
			</output>
		</layer>
		<layer id="147" name="bottleneck1_2/dim_inc/conv/fq_weights_1/minus_zp" type="Subtract" version="opset1">
			<data auto_broadcast="numpy"/>
			<input>
				<port id="0">
					<dim>32</dim>
					<dim>8</dim>
					<dim>1</dim>
					<dim>1</dim>
				</port>
				<port id="1">
					<dim>32</dim>
					<dim>1</dim>
					<dim>1</dim>
					<dim>1</dim>
				</port>
			</input>
			<output>
				<port id="2" precision="FP32">
					<dim>32</dim>
					<dim>8</dim>
					<dim>1</dim>
					<dim>1</dim>
				</port>
			</output>
		</layer>
		<layer id="148" name="bottleneck1_2/dim_inc/conv/fq_weights_1/scale1601127807" type="Const" version="opset1">
			<data element_type="f32" offset="3382" shape="32,1,1,1" size="128"/>
			<output>
				<port id="0" precision="FP32">
					<dim>32</dim>
					<dim>1</dim>
					<dim>1</dim>
					<dim>1</dim>
				</port>
			</output>
		</layer>
		<layer id="149" name="bottleneck1_2/dim_inc/conv/fq_weights_1/mulpiply_by_scale" type="Multiply" version="opset1">
			<data auto_broadcast="numpy"/>
			<input>
				<port id="0">
					<dim>32</dim>
					<dim>8</dim>
					<dim>1</dim>
					<dim>1</dim>
				</port>
				<port id="1">
					<dim>32</dim>
					<dim>1</dim>
					<dim>1</dim>
					<dim>1</dim>
				</port>
			</input>
			<output>
				<port id="2" precision="FP32">
					<dim>32</dim>
					<dim>8</dim>
					<dim>1</dim>
					<dim>1</dim>
				</port>
			</output>
		</layer>
		<layer id="150" name="bottleneck1_2/dim_inc/conv" type="Convolution" version="opset1">
			<data auto_pad="explicit" dilations="1,1" pads_begin="0,0" pads_end="0,0" strides="1,1"/>
			<rt_info>
				<attribute name="fused_names" value="bottleneck1_2/dim_inc/conv" version="0"/>
			</rt_info>
			<input>
				<port id="0">
					<dim>1</dim>
					<dim>8</dim>
					<dim>160</dim>
					<dim>272</dim>
				</port>
				<port id="1">
					<dim>32</dim>
					<dim>8</dim>
					<dim>1</dim>
					<dim>1</dim>
				</port>
			</input>
			<output>
				<port id="2" precision="FP32">
					<dim>1</dim>
					<dim>32</dim>
					<dim>160</dim>
					<dim>272</dim>
				</port>
			</output>
		</layer>
		<layer id="151" name="data_add_2449724502114827432" type="Const" version="opset1">
			<data element_type="f16" offset="3510" shape="1,32,1,1" size="64"/>
			<output>
				<port id="0" precision="FP16">
					<dim>1</dim>
					<dim>32</dim>
					<dim>1</dim>
					<dim>1</dim>
				</port>
			</output>
		</layer>
		<layer id="152" name="data_add_2449724502114813937/restored_convert" type="Convert" version="opset1">
			<data destination_type="f32"/>
			<rt_info>
				<attribute name="decompression" version="0"/>
				<attribute name="fused_names" value="data_add_2449724502" version="0"/>
			</rt_info>
			<input>
				<port id="0">
					<dim>1</dim>
					<dim>32</dim>
					<dim>1</dim>
					<dim>1</dim>
				</port>
			</input>
			<output>
				<port id="1" precision="FP32">
					<dim>1</dim>
					<dim>32</dim>
					<dim>1</dim>
					<dim>1</dim>
				</port>
			</output>
		</layer>
		<layer id="153" name="bottleneck1_2/dim_inc/bn/variance/Fused_Add_" type="Add" version="opset1">
			<data auto_broadcast="numpy"/>
			<rt_info>
				<attribute name="fused_names" value="bottleneck1_2/dim_inc/bn/variance/Fused_Add_" version="0"/>
			</rt_info>
			<input>
				<port id="0">
					<dim>1</dim>
					<dim>32</dim>
					<dim>160</dim>
					<dim>272</dim>
				</port>
				<port id="1">
					<dim>1</dim>
					<dim>32</dim>
					<dim>1</dim>
					<dim>1</dim>
				</port>
			</input>
			<output>
				<port id="2" names="bottleneck1_2/dim_inc/conv" precision="FP32">
					<dim>1</dim>
					<dim>32</dim>
					<dim>160</dim>
					<dim>272</dim>
				</port>
			</output>
		</layer>
		<layer id="154" name="bottleneck1_2/add/fq_input_1" type="FakeQuantize" version="opset1">
			<data auto_broadcast="numpy" levels="256"/>
			<input>
				<port id="0">
					<dim>1</dim>
					<dim>32</dim>
					<dim>160</dim>
					<dim>272</dim>
				</port>
				<port id="1"/>
				<port id="2"/>
				<port id="3"/>
				<port id="4"/>
			</input>
			<output>
				<port id="5" precision="FP32">
					<dim>1</dim>
					<dim>32</dim>
					<dim>160</dim>
					<dim>272</dim>
				</port>
			</output>
		</layer>
		<layer id="155" name="bottleneck1_2/add" type="Add" version="opset1">
			<data auto_broadcast="numpy"/>
			<rt_info>
				<attribute name="fused_names" value="bottleneck1_2/add" version="0"/>
			</rt_info>
			<input>
				<port id="0">
					<dim>1</dim>
					<dim>32</dim>
					<dim>160</dim>
					<dim>272</dim>
				</port>
				<port id="1">
					<dim>1</dim>
					<dim>32</dim>
					<dim>160</dim>
					<dim>272</dim>
				</port>
			</input>
			<output>
				<port id="2" names="bottleneck1_2/add" precision="FP32">
					<dim>1</dim>
					<dim>32</dim>
					<dim>160</dim>
					<dim>272</dim>
				</port>
			</output>
		</layer>
		<layer id="156" name="bottleneck1_2/fn/weights3116839932115224849" type="Const" version="opset1">
			<data element_type="f16" offset="1660" shape="1" size="2"/>
			<output>
				<port id="0" precision="FP16">
					<dim>1</dim>
				</port>
			</output>
		</layer>
		<layer id="157" name="bottleneck1_2/fn/weights3116839932115213938/restored_convert" type="Convert" version="opset1">
			<data destination_type="f32"/>
			<rt_info>
				<attribute name="decompression" version="0"/>
				<attribute name="fused_names" value="bottleneck1_2/fn/weights3116839932" version="0"/>
			</rt_info>
			<input>
				<port id="0">
					<dim>1</dim>
				</port>
			</input>
			<output>
				<port id="1" precision="FP32">
					<dim>1</dim>
				</port>
			</output>
		</layer>
		<layer id="158" name="bottleneck1_2/fn" type="PReLU" version="opset1">
			<rt_info>
				<attribute name="fused_names" value="bottleneck1_2/fn" version="0"/>
			</rt_info>
			<input>
				<port id="0">
					<dim>1</dim>
					<dim>32</dim>
					<dim>160</dim>
					<dim>272</dim>
				</port>
				<port id="1">
					<dim>1</dim>
				</port>
			</input>
			<output>
				<port id="2" names="bottleneck1_2/add" precision="FP32">
					<dim>1</dim>
					<dim>32</dim>
					<dim>160</dim>
					<dim>272</dim>
				</port>
			</output>
		</layer>
		<layer id="159" name="bottleneck1_3/add/fq_input_0" type="FakeQuantize" version="opset1">
			<data auto_broadcast="numpy" levels="256"/>
			<input>
				<port id="0">
					<dim>1</dim>
					<dim>32</dim>
					<dim>160</dim>
					<dim>272</dim>
				</port>
				<port id="1"/>
				<port id="2"/>
				<port id="3"/>
				<port id="4"/>
			</input>
			<output>
				<port id="5" precision="FP32">
					<dim>1</dim>
					<dim>32</dim>
					<dim>160</dim>
					<dim>272</dim>
				</port>
			</output>
		</layer>
		<layer id="160" name="5307531127162" type="Const" version="opset1">
			<data element_type="f32" offset="3574" shape="" size="4"/>
			<output>
				<port id="0" precision="FP32"/>
			</output>
		</layer>
		<layer id="161" name="5308531224957" type="Const" version="opset1">
			<data element_type="f32" offset="3578" shape="" size="4"/>
			<output>
				<port id="0" precision="FP32"/>
			</output>
		</layer>
		<layer id="162" name="5309531326916" type="Const" version="opset1">
			<data element_type="f32" offset="3574" shape="" size="4"/>
			<output>
				<port id="0" precision="FP32"/>
			</output>
		</layer>
		<layer id="163" name="5310531427654" type="Const" version="opset1">
			<data element_type="f32" offset="3578" shape="" size="4"/>
			<output>
				<port id="0" precision="FP32"/>
			</output>
		</layer>
		<layer id="164" name="3777378125071" type="Const" version="opset1">
			<data element_type="f32" offset="3582" shape="" size="4"/>
			<output>
				<port id="0" precision="FP32"/>
			</output>
		</layer>
		<layer id="165" name="3778378226265" type="Const" version="opset1">
			<data element_type="f32" offset="3586" shape="" size="4"/>
			<output>
				<port id="0" precision="FP32"/>
			</output>
		</layer>
		<layer id="166" name="3779378326475" type="Const" version="opset1">
			<data element_type="f32" offset="3582" shape="" size="4"/>
			<output>
				<port id="0" precision="FP32"/>
			</output>
		</layer>
		<layer id="167" name="3780378426886" type="Const" version="opset1">
			<data element_type="f32" offset="3586" shape="" size="4"/>
			<output>
				<port id="0" precision="FP32"/>
			</output>
		</layer>
		<layer id="168" name="3917392125590" type="Const" version="opset1">
			<data element_type="f32" offset="3590" shape="1,8,1,1" size="32"/>
			<output>
				<port id="0" precision="FP32">
					<dim>1</dim>
					<dim>8</dim>
					<dim>1</dim>
					<dim>1</dim>
				</port>
			</output>
		</layer>
		<layer id="169" name="3918392225572" type="Const" version="opset1">
			<data element_type="f32" offset="3622" shape="1,8,1,1" size="32"/>
			<output>
				<port id="0" precision="FP32">
					<dim>1</dim>
					<dim>8</dim>
					<dim>1</dim>
					<dim>1</dim>
				</port>
			</output>
		</layer>
		<layer id="170" name="3919392325809" type="Const" version="opset1">
			<data element_type="f32" offset="3590" shape="1,8,1,1" size="32"/>
			<output>
				<port id="0" precision="FP32">
					<dim>1</dim>
					<dim>8</dim>
					<dim>1</dim>
					<dim>1</dim>
				</port>
			</output>
		</layer>
		<layer id="171" name="3920392427216" type="Const" version="opset1">
			<data element_type="f32" offset="3622" shape="1,8,1,1" size="32"/>
			<output>
				<port id="0" precision="FP32">
					<dim>1</dim>
					<dim>8</dim>
					<dim>1</dim>
					<dim>1</dim>
				</port>
			</output>
		</layer>
		<layer id="172" name="bottleneck1_3/dim_red/bn/mean/Fused_Mul__copy115513939/restored_convert/quantized1762328044" type="Const" version="opset1">
			<data element_type="i8" offset="3654" shape="8,32,1,1" size="256"/>
			<output>
				<port id="0" precision="I8">
					<dim>8</dim>
					<dim>32</dim>
					<dim>1</dim>
					<dim>1</dim>
				</port>
			</output>
		</layer>
		<layer id="173" name="bottleneck1_3/dim_red/bn/mean/Fused_Mul__copy115513939/restored_convert/quantized/to_f32" type="Convert" version="opset1">
			<data destination_type="f32"/>
			<input>
				<port id="0">
					<dim>8</dim>
					<dim>32</dim>
					<dim>1</dim>
					<dim>1</dim>
				</port>
			</input>
			<output>
				<port id="1" precision="FP32">
					<dim>8</dim>
					<dim>32</dim>
					<dim>1</dim>
					<dim>1</dim>
				</port>
			</output>
		</layer>
		<layer id="174" name="bottleneck1_3/dim_red/conv/fq_weights_1/zero_point1764227657" type="Const" version="opset1">
			<data element_type="f32" offset="3910" shape="8,1,1,1" size="32"/>
			<output>
				<port id="0" precision="FP32">
					<dim>8</dim>
					<dim>1</dim>
					<dim>1</dim>
					<dim>1</dim>
				</port>
			</output>
		</layer>
		<layer id="175" name="bottleneck1_3/dim_red/conv/fq_weights_1/minus_zp" type="Subtract" version="opset1">
			<data auto_broadcast="numpy"/>
			<input>
				<port id="0">
					<dim>8</dim>
					<dim>32</dim>
					<dim>1</dim>
					<dim>1</dim>
				</port>
				<port id="1">
					<dim>8</dim>
					<dim>1</dim>
					<dim>1</dim>
					<dim>1</dim>
				</port>
			</input>
			<output>
				<port id="2" precision="FP32">
					<dim>8</dim>
					<dim>32</dim>
					<dim>1</dim>
					<dim>1</dim>
				</port>
			</output>
		</layer>
		<layer id="176" name="bottleneck1_3/dim_red/conv/fq_weights_1/scale1763127576" type="Const" version="opset1">
			<data element_type="f32" offset="3942" shape="8,1,1,1" size="32"/>
			<output>
				<port id="0" precision="FP32">
					<dim>8</dim>
					<dim>1</dim>
					<dim>1</dim>
					<dim>1</dim>
				</port>
			</output>
		</layer>
		<layer id="177" name="bottleneck1_3/dim_red/conv/fq_weights_1/mulpiply_by_scale" type="Multiply" version="opset1">
			<data auto_broadcast="numpy"/>
			<input>
				<port id="0">
					<dim>8</dim>
					<dim>32</dim>
					<dim>1</dim>
					<dim>1</dim>
				</port>
				<port id="1">
					<dim>8</dim>
					<dim>1</dim>
					<dim>1</dim>
					<dim>1</dim>
				</port>
			</input>
			<output>
				<port id="2" precision="FP32">
					<dim>8</dim>
					<dim>32</dim>
					<dim>1</dim>
					<dim>1</dim>
				</port>
			</output>
		</layer>
		<layer id="178" name="bottleneck1_3/dim_red/conv" type="Convolution" version="opset1">
			<data auto_pad="explicit" dilations="1,1" pads_begin="0,0" pads_end="0,0" strides="1,1"/>
			<rt_info>
				<attribute name="fused_names" value="bottleneck1_3/dim_red/conv" version="0"/>
			</rt_info>
			<input>
				<port id="0">
					<dim>1</dim>
					<dim>32</dim>
					<dim>160</dim>
					<dim>272</dim>
				</port>
				<port id="1">
					<dim>8</dim>
					<dim>32</dim>
					<dim>1</dim>
					<dim>1</dim>
				</port>
			</input>
			<output>
				<port id="2" precision="FP32">
					<dim>1</dim>
					<dim>8</dim>
					<dim>160</dim>
					<dim>272</dim>
				</port>
			</output>
		</layer>
		<layer id="179" name="data_add_2450524510115825491" type="Const" version="opset1">
			<data element_type="f16" offset="3974" shape="1,8,1,1" size="16"/>
			<output>
				<port id="0" precision="FP16">
					<dim>1</dim>
					<dim>8</dim>
					<dim>1</dim>
					<dim>1</dim>
				</port>
			</output>
		</layer>
		<layer id="180" name="data_add_2450524510115813940/restored_convert" type="Convert" version="opset1">
			<data destination_type="f32"/>
			<rt_info>
				<attribute name="decompression" version="0"/>
				<attribute name="fused_names" value="data_add_2450524510" version="0"/>
			</rt_info>
			<input>
				<port id="0">
					<dim>1</dim>
					<dim>8</dim>
					<dim>1</dim>
					<dim>1</dim>
				</port>
			</input>
			<output>
				<port id="1" precision="FP32">
					<dim>1</dim>
					<dim>8</dim>
					<dim>1</dim>
					<dim>1</dim>
				</port>
			</output>
		</layer>
		<layer id="181" name="bottleneck1_3/dim_red/bn/variance/Fused_Add_" type="Add" version="opset1">
			<data auto_broadcast="numpy"/>
			<rt_info>
				<attribute name="fused_names" value="bottleneck1_3/dim_red/bn/variance/Fused_Add_" version="0"/>
			</rt_info>
			<input>
				<port id="0">
					<dim>1</dim>
					<dim>8</dim>
					<dim>160</dim>
					<dim>272</dim>
				</port>
				<port id="1">
					<dim>1</dim>
					<dim>8</dim>
					<dim>1</dim>
					<dim>1</dim>
				</port>
			</input>
			<output>
				<port id="2" names="bottleneck1_3/dim_red/conv" precision="FP32">
					<dim>1</dim>
					<dim>8</dim>
					<dim>160</dim>
					<dim>272</dim>
				</port>
			</output>
		</layer>
		<layer id="182" name="bottleneck1_3/dim_red/fn/weights3110439347116126643" type="Const" version="opset1">
			<data element_type="f16" offset="1660" shape="1" size="2"/>
			<output>
				<port id="0" precision="FP16">
					<dim>1</dim>
				</port>
			</output>
		</layer>
		<layer id="183" name="bottleneck1_3/dim_red/fn/weights3110439347116113941/restored_convert" type="Convert" version="opset1">
			<data destination_type="f32"/>
			<rt_info>
				<attribute name="decompression" version="0"/>
				<attribute name="fused_names" value="bottleneck1_3/dim_red/fn/weights3110439347" version="0"/>
			</rt_info>
			<input>
				<port id="0">
					<dim>1</dim>
				</port>
			</input>
			<output>
				<port id="1" precision="FP32">
					<dim>1</dim>
				</port>
			</output>
		</layer>
		<layer id="184" name="bottleneck1_3/dim_red/fn" type="PReLU" version="opset1">
			<rt_info>
				<attribute name="fused_names" value="bottleneck1_3/dim_red/fn" version="0"/>
			</rt_info>
			<input>
				<port id="0">
					<dim>1</dim>
					<dim>8</dim>
					<dim>160</dim>
					<dim>272</dim>
				</port>
				<port id="1">
					<dim>1</dim>
				</port>
			</input>
			<output>
				<port id="2" names="bottleneck1_3/dim_red/conv" precision="FP32">
					<dim>1</dim>
					<dim>8</dim>
					<dim>160</dim>
					<dim>272</dim>
				</port>
			</output>
		</layer>
		<layer id="185" name="bottleneck1_3/inner/dw1/conv/fq_input_0" type="FakeQuantize" version="opset1">
			<data auto_broadcast="numpy" levels="256"/>
			<input>
				<port id="0">
					<dim>1</dim>
					<dim>8</dim>
					<dim>160</dim>
					<dim>272</dim>
				</port>
				<port id="1">
					<dim>1</dim>
					<dim>8</dim>
					<dim>1</dim>
					<dim>1</dim>
				</port>
				<port id="2">
					<dim>1</dim>
					<dim>8</dim>
					<dim>1</dim>
					<dim>1</dim>
				</port>
				<port id="3">
					<dim>1</dim>
					<dim>8</dim>
					<dim>1</dim>
					<dim>1</dim>
				</port>
				<port id="4">
					<dim>1</dim>
					<dim>8</dim>
					<dim>1</dim>
					<dim>1</dim>
				</port>
			</input>
			<output>
				<port id="5" precision="FP32">
					<dim>1</dim>
					<dim>8</dim>
					<dim>160</dim>
					<dim>272</dim>
				</port>
			</output>
		</layer>
		<layer id="186" name="22006/value2200825134" type="Const" version="opset1">
			<data element_type="i64" offset="1662" shape="5" size="40"/>
			<output>
				<port id="0" precision="I64">
					<dim>5</dim>
				</port>
			</output>
		</layer>
		<layer id="187" name="bottleneck1_3/inner/dw1/bn/mean/Fused_Mul__copy116413942/restored_convert/quantized1636328158" type="Const" version="opset1">
			<data element_type="i8" offset="3990" shape="8,1,3,3" size="72"/>
			<output>
				<port id="0" precision="I8">
					<dim>8</dim>
					<dim>1</dim>
					<dim>3</dim>
					<dim>3</dim>
				</port>
			</output>
		</layer>
		<layer id="188" name="bottleneck1_3/inner/dw1/bn/mean/Fused_Mul__copy116413942/restored_convert/quantized/to_f32" type="Convert" version="opset1">
			<data destination_type="f32"/>
			<input>
				<port id="0">
					<dim>8</dim>
					<dim>1</dim>
					<dim>3</dim>
					<dim>3</dim>
				</port>
			</input>
			<output>
				<port id="1" precision="FP32">
					<dim>8</dim>
					<dim>1</dim>
					<dim>3</dim>
					<dim>3</dim>
				</port>
			</output>
		</layer>
		<layer id="189" name="bottleneck1_3/inner/dw1/conv/fq_weights_1/zero_point1638226439" type="Const" version="opset1">
			<data element_type="f32" offset="4062" shape="8,1,1,1" size="32"/>
			<output>
				<port id="0" precision="FP32">
					<dim>8</dim>
					<dim>1</dim>
					<dim>1</dim>
					<dim>1</dim>
				</port>
			</output>
		</layer>
		<layer id="190" name="bottleneck1_3/inner/dw1/conv/fq_weights_1/minus_zp" type="Subtract" version="opset1">
			<data auto_broadcast="numpy"/>
			<input>
				<port id="0">
					<dim>8</dim>
					<dim>1</dim>
					<dim>3</dim>
					<dim>3</dim>
				</port>
				<port id="1">
					<dim>8</dim>
					<dim>1</dim>
					<dim>1</dim>
					<dim>1</dim>
				</port>
			</input>
			<output>
				<port id="2" precision="FP32">
					<dim>8</dim>
					<dim>1</dim>
					<dim>3</dim>
					<dim>3</dim>
				</port>
			</output>
		</layer>
		<layer id="191" name="bottleneck1_3/inner/dw1/conv/fq_weights_1/scale1637127882" type="Const" version="opset1">
			<data element_type="f32" offset="4094" shape="8,1,1,1" size="32"/>
			<output>
				<port id="0" precision="FP32">
					<dim>8</dim>
					<dim>1</dim>
					<dim>1</dim>
					<dim>1</dim>
				</port>
			</output>
		</layer>
		<layer id="192" name="bottleneck1_3/inner/dw1/conv/fq_weights_1/mulpiply_by_scale" type="Multiply" version="opset1">
			<data auto_broadcast="numpy"/>
			<input>
				<port id="0">
					<dim>8</dim>
					<dim>1</dim>
					<dim>3</dim>
					<dim>3</dim>
				</port>
				<port id="1">
					<dim>8</dim>
					<dim>1</dim>
					<dim>1</dim>
					<dim>1</dim>
				</port>
			</input>
			<output>
				<port id="2" precision="FP32">
					<dim>8</dim>
					<dim>1</dim>
					<dim>3</dim>
					<dim>3</dim>
				</port>
			</output>
		</layer>
		<layer id="193" name="22006" type="Reshape" version="opset1">
			<data special_zero="true"/>
			<input>
				<port id="0">
					<dim>8</dim>
					<dim>1</dim>
					<dim>3</dim>
					<dim>3</dim>
				</port>
				<port id="1">
					<dim>5</dim>
				</port>
			</input>
			<output>
				<port id="2" precision="FP32">
					<dim>8</dim>
					<dim>1</dim>
					<dim>1</dim>
					<dim>3</dim>
					<dim>3</dim>
				</port>
			</output>
		</layer>
		<layer id="194" name="bottleneck1_3/inner/dw1/conv" type="GroupConvolution" version="opset1">
			<data auto_pad="explicit" dilations="1,1" pads_begin="1,1" pads_end="1,1" strides="1,1"/>
			<rt_info>
				<attribute name="fused_names" value="bottleneck1_3/inner/dw1/conv" version="0"/>
			</rt_info>
			<input>
				<port id="0">
					<dim>1</dim>
					<dim>8</dim>
					<dim>160</dim>
					<dim>272</dim>
				</port>
				<port id="1">
					<dim>8</dim>
					<dim>1</dim>
					<dim>1</dim>
					<dim>3</dim>
					<dim>3</dim>
				</port>
			</input>
			<output>
				<port id="2" precision="FP32">
					<dim>1</dim>
					<dim>8</dim>
					<dim>160</dim>
					<dim>272</dim>
				</port>
			</output>
		</layer>
		<layer id="195" name="data_add_2451324518116727348" type="Const" version="opset1">
			<data element_type="f16" offset="4126" shape="1,8,1,1" size="16"/>
			<output>
				<port id="0" precision="FP16">
					<dim>1</dim>
					<dim>8</dim>
					<dim>1</dim>
					<dim>1</dim>
				</port>
			</output>
		</layer>
		<layer id="196" name="data_add_2451324518116713943/restored_convert" type="Convert" version="opset1">
			<data destination_type="f32"/>
			<rt_info>
				<attribute name="decompression" version="0"/>
				<attribute name="fused_names" value="data_add_2451324518" version="0"/>
			</rt_info>
			<input>
				<port id="0">
					<dim>1</dim>
					<dim>8</dim>
					<dim>1</dim>
					<dim>1</dim>
				</port>
			</input>
			<output>
				<port id="1" precision="FP32">
					<dim>1</dim>
					<dim>8</dim>
					<dim>1</dim>
					<dim>1</dim>
				</port>
			</output>
		</layer>
		<layer id="197" name="bottleneck1_3/inner/dw1/bn/variance/Fused_Add_" type="Add" version="opset1">
			<data auto_broadcast="numpy"/>
			<rt_info>
				<attribute name="fused_names" value="bottleneck1_3/inner/dw1/bn/variance/Fused_Add_" version="0"/>
			</rt_info>
			<input>
				<port id="0">
					<dim>1</dim>
					<dim>8</dim>
					<dim>160</dim>
					<dim>272</dim>
				</port>
				<port id="1">
					<dim>1</dim>
					<dim>8</dim>
					<dim>1</dim>
					<dim>1</dim>
				</port>
			</input>
			<output>
				<port id="2" names="bottleneck1_3/inner/dw1/conv" precision="FP32">
					<dim>1</dim>
					<dim>8</dim>
					<dim>160</dim>
					<dim>272</dim>
				</port>
			</output>
		</layer>
		<layer id="198" name="bottleneck1_3/inner/dw1/fn/weights3123239416117026145" type="Const" version="opset1">
			<data element_type="f16" offset="1660" shape="1" size="2"/>
			<output>
				<port id="0" precision="FP16">
					<dim>1</dim>
				</port>
			</output>
		</layer>
		<layer id="199" name="bottleneck1_3/inner/dw1/fn/weights3123239416117013944/restored_convert" type="Convert" version="opset1">
			<data destination_type="f32"/>
			<rt_info>
				<attribute name="decompression" version="0"/>
				<attribute name="fused_names" value="bottleneck1_3/inner/dw1/fn/weights3123239416" version="0"/>
			</rt_info>
			<input>
				<port id="0">
					<dim>1</dim>
				</port>
			</input>
			<output>
				<port id="1" precision="FP32">
					<dim>1</dim>
				</port>
			</output>
		</layer>
		<layer id="200" name="bottleneck1_3/inner/dw1/fn" type="PReLU" version="opset1">
			<rt_info>
				<attribute name="fused_names" value="bottleneck1_3/inner/dw1/fn" version="0"/>
			</rt_info>
			<input>
				<port id="0">
					<dim>1</dim>
					<dim>8</dim>
					<dim>160</dim>
					<dim>272</dim>
				</port>
				<port id="1">
					<dim>1</dim>
				</port>
			</input>
			<output>
				<port id="2" names="bottleneck1_3/inner/dw1/conv" precision="FP32">
					<dim>1</dim>
					<dim>8</dim>
					<dim>160</dim>
					<dim>272</dim>
				</port>
			</output>
		</layer>
		<layer id="201" name="bottleneck1_3/dim_inc/conv/fq_input_0" type="FakeQuantize" version="opset1">
			<data auto_broadcast="numpy" levels="256"/>
			<input>
				<port id="0">
					<dim>1</dim>
					<dim>8</dim>
					<dim>160</dim>
					<dim>272</dim>
				</port>
				<port id="1"/>
				<port id="2"/>
				<port id="3"/>
				<port id="4"/>
			</input>
			<output>
				<port id="5" precision="FP32">
					<dim>1</dim>
					<dim>8</dim>
					<dim>160</dim>
					<dim>272</dim>
				</port>
			</output>
		</layer>
		<layer id="202" name="bottleneck1_3/dim_inc/bn/mean/Fused_Mul__copy117313945/restored_convert/quantized1669327048" type="Const" version="opset1">
			<data element_type="i8" offset="4142" shape="32,8,1,1" size="256"/>
			<output>
				<port id="0" precision="I8">
					<dim>32</dim>
					<dim>8</dim>
					<dim>1</dim>
					<dim>1</dim>
				</port>
			</output>
		</layer>
		<layer id="203" name="bottleneck1_3/dim_inc/bn/mean/Fused_Mul__copy117313945/restored_convert/quantized/to_f32" type="Convert" version="opset1">
			<data destination_type="f32"/>
			<input>
				<port id="0">
					<dim>32</dim>
					<dim>8</dim>
					<dim>1</dim>
					<dim>1</dim>
				</port>
			</input>
			<output>
				<port id="1" precision="FP32">
					<dim>32</dim>
					<dim>8</dim>
					<dim>1</dim>
					<dim>1</dim>
				</port>
			</output>
		</layer>
		<layer id="204" name="bottleneck1_3/dim_inc/conv/fq_weights_1/zero_point1671226748" type="Const" version="opset1">
			<data element_type="f32" offset="4398" shape="32,1,1,1" size="128"/>
			<output>
				<port id="0" precision="FP32">
					<dim>32</dim>
					<dim>1</dim>
					<dim>1</dim>
					<dim>1</dim>
				</port>
			</output>
		</layer>
		<layer id="205" name="bottleneck1_3/dim_inc/conv/fq_weights_1/minus_zp" type="Subtract" version="opset1">
			<data auto_broadcast="numpy"/>
			<input>
				<port id="0">
					<dim>32</dim>
					<dim>8</dim>
					<dim>1</dim>
					<dim>1</dim>
				</port>
				<port id="1">
					<dim>32</dim>
					<dim>1</dim>
					<dim>1</dim>
					<dim>1</dim>
				</port>
			</input>
			<output>
				<port id="2" precision="FP32">
					<dim>32</dim>
					<dim>8</dim>
					<dim>1</dim>
					<dim>1</dim>
				</port>
			</output>
		</layer>
		<layer id="206" name="bottleneck1_3/dim_inc/conv/fq_weights_1/scale1670125125" type="Const" version="opset1">
			<data element_type="f32" offset="4526" shape="32,1,1,1" size="128"/>
			<output>
				<port id="0" precision="FP32">
					<dim>32</dim>
					<dim>1</dim>
					<dim>1</dim>
					<dim>1</dim>
				</port>
			</output>
		</layer>
		<layer id="207" name="bottleneck1_3/dim_inc/conv/fq_weights_1/mulpiply_by_scale" type="Multiply" version="opset1">
			<data auto_broadcast="numpy"/>
			<input>
				<port id="0">
					<dim>32</dim>
					<dim>8</dim>
					<dim>1</dim>
					<dim>1</dim>
				</port>
				<port id="1">
					<dim>32</dim>
					<dim>1</dim>
					<dim>1</dim>
					<dim>1</dim>
				</port>
			</input>
			<output>
				<port id="2" precision="FP32">
					<dim>32</dim>
					<dim>8</dim>
					<dim>1</dim>
					<dim>1</dim>
				</port>
			</output>
		</layer>
		<layer id="208" name="bottleneck1_3/dim_inc/conv" type="Convolution" version="opset1">
			<data auto_pad="explicit" dilations="1,1" pads_begin="0,0" pads_end="0,0" strides="1,1"/>
			<rt_info>
				<attribute name="fused_names" value="bottleneck1_3/dim_inc/conv" version="0"/>
			</rt_info>
			<input>
				<port id="0">
					<dim>1</dim>
					<dim>8</dim>
					<dim>160</dim>
					<dim>272</dim>
				</port>
				<port id="1">
					<dim>32</dim>
					<dim>8</dim>
					<dim>1</dim>
					<dim>1</dim>
				</port>
			</input>
			<output>
				<port id="2" precision="FP32">
					<dim>1</dim>
					<dim>32</dim>
					<dim>160</dim>
					<dim>272</dim>
				</port>
			</output>
		</layer>
		<layer id="209" name="data_add_2452124526117625956" type="Const" version="opset1">
			<data element_type="f16" offset="4654" shape="1,32,1,1" size="64"/>
			<output>
				<port id="0" precision="FP16">
					<dim>1</dim>
					<dim>32</dim>
					<dim>1</dim>
					<dim>1</dim>
				</port>
			</output>
		</layer>
		<layer id="210" name="data_add_2452124526117613946/restored_convert" type="Convert" version="opset1">
			<data destination_type="f32"/>
			<rt_info>
				<attribute name="decompression" version="0"/>
				<attribute name="fused_names" value="data_add_2452124526" version="0"/>
			</rt_info>
			<input>
				<port id="0">
					<dim>1</dim>
					<dim>32</dim>
					<dim>1</dim>
					<dim>1</dim>
				</port>
			</input>
			<output>
				<port id="1" precision="FP32">
					<dim>1</dim>
					<dim>32</dim>
					<dim>1</dim>
					<dim>1</dim>
				</port>
			</output>
		</layer>
		<layer id="211" name="bottleneck1_3/dim_inc/bn/variance/Fused_Add_" type="Add" version="opset1">
			<data auto_broadcast="numpy"/>
			<rt_info>
				<attribute name="fused_names" value="bottleneck1_3/dim_inc/bn/variance/Fused_Add_" version="0"/>
			</rt_info>
			<input>
				<port id="0">
					<dim>1</dim>
					<dim>32</dim>
					<dim>160</dim>
					<dim>272</dim>
				</port>
				<port id="1">
					<dim>1</dim>
					<dim>32</dim>
					<dim>1</dim>
					<dim>1</dim>
				</port>
			</input>
			<output>
				<port id="2" names="bottleneck1_3/dim_inc/conv" precision="FP32">
					<dim>1</dim>
					<dim>32</dim>
					<dim>160</dim>
					<dim>272</dim>
				</port>
			</output>
		</layer>
		<layer id="212" name="bottleneck1_3/add/fq_input_1" type="FakeQuantize" version="opset1">
			<data auto_broadcast="numpy" levels="256"/>
			<input>
				<port id="0">
					<dim>1</dim>
					<dim>32</dim>
					<dim>160</dim>
					<dim>272</dim>
				</port>
				<port id="1"/>
				<port id="2"/>
				<port id="3"/>
				<port id="4"/>
			</input>
			<output>
				<port id="5" precision="FP32">
					<dim>1</dim>
					<dim>32</dim>
					<dim>160</dim>
					<dim>272</dim>
				</port>
			</output>
		</layer>
		<layer id="213" name="bottleneck1_3/add" type="Add" version="opset1">
			<data auto_broadcast="numpy"/>
			<rt_info>
				<attribute name="fused_names" value="bottleneck1_3/add" version="0"/>
			</rt_info>
			<input>
				<port id="0">
					<dim>1</dim>
					<dim>32</dim>
					<dim>160</dim>
					<dim>272</dim>
				</port>
				<port id="1">
					<dim>1</dim>
					<dim>32</dim>
					<dim>160</dim>
					<dim>272</dim>
				</port>
			</input>
			<output>
				<port id="2" names="bottleneck1_3/add" precision="FP32">
					<dim>1</dim>
					<dim>32</dim>
					<dim>160</dim>
					<dim>272</dim>
				</port>
			</output>
		</layer>
		<layer id="214" name="bottleneck1_3/fn/weights3091639911118027195" type="Const" version="opset1">
			<data element_type="f16" offset="1660" shape="1" size="2"/>
			<output>
				<port id="0" precision="FP16">
					<dim>1</dim>
				</port>
			</output>
		</layer>
		<layer id="215" name="bottleneck1_3/fn/weights3091639911118013947/restored_convert" type="Convert" version="opset1">
			<data destination_type="f32"/>
			<rt_info>
				<attribute name="decompression" version="0"/>
				<attribute name="fused_names" value="bottleneck1_3/fn/weights3091639911" version="0"/>
			</rt_info>
			<input>
				<port id="0">
					<dim>1</dim>
				</port>
			</input>
			<output>
				<port id="1" precision="FP32">
					<dim>1</dim>
				</port>
			</output>
		</layer>
		<layer id="216" name="bottleneck1_3/fn" type="PReLU" version="opset1">
			<rt_info>
				<attribute name="fused_names" value="bottleneck1_3/fn" version="0"/>
			</rt_info>
			<input>
				<port id="0">
					<dim>1</dim>
					<dim>32</dim>
					<dim>160</dim>
					<dim>272</dim>
				</port>
				<port id="1">
					<dim>1</dim>
				</port>
			</input>
			<output>
				<port id="2" names="bottleneck1_3/add" precision="FP32">
					<dim>1</dim>
					<dim>32</dim>
					<dim>160</dim>
					<dim>272</dim>
				</port>
			</output>
		</layer>
		<layer id="217" name="bottleneck1_4/add/fq_input_0" type="FakeQuantize" version="opset1">
			<data auto_broadcast="numpy" levels="256"/>
			<input>
				<port id="0">
					<dim>1</dim>
					<dim>32</dim>
					<dim>160</dim>
					<dim>272</dim>
				</port>
				<port id="1"/>
				<port id="2"/>
				<port id="3"/>
				<port id="4"/>
			</input>
			<output>
				<port id="5" precision="FP32">
					<dim>1</dim>
					<dim>32</dim>
					<dim>160</dim>
					<dim>272</dim>
				</port>
			</output>
		</layer>
		<layer id="218" name="5227523125878" type="Const" version="opset1">
			<data element_type="f32" offset="4718" shape="" size="4"/>
			<output>
				<port id="0" precision="FP32"/>
			</output>
		</layer>
		<layer id="219" name="5228523226913" type="Const" version="opset1">
			<data element_type="f32" offset="4722" shape="" size="4"/>
			<output>
				<port id="0" precision="FP32"/>
			</output>
		</layer>
		<layer id="220" name="5229523325305" type="Const" version="opset1">
			<data element_type="f32" offset="4718" shape="" size="4"/>
			<output>
				<port id="0" precision="FP32"/>
			</output>
		</layer>
		<layer id="221" name="5230523427051" type="Const" version="opset1">
			<data element_type="f32" offset="4722" shape="" size="4"/>
			<output>
				<port id="0" precision="FP32"/>
			</output>
		</layer>
		<layer id="222" name="4637464125815" type="Const" version="opset1">
			<data element_type="f32" offset="4726" shape="" size="4"/>
			<output>
				<port id="0" precision="FP32"/>
			</output>
		</layer>
		<layer id="223" name="4638464227792" type="Const" version="opset1">
			<data element_type="f32" offset="4730" shape="" size="4"/>
			<output>
				<port id="0" precision="FP32"/>
			</output>
		</layer>
		<layer id="224" name="4639464325221" type="Const" version="opset1">
			<data element_type="f32" offset="4726" shape="" size="4"/>
			<output>
				<port id="0" precision="FP32"/>
			</output>
		</layer>
		<layer id="225" name="4640464425803" type="Const" version="opset1">
			<data element_type="f32" offset="4730" shape="" size="4"/>
			<output>
				<port id="0" precision="FP32"/>
			</output>
		</layer>
		<layer id="226" name="5657566126082" type="Const" version="opset1">
			<data element_type="f32" offset="4734" shape="1,8,1,1" size="32"/>
			<output>
				<port id="0" precision="FP32">
					<dim>1</dim>
					<dim>8</dim>
					<dim>1</dim>
					<dim>1</dim>
				</port>
			</output>
		</layer>
		<layer id="227" name="5658566225383" type="Const" version="opset1">
			<data element_type="f32" offset="4766" shape="1,8,1,1" size="32"/>
			<output>
				<port id="0" precision="FP32">
					<dim>1</dim>
					<dim>8</dim>
					<dim>1</dim>
					<dim>1</dim>
				</port>
			</output>
		</layer>
		<layer id="228" name="5659566324633" type="Const" version="opset1">
			<data element_type="f32" offset="4734" shape="1,8,1,1" size="32"/>
			<output>
				<port id="0" precision="FP32">
					<dim>1</dim>
					<dim>8</dim>
					<dim>1</dim>
					<dim>1</dim>
				</port>
			</output>
		</layer>
		<layer id="229" name="5660566424864" type="Const" version="opset1">
			<data element_type="f32" offset="4766" shape="1,8,1,1" size="32"/>
			<output>
				<port id="0" precision="FP32">
					<dim>1</dim>
					<dim>8</dim>
					<dim>1</dim>
					<dim>1</dim>
				</port>
			</output>
		</layer>
		<layer id="230" name="bottleneck1_4/dim_red/bn/mean/Fused_Mul__copy118313948/restored_convert/quantized1900327975" type="Const" version="opset1">
			<data element_type="i8" offset="4798" shape="8,32,1,1" size="256"/>
			<output>
				<port id="0" precision="I8">
					<dim>8</dim>
					<dim>32</dim>
					<dim>1</dim>
					<dim>1</dim>
				</port>
			</output>
		</layer>
		<layer id="231" name="bottleneck1_4/dim_red/bn/mean/Fused_Mul__copy118313948/restored_convert/quantized/to_f32" type="Convert" version="opset1">
			<data destination_type="f32"/>
			<input>
				<port id="0">
					<dim>8</dim>
					<dim>32</dim>
					<dim>1</dim>
					<dim>1</dim>
				</port>
			</input>
			<output>
				<port id="1" precision="FP32">
					<dim>8</dim>
					<dim>32</dim>
					<dim>1</dim>
					<dim>1</dim>
				</port>
			</output>
		</layer>
		<layer id="232" name="bottleneck1_4/dim_red/conv/fq_weights_1/zero_point1902227099" type="Const" version="opset1">
			<data element_type="f32" offset="5054" shape="8,1,1,1" size="32"/>
			<output>
				<port id="0" precision="FP32">
					<dim>8</dim>
					<dim>1</dim>
					<dim>1</dim>
					<dim>1</dim>
				</port>
			</output>
		</layer>
		<layer id="233" name="bottleneck1_4/dim_red/conv/fq_weights_1/minus_zp" type="Subtract" version="opset1">
			<data auto_broadcast="numpy"/>
			<input>
				<port id="0">
					<dim>8</dim>
					<dim>32</dim>
					<dim>1</dim>
					<dim>1</dim>
				</port>
				<port id="1">
					<dim>8</dim>
					<dim>1</dim>
					<dim>1</dim>
					<dim>1</dim>
				</port>
			</input>
			<output>
				<port id="2" precision="FP32">
					<dim>8</dim>
					<dim>32</dim>
					<dim>1</dim>
					<dim>1</dim>
				</port>
			</output>
		</layer>
		<layer id="234" name="bottleneck1_4/dim_red/conv/fq_weights_1/scale1901125326" type="Const" version="opset1">
			<data element_type="f32" offset="5086" shape="8,1,1,1" size="32"/>
			<output>
				<port id="0" precision="FP32">
					<dim>8</dim>
					<dim>1</dim>
					<dim>1</dim>
					<dim>1</dim>
				</port>
			</output>
		</layer>
		<layer id="235" name="bottleneck1_4/dim_red/conv/fq_weights_1/mulpiply_by_scale" type="Multiply" version="opset1">
			<data auto_broadcast="numpy"/>
			<input>
				<port id="0">
					<dim>8</dim>
					<dim>32</dim>
					<dim>1</dim>
					<dim>1</dim>
				</port>
				<port id="1">
					<dim>8</dim>
					<dim>1</dim>
					<dim>1</dim>
					<dim>1</dim>
				</port>
			</input>
			<output>
				<port id="2" precision="FP32">
					<dim>8</dim>
					<dim>32</dim>
					<dim>1</dim>
					<dim>1</dim>
				</port>
			</output>
		</layer>
		<layer id="236" name="bottleneck1_4/dim_red/conv" type="Convolution" version="opset1">
			<data auto_pad="explicit" dilations="1,1" pads_begin="0,0" pads_end="0,0" strides="1,1"/>
			<rt_info>
				<attribute name="fused_names" value="bottleneck1_4/dim_red/conv" version="0"/>
			</rt_info>
			<input>
				<port id="0">
					<dim>1</dim>
					<dim>32</dim>
					<dim>160</dim>
					<dim>272</dim>
				</port>
				<port id="1">
					<dim>8</dim>
					<dim>32</dim>
					<dim>1</dim>
					<dim>1</dim>
				</port>
			</input>
			<output>
				<port id="2" precision="FP32">
					<dim>1</dim>
					<dim>8</dim>
					<dim>160</dim>
					<dim>272</dim>
				</port>
			</output>
		</layer>
		<layer id="237" name="data_add_2452924534118624942" type="Const" version="opset1">
			<data element_type="f16" offset="5118" shape="1,8,1,1" size="16"/>
			<output>
				<port id="0" precision="FP16">
					<dim>1</dim>
					<dim>8</dim>
					<dim>1</dim>
					<dim>1</dim>
				</port>
			</output>
		</layer>
		<layer id="238" name="data_add_2452924534118613949/restored_convert" type="Convert" version="opset1">
			<data destination_type="f32"/>
			<rt_info>
				<attribute name="decompression" version="0"/>
				<attribute name="fused_names" value="data_add_2452924534" version="0"/>
			</rt_info>
			<input>
				<port id="0">
					<dim>1</dim>
					<dim>8</dim>
					<dim>1</dim>
					<dim>1</dim>
				</port>
			</input>
			<output>
				<port id="1" precision="FP32">
					<dim>1</dim>
					<dim>8</dim>
					<dim>1</dim>
					<dim>1</dim>
				</port>
			</output>
		</layer>
		<layer id="239" name="bottleneck1_4/dim_red/bn/variance/Fused_Add_" type="Add" version="opset1">
			<data auto_broadcast="numpy"/>
			<rt_info>
				<attribute name="fused_names" value="bottleneck1_4/dim_red/bn/variance/Fused_Add_" version="0"/>
			</rt_info>
			<input>
				<port id="0">
					<dim>1</dim>
					<dim>8</dim>
					<dim>160</dim>
					<dim>272</dim>
				</port>
				<port id="1">
					<dim>1</dim>
					<dim>8</dim>
					<dim>1</dim>
					<dim>1</dim>
				</port>
			</input>
			<output>
				<port id="2" names="bottleneck1_4/dim_red/conv" precision="FP32">
					<dim>1</dim>
					<dim>8</dim>
					<dim>160</dim>
					<dim>272</dim>
				</port>
			</output>
		</layer>
		<layer id="240" name="bottleneck1_4/dim_red/fn/weights3096439653118926229" type="Const" version="opset1">
			<data element_type="f16" offset="1660" shape="1" size="2"/>
			<output>
				<port id="0" precision="FP16">
					<dim>1</dim>
				</port>
			</output>
		</layer>
		<layer id="241" name="bottleneck1_4/dim_red/fn/weights3096439653118913950/restored_convert" type="Convert" version="opset1">
			<data destination_type="f32"/>
			<rt_info>
				<attribute name="decompression" version="0"/>
				<attribute name="fused_names" value="bottleneck1_4/dim_red/fn/weights3096439653" version="0"/>
			</rt_info>
			<input>
				<port id="0">
					<dim>1</dim>
				</port>
			</input>
			<output>
				<port id="1" precision="FP32">
					<dim>1</dim>
				</port>
			</output>
		</layer>
		<layer id="242" name="bottleneck1_4/dim_red/fn" type="PReLU" version="opset1">
			<rt_info>
				<attribute name="fused_names" value="bottleneck1_4/dim_red/fn" version="0"/>
			</rt_info>
			<input>
				<port id="0">
					<dim>1</dim>
					<dim>8</dim>
					<dim>160</dim>
					<dim>272</dim>
				</port>
				<port id="1">
					<dim>1</dim>
				</port>
			</input>
			<output>
				<port id="2" names="bottleneck1_4/dim_red/conv" precision="FP32">
					<dim>1</dim>
					<dim>8</dim>
					<dim>160</dim>
					<dim>272</dim>
				</port>
			</output>
		</layer>
		<layer id="243" name="bottleneck1_4/inner/dw1/conv/fq_input_0" type="FakeQuantize" version="opset1">
			<data auto_broadcast="numpy" levels="256"/>
			<input>
				<port id="0">
					<dim>1</dim>
					<dim>8</dim>
					<dim>160</dim>
					<dim>272</dim>
				</port>
				<port id="1">
					<dim>1</dim>
					<dim>8</dim>
					<dim>1</dim>
					<dim>1</dim>
				</port>
				<port id="2">
					<dim>1</dim>
					<dim>8</dim>
					<dim>1</dim>
					<dim>1</dim>
				</port>
				<port id="3">
					<dim>1</dim>
					<dim>8</dim>
					<dim>1</dim>
					<dim>1</dim>
				</port>
				<port id="4">
					<dim>1</dim>
					<dim>8</dim>
					<dim>1</dim>
					<dim>1</dim>
				</port>
			</input>
			<output>
				<port id="5" precision="FP32">
					<dim>1</dim>
					<dim>8</dim>
					<dim>160</dim>
					<dim>272</dim>
				</port>
			</output>
		</layer>
		<layer id="244" name="22010/value2201225875" type="Const" version="opset1">
			<data element_type="i64" offset="1662" shape="5" size="40"/>
			<output>
				<port id="0" precision="I64">
					<dim>5</dim>
				</port>
			</output>
		</layer>
		<layer id="245" name="bottleneck1_4/inner/dw1/bn/mean/Fused_Mul__copy119213951/restored_convert/quantized1846327336" type="Const" version="opset1">
			<data element_type="i8" offset="5134" shape="8,1,3,3" size="72"/>
			<output>
				<port id="0" precision="I8">
					<dim>8</dim>
					<dim>1</dim>
					<dim>3</dim>
					<dim>3</dim>
				</port>
			</output>
		</layer>
		<layer id="246" name="bottleneck1_4/inner/dw1/bn/mean/Fused_Mul__copy119213951/restored_convert/quantized/to_f32" type="Convert" version="opset1">
			<data destination_type="f32"/>
			<input>
				<port id="0">
					<dim>8</dim>
					<dim>1</dim>
					<dim>3</dim>
					<dim>3</dim>
				</port>
			</input>
			<output>
				<port id="1" precision="FP32">
					<dim>8</dim>
					<dim>1</dim>
					<dim>3</dim>
					<dim>3</dim>
				</port>
			</output>
		</layer>
		<layer id="247" name="bottleneck1_4/inner/dw1/conv/fq_weights_1/zero_point1848227651" type="Const" version="opset1">
			<data element_type="f32" offset="5206" shape="8,1,1,1" size="32"/>
			<output>
				<port id="0" precision="FP32">
					<dim>8</dim>
					<dim>1</dim>
					<dim>1</dim>
					<dim>1</dim>
				</port>
			</output>
		</layer>
		<layer id="248" name="bottleneck1_4/inner/dw1/conv/fq_weights_1/minus_zp" type="Subtract" version="opset1">
			<data auto_broadcast="numpy"/>
			<input>
				<port id="0">
					<dim>8</dim>
					<dim>1</dim>
					<dim>3</dim>
					<dim>3</dim>
				</port>
				<port id="1">
					<dim>8</dim>
					<dim>1</dim>
					<dim>1</dim>
					<dim>1</dim>
				</port>
			</input>
			<output>
				<port id="2" precision="FP32">
					<dim>8</dim>
					<dim>1</dim>
					<dim>3</dim>
					<dim>3</dim>
				</port>
			</output>
		</layer>
		<layer id="249" name="bottleneck1_4/inner/dw1/conv/fq_weights_1/scale1847124984" type="Const" version="opset1">
			<data element_type="f32" offset="5238" shape="8,1,1,1" size="32"/>
			<output>
				<port id="0" precision="FP32">
					<dim>8</dim>
					<dim>1</dim>
					<dim>1</dim>
					<dim>1</dim>
				</port>
			</output>
		</layer>
		<layer id="250" name="bottleneck1_4/inner/dw1/conv/fq_weights_1/mulpiply_by_scale" type="Multiply" version="opset1">
			<data auto_broadcast="numpy"/>
			<input>
				<port id="0">
					<dim>8</dim>
					<dim>1</dim>
					<dim>3</dim>
					<dim>3</dim>
				</port>
				<port id="1">
					<dim>8</dim>
					<dim>1</dim>
					<dim>1</dim>
					<dim>1</dim>
				</port>
			</input>
			<output>
				<port id="2" precision="FP32">
					<dim>8</dim>
					<dim>1</dim>
					<dim>3</dim>
					<dim>3</dim>
				</port>
			</output>
		</layer>
		<layer id="251" name="22010" type="Reshape" version="opset1">
			<data special_zero="true"/>
			<input>
				<port id="0">
					<dim>8</dim>
					<dim>1</dim>
					<dim>3</dim>
					<dim>3</dim>
				</port>
				<port id="1">
					<dim>5</dim>
				</port>
			</input>
			<output>
				<port id="2" precision="FP32">
					<dim>8</dim>
					<dim>1</dim>
					<dim>1</dim>
					<dim>3</dim>
					<dim>3</dim>
				</port>
			</output>
		</layer>
		<layer id="252" name="bottleneck1_4/inner/dw1/conv" type="GroupConvolution" version="opset1">
			<data auto_pad="explicit" dilations="1,1" pads_begin="1,1" pads_end="1,1" strides="1,1"/>
			<rt_info>
				<attribute name="fused_names" value="bottleneck1_4/inner/dw1/conv" version="0"/>
			</rt_info>
			<input>
				<port id="0">
					<dim>1</dim>
					<dim>8</dim>
					<dim>160</dim>
					<dim>272</dim>
				</port>
				<port id="1">
					<dim>8</dim>
					<dim>1</dim>
					<dim>1</dim>
					<dim>3</dim>
					<dim>3</dim>
				</port>
			</input>
			<output>
				<port id="2" precision="FP32">
					<dim>1</dim>
					<dim>8</dim>
					<dim>160</dim>
					<dim>272</dim>
				</port>
			</output>
		</layer>
		<layer id="253" name="data_add_2453724542119524945" type="Const" version="opset1">
			<data element_type="f16" offset="5270" shape="1,8,1,1" size="16"/>
			<output>
				<port id="0" precision="FP16">
					<dim>1</dim>
					<dim>8</dim>
					<dim>1</dim>
					<dim>1</dim>
				</port>
			</output>
		</layer>
		<layer id="254" name="data_add_2453724542119513952/restored_convert" type="Convert" version="opset1">
			<data destination_type="f32"/>
			<rt_info>
				<attribute name="decompression" version="0"/>
				<attribute name="fused_names" value="data_add_2453724542" version="0"/>
			</rt_info>
			<input>
				<port id="0">
					<dim>1</dim>
					<dim>8</dim>
					<dim>1</dim>
					<dim>1</dim>
				</port>
			</input>
			<output>
				<port id="1" precision="FP32">
					<dim>1</dim>
					<dim>8</dim>
					<dim>1</dim>
					<dim>1</dim>
				</port>
			</output>
		</layer>
		<layer id="255" name="bottleneck1_4/inner/dw1/bn/variance/Fused_Add_" type="Add" version="opset1">
			<data auto_broadcast="numpy"/>
			<rt_info>
				<attribute name="fused_names" value="bottleneck1_4/inner/dw1/bn/variance/Fused_Add_" version="0"/>
			</rt_info>
			<input>
				<port id="0">
					<dim>1</dim>
					<dim>8</dim>
					<dim>160</dim>
					<dim>272</dim>
				</port>
				<port id="1">
					<dim>1</dim>
					<dim>8</dim>
					<dim>1</dim>
					<dim>1</dim>
				</port>
			</input>
			<output>
				<port id="2" names="bottleneck1_4/inner/dw1/conv" precision="FP32">
					<dim>1</dim>
					<dim>8</dim>
					<dim>160</dim>
					<dim>272</dim>
				</port>
			</output>
		</layer>
		<layer id="256" name="bottleneck1_4/inner/dw1/fn/weights3109239878119827894" type="Const" version="opset1">
			<data element_type="f16" offset="1660" shape="1" size="2"/>
			<output>
				<port id="0" precision="FP16">
					<dim>1</dim>
				</port>
			</output>
		</layer>
		<layer id="257" name="bottleneck1_4/inner/dw1/fn/weights3109239878119813953/restored_convert" type="Convert" version="opset1">
			<data destination_type="f32"/>
			<rt_info>
				<attribute name="decompression" version="0"/>
				<attribute name="fused_names" value="bottleneck1_4/inner/dw1/fn/weights3109239878" version="0"/>
			</rt_info>
			<input>
				<port id="0">
					<dim>1</dim>
				</port>
			</input>
			<output>
				<port id="1" precision="FP32">
					<dim>1</dim>
				</port>
			</output>
		</layer>
		<layer id="258" name="bottleneck1_4/inner/dw1/fn" type="PReLU" version="opset1">
			<rt_info>
				<attribute name="fused_names" value="bottleneck1_4/inner/dw1/fn" version="0"/>
			</rt_info>
			<input>
				<port id="0">
					<dim>1</dim>
					<dim>8</dim>
					<dim>160</dim>
					<dim>272</dim>
				</port>
				<port id="1">
					<dim>1</dim>
				</port>
			</input>
			<output>
				<port id="2" names="bottleneck1_4/inner/dw1/conv" precision="FP32">
					<dim>1</dim>
					<dim>8</dim>
					<dim>160</dim>
					<dim>272</dim>
				</port>
			</output>
		</layer>
		<layer id="259" name="bottleneck1_4/dim_inc/conv/fq_input_0" type="FakeQuantize" version="opset1">
			<data auto_broadcast="numpy" levels="256"/>
			<input>
				<port id="0">
					<dim>1</dim>
					<dim>8</dim>
					<dim>160</dim>
					<dim>272</dim>
				</port>
				<port id="1"/>
				<port id="2"/>
				<port id="3"/>
				<port id="4"/>
			</input>
			<output>
				<port id="5" precision="FP32">
					<dim>1</dim>
					<dim>8</dim>
					<dim>160</dim>
					<dim>272</dim>
				</port>
			</output>
		</layer>
		<layer id="260" name="bottleneck1_4/dim_inc/bn/mean/Fused_Mul__copy120113954/restored_convert/quantized1774325050" type="Const" version="opset1">
			<data element_type="i8" offset="5286" shape="32,8,1,1" size="256"/>
			<output>
				<port id="0" precision="I8">
					<dim>32</dim>
					<dim>8</dim>
					<dim>1</dim>
					<dim>1</dim>
				</port>
			</output>
		</layer>
		<layer id="261" name="bottleneck1_4/dim_inc/bn/mean/Fused_Mul__copy120113954/restored_convert/quantized/to_f32" type="Convert" version="opset1">
			<data destination_type="f32"/>
			<input>
				<port id="0">
					<dim>32</dim>
					<dim>8</dim>
					<dim>1</dim>
					<dim>1</dim>
				</port>
			</input>
			<output>
				<port id="1" precision="FP32">
					<dim>32</dim>
					<dim>8</dim>
					<dim>1</dim>
					<dim>1</dim>
				</port>
			</output>
		</layer>
		<layer id="262" name="bottleneck1_4/dim_inc/conv/fq_weights_1/zero_point1776225818" type="Const" version="opset1">
			<data element_type="f32" offset="5542" shape="32,1,1,1" size="128"/>
			<output>
				<port id="0" precision="FP32">
					<dim>32</dim>
					<dim>1</dim>
					<dim>1</dim>
					<dim>1</dim>
				</port>
			</output>
		</layer>
		<layer id="263" name="bottleneck1_4/dim_inc/conv/fq_weights_1/minus_zp" type="Subtract" version="opset1">
			<data auto_broadcast="numpy"/>
			<input>
				<port id="0">
					<dim>32</dim>
					<dim>8</dim>
					<dim>1</dim>
					<dim>1</dim>
				</port>
				<port id="1">
					<dim>32</dim>
					<dim>1</dim>
					<dim>1</dim>
					<dim>1</dim>
				</port>
			</input>
			<output>
				<port id="2" precision="FP32">
					<dim>32</dim>
					<dim>8</dim>
					<dim>1</dim>
					<dim>1</dim>
				</port>
			</output>
		</layer>
		<layer id="264" name="bottleneck1_4/dim_inc/conv/fq_weights_1/scale1775128056" type="Const" version="opset1">
			<data element_type="f32" offset="5670" shape="32,1,1,1" size="128"/>
			<output>
				<port id="0" precision="FP32">
					<dim>32</dim>
					<dim>1</dim>
					<dim>1</dim>
					<dim>1</dim>
				</port>
			</output>
		</layer>
		<layer id="265" name="bottleneck1_4/dim_inc/conv/fq_weights_1/mulpiply_by_scale" type="Multiply" version="opset1">
			<data auto_broadcast="numpy"/>
			<input>
				<port id="0">
					<dim>32</dim>
					<dim>8</dim>
					<dim>1</dim>
					<dim>1</dim>
				</port>
				<port id="1">
					<dim>32</dim>
					<dim>1</dim>
					<dim>1</dim>
					<dim>1</dim>
				</port>
			</input>
			<output>
				<port id="2" precision="FP32">
					<dim>32</dim>
					<dim>8</dim>
					<dim>1</dim>
					<dim>1</dim>
				</port>
			</output>
		</layer>
		<layer id="266" name="bottleneck1_4/dim_inc/conv" type="Convolution" version="opset1">
			<data auto_pad="explicit" dilations="1,1" pads_begin="0,0" pads_end="0,0" strides="1,1"/>
			<rt_info>
				<attribute name="fused_names" value="bottleneck1_4/dim_inc/conv" version="0"/>
			</rt_info>
			<input>
				<port id="0">
					<dim>1</dim>
					<dim>8</dim>
					<dim>160</dim>
					<dim>272</dim>
				</port>
				<port id="1">
					<dim>32</dim>
					<dim>8</dim>
					<dim>1</dim>
					<dim>1</dim>
				</port>
			</input>
			<output>
				<port id="2" precision="FP32">
					<dim>1</dim>
					<dim>32</dim>
					<dim>160</dim>
					<dim>272</dim>
				</port>
			</output>
		</layer>
		<layer id="267" name="data_add_2454524550120426682" type="Const" version="opset1">
			<data element_type="f16" offset="5798" shape="1,32,1,1" size="64"/>
			<output>
				<port id="0" precision="FP16">
					<dim>1</dim>
					<dim>32</dim>
					<dim>1</dim>
					<dim>1</dim>
				</port>
			</output>
		</layer>
		<layer id="268" name="data_add_2454524550120413955/restored_convert" type="Convert" version="opset1">
			<data destination_type="f32"/>
			<rt_info>
				<attribute name="decompression" version="0"/>
				<attribute name="fused_names" value="data_add_2454524550" version="0"/>
			</rt_info>
			<input>
				<port id="0">
					<dim>1</dim>
					<dim>32</dim>
					<dim>1</dim>
					<dim>1</dim>
				</port>
			</input>
			<output>
				<port id="1" precision="FP32">
					<dim>1</dim>
					<dim>32</dim>
					<dim>1</dim>
					<dim>1</dim>
				</port>
			</output>
		</layer>
		<layer id="269" name="bottleneck1_4/dim_inc/bn/variance/Fused_Add_" type="Add" version="opset1">
			<data auto_broadcast="numpy"/>
			<rt_info>
				<attribute name="fused_names" value="bottleneck1_4/dim_inc/bn/variance/Fused_Add_" version="0"/>
			</rt_info>
			<input>
				<port id="0">
					<dim>1</dim>
					<dim>32</dim>
					<dim>160</dim>
					<dim>272</dim>
				</port>
				<port id="1">
					<dim>1</dim>
					<dim>32</dim>
					<dim>1</dim>
					<dim>1</dim>
				</port>
			</input>
			<output>
				<port id="2" names="bottleneck1_4/dim_inc/conv" precision="FP32">
					<dim>1</dim>
					<dim>32</dim>
					<dim>160</dim>
					<dim>272</dim>
				</port>
			</output>
		</layer>
		<layer id="270" name="bottleneck1_4/add/fq_input_1" type="FakeQuantize" version="opset1">
			<data auto_broadcast="numpy" levels="256"/>
			<input>
				<port id="0">
					<dim>1</dim>
					<dim>32</dim>
					<dim>160</dim>
					<dim>272</dim>
				</port>
				<port id="1"/>
				<port id="2"/>
				<port id="3"/>
				<port id="4"/>
			</input>
			<output>
				<port id="5" precision="FP32">
					<dim>1</dim>
					<dim>32</dim>
					<dim>160</dim>
					<dim>272</dim>
				</port>
			</output>
		</layer>
		<layer id="271" name="bottleneck1_4/add" type="Add" version="opset1">
			<data auto_broadcast="numpy"/>
			<rt_info>
				<attribute name="fused_names" value="bottleneck1_4/add" version="0"/>
			</rt_info>
			<input>
				<port id="0">
					<dim>1</dim>
					<dim>32</dim>
					<dim>160</dim>
					<dim>272</dim>
				</port>
				<port id="1">
					<dim>1</dim>
					<dim>32</dim>
					<dim>160</dim>
					<dim>272</dim>
				</port>
			</input>
			<output>
				<port id="2" names="bottleneck1_4/add" precision="FP32">
					<dim>1</dim>
					<dim>32</dim>
					<dim>160</dim>
					<dim>272</dim>
				</port>
			</output>
		</layer>
		<layer id="272" name="bottleneck1_4/fn/weights3121639362120827288" type="Const" version="opset1">
			<data element_type="f16" offset="1660" shape="1" size="2"/>
			<output>
				<port id="0" precision="FP16">
					<dim>1</dim>
				</port>
			</output>
		</layer>
		<layer id="273" name="bottleneck1_4/fn/weights3121639362120813956/restored_convert" type="Convert" version="opset1">
			<data destination_type="f32"/>
			<rt_info>
				<attribute name="decompression" version="0"/>
				<attribute name="fused_names" value="bottleneck1_4/fn/weights3121639362" version="0"/>
			</rt_info>
			<input>
				<port id="0">
					<dim>1</dim>
				</port>
			</input>
			<output>
				<port id="1" precision="FP32">
					<dim>1</dim>
				</port>
			</output>
		</layer>
		<layer id="274" name="bottleneck1_4/fn" type="PReLU" version="opset1">
			<rt_info>
				<attribute name="fused_names" value="bottleneck1_4/fn" version="0"/>
			</rt_info>
			<input>
				<port id="0">
					<dim>1</dim>
					<dim>32</dim>
					<dim>160</dim>
					<dim>272</dim>
				</port>
				<port id="1">
					<dim>1</dim>
				</port>
			</input>
			<output>
				<port id="2" names="bottleneck1_4/add" precision="FP32">
					<dim>1</dim>
					<dim>32</dim>
					<dim>160</dim>
					<dim>272</dim>
				</port>
			</output>
		</layer>
		<layer id="275" name="bottleneck2_0/dim_red/conv/fq_input_0" type="FakeQuantize" version="opset1">
			<data auto_broadcast="numpy" levels="256"/>
			<input>
				<port id="0">
					<dim>1</dim>
					<dim>32</dim>
					<dim>160</dim>
					<dim>272</dim>
				</port>
				<port id="1"/>
				<port id="2"/>
				<port id="3"/>
				<port id="4"/>
			</input>
			<output>
				<port id="5" precision="FP32">
					<dim>1</dim>
					<dim>32</dim>
					<dim>160</dim>
					<dim>272</dim>
				</port>
			</output>
		</layer>
		<layer id="276" name="bottleneck2_0/skip/pooling" type="MaxPool" version="opset8">
			<data auto_pad="explicit" axis="0" dilations="1,1" index_element_type="i64" kernel="2,2" pads_begin="0,0" pads_end="0,0" rounding_type="ceil" strides="2,2"/>
			<rt_info>
				<attribute name="fused_names" value="bottleneck2_0/skip/pooling" version="0"/>
			</rt_info>
			<input>
				<port id="0">
					<dim>1</dim>
					<dim>32</dim>
					<dim>160</dim>
					<dim>272</dim>
				</port>
			</input>
			<output>
				<port id="1" names="bottleneck2_0/skip/pooling" precision="FP32">
					<dim>1</dim>
					<dim>32</dim>
					<dim>80</dim>
					<dim>136</dim>
				</port>
				<port id="2" precision="FP32">
					<dim>1</dim>
					<dim>32</dim>
					<dim>80</dim>
					<dim>136</dim>
					<rt_info/>
				</port>
			</output>
		</layer>
		<layer id="278" name="4697470127462" type="Const" version="opset1">
			<data element_type="f32" offset="5862" shape="" size="4"/>
			<output>
				<port id="0" precision="FP32"/>
			</output>
		</layer>
		<layer id="279" name="4698470224612" type="Const" version="opset1">
			<data element_type="f32" offset="5866" shape="" size="4"/>
			<output>
				<port id="0" precision="FP32"/>
			</output>
		</layer>
		<layer id="280" name="4699470326388" type="Const" version="opset1">
			<data element_type="f32" offset="5862" shape="" size="4"/>
			<output>
				<port id="0" precision="FP32"/>
			</output>
		</layer>
		<layer id="281" name="4700470426661" type="Const" version="opset1">
			<data element_type="f32" offset="5866" shape="" size="4"/>
			<output>
				<port id="0" precision="FP32"/>
			</output>
		</layer>
		<layer id="282" name="3757376127558" type="Const" version="opset1">
			<data element_type="f32" offset="5870" shape="" size="4"/>
			<output>
				<port id="0" precision="FP32"/>
			</output>
		</layer>
		<layer id="283" name="3758376225914" type="Const" version="opset1">
			<data element_type="f32" offset="5874" shape="" size="4"/>
			<output>
				<port id="0" precision="FP32"/>
			</output>
		</layer>
		<layer id="284" name="3759376326382" type="Const" version="opset1">
			<data element_type="f32" offset="5870" shape="" size="4"/>
			<output>
				<port id="0" precision="FP32"/>
			</output>
		</layer>
		<layer id="285" name="3760376426028" type="Const" version="opset1">
			<data element_type="f32" offset="5874" shape="" size="4"/>
			<output>
				<port id="0" precision="FP32"/>
			</output>
		</layer>
		<layer id="286" name="6377638126370" type="Const" version="opset1">
			<data element_type="f32" offset="5878" shape="" size="4"/>
			<output>
				<port id="0" precision="FP32"/>
			</output>
		</layer>
		<layer id="287" name="6378638226436" type="Const" version="opset1">
			<data element_type="f32" offset="5882" shape="" size="4"/>
			<output>
				<port id="0" precision="FP32"/>
			</output>
		</layer>
		<layer id="288" name="6379638326817" type="Const" version="opset1">
			<data element_type="f32" offset="5878" shape="" size="4"/>
			<output>
				<port id="0" precision="FP32"/>
			</output>
		</layer>
		<layer id="289" name="6380638424714" type="Const" version="opset1">
			<data element_type="f32" offset="5882" shape="" size="4"/>
			<output>
				<port id="0" precision="FP32"/>
			</output>
		</layer>
		<layer id="290" name="4537454125761" type="Const" version="opset1">
			<data element_type="f32" offset="5886" shape="" size="4"/>
			<output>
				<port id="0" precision="FP32"/>
			</output>
		</layer>
		<layer id="291" name="4538454227150" type="Const" version="opset1">
			<data element_type="f32" offset="5890" shape="" size="4"/>
			<output>
				<port id="0" precision="FP32"/>
			</output>
		</layer>
		<layer id="292" name="4539454325596" type="Const" version="opset1">
			<data element_type="f32" offset="5886" shape="" size="4"/>
			<output>
				<port id="0" precision="FP32"/>
			</output>
		</layer>
		<layer id="293" name="4540454426451" type="Const" version="opset1">
			<data element_type="f32" offset="5890" shape="" size="4"/>
			<output>
				<port id="0" precision="FP32"/>
			</output>
		</layer>
		<layer id="294" name="4037404125311" type="Const" version="opset1">
			<data element_type="f32" offset="5894" shape="" size="4"/>
			<output>
				<port id="0" precision="FP32"/>
			</output>
		</layer>
		<layer id="295" name="4038404224585" type="Const" version="opset1">
			<data element_type="f32" offset="5898" shape="" size="4"/>
			<output>
				<port id="0" precision="FP32"/>
			</output>
		</layer>
		<layer id="296" name="4039404325095" type="Const" version="opset1">
			<data element_type="f32" offset="5894" shape="" size="4"/>
			<output>
				<port id="0" precision="FP32"/>
			</output>
		</layer>
		<layer id="297" name="4040404427582" type="Const" version="opset1">
			<data element_type="f32" offset="5898" shape="" size="4"/>
			<output>
				<port id="0" precision="FP32"/>
			</output>
		</layer>
		<layer id="298" name="5737574127060" type="Const" version="opset1">
			<data element_type="f32" offset="5902" shape="" size="4"/>
			<output>
				<port id="0" precision="FP32"/>
			</output>
		</layer>
		<layer id="299" name="5738574224564" type="Const" version="opset1">
			<data element_type="f32" offset="5906" shape="" size="4"/>
			<output>
				<port id="0" precision="FP32"/>
			</output>
		</layer>
		<layer id="300" name="5739574325452" type="Const" version="opset1">
			<data element_type="f32" offset="5902" shape="" size="4"/>
			<output>
				<port id="0" precision="FP32"/>
			</output>
		</layer>
		<layer id="301" name="5740574425713" type="Const" version="opset1">
			<data element_type="f32" offset="5906" shape="" size="4"/>
			<output>
				<port id="0" precision="FP32"/>
			</output>
		</layer>
		<layer id="302" name="6497650125431" type="Const" version="opset1">
			<data element_type="f32" offset="5910" shape="" size="4"/>
			<output>
				<port id="0" precision="FP32"/>
			</output>
		</layer>
		<layer id="303" name="6498650228185" type="Const" version="opset1">
			<data element_type="f32" offset="5914" shape="" size="4"/>
			<output>
				<port id="0" precision="FP32"/>
			</output>
		</layer>
		<layer id="304" name="6499650326826" type="Const" version="opset1">
			<data element_type="f32" offset="5910" shape="" size="4"/>
			<output>
				<port id="0" precision="FP32"/>
			</output>
		</layer>
		<layer id="305" name="6500650426868" type="Const" version="opset1">
			<data element_type="f32" offset="5914" shape="" size="4"/>
			<output>
				<port id="0" precision="FP32"/>
			</output>
		</layer>
		<layer id="306" name="4577458124756" type="Const" version="opset1">
			<data element_type="f32" offset="5918" shape="" size="4"/>
			<output>
				<port id="0" precision="FP32"/>
			</output>
		</layer>
		<layer id="307" name="4578458224993" type="Const" version="opset1">
			<data element_type="f32" offset="5922" shape="" size="4"/>
			<output>
				<port id="0" precision="FP32"/>
			</output>
		</layer>
		<layer id="308" name="4579458324927" type="Const" version="opset1">
			<data element_type="f32" offset="5918" shape="" size="4"/>
			<output>
				<port id="0" precision="FP32"/>
			</output>
		</layer>
		<layer id="309" name="4580458427741" type="Const" version="opset1">
			<data element_type="f32" offset="5922" shape="" size="4"/>
			<output>
				<port id="0" precision="FP32"/>
			</output>
		</layer>
		<layer id="310" name="4217422125089" type="Const" version="opset1">
			<data element_type="f32" offset="5926" shape="" size="4"/>
			<output>
				<port id="0" precision="FP32"/>
			</output>
		</layer>
		<layer id="311" name="4218422225725" type="Const" version="opset1">
			<data element_type="f32" offset="5930" shape="" size="4"/>
			<output>
				<port id="0" precision="FP32"/>
			</output>
		</layer>
		<layer id="312" name="4219422327549" type="Const" version="opset1">
			<data element_type="f32" offset="5926" shape="" size="4"/>
			<output>
				<port id="0" precision="FP32"/>
			</output>
		</layer>
		<layer id="313" name="4220422425263" type="Const" version="opset1">
			<data element_type="f32" offset="5930" shape="" size="4"/>
			<output>
				<port id="0" precision="FP32"/>
			</output>
		</layer>
		<layer id="314" name="6297630127489" type="Const" version="opset1">
			<data element_type="f32" offset="5934" shape="" size="4"/>
			<output>
				<port id="0" precision="FP32"/>
			</output>
		</layer>
		<layer id="315" name="6298630227312" type="Const" version="opset1">
			<data element_type="f32" offset="5938" shape="" size="4"/>
			<output>
				<port id="0" precision="FP32"/>
			</output>
		</layer>
		<layer id="316" name="6299630327903" type="Const" version="opset1">
			<data element_type="f32" offset="5934" shape="" size="4"/>
			<output>
				<port id="0" precision="FP32"/>
			</output>
		</layer>
		<layer id="317" name="6300630427006" type="Const" version="opset1">
			<data element_type="f32" offset="5938" shape="" size="4"/>
			<output>
				<port id="0" precision="FP32"/>
			</output>
		</layer>
		<layer id="318" name="bottleneck2_0/skip/bn/mean/Fused_Mul__copy121213957/restored_convert/quantized1912327264" type="Const" version="opset1">
			<data element_type="i8" offset="5942" shape="64,32,1,1" size="2048"/>
			<output>
				<port id="0" precision="I8">
					<dim>64</dim>
					<dim>32</dim>
					<dim>1</dim>
					<dim>1</dim>
				</port>
			</output>
		</layer>
		<layer id="319" name="bottleneck2_0/skip/bn/mean/Fused_Mul__copy121213957/restored_convert/quantized/to_f32" type="Convert" version="opset1">
			<data destination_type="f32"/>
			<input>
				<port id="0">
					<dim>64</dim>
					<dim>32</dim>
					<dim>1</dim>
					<dim>1</dim>
				</port>
			</input>
			<output>
				<port id="1" precision="FP32">
					<dim>64</dim>
					<dim>32</dim>
					<dim>1</dim>
					<dim>1</dim>
				</port>
			</output>
		</layer>
		<layer id="320" name="bottleneck2_0/skip/conv/fq_weights_1/zero_point1914225614" type="Const" version="opset1">
			<data element_type="f32" offset="7990" shape="64,1,1,1" size="256"/>
			<output>
				<port id="0" precision="FP32">
					<dim>64</dim>
					<dim>1</dim>
					<dim>1</dim>
					<dim>1</dim>
				</port>
			</output>
		</layer>
		<layer id="321" name="bottleneck2_0/skip/conv/fq_weights_1/minus_zp" type="Subtract" version="opset1">
			<data auto_broadcast="numpy"/>
			<input>
				<port id="0">
					<dim>64</dim>
					<dim>32</dim>
					<dim>1</dim>
					<dim>1</dim>
				</port>
				<port id="1">
					<dim>64</dim>
					<dim>1</dim>
					<dim>1</dim>
					<dim>1</dim>
				</port>
			</input>
			<output>
				<port id="2" precision="FP32">
					<dim>64</dim>
					<dim>32</dim>
					<dim>1</dim>
					<dim>1</dim>
				</port>
			</output>
		</layer>
		<layer id="322" name="bottleneck2_0/skip/conv/fq_weights_1/scale1913126772" type="Const" version="opset1">
			<data element_type="f32" offset="8246" shape="64,1,1,1" size="256"/>
			<output>
				<port id="0" precision="FP32">
					<dim>64</dim>
					<dim>1</dim>
					<dim>1</dim>
					<dim>1</dim>
				</port>
			</output>
		</layer>
		<layer id="323" name="bottleneck2_0/skip/conv/fq_weights_1/mulpiply_by_scale" type="Multiply" version="opset1">
			<data auto_broadcast="numpy"/>
			<input>
				<port id="0">
					<dim>64</dim>
					<dim>32</dim>
					<dim>1</dim>
					<dim>1</dim>
				</port>
				<port id="1">
					<dim>64</dim>
					<dim>1</dim>
					<dim>1</dim>
					<dim>1</dim>
				</port>
			</input>
			<output>
				<port id="2" precision="FP32">
					<dim>64</dim>
					<dim>32</dim>
					<dim>1</dim>
					<dim>1</dim>
				</port>
			</output>
		</layer>
		<layer id="324" name="bottleneck2_0/skip/conv" type="Convolution" version="opset1">
			<data auto_pad="explicit" dilations="1,1" pads_begin="0,0" pads_end="0,0" strides="1,1"/>
			<rt_info>
				<attribute name="fused_names" value="bottleneck2_0/skip/conv" version="0"/>
			</rt_info>
			<input>
				<port id="0">
					<dim>1</dim>
					<dim>32</dim>
					<dim>80</dim>
					<dim>136</dim>
				</port>
				<port id="1">
					<dim>64</dim>
					<dim>32</dim>
					<dim>1</dim>
					<dim>1</dim>
				</port>
			</input>
			<output>
				<port id="2" precision="FP32">
					<dim>1</dim>
					<dim>64</dim>
					<dim>80</dim>
					<dim>136</dim>
				</port>
			</output>
		</layer>
		<layer id="325" name="data_add_2455324558121526703" type="Const" version="opset1">
			<data element_type="f16" offset="8502" shape="1,64,1,1" size="128"/>
			<output>
				<port id="0" precision="FP16">
					<dim>1</dim>
					<dim>64</dim>
					<dim>1</dim>
					<dim>1</dim>
				</port>
			</output>
		</layer>
		<layer id="326" name="data_add_2455324558121513958/restored_convert" type="Convert" version="opset1">
			<data destination_type="f32"/>
			<rt_info>
				<attribute name="decompression" version="0"/>
				<attribute name="fused_names" value="data_add_2455324558" version="0"/>
			</rt_info>
			<input>
				<port id="0">
					<dim>1</dim>
					<dim>64</dim>
					<dim>1</dim>
					<dim>1</dim>
				</port>
			</input>
			<output>
				<port id="1" precision="FP32">
					<dim>1</dim>
					<dim>64</dim>
					<dim>1</dim>
					<dim>1</dim>
				</port>
			</output>
		</layer>
		<layer id="327" name="bottleneck2_0/skip/bn/variance/Fused_Add_" type="Add" version="opset1">
			<data auto_broadcast="numpy"/>
			<rt_info>
				<attribute name="fused_names" value="bottleneck2_0/skip/bn/variance/Fused_Add_" version="0"/>
			</rt_info>
			<input>
				<port id="0">
					<dim>1</dim>
					<dim>64</dim>
					<dim>80</dim>
					<dim>136</dim>
				</port>
				<port id="1">
					<dim>1</dim>
					<dim>64</dim>
					<dim>1</dim>
					<dim>1</dim>
				</port>
			</input>
			<output>
				<port id="2" names="bottleneck2_0/skip/conv" precision="FP32">
					<dim>1</dim>
					<dim>64</dim>
					<dim>80</dim>
					<dim>136</dim>
				</port>
			</output>
		</layer>
		<layer id="328" name="bottleneck2_0/add/fq_input_0" type="FakeQuantize" version="opset1">
			<data auto_broadcast="numpy" levels="256"/>
			<input>
				<port id="0">
					<dim>1</dim>
					<dim>64</dim>
					<dim>80</dim>
					<dim>136</dim>
				</port>
				<port id="1"/>
				<port id="2"/>
				<port id="3"/>
				<port id="4"/>
			</input>
			<output>
				<port id="5" precision="FP32">
					<dim>1</dim>
					<dim>64</dim>
					<dim>80</dim>
					<dim>136</dim>
				</port>
			</output>
		</layer>
		<layer id="329" name="6307631125827" type="Const" version="opset1">
			<data element_type="f32" offset="8630" shape="" size="4"/>
			<output>
				<port id="0" precision="FP32"/>
			</output>
		</layer>
		<layer id="330" name="6308631225218" type="Const" version="opset1">
			<data element_type="f32" offset="8634" shape="" size="4"/>
			<output>
				<port id="0" precision="FP32"/>
			</output>
		</layer>
		<layer id="331" name="6309631325068" type="Const" version="opset1">
			<data element_type="f32" offset="8630" shape="" size="4"/>
			<output>
				<port id="0" precision="FP32"/>
			</output>
		</layer>
		<layer id="332" name="6310631427450" type="Const" version="opset1">
			<data element_type="f32" offset="8634" shape="" size="4"/>
			<output>
				<port id="0" precision="FP32"/>
			</output>
		</layer>
		<layer id="333" name="4677468127114" type="Const" version="opset1">
			<data element_type="f32" offset="8638" shape="" size="4"/>
			<output>
				<port id="0" precision="FP32"/>
			</output>
		</layer>
		<layer id="334" name="4678468226529" type="Const" version="opset1">
			<data element_type="f32" offset="8642" shape="" size="4"/>
			<output>
				<port id="0" precision="FP32"/>
			</output>
		</layer>
		<layer id="335" name="4679468327147" type="Const" version="opset1">
			<data element_type="f32" offset="8638" shape="" size="4"/>
			<output>
				<port id="0" precision="FP32"/>
			</output>
		</layer>
		<layer id="336" name="4680468427267" type="Const" version="opset1">
			<data element_type="f32" offset="8642" shape="" size="4"/>
			<output>
				<port id="0" precision="FP32"/>
			</output>
		</layer>
		<layer id="337" name="6277628125674" type="Const" version="opset1">
			<data element_type="f32" offset="8646" shape="1,16,1,1" size="64"/>
			<output>
				<port id="0" precision="FP32">
					<dim>1</dim>
					<dim>16</dim>
					<dim>1</dim>
					<dim>1</dim>
				</port>
			</output>
		</layer>
		<layer id="338" name="6278628225008" type="Const" version="opset1">
			<data element_type="f32" offset="8710" shape="1,16,1,1" size="64"/>
			<output>
				<port id="0" precision="FP32">
					<dim>1</dim>
					<dim>16</dim>
					<dim>1</dim>
					<dim>1</dim>
				</port>
			</output>
		</layer>
		<layer id="339" name="6279628325854" type="Const" version="opset1">
			<data element_type="f32" offset="8646" shape="1,16,1,1" size="64"/>
			<output>
				<port id="0" precision="FP32">
					<dim>1</dim>
					<dim>16</dim>
					<dim>1</dim>
					<dim>1</dim>
				</port>
			</output>
		</layer>
		<layer id="340" name="6280628424636" type="Const" version="opset1">
			<data element_type="f32" offset="8710" shape="1,16,1,1" size="64"/>
			<output>
				<port id="0" precision="FP32">
					<dim>1</dim>
					<dim>16</dim>
					<dim>1</dim>
					<dim>1</dim>
				</port>
			</output>
		</layer>
		<layer id="341" name="bottleneck2_0/dim_red/bn/mean/Fused_Mul__copy121813959/restored_convert/quantized1747324906" type="Const" version="opset1">
			<data element_type="i8" offset="8774" shape="16,32,1,1" size="512"/>
			<output>
				<port id="0" precision="I8">
					<dim>16</dim>
					<dim>32</dim>
					<dim>1</dim>
					<dim>1</dim>
				</port>
			</output>
		</layer>
		<layer id="342" name="bottleneck2_0/dim_red/bn/mean/Fused_Mul__copy121813959/restored_convert/quantized/to_f32" type="Convert" version="opset1">
			<data destination_type="f32"/>
			<input>
				<port id="0">
					<dim>16</dim>
					<dim>32</dim>
					<dim>1</dim>
					<dim>1</dim>
				</port>
			</input>
			<output>
				<port id="1" precision="FP32">
					<dim>16</dim>
					<dim>32</dim>
					<dim>1</dim>
					<dim>1</dim>
				</port>
			</output>
		</layer>
		<layer id="343" name="bottleneck2_0/dim_red/conv/fq_weights_1/zero_point1749226952" type="Const" version="opset1">
			<data element_type="f32" offset="9286" shape="16,1,1,1" size="64"/>
			<output>
				<port id="0" precision="FP32">
					<dim>16</dim>
					<dim>1</dim>
					<dim>1</dim>
					<dim>1</dim>
				</port>
			</output>
		</layer>
		<layer id="344" name="bottleneck2_0/dim_red/conv/fq_weights_1/minus_zp" type="Subtract" version="opset1">
			<data auto_broadcast="numpy"/>
			<input>
				<port id="0">
					<dim>16</dim>
					<dim>32</dim>
					<dim>1</dim>
					<dim>1</dim>
				</port>
				<port id="1">
					<dim>16</dim>
					<dim>1</dim>
					<dim>1</dim>
					<dim>1</dim>
				</port>
			</input>
			<output>
				<port id="2" precision="FP32">
					<dim>16</dim>
					<dim>32</dim>
					<dim>1</dim>
					<dim>1</dim>
				</port>
			</output>
		</layer>
		<layer id="345" name="bottleneck2_0/dim_red/conv/fq_weights_1/scale1748126181" type="Const" version="opset1">
			<data element_type="f32" offset="9350" shape="16,1,1,1" size="64"/>
			<output>
				<port id="0" precision="FP32">
					<dim>16</dim>
					<dim>1</dim>
					<dim>1</dim>
					<dim>1</dim>
				</port>
			</output>
		</layer>
		<layer id="346" name="bottleneck2_0/dim_red/conv/fq_weights_1/mulpiply_by_scale" type="Multiply" version="opset1">
			<data auto_broadcast="numpy"/>
			<input>
				<port id="0">
					<dim>16</dim>
					<dim>32</dim>
					<dim>1</dim>
					<dim>1</dim>
				</port>
				<port id="1">
					<dim>16</dim>
					<dim>1</dim>
					<dim>1</dim>
					<dim>1</dim>
				</port>
			</input>
			<output>
				<port id="2" precision="FP32">
					<dim>16</dim>
					<dim>32</dim>
					<dim>1</dim>
					<dim>1</dim>
				</port>
			</output>
		</layer>
		<layer id="347" name="bottleneck2_0/dim_red/conv" type="Convolution" version="opset1">
			<data auto_pad="explicit" dilations="1,1" pads_begin="0,0" pads_end="0,0" strides="1,1"/>
			<rt_info>
				<attribute name="fused_names" value="bottleneck2_0/dim_red/conv" version="0"/>
			</rt_info>
			<input>
				<port id="0">
					<dim>1</dim>
					<dim>32</dim>
					<dim>160</dim>
					<dim>272</dim>
				</port>
				<port id="1">
					<dim>16</dim>
					<dim>32</dim>
					<dim>1</dim>
					<dim>1</dim>
				</port>
			</input>
			<output>
				<port id="2" precision="FP32">
					<dim>1</dim>
					<dim>16</dim>
					<dim>160</dim>
					<dim>272</dim>
				</port>
			</output>
		</layer>
		<layer id="348" name="data_add_2456124566122126034" type="Const" version="opset1">
			<data element_type="f16" offset="9414" shape="1,16,1,1" size="32"/>
			<output>
				<port id="0" precision="FP16">
					<dim>1</dim>
					<dim>16</dim>
					<dim>1</dim>
					<dim>1</dim>
				</port>
			</output>
		</layer>
		<layer id="349" name="data_add_2456124566122113960/restored_convert" type="Convert" version="opset1">
			<data destination_type="f32"/>
			<rt_info>
				<attribute name="decompression" version="0"/>
				<attribute name="fused_names" value="data_add_2456124566" version="0"/>
			</rt_info>
			<input>
				<port id="0">
					<dim>1</dim>
					<dim>16</dim>
					<dim>1</dim>
					<dim>1</dim>
				</port>
			</input>
			<output>
				<port id="1" precision="FP32">
					<dim>1</dim>
					<dim>16</dim>
					<dim>1</dim>
					<dim>1</dim>
				</port>
			</output>
		</layer>
		<layer id="350" name="bottleneck2_0/dim_red/bn/variance/Fused_Add_" type="Add" version="opset1">
			<data auto_broadcast="numpy"/>
			<rt_info>
				<attribute name="fused_names" value="bottleneck2_0/dim_red/bn/variance/Fused_Add_" version="0"/>
			</rt_info>
			<input>
				<port id="0">
					<dim>1</dim>
					<dim>16</dim>
					<dim>160</dim>
					<dim>272</dim>
				</port>
				<port id="1">
					<dim>1</dim>
					<dim>16</dim>
					<dim>1</dim>
					<dim>1</dim>
				</port>
			</input>
			<output>
				<port id="2" names="bottleneck2_0/dim_red/conv" precision="FP32">
					<dim>1</dim>
					<dim>16</dim>
					<dim>160</dim>
					<dim>272</dim>
				</port>
			</output>
		</layer>
		<layer id="351" name="bottleneck2_0/dim_red/fn/weights3104039746122427279" type="Const" version="opset1">
			<data element_type="f16" offset="1660" shape="1" size="2"/>
			<output>
				<port id="0" precision="FP16">
					<dim>1</dim>
				</port>
			</output>
		</layer>
		<layer id="352" name="bottleneck2_0/dim_red/fn/weights3104039746122413961/restored_convert" type="Convert" version="opset1">
			<data destination_type="f32"/>
			<rt_info>
				<attribute name="decompression" version="0"/>
				<attribute name="fused_names" value="bottleneck2_0/dim_red/fn/weights3104039746" version="0"/>
			</rt_info>
			<input>
				<port id="0">
					<dim>1</dim>
				</port>
			</input>
			<output>
				<port id="1" precision="FP32">
					<dim>1</dim>
				</port>
			</output>
		</layer>
		<layer id="353" name="bottleneck2_0/dim_red/fn" type="PReLU" version="opset1">
			<rt_info>
				<attribute name="fused_names" value="bottleneck2_0/dim_red/fn" version="0"/>
			</rt_info>
			<input>
				<port id="0">
					<dim>1</dim>
					<dim>16</dim>
					<dim>160</dim>
					<dim>272</dim>
				</port>
				<port id="1">
					<dim>1</dim>
				</port>
			</input>
			<output>
				<port id="2" names="bottleneck2_0/dim_red/conv" precision="FP32">
					<dim>1</dim>
					<dim>16</dim>
					<dim>160</dim>
					<dim>272</dim>
				</port>
			</output>
		</layer>
		<layer id="354" name="bottleneck2_0/inner/dw1/conv/fq_input_0" type="FakeQuantize" version="opset1">
			<data auto_broadcast="numpy" levels="256"/>
			<input>
				<port id="0">
					<dim>1</dim>
					<dim>16</dim>
					<dim>160</dim>
					<dim>272</dim>
				</port>
				<port id="1">
					<dim>1</dim>
					<dim>16</dim>
					<dim>1</dim>
					<dim>1</dim>
				</port>
				<port id="2">
					<dim>1</dim>
					<dim>16</dim>
					<dim>1</dim>
					<dim>1</dim>
				</port>
				<port id="3">
					<dim>1</dim>
					<dim>16</dim>
					<dim>1</dim>
					<dim>1</dim>
				</port>
				<port id="4">
					<dim>1</dim>
					<dim>16</dim>
					<dim>1</dim>
					<dim>1</dim>
				</port>
			</input>
			<output>
				<port id="5" precision="FP32">
					<dim>1</dim>
					<dim>16</dim>
					<dim>160</dim>
					<dim>272</dim>
				</port>
			</output>
		</layer>
		<layer id="355" name="22014/value2201624789" type="Const" version="opset1">
			<data element_type="i64" offset="9446" shape="5" size="40"/>
			<output>
				<port id="0" precision="I64">
					<dim>5</dim>
				</port>
			</output>
		</layer>
		<layer id="356" name="bottleneck2_0/inner/dw1/bn/mean/Fused_Mul__copy122713962/restored_convert/quantized1687326697" type="Const" version="opset1">
			<data element_type="i8" offset="9486" shape="16,1,3,3" size="144"/>
			<output>
				<port id="0" precision="I8">
					<dim>16</dim>
					<dim>1</dim>
					<dim>3</dim>
					<dim>3</dim>
				</port>
			</output>
		</layer>
		<layer id="357" name="bottleneck2_0/inner/dw1/bn/mean/Fused_Mul__copy122713962/restored_convert/quantized/to_f32" type="Convert" version="opset1">
			<data destination_type="f32"/>
			<input>
				<port id="0">
					<dim>16</dim>
					<dim>1</dim>
					<dim>3</dim>
					<dim>3</dim>
				</port>
			</input>
			<output>
				<port id="1" precision="FP32">
					<dim>16</dim>
					<dim>1</dim>
					<dim>3</dim>
					<dim>3</dim>
				</port>
			</output>
		</layer>
		<layer id="358" name="bottleneck2_0/inner/dw1/conv/fq_weights_1/zero_point1689224777" type="Const" version="opset1">
			<data element_type="f32" offset="9630" shape="16,1,1,1" size="64"/>
			<output>
				<port id="0" precision="FP32">
					<dim>16</dim>
					<dim>1</dim>
					<dim>1</dim>
					<dim>1</dim>
				</port>
			</output>
		</layer>
		<layer id="359" name="bottleneck2_0/inner/dw1/conv/fq_weights_1/minus_zp" type="Subtract" version="opset1">
			<data auto_broadcast="numpy"/>
			<input>
				<port id="0">
					<dim>16</dim>
					<dim>1</dim>
					<dim>3</dim>
					<dim>3</dim>
				</port>
				<port id="1">
					<dim>16</dim>
					<dim>1</dim>
					<dim>1</dim>
					<dim>1</dim>
				</port>
			</input>
			<output>
				<port id="2" precision="FP32">
					<dim>16</dim>
					<dim>1</dim>
					<dim>3</dim>
					<dim>3</dim>
				</port>
			</output>
		</layer>
		<layer id="360" name="bottleneck2_0/inner/dw1/conv/fq_weights_1/scale1688125506" type="Const" version="opset1">
			<data element_type="f32" offset="9694" shape="16,1,1,1" size="64"/>
			<output>
				<port id="0" precision="FP32">
					<dim>16</dim>
					<dim>1</dim>
					<dim>1</dim>
					<dim>1</dim>
				</port>
			</output>
		</layer>
		<layer id="361" name="bottleneck2_0/inner/dw1/conv/fq_weights_1/mulpiply_by_scale" type="Multiply" version="opset1">
			<data auto_broadcast="numpy"/>
			<input>
				<port id="0">
					<dim>16</dim>
					<dim>1</dim>
					<dim>3</dim>
					<dim>3</dim>
				</port>
				<port id="1">
					<dim>16</dim>
					<dim>1</dim>
					<dim>1</dim>
					<dim>1</dim>
				</port>
			</input>
			<output>
				<port id="2" precision="FP32">
					<dim>16</dim>
					<dim>1</dim>
					<dim>3</dim>
					<dim>3</dim>
				</port>
			</output>
		</layer>
		<layer id="362" name="22014" type="Reshape" version="opset1">
			<data special_zero="true"/>
			<input>
				<port id="0">
					<dim>16</dim>
					<dim>1</dim>
					<dim>3</dim>
					<dim>3</dim>
				</port>
				<port id="1">
					<dim>5</dim>
				</port>
			</input>
			<output>
				<port id="2" precision="FP32">
					<dim>16</dim>
					<dim>1</dim>
					<dim>1</dim>
					<dim>3</dim>
					<dim>3</dim>
				</port>
			</output>
		</layer>
		<layer id="363" name="bottleneck2_0/inner/dw1/conv" type="GroupConvolution" version="opset1">
			<data auto_pad="explicit" dilations="1,1" pads_begin="1,1" pads_end="1,1" strides="2,2"/>
			<rt_info>
				<attribute name="fused_names" value="bottleneck2_0/inner/dw1/conv" version="0"/>
			</rt_info>
			<input>
				<port id="0">
					<dim>1</dim>
					<dim>16</dim>
					<dim>160</dim>
					<dim>272</dim>
				</port>
				<port id="1">
					<dim>16</dim>
					<dim>1</dim>
					<dim>1</dim>
					<dim>3</dim>
					<dim>3</dim>
				</port>
			</input>
			<output>
				<port id="2" precision="FP32">
					<dim>1</dim>
					<dim>16</dim>
					<dim>80</dim>
					<dim>136</dim>
				</port>
			</output>
		</layer>
		<layer id="364" name="data_add_2456924574123025599" type="Const" version="opset1">
			<data element_type="f16" offset="9758" shape="1,16,1,1" size="32"/>
			<output>
				<port id="0" precision="FP16">
					<dim>1</dim>
					<dim>16</dim>
					<dim>1</dim>
					<dim>1</dim>
				</port>
			</output>
		</layer>
		<layer id="365" name="data_add_2456924574123013963/restored_convert" type="Convert" version="opset1">
			<data destination_type="f32"/>
			<rt_info>
				<attribute name="decompression" version="0"/>
				<attribute name="fused_names" value="data_add_2456924574" version="0"/>
			</rt_info>
			<input>
				<port id="0">
					<dim>1</dim>
					<dim>16</dim>
					<dim>1</dim>
					<dim>1</dim>
				</port>
			</input>
			<output>
				<port id="1" precision="FP32">
					<dim>1</dim>
					<dim>16</dim>
					<dim>1</dim>
					<dim>1</dim>
				</port>
			</output>
		</layer>
		<layer id="366" name="bottleneck2_0/inner/dw1/bn/variance/Fused_Add_" type="Add" version="opset1">
			<data auto_broadcast="numpy"/>
			<rt_info>
				<attribute name="fused_names" value="bottleneck2_0/inner/dw1/bn/variance/Fused_Add_" version="0"/>
			</rt_info>
			<input>
				<port id="0">
					<dim>1</dim>
					<dim>16</dim>
					<dim>80</dim>
					<dim>136</dim>
				</port>
				<port id="1">
					<dim>1</dim>
					<dim>16</dim>
					<dim>1</dim>
					<dim>1</dim>
				</port>
			</input>
			<output>
				<port id="2" names="bottleneck2_0/inner/dw1/conv" precision="FP32">
					<dim>1</dim>
					<dim>16</dim>
					<dim>80</dim>
					<dim>136</dim>
				</port>
			</output>
		</layer>
		<layer id="367" name="bottleneck2_0/inner/dw1/fn/weights3117640124123325677" type="Const" version="opset1">
			<data element_type="f16" offset="1660" shape="1" size="2"/>
			<output>
				<port id="0" precision="FP16">
					<dim>1</dim>
				</port>
			</output>
		</layer>
		<layer id="368" name="bottleneck2_0/inner/dw1/fn/weights3117640124123313964/restored_convert" type="Convert" version="opset1">
			<data destination_type="f32"/>
			<rt_info>
				<attribute name="decompression" version="0"/>
				<attribute name="fused_names" value="bottleneck2_0/inner/dw1/fn/weights3117640124" version="0"/>
			</rt_info>
			<input>
				<port id="0">
					<dim>1</dim>
				</port>
			</input>
			<output>
				<port id="1" precision="FP32">
					<dim>1</dim>
				</port>
			</output>
		</layer>
		<layer id="369" name="bottleneck2_0/inner/dw1/fn" type="PReLU" version="opset1">
			<rt_info>
				<attribute name="fused_names" value="bottleneck2_0/inner/dw1/fn" version="0"/>
			</rt_info>
			<input>
				<port id="0">
					<dim>1</dim>
					<dim>16</dim>
					<dim>80</dim>
					<dim>136</dim>
				</port>
				<port id="1">
					<dim>1</dim>
				</port>
			</input>
			<output>
				<port id="2" names="bottleneck2_0/inner/dw1/conv" precision="FP32">
					<dim>1</dim>
					<dim>16</dim>
					<dim>80</dim>
					<dim>136</dim>
				</port>
			</output>
		</layer>
		<layer id="370" name="bottleneck2_0/dim_inc/conv/fq_input_0" type="FakeQuantize" version="opset1">
			<data auto_broadcast="numpy" levels="256"/>
			<input>
				<port id="0">
					<dim>1</dim>
					<dim>16</dim>
					<dim>80</dim>
					<dim>136</dim>
				</port>
				<port id="1"/>
				<port id="2"/>
				<port id="3"/>
				<port id="4"/>
			</input>
			<output>
				<port id="5" precision="FP32">
					<dim>1</dim>
					<dim>16</dim>
					<dim>80</dim>
					<dim>136</dim>
				</port>
			</output>
		</layer>
		<layer id="371" name="bottleneck2_0/dim_inc/bn/mean/Fused_Mul__copy123613965/restored_convert/quantized1810327579" type="Const" version="opset1">
			<data element_type="i8" offset="9790" shape="64,16,1,1" size="1024"/>
			<output>
				<port id="0" precision="I8">
					<dim>64</dim>
					<dim>16</dim>
					<dim>1</dim>
					<dim>1</dim>
				</port>
			</output>
		</layer>
		<layer id="372" name="bottleneck2_0/dim_inc/bn/mean/Fused_Mul__copy123613965/restored_convert/quantized/to_f32" type="Convert" version="opset1">
			<data destination_type="f32"/>
			<input>
				<port id="0">
					<dim>64</dim>
					<dim>16</dim>
					<dim>1</dim>
					<dim>1</dim>
				</port>
			</input>
			<output>
				<port id="1" precision="FP32">
					<dim>64</dim>
					<dim>16</dim>
					<dim>1</dim>
					<dim>1</dim>
				</port>
			</output>
		</layer>
		<layer id="373" name="bottleneck2_0/dim_inc/conv/fq_weights_1/zero_point1812225512" type="Const" version="opset1">
			<data element_type="f32" offset="10814" shape="64,1,1,1" size="256"/>
			<output>
				<port id="0" precision="FP32">
					<dim>64</dim>
					<dim>1</dim>
					<dim>1</dim>
					<dim>1</dim>
				</port>
			</output>
		</layer>
		<layer id="374" name="bottleneck2_0/dim_inc/conv/fq_weights_1/minus_zp" type="Subtract" version="opset1">
			<data auto_broadcast="numpy"/>
			<input>
				<port id="0">
					<dim>64</dim>
					<dim>16</dim>
					<dim>1</dim>
					<dim>1</dim>
				</port>
				<port id="1">
					<dim>64</dim>
					<dim>1</dim>
					<dim>1</dim>
					<dim>1</dim>
				</port>
			</input>
			<output>
				<port id="2" precision="FP32">
					<dim>64</dim>
					<dim>16</dim>
					<dim>1</dim>
					<dim>1</dim>
				</port>
			</output>
		</layer>
		<layer id="375" name="bottleneck2_0/dim_inc/conv/fq_weights_1/scale1811125455" type="Const" version="opset1">
			<data element_type="f32" offset="11070" shape="64,1,1,1" size="256"/>
			<output>
				<port id="0" precision="FP32">
					<dim>64</dim>
					<dim>1</dim>
					<dim>1</dim>
					<dim>1</dim>
				</port>
			</output>
		</layer>
		<layer id="376" name="bottleneck2_0/dim_inc/conv/fq_weights_1/mulpiply_by_scale" type="Multiply" version="opset1">
			<data auto_broadcast="numpy"/>
			<input>
				<port id="0">
					<dim>64</dim>
					<dim>16</dim>
					<dim>1</dim>
					<dim>1</dim>
				</port>
				<port id="1">
					<dim>64</dim>
					<dim>1</dim>
					<dim>1</dim>
					<dim>1</dim>
				</port>
			</input>
			<output>
				<port id="2" precision="FP32">
					<dim>64</dim>
					<dim>16</dim>
					<dim>1</dim>
					<dim>1</dim>
				</port>
			</output>
		</layer>
		<layer id="377" name="bottleneck2_0/dim_inc/conv" type="Convolution" version="opset1">
			<data auto_pad="explicit" dilations="1,1" pads_begin="0,0" pads_end="0,0" strides="1,1"/>
			<rt_info>
				<attribute name="fused_names" value="bottleneck2_0/dim_inc/conv" version="0"/>
			</rt_info>
			<input>
				<port id="0">
					<dim>1</dim>
					<dim>16</dim>
					<dim>80</dim>
					<dim>136</dim>
				</port>
				<port id="1">
					<dim>64</dim>
					<dim>16</dim>
					<dim>1</dim>
					<dim>1</dim>
				</port>
			</input>
			<output>
				<port id="2" precision="FP32">
					<dim>1</dim>
					<dim>64</dim>
					<dim>80</dim>
					<dim>136</dim>
				</port>
			</output>
		</layer>
		<layer id="378" name="data_add_2457724582123926925" type="Const" version="opset1">
			<data element_type="f16" offset="11326" shape="1,64,1,1" size="128"/>
			<output>
				<port id="0" precision="FP16">
					<dim>1</dim>
					<dim>64</dim>
					<dim>1</dim>
					<dim>1</dim>
				</port>
			</output>
		</layer>
…
		<edge from-layer="1776" from-port="2" to-layer="1778" to-port="0"/>
		<edge from-layer="1777" from-port="0" to-layer="1778" to-port="1"/>
		<edge from-layer="1772" from-port="5" to-layer="1779" to-port="0"/>
		<edge from-layer="1778" from-port="2" to-layer="1779" to-port="1"/>
		<edge from-layer="1780" from-port="0" to-layer="1781" to-port="0"/>
		<edge from-layer="1779" from-port="2" to-layer="1782" to-port="0"/>
		<edge from-layer="1781" from-port="1" to-layer="1782" to-port="1"/>
		<edge from-layer="1782" from-port="2" to-layer="1783" to-port="0"/>
		<edge from-layer="1731" from-port="0" to-layer="1783" to-port="1"/>
		<edge from-layer="1732" from-port="0" to-layer="1783" to-port="2"/>
		<edge from-layer="1733" from-port="0" to-layer="1783" to-port="3"/>
		<edge from-layer="1734" from-port="0" to-layer="1783" to-port="4"/>
		<edge from-layer="1730" from-port="5" to-layer="1784" to-port="0"/>
		<edge from-layer="1783" from-port="5" to-layer="1784" to-port="1"/>
		<edge from-layer="1785" from-port="0" to-layer="1786" to-port="0"/>
		<edge from-layer="1784" from-port="2" to-layer="1787" to-port="0"/>
		<edge from-layer="1786" from-port="1" to-layer="1787" to-port="1"/>
		<edge from-layer="1787" from-port="2" to-layer="1788" to-port="0"/>
		<edge from-layer="1588" from-port="0" to-layer="1788" to-port="1"/>
		<edge from-layer="1589" from-port="0" to-layer="1788" to-port="2"/>
		<edge from-layer="1590" from-port="0" to-layer="1788" to-port="3"/>
		<edge from-layer="1591" from-port="0" to-layer="1788" to-port="4"/>
		<edge from-layer="1801" from-port="0" to-layer="1802" to-port="0"/>
		<edge from-layer="1802" from-port="1" to-layer="1804" to-port="0"/>
		<edge from-layer="1803" from-port="0" to-layer="1804" to-port="1"/>
		<edge from-layer="1804" from-port="2" to-layer="1806" to-port="0"/>
		<edge from-layer="1805" from-port="0" to-layer="1806" to-port="1"/>
		<edge from-layer="1788" from-port="5" to-layer="1807" to-port="0"/>
		<edge from-layer="1806" from-port="2" to-layer="1807" to-port="1"/>
		<edge from-layer="1808" from-port="0" to-layer="1809" to-port="0"/>
		<edge from-layer="1807" from-port="2" to-layer="1810" to-port="0"/>
		<edge from-layer="1809" from-port="1" to-layer="1810" to-port="1"/>
		<edge from-layer="1811" from-port="0" to-layer="1812" to-port="0"/>
		<edge from-layer="1810" from-port="2" to-layer="1813" to-port="0"/>
		<edge from-layer="1812" from-port="1" to-layer="1813" to-port="1"/>
		<edge from-layer="1813" from-port="2" to-layer="1814" to-port="0"/>
		<edge from-layer="1797" from-port="0" to-layer="1814" to-port="1"/>
		<edge from-layer="1798" from-port="0" to-layer="1814" to-port="2"/>
		<edge from-layer="1799" from-port="0" to-layer="1814" to-port="3"/>
		<edge from-layer="1800" from-port="0" to-layer="1814" to-port="4"/>
		<edge from-layer="1816" from-port="0" to-layer="1817" to-port="0"/>
		<edge from-layer="1817" from-port="1" to-layer="1819" to-port="0"/>
		<edge from-layer="1818" from-port="0" to-layer="1819" to-port="1"/>
		<edge from-layer="1819" from-port="2" to-layer="1821" to-port="0"/>
		<edge from-layer="1820" from-port="0" to-layer="1821" to-port="1"/>
		<edge from-layer="1821" from-port="2" to-layer="1822" to-port="0"/>
		<edge from-layer="1815" from-port="0" to-layer="1822" to-port="1"/>
		<edge from-layer="1814" from-port="5" to-layer="1823" to-port="0"/>
		<edge from-layer="1822" from-port="2" to-layer="1823" to-port="1"/>
		<edge from-layer="1824" from-port="0" to-layer="1825" to-port="0"/>
		<edge from-layer="1823" from-port="2" to-layer="1826" to-port="0"/>
		<edge from-layer="1825" from-port="1" to-layer="1826" to-port="1"/>
		<edge from-layer="1827" from-port="0" to-layer="1828" to-port="0"/>
		<edge from-layer="1826" from-port="2" to-layer="1829" to-port="0"/>
		<edge from-layer="1828" from-port="1" to-layer="1829" to-port="1"/>
		<edge from-layer="1829" from-port="2" to-layer="1830" to-port="0"/>
		<edge from-layer="1793" from-port="0" to-layer="1830" to-port="1"/>
		<edge from-layer="1794" from-port="0" to-layer="1830" to-port="2"/>
		<edge from-layer="1795" from-port="0" to-layer="1830" to-port="3"/>
		<edge from-layer="1796" from-port="0" to-layer="1830" to-port="4"/>
		<edge from-layer="1831" from-port="0" to-layer="1832" to-port="0"/>
		<edge from-layer="1832" from-port="1" to-layer="1834" to-port="0"/>
		<edge from-layer="1833" from-port="0" to-layer="1834" to-port="1"/>
		<edge from-layer="1834" from-port="2" to-layer="1836" to-port="0"/>
		<edge from-layer="1835" from-port="0" to-layer="1836" to-port="1"/>
		<edge from-layer="1830" from-port="5" to-layer="1837" to-port="0"/>
		<edge from-layer="1836" from-port="2" to-layer="1837" to-port="1"/>
		<edge from-layer="1838" from-port="0" to-layer="1839" to-port="0"/>
		<edge from-layer="1837" from-port="2" to-layer="1840" to-port="0"/>
		<edge from-layer="1839" from-port="1" to-layer="1840" to-port="1"/>
		<edge from-layer="1840" from-port="2" to-layer="1841" to-port="0"/>
		<edge from-layer="1789" from-port="0" to-layer="1841" to-port="1"/>
		<edge from-layer="1790" from-port="0" to-layer="1841" to-port="2"/>
		<edge from-layer="1791" from-port="0" to-layer="1841" to-port="3"/>
		<edge from-layer="1792" from-port="0" to-layer="1841" to-port="4"/>
		<edge from-layer="1788" from-port="5" to-layer="1842" to-port="0"/>
		<edge from-layer="1841" from-port="5" to-layer="1842" to-port="1"/>
		<edge from-layer="1843" from-port="0" to-layer="1844" to-port="0"/>
		<edge from-layer="1842" from-port="2" to-layer="1845" to-port="0"/>
		<edge from-layer="1844" from-port="1" to-layer="1845" to-port="1"/>
		<edge from-layer="1845" from-port="2" to-layer="1846" to-port="0"/>
		<edge from-layer="1584" from-port="0" to-layer="1846" to-port="1"/>
		<edge from-layer="1585" from-port="0" to-layer="1846" to-port="2"/>
		<edge from-layer="1586" from-port="0" to-layer="1846" to-port="3"/>
		<edge from-layer="1587" from-port="0" to-layer="1846" to-port="4"/>
		<edge from-layer="1859" from-port="0" to-layer="1860" to-port="0"/>
		<edge from-layer="1860" from-port="1" to-layer="1862" to-port="0"/>
		<edge from-layer="1861" from-port="0" to-layer="1862" to-port="1"/>
		<edge from-layer="1862" from-port="2" to-layer="1864" to-port="0"/>
		<edge from-layer="1863" from-port="0" to-layer="1864" to-port="1"/>
		<edge from-layer="1846" from-port="5" to-layer="1865" to-port="0"/>
		<edge from-layer="1864" from-port="2" to-layer="1865" to-port="1"/>
		<edge from-layer="1866" from-port="0" to-layer="1867" to-port="0"/>
		<edge from-layer="1865" from-port="2" to-layer="1868" to-port="0"/>
		<edge from-layer="1867" from-port="1" to-layer="1868" to-port="1"/>
		<edge from-layer="1869" from-port="0" to-layer="1870" to-port="0"/>
		<edge from-layer="1868" from-port="2" to-layer="1871" to-port="0"/>
		<edge from-layer="1870" from-port="1" to-layer="1871" to-port="1"/>
		<edge from-layer="1871" from-port="2" to-layer="1872" to-port="0"/>
		<edge from-layer="1855" from-port="0" to-layer="1872" to-port="1"/>
		<edge from-layer="1856" from-port="0" to-layer="1872" to-port="2"/>
		<edge from-layer="1857" from-port="0" to-layer="1872" to-port="3"/>
		<edge from-layer="1858" from-port="0" to-layer="1872" to-port="4"/>
		<edge from-layer="1874" from-port="0" to-layer="1875" to-port="0"/>
		<edge from-layer="1875" from-port="1" to-layer="1877" to-port="0"/>
		<edge from-layer="1876" from-port="0" to-layer="1877" to-port="1"/>
		<edge from-layer="1877" from-port="2" to-layer="1879" to-port="0"/>
		<edge from-layer="1878" from-port="0" to-layer="1879" to-port="1"/>
		<edge from-layer="1879" from-port="2" to-layer="1880" to-port="0"/>
		<edge from-layer="1873" from-port="0" to-layer="1880" to-port="1"/>
		<edge from-layer="1872" from-port="5" to-layer="1881" to-port="0"/>
		<edge from-layer="1880" from-port="2" to-layer="1881" to-port="1"/>
		<edge from-layer="1882" from-port="0" to-layer="1883" to-port="0"/>
		<edge from-layer="1881" from-port="2" to-layer="1884" to-port="0"/>
		<edge from-layer="1883" from-port="1" to-layer="1884" to-port="1"/>
		<edge from-layer="1885" from-port="0" to-layer="1886" to-port="0"/>
		<edge from-layer="1884" from-port="2" to-layer="1887" to-port="0"/>
		<edge from-layer="1886" from-port="1" to-layer="1887" to-port="1"/>
		<edge from-layer="1887" from-port="2" to-layer="1888" to-port="0"/>
		<edge from-layer="1851" from-port="0" to-layer="1888" to-port="1"/>
		<edge from-layer="1852" from-port="0" to-layer="1888" to-port="2"/>
		<edge from-layer="1853" from-port="0" to-layer="1888" to-port="3"/>
		<edge from-layer="1854" from-port="0" to-layer="1888" to-port="4"/>
		<edge from-layer="1889" from-port="0" to-layer="1890" to-port="0"/>
		<edge from-layer="1890" from-port="1" to-layer="1892" to-port="0"/>
		<edge from-layer="1891" from-port="0" to-layer="1892" to-port="1"/>
		<edge from-layer="1892" from-port="2" to-layer="1894" to-port="0"/>
		<edge from-layer="1893" from-port="0" to-layer="1894" to-port="1"/>
		<edge from-layer="1888" from-port="5" to-layer="1895" to-port="0"/>
		<edge from-layer="1894" from-port="2" to-layer="1895" to-port="1"/>
		<edge from-layer="1896" from-port="0" to-layer="1897" to-port="0"/>
		<edge from-layer="1895" from-port="2" to-layer="1898" to-port="0"/>
		<edge from-layer="1897" from-port="1" to-layer="1898" to-port="1"/>
		<edge from-layer="1898" from-port="2" to-layer="1899" to-port="0"/>
		<edge from-layer="1847" from-port="0" to-layer="1899" to-port="1"/>
		<edge from-layer="1848" from-port="0" to-layer="1899" to-port="2"/>
		<edge from-layer="1849" from-port="0" to-layer="1899" to-port="3"/>
		<edge from-layer="1850" from-port="0" to-layer="1899" to-port="4"/>
		<edge from-layer="1846" from-port="5" to-layer="1900" to-port="0"/>
		<edge from-layer="1899" from-port="5" to-layer="1900" to-port="1"/>
		<edge from-layer="1901" from-port="0" to-layer="1902" to-port="0"/>
		<edge from-layer="1900" from-port="2" to-layer="1903" to-port="0"/>
		<edge from-layer="1902" from-port="1" to-layer="1903" to-port="1"/>
		<edge from-layer="1903" from-port="2" to-layer="1904" to-port="0"/>
		<edge from-layer="1580" from-port="0" to-layer="1904" to-port="1"/>
		<edge from-layer="1581" from-port="0" to-layer="1904" to-port="2"/>
		<edge from-layer="1582" from-port="0" to-layer="1904" to-port="3"/>
		<edge from-layer="1583" from-port="0" to-layer="1904" to-port="4"/>
		<edge from-layer="1917" from-port="0" to-layer="1918" to-port="0"/>
		<edge from-layer="1918" from-port="1" to-layer="1920" to-port="0"/>
		<edge from-layer="1919" from-port="0" to-layer="1920" to-port="1"/>
		<edge from-layer="1920" from-port="2" to-layer="1922" to-port="0"/>
		<edge from-layer="1921" from-port="0" to-layer="1922" to-port="1"/>
		<edge from-layer="1904" from-port="5" to-layer="1923" to-port="0"/>
		<edge from-layer="1922" from-port="2" to-layer="1923" to-port="1"/>
		<edge from-layer="1924" from-port="0" to-layer="1925" to-port="0"/>
		<edge from-layer="1923" from-port="2" to-layer="1926" to-port="0"/>
		<edge from-layer="1925" from-port="1" to-layer="1926" to-port="1"/>
		<edge from-layer="1927" from-port="0" to-layer="1928" to-port="0"/>
		<edge from-layer="1926" from-port="2" to-layer="1929" to-port="0"/>
		<edge from-layer="1928" from-port="1" to-layer="1929" to-port="1"/>
		<edge from-layer="1929" from-port="2" to-layer="1930" to-port="0"/>
		<edge from-layer="1913" from-port="0" to-layer="1930" to-port="1"/>
		<edge from-layer="1914" from-port="0" to-layer="1930" to-port="2"/>
		<edge from-layer="1915" from-port="0" to-layer="1930" to-port="3"/>
		<edge from-layer="1916" from-port="0" to-layer="1930" to-port="4"/>
		<edge from-layer="1932" from-port="0" to-layer="1933" to-port="0"/>
		<edge from-layer="1933" from-port="1" to-layer="1935" to-port="0"/>
		<edge from-layer="1934" from-port="0" to-layer="1935" to-port="1"/>
		<edge from-layer="1935" from-port="2" to-layer="1937" to-port="0"/>
		<edge from-layer="1936" from-port="0" to-layer="1937" to-port="1"/>
		<edge from-layer="1937" from-port="2" to-layer="1938" to-port="0"/>
		<edge from-layer="1931" from-port="0" to-layer="1938" to-port="1"/>
		<edge from-layer="1930" from-port="5" to-layer="1939" to-port="0"/>
		<edge from-layer="1938" from-port="2" to-layer="1939" to-port="1"/>
		<edge from-layer="1940" from-port="0" to-layer="1941" to-port="0"/>
		<edge from-layer="1939" from-port="2" to-layer="1942" to-port="0"/>
		<edge from-layer="1941" from-port="1" to-layer="1942" to-port="1"/>
		<edge from-layer="1943" from-port="0" to-layer="1944" to-port="0"/>
		<edge from-layer="1942" from-port="2" to-layer="1945" to-port="0"/>
		<edge from-layer="1944" from-port="1" to-layer="1945" to-port="1"/>
		<edge from-layer="1945" from-port="2" to-layer="1946" to-port="0"/>
		<edge from-layer="1909" from-port="0" to-layer="1946" to-port="1"/>
		<edge from-layer="1910" from-port="0" to-layer="1946" to-port="2"/>
		<edge from-layer="1911" from-port="0" to-layer="1946" to-port="3"/>
		<edge from-layer="1912" from-port="0" to-layer="1946" to-port="4"/>
		<edge from-layer="1947" from-port="0" to-layer="1948" to-port="0"/>
		<edge from-layer="1948" from-port="1" to-layer="1950" to-port="0"/>
		<edge from-layer="1949" from-port="0" to-layer="1950" to-port="1"/>
		<edge from-layer="1950" from-port="2" to-layer="1952" to-port="0"/>
		<edge from-layer="1951" from-port="0" to-layer="1952" to-port="1"/>
		<edge from-layer="1946" from-port="5" to-layer="1953" to-port="0"/>
		<edge from-layer="1952" from-port="2" to-layer="1953" to-port="1"/>
		<edge from-layer="1954" from-port="0" to-layer="1955" to-port="0"/>
		<edge from-layer="1953" from-port="2" to-layer="1956" to-port="0"/>
		<edge from-layer="1955" from-port="1" to-layer="1956" to-port="1"/>
		<edge from-layer="1956" from-port="2" to-layer="1957" to-port="0"/>
		<edge from-layer="1905" from-port="0" to-layer="1957" to-port="1"/>
		<edge from-layer="1906" from-port="0" to-layer="1957" to-port="2"/>
		<edge from-layer="1907" from-port="0" to-layer="1957" to-port="3"/>
		<edge from-layer="1908" from-port="0" to-layer="1957" to-port="4"/>
		<edge from-layer="1904" from-port="5" to-layer="1958" to-port="0"/>
		<edge from-layer="1957" from-port="5" to-layer="1958" to-port="1"/>
		<edge from-layer="1959" from-port="0" to-layer="1960" to-port="0"/>
		<edge from-layer="1958" from-port="2" to-layer="1961" to-port="0"/>
		<edge from-layer="1960" from-port="1" to-layer="1961" to-port="1"/>
		<edge from-layer="1961" from-port="2" to-layer="1962" to-port="0"/>
		<edge from-layer="1576" from-port="0" to-layer="1962" to-port="1"/>
		<edge from-layer="1577" from-port="0" to-layer="1962" to-port="2"/>
		<edge from-layer="1578" from-port="0" to-layer="1962" to-port="3"/>
		<edge from-layer="1579" from-port="0" to-layer="1962" to-port="4"/>
		<edge from-layer="1975" from-port="0" to-layer="1976" to-port="0"/>
		<edge from-layer="1976" from-port="1" to-layer="1978" to-port="0"/>
		<edge from-layer="1977" from-port="0" to-layer="1978" to-port="1"/>
		<edge from-layer="1978" from-port="2" to-layer="1980" to-port="0"/>
		<edge from-layer="1979" from-port="0" to-layer="1980" to-port="1"/>
		<edge from-layer="1962" from-port="5" to-layer="1981" to-port="0"/>
		<edge from-layer="1980" from-port="2" to-layer="1981" to-port="1"/>
		<edge from-layer="1982" from-port="0" to-layer="1983" to-port="0"/>
		<edge from-layer="1981" from-port="2" to-layer="1984" to-port="0"/>
		<edge from-layer="1983" from-port="1" to-layer="1984" to-port="1"/>
		<edge from-layer="1985" from-port="0" to-layer="1986" to-port="0"/>
		<edge from-layer="1984" from-port="2" to-layer="1987" to-port="0"/>
		<edge from-layer="1986" from-port="1" to-layer="1987" to-port="1"/>
		<edge from-layer="1987" from-port="2" to-layer="1988" to-port="0"/>
		<edge from-layer="1971" from-port="0" to-layer="1988" to-port="1"/>
		<edge from-layer="1972" from-port="0" to-layer="1988" to-port="2"/>
		<edge from-layer="1973" from-port="0" to-layer="1988" to-port="3"/>
		<edge from-layer="1974" from-port="0" to-layer="1988" to-port="4"/>
		<edge from-layer="1990" from-port="0" to-layer="1991" to-port="0"/>
		<edge from-layer="1991" from-port="1" to-layer="1993" to-port="0"/>
		<edge from-layer="1992" from-port="0" to-layer="1993" to-port="1"/>
		<edge from-layer="1993" from-port="2" to-layer="1995" to-port="0"/>
		<edge from-layer="1994" from-port="0" to-layer="1995" to-port="1"/>
		<edge from-layer="1995" from-port="2" to-layer="1996" to-port="0"/>
		<edge from-layer="1989" from-port="0" to-layer="1996" to-port="1"/>
		<edge from-layer="1988" from-port="5" to-layer="1997" to-port="0"/>
		<edge from-layer="1996" from-port="2" to-layer="1997" to-port="1"/>
		<edge from-layer="1998" from-port="0" to-layer="1999" to-port="0"/>
		<edge from-layer="1997" from-port="2" to-layer="2000" to-port="0"/>
		<edge from-layer="1999" from-port="1" to-layer="2000" to-port="1"/>
		<edge from-layer="2001" from-port="0" to-layer="2002" to-port="0"/>
		<edge from-layer="2000" from-port="2" to-layer="2003" to-port="0"/>
		<edge from-layer="2002" from-port="1" to-layer="2003" to-port="1"/>
		<edge from-layer="2003" from-port="2" to-layer="2004" to-port="0"/>
		<edge from-layer="1967" from-port="0" to-layer="2004" to-port="1"/>
		<edge from-layer="1968" from-port="0" to-layer="2004" to-port="2"/>
		<edge from-layer="1969" from-port="0" to-layer="2004" to-port="3"/>
		<edge from-layer="1970" from-port="0" to-layer="2004" to-port="4"/>
		<edge from-layer="2005" from-port="0" to-layer="2006" to-port="0"/>
		<edge from-layer="2006" from-port="1" to-layer="2008" to-port="0"/>
		<edge from-layer="2007" from-port="0" to-layer="2008" to-port="1"/>
		<edge from-layer="2008" from-port="2" to-layer="2010" to-port="0"/>
		<edge from-layer="2009" from-port="0" to-layer="2010" to-port="1"/>
		<edge from-layer="2004" from-port="5" to-layer="2011" to-port="0"/>
		<edge from-layer="2010" from-port="2" to-layer="2011" to-port="1"/>
		<edge from-layer="2012" from-port="0" to-layer="2013" to-port="0"/>
		<edge from-layer="2011" from-port="2" to-layer="2014" to-port="0"/>
		<edge from-layer="2013" from-port="1" to-layer="2014" to-port="1"/>
		<edge from-layer="2014" from-port="2" to-layer="2015" to-port="0"/>
		<edge from-layer="1963" from-port="0" to-layer="2015" to-port="1"/>
		<edge from-layer="1964" from-port="0" to-layer="2015" to-port="2"/>
		<edge from-layer="1965" from-port="0" to-layer="2015" to-port="3"/>
		<edge from-layer="1966" from-port="0" to-layer="2015" to-port="4"/>
		<edge from-layer="1962" from-port="5" to-layer="2016" to-port="0"/>
		<edge from-layer="2015" from-port="5" to-layer="2016" to-port="1"/>
		<edge from-layer="2017" from-port="0" to-layer="2018" to-port="0"/>
		<edge from-layer="2016" from-port="2" to-layer="2019" to-port="0"/>
		<edge from-layer="2018" from-port="1" to-layer="2019" to-port="1"/>
		<edge from-layer="2019" from-port="2" to-layer="2020" to-port="0"/>
		<edge from-layer="1572" from-port="0" to-layer="2020" to-port="1"/>
		<edge from-layer="1573" from-port="0" to-layer="2020" to-port="2"/>
		<edge from-layer="1574" from-port="0" to-layer="2020" to-port="3"/>
		<edge from-layer="1575" from-port="0" to-layer="2020" to-port="4"/>
		<edge from-layer="2033" from-port="0" to-layer="2034" to-port="0"/>
		<edge from-layer="2034" from-port="1" to-layer="2036" to-port="0"/>
		<edge from-layer="2035" from-port="0" to-layer="2036" to-port="1"/>
		<edge from-layer="2036" from-port="2" to-layer="2038" to-port="0"/>
		<edge from-layer="2037" from-port="0" to-layer="2038" to-port="1"/>
		<edge from-layer="2020" from-port="5" to-layer="2039" to-port="0"/>
		<edge from-layer="2038" from-port="2" to-layer="2039" to-port="1"/>
		<edge from-layer="2040" from-port="0" to-layer="2041" to-port="0"/>
		<edge from-layer="2039" from-port="2" to-layer="2042" to-port="0"/>
		<edge from-layer="2041" from-port="1" to-layer="2042" to-port="1"/>
		<edge from-layer="2043" from-port="0" to-layer="2044" to-port="0"/>
		<edge from-layer="2042" from-port="2" to-layer="2045" to-port="0"/>
		<edge from-layer="2044" from-port="1" to-layer="2045" to-port="1"/>
		<edge from-layer="2045" from-port="2" to-layer="2046" to-port="0"/>
		<edge from-layer="2029" from-port="0" to-layer="2046" to-port="1"/>
		<edge from-layer="2030" from-port="0" to-layer="2046" to-port="2"/>
		<edge from-layer="2031" from-port="0" to-layer="2046" to-port="3"/>
		<edge from-layer="2032" from-port="0" to-layer="2046" to-port="4"/>
		<edge from-layer="2048" from-port="0" to-layer="2049" to-port="0"/>
		<edge from-layer="2049" from-port="1" to-layer="2051" to-port="0"/>
		<edge from-layer="2050" from-port="0" to-layer="2051" to-port="1"/>
		<edge from-layer="2051" from-port="2" to-layer="2053" to-port="0"/>
		<edge from-layer="2052" from-port="0" to-layer="2053" to-port="1"/>
		<edge from-layer="2053" from-port="2" to-layer="2054" to-port="0"/>
		<edge from-layer="2047" from-port="0" to-layer="2054" to-port="1"/>
		<edge from-layer="2046" from-port="5" to-layer="2055" to-port="0"/>
		<edge from-layer="2054" from-port="2" to-layer="2055" to-port="1"/>
		<edge from-layer="2056" from-port="0" to-layer="2057" to-port="0"/>
		<edge from-layer="2055" from-port="2" to-layer="2058" to-port="0"/>
		<edge from-layer="2057" from-port="1" to-layer="2058" to-port="1"/>
		<edge from-layer="2059" from-port="0" to-layer="2060" to-port="0"/>
		<edge from-layer="2058" from-port="2" to-layer="2061" to-port="0"/>
		<edge from-layer="2060" from-port="1" to-layer="2061" to-port="1"/>
		<edge from-layer="2061" from-port="2" to-layer="2062" to-port="0"/>
		<edge from-layer="2025" from-port="0" to-layer="2062" to-port="1"/>
		<edge from-layer="2026" from-port="0" to-layer="2062" to-port="2"/>
		<edge from-layer="2027" from-port="0" to-layer="2062" to-port="3"/>
		<edge from-layer="2028" from-port="0" to-layer="2062" to-port="4"/>
		<edge from-layer="2063" from-port="0" to-layer="2064" to-port="0"/>
		<edge from-layer="2064" from-port="1" to-layer="2066" to-port="0"/>
		<edge from-layer="2065" from-port="0" to-layer="2066" to-port="1"/>
		<edge from-layer="2066" from-port="2" to-layer="2068" to-port="0"/>
		<edge from-layer="2067" from-port="0" to-layer="2068" to-port="1"/>
		<edge from-layer="2062" from-port="5" to-layer="2069" to-port="0"/>
		<edge from-layer="2068" from-port="2" to-layer="2069" to-port="1"/>
		<edge from-layer="2070" from-port="0" to-layer="2071" to-port="0"/>
		<edge from-layer="2069" from-port="2" to-layer="2072" to-port="0"/>
		<edge from-layer="2071" from-port="1" to-layer="2072" to-port="1"/>
		<edge from-layer="2072" from-port="2" to-layer="2073" to-port="0"/>
		<edge from-layer="2021" from-port="0" to-layer="2073" to-port="1"/>
		<edge from-layer="2022" from-port="0" to-layer="2073" to-port="2"/>
		<edge from-layer="2023" from-port="0" to-layer="2073" to-port="3"/>
		<edge from-layer="2024" from-port="0" to-layer="2073" to-port="4"/>
		<edge from-layer="2020" from-port="5" to-layer="2074" to-port="0"/>
		<edge from-layer="2073" from-port="5" to-layer="2074" to-port="1"/>
		<edge from-layer="2075" from-port="0" to-layer="2076" to-port="0"/>
		<edge from-layer="2074" from-port="2" to-layer="2077" to-port="0"/>
		<edge from-layer="2076" from-port="1" to-layer="2077" to-port="1"/>
		<edge from-layer="2077" from-port="2" to-layer="2078" to-port="0"/>
		<edge from-layer="1568" from-port="0" to-layer="2078" to-port="1"/>
		<edge from-layer="1569" from-port="0" to-layer="2078" to-port="2"/>
		<edge from-layer="1570" from-port="0" to-layer="2078" to-port="3"/>
		<edge from-layer="1571" from-port="0" to-layer="2078" to-port="4"/>
		<edge from-layer="2091" from-port="0" to-layer="2092" to-port="0"/>
		<edge from-layer="2092" from-port="1" to-layer="2094" to-port="0"/>
		<edge from-layer="2093" from-port="0" to-layer="2094" to-port="1"/>
		<edge from-layer="2094" from-port="2" to-layer="2096" to-port="0"/>
		<edge from-layer="2095" from-port="0" to-layer="2096" to-port="1"/>
		<edge from-layer="2078" from-port="5" to-layer="2097" to-port="0"/>
		<edge from-layer="2096" from-port="2" to-layer="2097" to-port="1"/>
		<edge from-layer="2098" from-port="0" to-layer="2099" to-port="0"/>
		<edge from-layer="2097" from-port="2" to-layer="2100" to-port="0"/>
		<edge from-layer="2099" from-port="1" to-layer="2100" to-port="1"/>
		<edge from-layer="2101" from-port="0" to-layer="2102" to-port="0"/>
		<edge from-layer="2100" from-port="2" to-layer="2103" to-port="0"/>
		<edge from-layer="2102" from-port="1" to-layer="2103" to-port="1"/>
		<edge from-layer="2103" from-port="2" to-layer="2104" to-port="0"/>
		<edge from-layer="2087" from-port="0" to-layer="2104" to-port="1"/>
		<edge from-layer="2088" from-port="0" to-layer="2104" to-port="2"/>
		<edge from-layer="2089" from-port="0" to-layer="2104" to-port="3"/>
		<edge from-layer="2090" from-port="0" to-layer="2104" to-port="4"/>
		<edge from-layer="2106" from-port="0" to-layer="2107" to-port="0"/>
		<edge from-layer="2107" from-port="1" to-layer="2109" to-port="0"/>
		<edge from-layer="2108" from-port="0" to-layer="2109" to-port="1"/>
		<edge from-layer="2109" from-port="2" to-layer="2111" to-port="0"/>
		<edge from-layer="2110" from-port="0" to-layer="2111" to-port="1"/>
		<edge from-layer="2111" from-port="2" to-layer="2112" to-port="0"/>
		<edge from-layer="2105" from-port="0" to-layer="2112" to-port="1"/>
		<edge from-layer="2104" from-port="5" to-layer="2113" to-port="0"/>
		<edge from-layer="2112" from-port="2" to-layer="2113" to-port="1"/>
		<edge from-layer="2114" from-port="0" to-layer="2115" to-port="0"/>
		<edge from-layer="2113" from-port="2" to-layer="2116" to-port="0"/>
		<edge from-layer="2115" from-port="1" to-layer="2116" to-port="1"/>
		<edge from-layer="2117" from-port="0" to-layer="2118" to-port="0"/>
		<edge from-layer="2116" from-port="2" to-layer="2119" to-port="0"/>
		<edge from-layer="2118" from-port="1" to-layer="2119" to-port="1"/>
		<edge from-layer="2119" from-port="2" to-layer="2120" to-port="0"/>
		<edge from-layer="2083" from-port="0" to-layer="2120" to-port="1"/>
		<edge from-layer="2084" from-port="0" to-layer="2120" to-port="2"/>
		<edge from-layer="2085" from-port="0" to-layer="2120" to-port="3"/>
		<edge from-layer="2086" from-port="0" to-layer="2120" to-port="4"/>
		<edge from-layer="2121" from-port="0" to-layer="2122" to-port="0"/>
		<edge from-layer="2122" from-port="1" to-layer="2124" to-port="0"/>
		<edge from-layer="2123" from-port="0" to-layer="2124" to-port="1"/>
		<edge from-layer="2124" from-port="2" to-layer="2126" to-port="0"/>
		<edge from-layer="2125" from-port="0" to-layer="2126" to-port="1"/>
		<edge from-layer="2120" from-port="5" to-layer="2127" to-port="0"/>
		<edge from-layer="2126" from-port="2" to-layer="2127" to-port="1"/>
		<edge from-layer="2128" from-port="0" to-layer="2129" to-port="0"/>
		<edge from-layer="2127" from-port="2" to-layer="2130" to-port="0"/>
		<edge from-layer="2129" from-port="1" to-layer="2130" to-port="1"/>
		<edge from-layer="2130" from-port="2" to-layer="2131" to-port="0"/>
		<edge from-layer="2079" from-port="0" to-layer="2131" to-port="1"/>
		<edge from-layer="2080" from-port="0" to-layer="2131" to-port="2"/>
		<edge from-layer="2081" from-port="0" to-layer="2131" to-port="3"/>
		<edge from-layer="2082" from-port="0" to-layer="2131" to-port="4"/>
		<edge from-layer="2078" from-port="5" to-layer="2132" to-port="0"/>
		<edge from-layer="2131" from-port="5" to-layer="2132" to-port="1"/>
		<edge from-layer="2133" from-port="0" to-layer="2134" to-port="0"/>
		<edge from-layer="2132" from-port="2" to-layer="2135" to-port="0"/>
		<edge from-layer="2134" from-port="1" to-layer="2135" to-port="1"/>
		<edge from-layer="2135" from-port="2" to-layer="2136" to-port="0"/>
		<edge from-layer="1564" from-port="0" to-layer="2136" to-port="1"/>
		<edge from-layer="1565" from-port="0" to-layer="2136" to-port="2"/>
		<edge from-layer="1566" from-port="0" to-layer="2136" to-port="3"/>
		<edge from-layer="1567" from-port="0" to-layer="2136" to-port="4"/>
		<edge from-layer="2149" from-port="0" to-layer="2150" to-port="0"/>
		<edge from-layer="2150" from-port="1" to-layer="2152" to-port="0"/>
		<edge from-layer="2151" from-port="0" to-layer="2152" to-port="1"/>
		<edge from-layer="2152" from-port="2" to-layer="2154" to-port="0"/>
		<edge from-layer="2153" from-port="0" to-layer="2154" to-port="1"/>
		<edge from-layer="2136" from-port="5" to-layer="2155" to-port="0"/>
		<edge from-layer="2154" from-port="2" to-layer="2155" to-port="1"/>
		<edge from-layer="2156" from-port="0" to-layer="2157" to-port="0"/>
		<edge from-layer="2155" from-port="2" to-layer="2158" to-port="0"/>
		<edge from-layer="2157" from-port="1" to-layer="2158" to-port="1"/>
		<edge from-layer="2159" from-port="0" to-layer="2160" to-port="0"/>
		<edge from-layer="2158" from-port="2" to-layer="2161" to-port="0"/>
		<edge from-layer="2160" from-port="1" to-layer="2161" to-port="1"/>
		<edge from-layer="2161" from-port="2" to-layer="2162" to-port="0"/>
		<edge from-layer="2145" from-port="0" to-layer="2162" to-port="1"/>
		<edge from-layer="2146" from-port="0" to-layer="2162" to-port="2"/>
		<edge from-layer="2147" from-port="0" to-layer="2162" to-port="3"/>
		<edge from-layer="2148" from-port="0" to-layer="2162" to-port="4"/>
		<edge from-layer="2164" from-port="0" to-layer="2165" to-port="0"/>
		<edge from-layer="2165" from-port="1" to-layer="2167" to-port="0"/>
		<edge from-layer="2166" from-port="0" to-layer="2167" to-port="1"/>
		<edge from-layer="2167" from-port="2" to-layer="2169" to-port="0"/>
		<edge from-layer="2168" from-port="0" to-layer="2169" to-port="1"/>
		<edge from-layer="2169" from-port="2" to-layer="2170" to-port="0"/>
		<edge from-layer="2163" from-port="0" to-layer="2170" to-port="1"/>
		<edge from-layer="2162" from-port="5" to-layer="2171" to-port="0"/>
		<edge from-layer="2170" from-port="2" to-layer="2171" to-port="1"/>
		<edge from-layer="2172" from-port="0" to-layer="2173" to-port="0"/>
		<edge from-layer="2171" from-port="2" to-layer="2174" to-port="0"/>
		<edge from-layer="2173" from-port="1" to-layer="2174" to-port="1"/>
		<edge from-layer="2175" from-port="0" to-layer="2176" to-port="0"/>
		<edge from-layer="2174" from-port="2" to-layer="2177" to-port="0"/>
		<edge from-layer="2176" from-port="1" to-layer="2177" to-port="1"/>
		<edge from-layer="2177" from-port="2" to-layer="2178" to-port="0"/>
		<edge from-layer="2141" from-port="0" to-layer="2178" to-port="1"/>
		<edge from-layer="2142" from-port="0" to-layer="2178" to-port="2"/>
		<edge from-layer="2143" from-port="0" to-layer="2178" to-port="3"/>
		<edge from-layer="2144" from-port="0" to-layer="2178" to-port="4"/>
		<edge from-layer="2179" from-port="0" to-layer="2180" to-port="0"/>
		<edge from-layer="2180" from-port="1" to-layer="2182" to-port="0"/>
		<edge from-layer="2181" from-port="0" to-layer="2182" to-port="1"/>
		<edge from-layer="2182" from-port="2" to-layer="2184" to-port="0"/>
		<edge from-layer="2183" from-port="0" to-layer="2184" to-port="1"/>
		<edge from-layer="2178" from-port="5" to-layer="2185" to-port="0"/>
		<edge from-layer="2184" from-port="2" to-layer="2185" to-port="1"/>
		<edge from-layer="2186" from-port="0" to-layer="2187" to-port="0"/>
		<edge from-layer="2185" from-port="2" to-layer="2188" to-port="0"/>
		<edge from-layer="2187" from-port="1" to-layer="2188" to-port="1"/>
		<edge from-layer="2188" from-port="2" to-layer="2189" to-port="0"/>
		<edge from-layer="2137" from-port="0" to-layer="2189" to-port="1"/>
		<edge from-layer="2138" from-port="0" to-layer="2189" to-port="2"/>
		<edge from-layer="2139" from-port="0" to-layer="2189" to-port="3"/>
		<edge from-layer="2140" from-port="0" to-layer="2189" to-port="4"/>
		<edge from-layer="2136" from-port="5" to-layer="2190" to-port="0"/>
		<edge from-layer="2189" from-port="5" to-layer="2190" to-port="1"/>
		<edge from-layer="2191" from-port="0" to-layer="2192" to-port="0"/>
		<edge from-layer="2190" from-port="2" to-layer="2193" to-port="0"/>
		<edge from-layer="2192" from-port="1" to-layer="2193" to-port="1"/>
		<edge from-layer="2193" from-port="2" to-layer="2194" to-port="0"/>
		<edge from-layer="1560" from-port="0" to-layer="2194" to-port="1"/>
		<edge from-layer="1561" from-port="0" to-layer="2194" to-port="2"/>
		<edge from-layer="1562" from-port="0" to-layer="2194" to-port="3"/>
		<edge from-layer="1563" from-port="0" to-layer="2194" to-port="4"/>
		<edge from-layer="2207" from-port="0" to-layer="2208" to-port="0"/>
		<edge from-layer="2208" from-port="1" to-layer="2210" to-port="0"/>
		<edge from-layer="2209" from-port="0" to-layer="2210" to-port="1"/>
		<edge from-layer="2210" from-port="2" to-layer="2212" to-port="0"/>
		<edge from-layer="2211" from-port="0" to-layer="2212" to-port="1"/>
		<edge from-layer="2194" from-port="5" to-layer="2213" to-port="0"/>
		<edge from-layer="2212" from-port="2" to-layer="2213" to-port="1"/>
		<edge from-layer="2214" from-port="0" to-layer="2215" to-port="0"/>
		<edge from-layer="2213" from-port="2" to-layer="2216" to-port="0"/>
		<edge from-layer="2215" from-port="1" to-layer="2216" to-port="1"/>
		<edge from-layer="2217" from-port="0" to-layer="2218" to-port="0"/>
		<edge from-layer="2216" from-port="2" to-layer="2219" to-port="0"/>
		<edge from-layer="2218" from-port="1" to-layer="2219" to-port="1"/>
		<edge from-layer="2219" from-port="2" to-layer="2220" to-port="0"/>
		<edge from-layer="2203" from-port="0" to-layer="2220" to-port="1"/>
		<edge from-layer="2204" from-port="0" to-layer="2220" to-port="2"/>
		<edge from-layer="2205" from-port="0" to-layer="2220" to-port="3"/>
		<edge from-layer="2206" from-port="0" to-layer="2220" to-port="4"/>
		<edge from-layer="2222" from-port="0" to-layer="2223" to-port="0"/>
		<edge from-layer="2223" from-port="1" to-layer="2225" to-port="0"/>
		<edge from-layer="2224" from-port="0" to-layer="2225" to-port="1"/>
		<edge from-layer="2225" from-port="2" to-layer="2227" to-port="0"/>
		<edge from-layer="2226" from-port="0" to-layer="2227" to-port="1"/>
		<edge from-layer="2227" from-port="2" to-layer="2228" to-port="0"/>
		<edge from-layer="2221" from-port="0" to-layer="2228" to-port="1"/>
		<edge from-layer="2220" from-port="5" to-layer="2229" to-port="0"/>
		<edge from-layer="2228" from-port="2" to-layer="2229" to-port="1"/>
		<edge from-layer="2230" from-port="0" to-layer="2231" to-port="0"/>
		<edge from-layer="2229" from-port="2" to-layer="2232" to-port="0"/>
		<edge from-layer="2231" from-port="1" to-layer="2232" to-port="1"/>
		<edge from-layer="2233" from-port="0" to-layer="2234" to-port="0"/>
		<edge from-layer="2232" from-port="2" to-layer="2235" to-port="0"/>
		<edge from-layer="2234" from-port="1" to-layer="2235" to-port="1"/>
		<edge from-layer="2235" from-port="2" to-layer="2236" to-port="0"/>
		<edge from-layer="2199" from-port="0" to-layer="2236" to-port="1"/>
		<edge from-layer="2200" from-port="0" to-layer="2236" to-port="2"/>
		<edge from-layer="2201" from-port="0" to-layer="2236" to-port="3"/>
		<edge from-layer="2202" from-port="0" to-layer="2236" to-port="4"/>
		<edge from-layer="2237" from-port="0" to-layer="2238" to-port="0"/>
		<edge from-layer="2238" from-port="1" to-layer="2240" to-port="0"/>
		<edge from-layer="2239" from-port="0" to-layer="2240" to-port="1"/>
		<edge from-layer="2240" from-port="2" to-layer="2242" to-port="0"/>
		<edge from-layer="2241" from-port="0" to-layer="2242" to-port="1"/>
		<edge from-layer="2236" from-port="5" to-layer="2243" to-port="0"/>
		<edge from-layer="2242" from-port="2" to-layer="2243" to-port="1"/>
		<edge from-layer="2244" from-port="0" to-layer="2245" to-port="0"/>
		<edge from-layer="2243" from-port="2" to-layer="2246" to-port="0"/>
		<edge from-layer="2245" from-port="1" to-layer="2246" to-port="1"/>
		<edge from-layer="2246" from-port="2" to-layer="2247" to-port="0"/>
		<edge from-layer="2195" from-port="0" to-layer="2247" to-port="1"/>
		<edge from-layer="2196" from-port="0" to-layer="2247" to-port="2"/>
		<edge from-layer="2197" from-port="0" to-layer="2247" to-port="3"/>
		<edge from-layer="2198" from-port="0" to-layer="2247" to-port="4"/>
		<edge from-layer="2194" from-port="5" to-layer="2248" to-port="0"/>
		<edge from-layer="2247" from-port="5" to-layer="2248" to-port="1"/>
		<edge from-layer="2249" from-port="0" to-layer="2250" to-port="0"/>
		<edge from-layer="2248" from-port="2" to-layer="2251" to-port="0"/>
		<edge from-layer="2250" from-port="1" to-layer="2251" to-port="1"/>
		<edge from-layer="2251" from-port="2" to-layer="2252" to-port="0"/>
		<edge from-layer="1556" from-port="0" to-layer="2252" to-port="1"/>
		<edge from-layer="1557" from-port="0" to-layer="2252" to-port="2"/>
		<edge from-layer="1558" from-port="0" to-layer="2252" to-port="3"/>
		<edge from-layer="1559" from-port="0" to-layer="2252" to-port="4"/>
		<edge from-layer="2265" from-port="0" to-layer="2266" to-port="0"/>
		<edge from-layer="2266" from-port="1" to-layer="2268" to-port="0"/>
		<edge from-layer="2267" from-port="0" to-layer="2268" to-port="1"/>
		<edge from-layer="2268" from-port="2" to-layer="2270" to-port="0"/>
		<edge from-layer="2269" from-port="0" to-layer="2270" to-port="1"/>
		<edge from-layer="2252" from-port="5" to-layer="2271" to-port="0"/>
		<edge from-layer="2270" from-port="2" to-layer="2271" to-port="1"/>
		<edge from-layer="2272" from-port="0" to-layer="2273" to-port="0"/>
		<edge from-layer="2271" from-port="2" to-layer="2274" to-port="0"/>
		<edge from-layer="2273" from-port="1" to-layer="2274" to-port="1"/>
		<edge from-layer="2275" from-port="0" to-layer="2276" to-port="0"/>
		<edge from-layer="2274" from-port="2" to-layer="2277" to-port="0"/>
		<edge from-layer="2276" from-port="1" to-layer="2277" to-port="1"/>
		<edge from-layer="2277" from-port="2" to-layer="2278" to-port="0"/>
		<edge from-layer="2261" from-port="0" to-layer="2278" to-port="1"/>
		<edge from-layer="2262" from-port="0" to-layer="2278" to-port="2"/>
		<edge from-layer="2263" from-port="0" to-layer="2278" to-port="3"/>
		<edge from-layer="2264" from-port="0" to-layer="2278" to-port="4"/>
		<edge from-layer="2280" from-port="0" to-layer="2281" to-port="0"/>
		<edge from-layer="2281" from-port="1" to-layer="2283" to-port="0"/>
		<edge from-layer="2282" from-port="0" to-layer="2283" to-port="1"/>
		<edge from-layer="2283" from-port="2" to-layer="2285" to-port="0"/>
		<edge from-layer="2284" from-port="0" to-layer="2285" to-port="1"/>
		<edge from-layer="2285" from-port="2" to-layer="2286" to-port="0"/>
		<edge from-layer="2279" from-port="0" to-layer="2286" to-port="1"/>
		<edge from-layer="2278" from-port="5" to-layer="2287" to-port="0"/>
		<edge from-layer="2286" from-port="2" to-layer="2287" to-port="1"/>
		<edge from-layer="2288" from-port="0" to-layer="2289" to-port="0"/>
		<edge from-layer="2287" from-port="2" to-layer="2290" to-port="0"/>
		<edge from-layer="2289" from-port="1" to-layer="2290" to-port="1"/>
		<edge from-layer="2291" from-port="0" to-layer="2292" to-port="0"/>
		<edge from-layer="2290" from-port="2" to-layer="2293" to-port="0"/>
		<edge from-layer="2292" from-port="1" to-layer="2293" to-port="1"/>
		<edge from-layer="2293" from-port="2" to-layer="2294" to-port="0"/>
		<edge from-layer="2257" from-port="0" to-layer="2294" to-port="1"/>
		<edge from-layer="2258" from-port="0" to-layer="2294" to-port="2"/>
		<edge from-layer="2259" from-port="0" to-layer="2294" to-port="3"/>
		<edge from-layer="2260" from-port="0" to-layer="2294" to-port="4"/>
		<edge from-layer="2295" from-port="0" to-layer="2296" to-port="0"/>
		<edge from-layer="2296" from-port="1" to-layer="2298" to-port="0"/>
		<edge from-layer="2297" from-port="0" to-layer="2298" to-port="1"/>
		<edge from-layer="2298" from-port="2" to-layer="2300" to-port="0"/>
		<edge from-layer="2299" from-port="0" to-layer="2300" to-port="1"/>
		<edge from-layer="2294" from-port="5" to-layer="2301" to-port="0"/>
		<edge from-layer="2300" from-port="2" to-layer="2301" to-port="1"/>
		<edge from-layer="2302" from-port="0" to-layer="2303" to-port="0"/>
		<edge from-layer="2301" from-port="2" to-layer="2304" to-port="0"/>
		<edge from-layer="2303" from-port="1" to-layer="2304" to-port="1"/>
		<edge from-layer="2304" from-port="2" to-layer="2305" to-port="0"/>
		<edge from-layer="2253" from-port="0" to-layer="2305" to-port="1"/>
		<edge from-layer="2254" from-port="0" to-layer="2305" to-port="2"/>
		<edge from-layer="2255" from-port="0" to-layer="2305" to-port="3"/>
		<edge from-layer="2256" from-port="0" to-layer="2305" to-port="4"/>
		<edge from-layer="2252" from-port="5" to-layer="2306" to-port="0"/>
		<edge from-layer="2305" from-port="5" to-layer="2306" to-port="1"/>
		<edge from-layer="2307" from-port="0" to-layer="2308" to-port="0"/>
		<edge from-layer="2306" from-port="2" to-layer="2309" to-port="0"/>
		<edge from-layer="2308" from-port="1" to-layer="2309" to-port="1"/>
		<edge from-layer="2309" from-port="2" to-layer="2310" to-port="0"/>
		<edge from-layer="1552" from-port="0" to-layer="2310" to-port="1"/>
		<edge from-layer="1553" from-port="0" to-layer="2310" to-port="2"/>
		<edge from-layer="1554" from-port="0" to-layer="2310" to-port="3"/>
		<edge from-layer="1555" from-port="0" to-layer="2310" to-port="4"/>
		<edge from-layer="2311" from-port="0" to-layer="2312" to-port="0"/>
		<edge from-layer="2312" from-port="1" to-layer="2314" to-port="0"/>
		<edge from-layer="2313" from-port="0" to-layer="2314" to-port="1"/>
		<edge from-layer="2314" from-port="2" to-layer="2316" to-port="0"/>
		<edge from-layer="2315" from-port="0" to-layer="2316" to-port="1"/>
		<edge from-layer="2310" from-port="5" to-layer="2317" to-port="0"/>
		<edge from-layer="2316" from-port="2" to-layer="2317" to-port="1"/>
		<edge from-layer="2318" from-port="0" to-layer="2319" to-port="0"/>
		<edge from-layer="2317" from-port="2" to-layer="2320" to-port="0"/>
		<edge from-layer="2319" from-port="1" to-layer="2320" to-port="1"/>
		<edge from-layer="2320" from-port="2" to-layer="2322" to-port="0"/>
		<edge from-layer="2321" from-port="0" to-layer="2322" to-port="1"/>
		<edge from-layer="2322" from-port="2" to-layer="2324" to-port="0"/>
		<edge from-layer="2323" from-port="0" to-layer="2324" to-port="1"/>
		<edge from-layer="2325" from-port="0" to-layer="2326" to-port="0"/>
		<edge from-layer="2326" from-port="1" to-layer="2328" to-port="0"/>
		<edge from-layer="2327" from-port="0" to-layer="2328" to-port="1"/>
		<edge from-layer="2328" from-port="2" to-layer="2330" to-port="0"/>
		<edge from-layer="2329" from-port="0" to-layer="2330" to-port="1"/>
		<edge from-layer="2310" from-port="5" to-layer="2331" to-port="0"/>
		<edge from-layer="2330" from-port="2" to-layer="2331" to-port="1"/>
		<edge from-layer="2332" from-port="0" to-layer="2333" to-port="0"/>
		<edge from-layer="2331" from-port="2" to-layer="2334" to-port="0"/>
		<edge from-layer="2333" from-port="1" to-layer="2334" to-port="1"/>
		<edge from-layer="2334" from-port="2" to-layer="2336" to-port="0"/>
		<edge from-layer="2335" from-port="0" to-layer="2336" to-port="1"/>
		<edge from-layer="2336" from-port="2" to-layer="2338" to-port="0"/>
		<edge from-layer="2337" from-port="0" to-layer="2338" to-port="1"/>
		<edge from-layer="2338" from-port="2" to-layer="2340" to-port="0"/>
		<edge from-layer="2339" from-port="0" to-layer="2340" to-port="1"/>
		<edge from-layer="2340" from-port="2" to-layer="2341" to-port="0"/>
		<edge from-layer="2341" from-port="1" to-layer="2343" to-port="0"/>
		<edge from-layer="2342" from-port="0" to-layer="2343" to-port="1"/>
		<edge from-layer="2309" from-port="2" to-layer="2344" to-port="0"/>
		<edge from-layer="2344" from-port="1" to-layer="2348" to-port="0"/>
		<edge from-layer="2345" from-port="0" to-layer="2348" to-port="1"/>
		<edge from-layer="2346" from-port="0" to-layer="2348" to-port="2"/>
		<edge from-layer="2347" from-port="0" to-layer="2348" to-port="3"/>
		<edge from-layer="24" from-port="0" to-layer="2349" to-port="0"/>
		<edge from-layer="2349" from-port="1" to-layer="2353" to-port="0"/>
		<edge from-layer="2350" from-port="0" to-layer="2353" to-port="1"/>
		<edge from-layer="2351" from-port="0" to-layer="2353" to-port="2"/>
		<edge from-layer="2352" from-port="0" to-layer="2353" to-port="3"/>
		<edge from-layer="2348" from-port="4" to-layer="2354" to-port="0"/>
		<edge from-layer="2353" from-port="4" to-layer="2354" to-port="1"/>
		<edge from-layer="2354" from-port="2" to-layer="2356" to-port="0"/>
		<edge from-layer="2355" from-port="0" to-layer="2356" to-port="1"/>
		<edge from-layer="2324" from-port="2" to-layer="2357" to-port="0"/>
		<edge from-layer="2343" from-port="2" to-layer="2357" to-port="1"/>
		<edge from-layer="2356" from-port="2" to-layer="2357" to-port="2"/>
		<edge from-layer="2357" from-port="3" to-layer="2358" to-port="0"/>
	</edges>
	<meta_data>
		<MO_version value="custom_HEAD_73caba0f677dd6dbf9e464753baad9afa26b28dc"/>
		<Runtime_version value="custom_HEAD_73caba0f677dd6dbf9e464753baad9afa26b28dc"/>
		<legacy_path value="True"/>
		<cli_parameters>
			<caffe_parser_path value="DIR"/>
			<compress_fp16 value="True"/>
			<data_type value="FP16"/>
			<disable_nhwc_to_nchw value="False"/>
			<disable_omitting_optional value="False"/>
			<disable_resnet_optimization value="False"/>
			<disable_weights_compression value="False"/>
			<enable_concat_optimization value="False"/>
			<enable_flattening_nested_params value="False"/>
			<enable_ssd_gluoncv value="False"/>
			<extensions value="DIR"/>
			<framework value="caffe"/>
			<freeze_placeholder_with_value value="{}"/>
			<generate_deprecated_IR_V7 value="False"/>
			<input value="data"/>
			<input_model value="DIR/rmnet_lrelu_pd_ssd.caffemodel"/>
			<input_model_is_text value="False"/>
			<input_proto value="DIR/rmnet_lrelu_pd_ssd.prototxt"/>
			<input_shape value="[1,3,320,544]"/>
			<k value="DIR/CustomLayersMapping.xml"/>
			<keep_shape_ops value="True"/>
			<layout value="data(nchw)"/>
			<layout_values value="{'data': {'source_layout': 'nchw', 'target_layout': None, 'is_input': True}}"/>
			<legacy_ir_generation value="False"/>
			<legacy_mxnet_model value="False"/>
			<log_level value="ERROR"/>
			<mean_scale_values value="{}"/>
			<mean_values value="()"/>
			<model_name value="person-detection-retail-0013"/>
			<output value="['detection_out']"/>
			<output_dir value="DIR"/>
			<packed_user_shapes value="defaultdict(&lt;class 'list'&gt;, {'data': [{'shape': (1, 3, 320, 544), 'port': None, 'added': True}]})"/>
			<placeholder_data_types value="{}"/>
			<placeholder_shapes value="{'data': (1, 3, 320, 544)}"/>
			<progress value="False"/>
			<remove_memory value="False"/>
			<remove_output_softmax value="False"/>
			<reverse_input_channels value="False"/>
			<save_params_from_nd value="False"/>
			<scale_values value="()"/>
			<silent value="False"/>
			<source_layout value="()"/>
			<static_shape value="False"/>
			<stream_output value="False"/>
			<target_layout value="()"/>
			<transform value=""/>
			<use_legacy_frontend value="False"/>
			<use_new_frontend value="False"/>
			<unset unset_cli_parameters="batch, counts, disable_fusing, disable_gfusing, finegrain_fusing, input_checkpoint, input_meta_graph, input_symbol, mean_file, mean_file_offsets, move_to_preprocess, nd_prefix_name, pretrained_model_name, saved_model_dir, saved_model_tags, scale, tensorboard_logdir, tensorflow_custom_layer_libraries, tensorflow_custom_operations_config_update, tensorflow_object_detection_api_pipeline_config, tensorflow_use_custom_operations_config, transformations_config"/>
		</cli_parameters>
	</meta_data>
	<quantization_parameters>
		<config>{
		'compression': {
			'algorithms': [
				{
					'name': 'DefaultQuantization',
					'params': {
						'num_samples_for_tuning': 2000,
						'preset': 'performance',
						'stat_subset_size': 300,
						'use_layerwise_tuning': false
					}
				}
			],
			'dump_intermediate_model': true,
			'target_device': 'ANY'
		},
		'engine': {
			'models': [
				{
					'name': 'person-detection-retail-0013',
					'launchers': [
						{
							'framework': 'openvino',
							'adapter': 'ssd',
							'device': 'cpu'
						}
					],
					'datasets': [
						{
							'name': 'person_detection',
							'data_source': 'PATH',
							'annotation_conversion': {
								'converter': 'datatang_street_subway',
								'annotation_file': 'PATH'
							},
							'annotation': 'PATH',
							'dataset_meta': 'PATH',
							'preprocessing': [
								{
									'type': 'resize',
									'dst_width': 544,
									'dst_height': 320
								}
							],
							'postprocessing': [
								{
									'type': 'resize_prediction_boxes'
								},
								{
									'type': 'filter',
									'apply_to': 'annotation',
									'height_range': 100,
									'aspect_ratio': '0.666, 5',
									'is_empty': true,
									'min_visibility': 'partially occluded'
								},
								{
									'type': 'filter',
									'apply_to': 'prediction',
									'height_range': 100,
									'is_empty': true,
									'aspect_ratio': '0.666, 5'
								}
							],
							'metrics': [
								{
									'type': 'map',
									'ignore_difficult': true,
									'include_boundaries': true,
									'allow_multiple_matches_per_ignored': false,
									'distinct_conf': false,
									'reference': 0.8862
								}
							],
							'_command_line_mapping': {
								'annotation_file': 'PATH'
							}
						}
					]
				}
			],
			'stat_requests_number': null,
			'eval_requests_number': null,
			'type': 'accuracy_checker'
		}
	}</config>
		<version value="invalid version"/>
		<cli_params value="{'quantize': None, 'preset': None, 'model': None, 'weights': None, 'name': None, 'engine': None, 'ac_config': None, 'max_drop': None, 'evaluate': False, 'output_dir': 'PATH', 'direct_dump': True, 'log_level': 'INFO', 'pbar': False, 'stream_output': False, 'keep_uncompressed_weights': False, 'data_source': None, 'shape': None, 'data_type': 'image', 'generate_data': False}"/>
	</quantization_parameters>
</net>
