<?xml version="1.0" ?>
<net name="torch-jit-export" version="11">
	<layers>
		<layer id="540" name="input.1" type="Parameter" version="opset1">
			<data element_type="f32" shape="1,3,64,64"/>
			<rt_info>
				<attribute name="fused_names" value="input.1" version="0"/>
				<attribute name="old_api_map_element_type" value="f16" version="0"/>
			</rt_info>
			<output>
				<port id="0" names="input.1" precision="FP32">
					<dim>1</dim>
					<dim>3</dim>
					<dim>64</dim>
					<dim>64</dim>
					<rt_info>
						<attribute layout="[N,C,H,W]" name="layout" version="0"/>
					</rt_info>
				</port>
			</output>
		</layer>
		<layer id="0" name="166911669576915" type="Const" version="opset1">
			<data element_type="f32" offset="0" shape="" size="4"/>
			<output>
				<port id="0" precision="FP32"/>
			</output>
		</layer>
		<layer id="1" name="166921669680350" type="Const" version="opset1">
			<data element_type="f32" offset="4" shape="" size="4"/>
			<output>
				<port id="0" precision="FP32"/>
			</output>
		</layer>
		<layer id="2" name="166931669778556" type="Const" version="opset1">
			<data element_type="f32" offset="0" shape="" size="4"/>
			<output>
				<port id="0" precision="FP32"/>
			</output>
		</layer>
		<layer id="3" name="166941669878631" type="Const" version="opset1">
			<data element_type="f32" offset="4" shape="" size="4"/>
			<output>
				<port id="0" precision="FP32"/>
			</output>
		</layer>
		<layer id="4" name="255332553773399" type="Const" version="opset1">
			<data element_type="f32" offset="0" shape="" size="4"/>
			<output>
				<port id="0" precision="FP32"/>
			</output>
		</layer>
		<layer id="5" name="255342553879495" type="Const" version="opset1">
			<data element_type="f32" offset="8" shape="" size="4"/>
			<output>
				<port id="0" precision="FP32"/>
			</output>
		</layer>
		<layer id="6" name="255352553982279" type="Const" version="opset1">
			<data element_type="f32" offset="0" shape="" size="4"/>
			<output>
				<port id="0" precision="FP32"/>
			</output>
		</layer>
		<layer id="7" name="255362554075037" type="Const" version="opset1">
			<data element_type="f32" offset="8" shape="" size="4"/>
			<output>
				<port id="0" precision="FP32"/>
			</output>
		</layer>
		<layer id="8" name="125611256583803" type="Const" version="opset1">
			<data element_type="f32" offset="12" shape="" size="4"/>
			<output>
				<port id="0" precision="FP32"/>
			</output>
		</layer>
		<layer id="9" name="125621256678994" type="Const" version="opset1">
			<data element_type="f32" offset="16" shape="" size="4"/>
			<output>
				<port id="0" precision="FP32"/>
			</output>
		</layer>
		<layer id="10" name="125631256783788" type="Const" version="opset1">
			<data element_type="f32" offset="12" shape="" size="4"/>
			<output>
				<port id="0" precision="FP32"/>
			</output>
		</layer>
		<layer id="11" name="125641256883953" type="Const" version="opset1">
			<data element_type="f32" offset="16" shape="" size="4"/>
			<output>
				<port id="0" precision="FP32"/>
			</output>
		</layer>
		<layer id="12" name="110411104575193" type="Const" version="opset1">
			<data element_type="f32" offset="20" shape="" size="4"/>
			<output>
				<port id="0" precision="FP32"/>
			</output>
		</layer>
		<layer id="13" name="110421104674344" type="Const" version="opset1">
			<data element_type="f32" offset="24" shape="" size="4"/>
			<output>
				<port id="0" precision="FP32"/>
			</output>
		</layer>
		<layer id="14" name="110431104777611" type="Const" version="opset1">
			<data element_type="f32" offset="20" shape="" size="4"/>
			<output>
				<port id="0" precision="FP32"/>
			</output>
		</layer>
		<layer id="15" name="110441104880656" type="Const" version="opset1">
			<data element_type="f32" offset="24" shape="" size="4"/>
			<output>
				<port id="0" precision="FP32"/>
			</output>
		</layer>
		<layer id="16" name="147211472575664" type="Const" version="opset1">
			<data element_type="f32" offset="0" shape="" size="4"/>
			<output>
				<port id="0" precision="FP32"/>
			</output>
		</layer>
		<layer id="17" name="147221472679339" type="Const" version="opset1">
			<data element_type="f32" offset="28" shape="" size="4"/>
			<output>
				<port id="0" precision="FP32"/>
			</output>
		</layer>
		<layer id="18" name="147231472782528" type="Const" version="opset1">
			<data element_type="f32" offset="0" shape="" size="4"/>
			<output>
				<port id="0" precision="FP32"/>
			</output>
		</layer>
		<layer id="19" name="147241472878514" type="Const" version="opset1">
			<data element_type="f32" offset="28" shape="" size="4"/>
			<output>
				<port id="0" precision="FP32"/>
			</output>
		</layer>
		<layer id="20" name="172511725576819" type="Const" version="opset1">
			<data element_type="f32" offset="32" shape="" size="4"/>
			<output>
				<port id="0" precision="FP32"/>
			</output>
		</layer>
		<layer id="21" name="172521725677068" type="Const" version="opset1">
			<data element_type="f32" offset="36" shape="" size="4"/>
			<output>
				<port id="0" precision="FP32"/>
			</output>
		</layer>
		<layer id="22" name="172531725779411" type="Const" version="opset1">
			<data element_type="f32" offset="32" shape="" size="4"/>
			<output>
				<port id="0" precision="FP32"/>
			</output>
		</layer>
		<layer id="23" name="172541725875520" type="Const" version="opset1">
			<data element_type="f32" offset="36" shape="" size="4"/>
			<output>
				<port id="0" precision="FP32"/>
			</output>
		</layer>
		<layer id="24" name="121611216580305" type="Const" version="opset1">
			<data element_type="f32" offset="0" shape="" size="4"/>
			<output>
				<port id="0" precision="FP32"/>
			</output>
		</layer>
		<layer id="25" name="121621216679585" type="Const" version="opset1">
			<data element_type="f32" offset="40" shape="" size="4"/>
			<output>
				<port id="0" precision="FP32"/>
			</output>
		</layer>
		<layer id="26" name="121631216774902" type="Const" version="opset1">
			<data element_type="f32" offset="0" shape="" size="4"/>
			<output>
				<port id="0" precision="FP32"/>
			</output>
		</layer>
		<layer id="27" name="121641216875343" type="Const" version="opset1">
			<data element_type="f32" offset="40" shape="" size="4"/>
			<output>
				<port id="0" precision="FP32"/>
			</output>
		</layer>
		<layer id="28" name="172611726576834" type="Const" version="opset1">
			<data element_type="f32" offset="0" shape="" size="4"/>
			<output>
				<port id="0" precision="FP32"/>
			</output>
		</layer>
		<layer id="29" name="172621726676348" type="Const" version="opset1">
			<data element_type="f32" offset="44" shape="" size="4"/>
			<output>
				<port id="0" precision="FP32"/>
			</output>
		</layer>
		<layer id="30" name="172631726774482" type="Const" version="opset1">
			<data element_type="f32" offset="0" shape="" size="4"/>
			<output>
				<port id="0" precision="FP32"/>
			</output>
		</layer>
		<layer id="31" name="172641726876699" type="Const" version="opset1">
			<data element_type="f32" offset="44" shape="" size="4"/>
			<output>
				<port id="0" precision="FP32"/>
			</output>
		</layer>
		<layer id="32" name="191611916580089" type="Const" version="opset1">
			<data element_type="f32" offset="48" shape="" size="4"/>
			<output>
				<port id="0" precision="FP32"/>
			</output>
		</layer>
		<layer id="33" name="191621916676594" type="Const" version="opset1">
			<data element_type="f32" offset="52" shape="" size="4"/>
			<output>
				<port id="0" precision="FP32"/>
			</output>
		</layer>
		<layer id="34" name="191631916774050" type="Const" version="opset1">
			<data element_type="f32" offset="48" shape="" size="4"/>
			<output>
				<port id="0" precision="FP32"/>
			</output>
		</layer>
		<layer id="35" name="191641916879252" type="Const" version="opset1">
			<data element_type="f32" offset="52" shape="" size="4"/>
			<output>
				<port id="0" precision="FP32"/>
			</output>
		</layer>
		<layer id="36" name="169711697582489" type="Const" version="opset1">
			<data element_type="f32" offset="0" shape="" size="4"/>
			<output>
				<port id="0" precision="FP32"/>
			</output>
		</layer>
		<layer id="37" name="169721697680230" type="Const" version="opset1">
			<data element_type="f32" offset="56" shape="" size="4"/>
			<output>
				<port id="0" precision="FP32"/>
			</output>
		</layer>
		<layer id="38" name="169731697778205" type="Const" version="opset1">
			<data element_type="f32" offset="0" shape="" size="4"/>
			<output>
				<port id="0" precision="FP32"/>
			</output>
		</layer>
		<layer id="39" name="169741697884034" type="Const" version="opset1">
			<data element_type="f32" offset="56" shape="" size="4"/>
			<output>
				<port id="0" precision="FP32"/>
			</output>
		</layer>
		<layer id="40" name="191711917584184" type="Const" version="opset1">
			<data element_type="f32" offset="0" shape="" size="4"/>
			<output>
				<port id="0" precision="FP32"/>
			</output>
		</layer>
		<layer id="41" name="191721917677407" type="Const" version="opset1">
			<data element_type="f32" offset="60" shape="" size="4"/>
			<output>
				<port id="0" precision="FP32"/>
			</output>
		</layer>
		<layer id="42" name="191731917774023" type="Const" version="opset1">
			<data element_type="f32" offset="0" shape="" size="4"/>
			<output>
				<port id="0" precision="FP32"/>
			</output>
		</layer>
		<layer id="43" name="191741917881595" type="Const" version="opset1">
			<data element_type="f32" offset="60" shape="" size="4"/>
			<output>
				<port id="0" precision="FP32"/>
			</output>
		</layer>
		<layer id="44" name="201412014579762" type="Const" version="opset1">
			<data element_type="f32" offset="64" shape="" size="4"/>
			<output>
				<port id="0" precision="FP32"/>
			</output>
		</layer>
		<layer id="45" name="201422014681160" type="Const" version="opset1">
			<data element_type="f32" offset="68" shape="" size="4"/>
			<output>
				<port id="0" precision="FP32"/>
			</output>
		</layer>
		<layer id="46" name="201432014773846" type="Const" version="opset1">
			<data element_type="f32" offset="64" shape="" size="4"/>
			<output>
				<port id="0" precision="FP32"/>
			</output>
		</layer>
		<layer id="47" name="201442014875094" type="Const" version="opset1">
			<data element_type="f32" offset="68" shape="" size="4"/>
			<output>
				<port id="0" precision="FP32"/>
			</output>
		</layer>
		<layer id="48" name="162011620581211" type="Const" version="opset1">
			<data element_type="f32" offset="0" shape="" size="4"/>
			<output>
				<port id="0" precision="FP32"/>
			</output>
		</layer>
		<layer id="49" name="162021620679414" type="Const" version="opset1">
			<data element_type="f32" offset="72" shape="" size="4"/>
			<output>
				<port id="0" precision="FP32"/>
			</output>
		</layer>
		<layer id="50" name="162031620782966" type="Const" version="opset1">
			<data element_type="f32" offset="0" shape="" size="4"/>
			<output>
				<port id="0" precision="FP32"/>
			</output>
		</layer>
		<layer id="51" name="162041620883164" type="Const" version="opset1">
			<data element_type="f32" offset="72" shape="" size="4"/>
			<output>
				<port id="0" precision="FP32"/>
			</output>
		</layer>
		<layer id="52" name="201512015579240" type="Const" version="opset1">
			<data element_type="f32" offset="0" shape="" size="4"/>
			<output>
				<port id="0" precision="FP32"/>
			</output>
		</layer>
		<layer id="53" name="201522015679900" type="Const" version="opset1">
			<data element_type="f32" offset="76" shape="" size="4"/>
			<output>
				<port id="0" precision="FP32"/>
			</output>
		</layer>
		<layer id="54" name="201532015776525" type="Const" version="opset1">
			<data element_type="f32" offset="0" shape="" size="4"/>
			<output>
				<port id="0" precision="FP32"/>
			</output>
		</layer>
		<layer id="55" name="201542015881574" type="Const" version="opset1">
			<data element_type="f32" offset="76" shape="" size="4"/>
			<output>
				<port id="0" precision="FP32"/>
			</output>
		</layer>
		<layer id="56" name="184811848577626" type="Const" version="opset1">
			<data element_type="f32" offset="80" shape="" size="4"/>
			<output>
				<port id="0" precision="FP32"/>
			</output>
		</layer>
		<layer id="57" name="184821848681967" type="Const" version="opset1">
			<data element_type="f32" offset="84" shape="" size="4"/>
			<output>
				<port id="0" precision="FP32"/>
			</output>
		</layer>
		<layer id="58" name="184831848781487" type="Const" version="opset1">
			<data element_type="f32" offset="80" shape="" size="4"/>
			<output>
				<port id="0" precision="FP32"/>
			</output>
		</layer>
		<layer id="59" name="184841848881757" type="Const" version="opset1">
			<data element_type="f32" offset="84" shape="" size="4"/>
			<output>
				<port id="0" precision="FP32"/>
			</output>
		</layer>
		<layer id="60" name="189411894582132" type="Const" version="opset1">
			<data element_type="f32" offset="0" shape="" size="4"/>
			<output>
				<port id="0" precision="FP32"/>
			</output>
		</layer>
		<layer id="61" name="189421894674374" type="Const" version="opset1">
			<data element_type="f32" offset="88" shape="" size="4"/>
			<output>
				<port id="0" precision="FP32"/>
			</output>
		</layer>
		<layer id="62" name="189431894781856" type="Const" version="opset1">
			<data element_type="f32" offset="0" shape="" size="4"/>
			<output>
				<port id="0" precision="FP32"/>
			</output>
		</layer>
		<layer id="63" name="189441894874839" type="Const" version="opset1">
			<data element_type="f32" offset="88" shape="" size="4"/>
			<output>
				<port id="0" precision="FP32"/>
			</output>
		</layer>
		<layer id="64" name="184911849578088" type="Const" version="opset1">
			<data element_type="f32" offset="0" shape="" size="4"/>
			<output>
				<port id="0" precision="FP32"/>
			</output>
		</layer>
		<layer id="65" name="184921849681784" type="Const" version="opset1">
			<data element_type="f32" offset="92" shape="" size="4"/>
			<output>
				<port id="0" precision="FP32"/>
			</output>
		</layer>
		<layer id="66" name="184931849773807" type="Const" version="opset1">
			<data element_type="f32" offset="0" shape="" size="4"/>
			<output>
				<port id="0" precision="FP32"/>
			</output>
		</layer>
		<layer id="67" name="184941849874020" type="Const" version="opset1">
			<data element_type="f32" offset="92" shape="" size="4"/>
			<output>
				<port id="0" precision="FP32"/>
			</output>
		</layer>
		<layer id="68" name="113311133575619" type="Const" version="opset1">
			<data element_type="f32" offset="96" shape="" size="4"/>
			<output>
				<port id="0" precision="FP32"/>
			</output>
		</layer>
		<layer id="69" name="113321133675148" type="Const" version="opset1">
			<data element_type="f32" offset="100" shape="" size="4"/>
			<output>
				<port id="0" precision="FP32"/>
			</output>
		</layer>
		<layer id="70" name="113331133773783" type="Const" version="opset1">
			<data element_type="f32" offset="96" shape="" size="4"/>
			<output>
				<port id="0" precision="FP32"/>
			</output>
		</layer>
		<layer id="71" name="113341133873516" type="Const" version="opset1">
			<data element_type="f32" offset="100" shape="" size="4"/>
			<output>
				<port id="0" precision="FP32"/>
			</output>
		</layer>
		<layer id="72" name="205012050584202" type="Const" version="opset1">
			<data element_type="f32" offset="104" shape="" size="4"/>
			<output>
				<port id="0" precision="FP32"/>
			</output>
		</layer>
		<layer id="73" name="205022050681952" type="Const" version="opset1">
			<data element_type="f32" offset="108" shape="" size="4"/>
			<output>
				<port id="0" precision="FP32"/>
			</output>
		</layer>
		<layer id="74" name="205032050781046" type="Const" version="opset1">
			<data element_type="f32" offset="104" shape="" size="4"/>
			<output>
				<port id="0" precision="FP32"/>
			</output>
		</layer>
		<layer id="75" name="205042050879432" type="Const" version="opset1">
			<data element_type="f32" offset="108" shape="" size="4"/>
			<output>
				<port id="0" precision="FP32"/>
			</output>
		</layer>
		<layer id="76" name="142111421577551" type="Const" version="opset1">
			<data element_type="f32" offset="0" shape="" size="4"/>
			<output>
				<port id="0" precision="FP32"/>
			</output>
		</layer>
		<layer id="77" name="142121421674923" type="Const" version="opset1">
			<data element_type="f32" offset="112" shape="" size="4"/>
			<output>
				<port id="0" precision="FP32"/>
			</output>
		</layer>
		<layer id="78" name="142131421775313" type="Const" version="opset1">
			<data element_type="f32" offset="0" shape="" size="4"/>
			<output>
				<port id="0" precision="FP32"/>
			</output>
		</layer>
		<layer id="79" name="142141421879012" type="Const" version="opset1">
			<data element_type="f32" offset="112" shape="" size="4"/>
			<output>
				<port id="0" precision="FP32"/>
			</output>
		</layer>
		<layer id="80" name="138511385579405" type="Const" version="opset1">
			<data element_type="f32" offset="116" shape="" size="4"/>
			<output>
				<port id="0" precision="FP32"/>
			</output>
		</layer>
		<layer id="81" name="138521385680044" type="Const" version="opset1">
			<data element_type="f32" offset="120" shape="" size="4"/>
			<output>
				<port id="0" precision="FP32"/>
			</output>
		</layer>
		<layer id="82" name="138531385779477" type="Const" version="opset1">
			<data element_type="f32" offset="116" shape="" size="4"/>
			<output>
				<port id="0" precision="FP32"/>
			</output>
		</layer>
		<layer id="83" name="138541385876207" type="Const" version="opset1">
			<data element_type="f32" offset="120" shape="" size="4"/>
			<output>
				<port id="0" precision="FP32"/>
			</output>
		</layer>
		<layer id="84" name="124611246583647" type="Const" version="opset1">
			<data element_type="f32" offset="0" shape="" size="4"/>
			<output>
				<port id="0" precision="FP32"/>
			</output>
		</layer>
		<layer id="85" name="124621246677782" type="Const" version="opset1">
			<data element_type="f32" offset="124" shape="" size="4"/>
			<output>
				<port id="0" precision="FP32"/>
			</output>
		</layer>
		<layer id="86" name="124631246775097" type="Const" version="opset1">
			<data element_type="f32" offset="0" shape="" size="4"/>
			<output>
				<port id="0" precision="FP32"/>
			</output>
		</layer>
		<layer id="87" name="124641246879756" type="Const" version="opset1">
			<data element_type="f32" offset="124" shape="" size="4"/>
			<output>
				<port id="0" precision="FP32"/>
			</output>
		</layer>
		<layer id="88" name="138611386579462" type="Const" version="opset1">
			<data element_type="f32" offset="0" shape="" size="4"/>
			<output>
				<port id="0" precision="FP32"/>
			</output>
		</layer>
		<layer id="89" name="138621386676906" type="Const" version="opset1">
			<data element_type="f32" offset="128" shape="" size="4"/>
			<output>
				<port id="0" precision="FP32"/>
			</output>
		</layer>
		<layer id="90" name="138631386782300" type="Const" version="opset1">
			<data element_type="f32" offset="0" shape="" size="4"/>
			<output>
				<port id="0" precision="FP32"/>
			</output>
		</layer>
		<layer id="91" name="138641386882447" type="Const" version="opset1">
			<data element_type="f32" offset="128" shape="" size="4"/>
			<output>
				<port id="0" precision="FP32"/>
			</output>
		</layer>
		<layer id="92" name="203612036583146" type="Const" version="opset1">
			<data element_type="f32" offset="132" shape="" size="4"/>
			<output>
				<port id="0" precision="FP32"/>
			</output>
		</layer>
		<layer id="93" name="203622036680932" type="Const" version="opset1">
			<data element_type="f32" offset="136" shape="" size="4"/>
			<output>
				<port id="0" precision="FP32"/>
			</output>
		</layer>
		<layer id="94" name="203632036781745" type="Const" version="opset1">
			<data element_type="f32" offset="132" shape="" size="4"/>
			<output>
				<port id="0" precision="FP32"/>
			</output>
		</layer>
		<layer id="95" name="203642036878622" type="Const" version="opset1">
			<data element_type="f32" offset="136" shape="" size="4"/>
			<output>
				<port id="0" precision="FP32"/>
			</output>
		</layer>
		<layer id="96" name="129911299573795" type="Const" version="opset1">
			<data element_type="f32" offset="0" shape="" size="4"/>
			<output>
				<port id="0" precision="FP32"/>
			</output>
		</layer>
		<layer id="97" name="129921299680236" type="Const" version="opset1">
			<data element_type="f32" offset="140" shape="" size="4"/>
			<output>
				<port id="0" precision="FP32"/>
			</output>
		</layer>
		<layer id="98" name="129931299782240" type="Const" version="opset1">
			<data element_type="f32" offset="0" shape="" size="4"/>
			<output>
				<port id="0" precision="FP32"/>
			</output>
		</layer>
		<layer id="99" name="129941299878685" type="Const" version="opset1">
			<data element_type="f32" offset="140" shape="" size="4"/>
			<output>
				<port id="0" precision="FP32"/>
			</output>
		</layer>
		<layer id="100" name="203712037583650" type="Const" version="opset1">
			<data element_type="f32" offset="0" shape="" size="4"/>
			<output>
				<port id="0" precision="FP32"/>
			</output>
		</layer>
		<layer id="101" name="203722037676186" type="Const" version="opset1">
			<data element_type="f32" offset="144" shape="" size="4"/>
			<output>
				<port id="0" precision="FP32"/>
			</output>
		</layer>
		<layer id="102" name="203732037782825" type="Const" version="opset1">
			<data element_type="f32" offset="0" shape="" size="4"/>
			<output>
				<port id="0" precision="FP32"/>
			</output>
		</layer>
		<layer id="103" name="203742037882294" type="Const" version="opset1">
			<data element_type="f32" offset="144" shape="" size="4"/>
			<output>
				<port id="0" precision="FP32"/>
			</output>
		</layer>
		<layer id="104" name="147411474581826" type="Const" version="opset1">
			<data element_type="f32" offset="148" shape="" size="4"/>
			<output>
				<port id="0" precision="FP32"/>
			</output>
		</layer>
		<layer id="105" name="147421474675583" type="Const" version="opset1">
			<data element_type="f32" offset="152" shape="" size="4"/>
			<output>
				<port id="0" precision="FP32"/>
			</output>
		</layer>
		<layer id="106" name="147431474773345" type="Const" version="opset1">
			<data element_type="f32" offset="148" shape="" size="4"/>
			<output>
				<port id="0" precision="FP32"/>
			</output>
		</layer>
		<layer id="107" name="147441474881007" type="Const" version="opset1">
			<data element_type="f32" offset="152" shape="" size="4"/>
			<output>
				<port id="0" precision="FP32"/>
			</output>
		</layer>
		<layer id="108" name="115611156581169" type="Const" version="opset1">
			<data element_type="f32" offset="0" shape="" size="4"/>
			<output>
				<port id="0" precision="FP32"/>
			</output>
		</layer>
		<layer id="109" name="115621156675577" type="Const" version="opset1">
			<data element_type="f32" offset="156" shape="" size="4"/>
			<output>
				<port id="0" precision="FP32"/>
			</output>
		</layer>
		<layer id="110" name="115631156777317" type="Const" version="opset1">
			<data element_type="f32" offset="0" shape="" size="4"/>
			<output>
				<port id="0" precision="FP32"/>
			</output>
		</layer>
		<layer id="111" name="115641156879288" type="Const" version="opset1">
			<data element_type="f32" offset="156" shape="" size="4"/>
			<output>
				<port id="0" precision="FP32"/>
			</output>
		</layer>
		<layer id="112" name="147511475576060" type="Const" version="opset1">
			<data element_type="f32" offset="0" shape="" size="4"/>
			<output>
				<port id="0" precision="FP32"/>
			</output>
		</layer>
		<layer id="113" name="147521475679783" type="Const" version="opset1">
			<data element_type="f32" offset="160" shape="" size="4"/>
			<output>
				<port id="0" precision="FP32"/>
			</output>
		</layer>
		<layer id="114" name="147531475780917" type="Const" version="opset1">
			<data element_type="f32" offset="0" shape="" size="4"/>
			<output>
				<port id="0" precision="FP32"/>
			</output>
		</layer>
		<layer id="115" name="147541475876372" type="Const" version="opset1">
			<data element_type="f32" offset="160" shape="" size="4"/>
			<output>
				<port id="0" precision="FP32"/>
			</output>
		</layer>
		<layer id="116" name="132311323578199" type="Const" version="opset1">
			<data element_type="f32" offset="164" shape="" size="4"/>
			<output>
				<port id="0" precision="FP32"/>
			</output>
		</layer>
		<layer id="117" name="132321323679726" type="Const" version="opset1">
			<data element_type="f32" offset="168" shape="" size="4"/>
			<output>
				<port id="0" precision="FP32"/>
			</output>
		</layer>
		<layer id="118" name="132331323780128" type="Const" version="opset1">
			<data element_type="f32" offset="164" shape="" size="4"/>
			<output>
				<port id="0" precision="FP32"/>
			</output>
		</layer>
		<layer id="119" name="132341323882126" type="Const" version="opset1">
			<data element_type="f32" offset="168" shape="" size="4"/>
			<output>
				<port id="0" precision="FP32"/>
			</output>
		</layer>
		<layer id="120" name="110611106577923" type="Const" version="opset1">
			<data element_type="f32" offset="0" shape="" size="4"/>
			<output>
				<port id="0" precision="FP32"/>
			</output>
		</layer>
		<layer id="121" name="110621106682471" type="Const" version="opset1">
			<data element_type="f32" offset="172" shape="" size="4"/>
			<output>
				<port id="0" precision="FP32"/>
			</output>
		</layer>
		<layer id="122" name="110631106774650" type="Const" version="opset1">
			<data element_type="f32" offset="0" shape="" size="4"/>
			<output>
				<port id="0" precision="FP32"/>
			</output>
		</layer>
		<layer id="123" name="110641106880998" type="Const" version="opset1">
			<data element_type="f32" offset="172" shape="" size="4"/>
			<output>
				<port id="0" precision="FP32"/>
			</output>
		</layer>
		<layer id="124" name="132411324576441" type="Const" version="opset1">
			<data element_type="f32" offset="0" shape="" size="4"/>
			<output>
				<port id="0" precision="FP32"/>
			</output>
		</layer>
		<layer id="125" name="132421324674194" type="Const" version="opset1">
			<data element_type="f32" offset="176" shape="" size="4"/>
			<output>
				<port id="0" precision="FP32"/>
			</output>
		</layer>
		<layer id="126" name="132431324773627" type="Const" version="opset1">
			<data element_type="f32" offset="0" shape="" size="4"/>
			<output>
				<port id="0" precision="FP32"/>
			</output>
		</layer>
		<layer id="127" name="132441324874524" type="Const" version="opset1">
			<data element_type="f32" offset="176" shape="" size="4"/>
			<output>
				<port id="0" precision="FP32"/>
			</output>
		</layer>
		<layer id="128" name="134511345577344" type="Const" version="opset1">
			<data element_type="f32" offset="180" shape="" size="4"/>
			<output>
				<port id="0" precision="FP32"/>
			</output>
		</layer>
		<layer id="129" name="134521345679057" type="Const" version="opset1">
			<data element_type="f32" offset="184" shape="" size="4"/>
			<output>
				<port id="0" precision="FP32"/>
			</output>
		</layer>
		<layer id="130" name="134531345779705" type="Const" version="opset1">
			<data element_type="f32" offset="180" shape="" size="4"/>
			<output>
				<port id="0" precision="FP32"/>
			</output>
		</layer>
		<layer id="131" name="134541345883611" type="Const" version="opset1">
			<data element_type="f32" offset="184" shape="" size="4"/>
			<output>
				<port id="0" precision="FP32"/>
			</output>
		</layer>
		<layer id="132" name="151711517575841" type="Const" version="opset1">
			<data element_type="f32" offset="188" shape="" size="4"/>
			<output>
				<port id="0" precision="FP32"/>
			</output>
		</layer>
		<layer id="133" name="151721517675376" type="Const" version="opset1">
			<data element_type="f32" offset="192" shape="" size="4"/>
			<output>
				<port id="0" precision="FP32"/>
			</output>
		</layer>
		<layer id="134" name="151731517775835" type="Const" version="opset1">
			<data element_type="f32" offset="188" shape="" size="4"/>
			<output>
				<port id="0" precision="FP32"/>
			</output>
		</layer>
		<layer id="135" name="151741517876657" type="Const" version="opset1">
			<data element_type="f32" offset="192" shape="" size="4"/>
			<output>
				<port id="0" precision="FP32"/>
			</output>
		</layer>
		<layer id="136" name="185011850581616" type="Const" version="opset1">
			<data element_type="f32" offset="0" shape="" size="4"/>
			<output>
				<port id="0" precision="FP32"/>
			</output>
		</layer>
		<layer id="137" name="185021850674530" type="Const" version="opset1">
			<data element_type="f32" offset="196" shape="" size="4"/>
			<output>
				<port id="0" precision="FP32"/>
			</output>
		</layer>
		<layer id="138" name="185031850776132" type="Const" version="opset1">
			<data element_type="f32" offset="0" shape="" size="4"/>
			<output>
				<port id="0" precision="FP32"/>
			</output>
		</layer>
		<layer id="139" name="185041850877209" type="Const" version="opset1">
			<data element_type="f32" offset="196" shape="" size="4"/>
			<output>
				<port id="0" precision="FP32"/>
			</output>
		</layer>
		<layer id="140" name="120811208583113" type="Const" version="opset1">
			<data element_type="f32" offset="200" shape="" size="4"/>
			<output>
				<port id="0" precision="FP32"/>
			</output>
		</layer>
		<layer id="141" name="120821208675388" type="Const" version="opset1">
			<data element_type="f32" offset="204" shape="" size="4"/>
			<output>
				<port id="0" precision="FP32"/>
			</output>
		</layer>
		<layer id="142" name="120831208774728" type="Const" version="opset1">
			<data element_type="f32" offset="200" shape="" size="4"/>
			<output>
				<port id="0" precision="FP32"/>
			</output>
		</layer>
		<layer id="143" name="120841208882702" type="Const" version="opset1">
			<data element_type="f32" offset="204" shape="" size="4"/>
			<output>
				<port id="0" precision="FP32"/>
			</output>
		</layer>
		<layer id="144" name="112211122577803" type="Const" version="opset1">
			<data element_type="f32" offset="0" shape="" size="4"/>
			<output>
				<port id="0" precision="FP32"/>
			</output>
		</layer>
		<layer id="145" name="112221122679720" type="Const" version="opset1">
			<data element_type="f32" offset="208" shape="" size="4"/>
			<output>
				<port id="0" precision="FP32"/>
			</output>
		</layer>
		<layer id="146" name="112231122779639" type="Const" version="opset1">
			<data element_type="f32" offset="0" shape="" size="4"/>
			<output>
				<port id="0" precision="FP32"/>
			</output>
		</layer>
		<layer id="147" name="112241122884250" type="Const" version="opset1">
			<data element_type="f32" offset="208" shape="" size="4"/>
			<output>
				<port id="0" precision="FP32"/>
			</output>
		</layer>
		<layer id="148" name="120911209579459" type="Const" version="opset1">
			<data element_type="f32" offset="0" shape="" size="4"/>
			<output>
				<port id="0" precision="FP32"/>
			</output>
		</layer>
		<layer id="149" name="120921209675715" type="Const" version="opset1">
			<data element_type="f32" offset="212" shape="" size="4"/>
			<output>
				<port id="0" precision="FP32"/>
			</output>
		</layer>
		<layer id="150" name="120931209779885" type="Const" version="opset1">
			<data element_type="f32" offset="0" shape="" size="4"/>
			<output>
				<port id="0" precision="FP32"/>
			</output>
		</layer>
		<layer id="151" name="120941209876582" type="Const" version="opset1">
			<data element_type="f32" offset="212" shape="" size="4"/>
			<output>
				<port id="0" precision="FP32"/>
			</output>
		</layer>
		<layer id="152" name="166511665574104" type="Const" version="opset1">
			<data element_type="f32" offset="216" shape="" size="4"/>
			<output>
				<port id="0" precision="FP32"/>
			</output>
		</layer>
		<layer id="153" name="166521665673480" type="Const" version="opset1">
			<data element_type="f32" offset="220" shape="" size="4"/>
			<output>
				<port id="0" precision="FP32"/>
			</output>
		</layer>
		<layer id="154" name="166531665773642" type="Const" version="opset1">
			<data element_type="f32" offset="216" shape="" size="4"/>
			<output>
				<port id="0" precision="FP32"/>
			</output>
		</layer>
		<layer id="155" name="166541665877968" type="Const" version="opset1">
			<data element_type="f32" offset="220" shape="" size="4"/>
			<output>
				<port id="0" precision="FP32"/>
			</output>
		</layer>
		<layer id="156" name="199511995578607" type="Const" version="opset1">
			<data element_type="f32" offset="0" shape="" size="4"/>
			<output>
				<port id="0" precision="FP32"/>
			</output>
		</layer>
		<layer id="157" name="199521995679321" type="Const" version="opset1">
			<data element_type="f32" offset="224" shape="" size="4"/>
			<output>
				<port id="0" precision="FP32"/>
			</output>
		</layer>
		<layer id="158" name="199531995773588" type="Const" version="opset1">
			<data element_type="f32" offset="0" shape="" size="4"/>
			<output>
				<port id="0" precision="FP32"/>
			</output>
		</layer>
		<layer id="159" name="199541995881718" type="Const" version="opset1">
			<data element_type="f32" offset="224" shape="" size="4"/>
			<output>
				<port id="0" precision="FP32"/>
			</output>
		</layer>
		<layer id="160" name="166611666581025" type="Const" version="opset1">
			<data element_type="f32" offset="0" shape="" size="4"/>
			<output>
				<port id="0" precision="FP32"/>
			</output>
		</layer>
		<layer id="161" name="166621666675733" type="Const" version="opset1">
			<data element_type="f32" offset="228" shape="" size="4"/>
			<output>
				<port id="0" precision="FP32"/>
			</output>
		</layer>
		<layer id="162" name="166631666781895" type="Const" version="opset1">
			<data element_type="f32" offset="0" shape="" size="4"/>
			<output>
				<port id="0" precision="FP32"/>
			</output>
		</layer>
		<layer id="163" name="166641666882390" type="Const" version="opset1">
			<data element_type="f32" offset="228" shape="" size="4"/>
			<output>
				<port id="0" precision="FP32"/>
			</output>
		</layer>
		<layer id="164" name="176311763577932" type="Const" version="opset1">
			<data element_type="f32" offset="232" shape="" size="4"/>
			<output>
				<port id="0" precision="FP32"/>
			</output>
		</layer>
		<layer id="165" name="176321763684232" type="Const" version="opset1">
			<data element_type="f32" offset="236" shape="" size="4"/>
			<output>
				<port id="0" precision="FP32"/>
			</output>
		</layer>
		<layer id="166" name="176331763774983" type="Const" version="opset1">
			<data element_type="f32" offset="232" shape="" size="4"/>
			<output>
				<port id="0" precision="FP32"/>
			</output>
		</layer>
		<layer id="167" name="176341763874575" type="Const" version="opset1">
			<data element_type="f32" offset="236" shape="" size="4"/>
			<output>
				<port id="0" precision="FP32"/>
			</output>
		</layer>
		<layer id="168" name="150211502579651" type="Const" version="opset1">
			<data element_type="f32" offset="0" shape="" size="4"/>
			<output>
				<port id="0" precision="FP32"/>
			</output>
		</layer>
		<layer id="169" name="150221502673618" type="Const" version="opset1">
			<data element_type="f32" offset="240" shape="" size="4"/>
			<output>
				<port id="0" precision="FP32"/>
			</output>
		</layer>
		<layer id="170" name="150231502783347" type="Const" version="opset1">
			<data element_type="f32" offset="0" shape="" size="4"/>
			<output>
				<port id="0" precision="FP32"/>
			</output>
		</layer>
		<layer id="171" name="150241502873549" type="Const" version="opset1">
			<data element_type="f32" offset="240" shape="" size="4"/>
			<output>
				<port id="0" precision="FP32"/>
			</output>
		</layer>
		<layer id="172" name="176411764577296" type="Const" version="opset1">
			<data element_type="f32" offset="0" shape="" size="4"/>
			<output>
				<port id="0" precision="FP32"/>
			</output>
		</layer>
		<layer id="173" name="176421764678016" type="Const" version="opset1">
			<data element_type="f32" offset="244" shape="" size="4"/>
			<output>
				<port id="0" precision="FP32"/>
			</output>
		</layer>
		<layer id="174" name="176431764777566" type="Const" version="opset1">
			<data element_type="f32" offset="0" shape="" size="4"/>
			<output>
				<port id="0" precision="FP32"/>
			</output>
		</layer>
		<layer id="175" name="176441764878187" type="Const" version="opset1">
			<data element_type="f32" offset="244" shape="" size="4"/>
			<output>
				<port id="0" precision="FP32"/>
			</output>
		</layer>
		<layer id="176" name="178511785574008" type="Const" version="opset1">
			<data element_type="f32" offset="248" shape="" size="4"/>
			<output>
				<port id="0" precision="FP32"/>
			</output>
		</layer>
		<layer id="177" name="178521785673447" type="Const" version="opset1">
			<data element_type="f32" offset="252" shape="" size="4"/>
			<output>
				<port id="0" precision="FP32"/>
			</output>
		</layer>
		<layer id="178" name="178531785780731" type="Const" version="opset1">
			<data element_type="f32" offset="248" shape="" size="4"/>
			<output>
				<port id="0" precision="FP32"/>
			</output>
		</layer>
		<layer id="179" name="178541785874947" type="Const" version="opset1">
			<data element_type="f32" offset="252" shape="" size="4"/>
			<output>
				<port id="0" precision="FP32"/>
			</output>
		</layer>
		<layer id="180" name="165311653581547" type="Const" version="opset1">
			<data element_type="f32" offset="0" shape="" size="4"/>
			<output>
				<port id="0" precision="FP32"/>
			</output>
		</layer>
		<layer id="181" name="165321653684211" type="Const" version="opset1">
			<data element_type="f32" offset="256" shape="" size="4"/>
			<output>
				<port id="0" precision="FP32"/>
			</output>
		</layer>
		<layer id="182" name="165331653782522" type="Const" version="opset1">
			<data element_type="f32" offset="0" shape="" size="4"/>
			<output>
				<port id="0" precision="FP32"/>
			</output>
		</layer>
		<layer id="183" name="165341653880635" type="Const" version="opset1">
			<data element_type="f32" offset="256" shape="" size="4"/>
			<output>
				<port id="0" precision="FP32"/>
			</output>
		</layer>
		<layer id="184" name="178611786577650" type="Const" version="opset1">
			<data element_type="f32" offset="0" shape="" size="4"/>
			<output>
				<port id="0" precision="FP32"/>
			</output>
		</layer>
		<layer id="185" name="178621786681418" type="Const" version="opset1">
			<data element_type="f32" offset="260" shape="" size="4"/>
			<output>
				<port id="0" precision="FP32"/>
			</output>
		</layer>
		<layer id="186" name="178631786778379" type="Const" version="opset1">
			<data element_type="f32" offset="0" shape="" size="4"/>
			<output>
				<port id="0" precision="FP32"/>
			</output>
		</layer>
		<layer id="187" name="178641786882372" type="Const" version="opset1">
			<data element_type="f32" offset="260" shape="" size="4"/>
			<output>
				<port id="0" precision="FP32"/>
			</output>
		</layer>
		<layer id="188" name="126811268581403" type="Const" version="opset1">
			<data element_type="f32" offset="264" shape="" size="4"/>
			<output>
				<port id="0" precision="FP32"/>
			</output>
		</layer>
		<layer id="189" name="126821268675529" type="Const" version="opset1">
			<data element_type="f32" offset="268" shape="" size="4"/>
			<output>
				<port id="0" precision="FP32"/>
			</output>
		</layer>
		<layer id="190" name="126831268778883" type="Const" version="opset1">
			<data element_type="f32" offset="264" shape="" size="4"/>
			<output>
				<port id="0" precision="FP32"/>
			</output>
		</layer>
		<layer id="191" name="126841268873405" type="Const" version="opset1">
			<data element_type="f32" offset="268" shape="" size="4"/>
			<output>
				<port id="0" precision="FP32"/>
			</output>
		</layer>
		<layer id="192" name="194211942582324" type="Const" version="opset1">
			<data element_type="f32" offset="0" shape="" size="4"/>
			<output>
				<port id="0" precision="FP32"/>
			</output>
		</layer>
		<layer id="193" name="194221942681685" type="Const" version="opset1">
			<data element_type="f32" offset="272" shape="" size="4"/>
			<output>
				<port id="0" precision="FP32"/>
			</output>
		</layer>
		<layer id="194" name="194231942782246" type="Const" version="opset1">
			<data element_type="f32" offset="0" shape="" size="4"/>
			<output>
				<port id="0" precision="FP32"/>
			</output>
		</layer>
		<layer id="195" name="194241942876162" type="Const" version="opset1">
			<data element_type="f32" offset="272" shape="" size="4"/>
			<output>
				<port id="0" precision="FP32"/>
			</output>
		</layer>
		<layer id="196" name="107211072581283" type="Const" version="opset1">
			<data element_type="f32" offset="276" shape="" size="4"/>
			<output>
				<port id="0" precision="FP32"/>
			</output>
		</layer>
		<layer id="197" name="107221072683701" type="Const" version="opset1">
			<data element_type="f32" offset="280" shape="" size="4"/>
			<output>
				<port id="0" precision="FP32"/>
			</output>
		</layer>
		<layer id="198" name="107231072774584" type="Const" version="opset1">
			<data element_type="f32" offset="276" shape="" size="4"/>
			<output>
				<port id="0" precision="FP32"/>
			</output>
		</layer>
		<layer id="199" name="107241072874311" type="Const" version="opset1">
			<data element_type="f32" offset="280" shape="" size="4"/>
			<output>
				<port id="0" precision="FP32"/>
			</output>
		</layer>
		<layer id="200" name="200312003582774" type="Const" version="opset1">
			<data element_type="f32" offset="0" shape="" size="4"/>
			<output>
				<port id="0" precision="FP32"/>
			</output>
		</layer>
		<layer id="201" name="200322003675580" type="Const" version="opset1">
			<data element_type="f32" offset="284" shape="" size="4"/>
			<output>
				<port id="0" precision="FP32"/>
			</output>
		</layer>
		<layer id="202" name="200332003773780" type="Const" version="opset1">
			<data element_type="f32" offset="0" shape="" size="4"/>
			<output>
				<port id="0" precision="FP32"/>
			</output>
		</layer>
		<layer id="203" name="200342003881736" type="Const" version="opset1">
			<data element_type="f32" offset="284" shape="" size="4"/>
			<output>
				<port id="0" precision="FP32"/>
			</output>
		</layer>
		<layer id="204" name="107311073574758" type="Const" version="opset1">
			<data element_type="f32" offset="0" shape="" size="4"/>
			<output>
				<port id="0" precision="FP32"/>
			</output>
		</layer>
		<layer id="205" name="107321073681400" type="Const" version="opset1">
			<data element_type="f32" offset="288" shape="" size="4"/>
			<output>
				<port id="0" precision="FP32"/>
			</output>
		</layer>
		<layer id="206" name="107331073782906" type="Const" version="opset1">
			<data element_type="f32" offset="0" shape="" size="4"/>
			<output>
				<port id="0" precision="FP32"/>
			</output>
		</layer>
		<layer id="207" name="107341073881580" type="Const" version="opset1">
			<data element_type="f32" offset="288" shape="" size="4"/>
			<output>
				<port id="0" precision="FP32"/>
			</output>
		</layer>
		<layer id="208" name="144311443573639" type="Const" version="opset1">
			<data element_type="f32" offset="292" shape="" size="4"/>
			<output>
				<port id="0" precision="FP32"/>
			</output>
		</layer>
		<layer id="209" name="144321443675589" type="Const" version="opset1">
			<data element_type="f32" offset="296" shape="" size="4"/>
			<output>
				<port id="0" precision="FP32"/>
			</output>
		</layer>
		<layer id="210" name="144331443778553" type="Const" version="opset1">
			<data element_type="f32" offset="292" shape="" size="4"/>
			<output>
				<port id="0" precision="FP32"/>
			</output>
		</layer>
		<layer id="211" name="144341443876423" type="Const" version="opset1">
			<data element_type="f32" offset="296" shape="" size="4"/>
			<output>
				<port id="0" precision="FP32"/>
			</output>
		</layer>
		<layer id="212" name="111211112582792" type="Const" version="opset1">
			<data element_type="f32" offset="0" shape="" size="4"/>
			<output>
				<port id="0" precision="FP32"/>
			</output>
		</layer>
		<layer id="213" name="111221112681556" type="Const" version="opset1">
			<data element_type="f32" offset="300" shape="" size="4"/>
			<output>
				<port id="0" precision="FP32"/>
			</output>
		</layer>
		<layer id="214" name="111231112782288" type="Const" version="opset1">
			<data element_type="f32" offset="0" shape="" size="4"/>
			<output>
				<port id="0" precision="FP32"/>
			</output>
		</layer>
		<layer id="215" name="111241112880521" type="Const" version="opset1">
			<data element_type="f32" offset="300" shape="" size="4"/>
			<output>
				<port id="0" precision="FP32"/>
			</output>
		</layer>
		<layer id="216" name="144411444579621" type="Const" version="opset1">
			<data element_type="f32" offset="0" shape="" size="4"/>
			<output>
				<port id="0" precision="FP32"/>
			</output>
		</layer>
		<layer id="217" name="144421444676621" type="Const" version="opset1">
			<data element_type="f32" offset="304" shape="" size="4"/>
			<output>
				<port id="0" precision="FP32"/>
			</output>
		</layer>
		<layer id="218" name="144431444784286" type="Const" version="opset1">
			<data element_type="f32" offset="0" shape="" size="4"/>
			<output>
				<port id="0" precision="FP32"/>
			</output>
		</layer>
		<layer id="219" name="144441444873882" type="Const" version="opset1">
			<data element_type="f32" offset="304" shape="" size="4"/>
			<output>
				<port id="0" precision="FP32"/>
			</output>
		</layer>
		<layer id="220" name="119411194581307" type="Const" version="opset1">
			<data element_type="f32" offset="308" shape="" size="4"/>
			<output>
				<port id="0" precision="FP32"/>
			</output>
		</layer>
		<layer id="221" name="119421194678448" type="Const" version="opset1">
			<data element_type="f32" offset="312" shape="" size="4"/>
			<output>
				<port id="0" precision="FP32"/>
			</output>
		</layer>
		<layer id="222" name="119431194779534" type="Const" version="opset1">
			<data element_type="f32" offset="308" shape="" size="4"/>
			<output>
				<port id="0" precision="FP32"/>
			</output>
		</layer>
		<layer id="223" name="119441194884106" type="Const" version="opset1">
			<data element_type="f32" offset="312" shape="" size="4"/>
			<output>
				<port id="0" precision="FP32"/>
			</output>
		</layer>
		<layer id="224" name="112411124576318" type="Const" version="opset1">
			<data element_type="f32" offset="0" shape="" size="4"/>
			<output>
				<port id="0" precision="FP32"/>
			</output>
		</layer>
		<layer id="225" name="112421124676336" type="Const" version="opset1">
			<data element_type="f32" offset="316" shape="" size="4"/>
			<output>
				<port id="0" precision="FP32"/>
			</output>
		</layer>
		<layer id="226" name="112431124775061" type="Const" version="opset1">
			<data element_type="f32" offset="0" shape="" size="4"/>
			<output>
				<port id="0" precision="FP32"/>
			</output>
		</layer>
		<layer id="227" name="112441124873513" type="Const" version="opset1">
			<data element_type="f32" offset="316" shape="" size="4"/>
			<output>
				<port id="0" precision="FP32"/>
			</output>
		</layer>
		<layer id="228" name="119511195579537" type="Const" version="opset1">
			<data element_type="f32" offset="0" shape="" size="4"/>
			<output>
				<port id="0" precision="FP32"/>
			</output>
		</layer>
		<layer id="229" name="119521195680734" type="Const" version="opset1">
			<data element_type="f32" offset="320" shape="" size="4"/>
			<output>
				<port id="0" precision="FP32"/>
			</output>
		</layer>
		<layer id="230" name="119531195780659" type="Const" version="opset1">
			<data element_type="f32" offset="0" shape="" size="4"/>
			<output>
				<port id="0" precision="FP32"/>
			</output>
		</layer>
		<layer id="231" name="119541195873456" type="Const" version="opset1">
			<data element_type="f32" offset="320" shape="" size="4"/>
			<output>
				<port id="0" precision="FP32"/>
			</output>
		</layer>
		<layer id="232" name="156011560575568" type="Const" version="opset1">
			<data element_type="f32" offset="324" shape="" size="4"/>
			<output>
				<port id="0" precision="FP32"/>
			</output>
		</layer>
		<layer id="233" name="156021560675964" type="Const" version="opset1">
			<data element_type="f32" offset="328" shape="" size="4"/>
			<output>
				<port id="0" precision="FP32"/>
			</output>
		</layer>
		<layer id="234" name="156031560782318" type="Const" version="opset1">
			<data element_type="f32" offset="324" shape="" size="4"/>
			<output>
				<port id="0" precision="FP32"/>
			</output>
		</layer>
		<layer id="235" name="156041560876672" type="Const" version="opset1">
			<data element_type="f32" offset="328" shape="" size="4"/>
			<output>
				<port id="0" precision="FP32"/>
			</output>
		</layer>
		<layer id="236" name="171311713575535" type="Const" version="opset1">
			<data element_type="f32" offset="0" shape="" size="4"/>
			<output>
				<port id="0" precision="FP32"/>
			</output>
		</layer>
		<layer id="237" name="171321713683869" type="Const" version="opset1">
			<data element_type="f32" offset="332" shape="" size="4"/>
			<output>
				<port id="0" precision="FP32"/>
			</output>
		</layer>
		<layer id="238" name="171331713778412" type="Const" version="opset1">
			<data element_type="f32" offset="0" shape="" size="4"/>
			<output>
				<port id="0" precision="FP32"/>
			</output>
		</layer>
		<layer id="239" name="171341713880170" type="Const" version="opset1">
			<data element_type="f32" offset="332" shape="" size="4"/>
			<output>
				<port id="0" precision="FP32"/>
			</output>
		</layer>
		<layer id="240" name="156111561582435" type="Const" version="opset1">
			<data element_type="f32" offset="0" shape="" size="4"/>
			<output>
				<port id="0" precision="FP32"/>
			</output>
		</layer>
		<layer id="241" name="156121561675694" type="Const" version="opset1">
			<data element_type="f32" offset="336" shape="" size="4"/>
			<output>
				<port id="0" precision="FP32"/>
			</output>
		</layer>
		<layer id="242" name="156131561773438" type="Const" version="opset1">
			<data element_type="f32" offset="0" shape="" size="4"/>
			<output>
				<port id="0" precision="FP32"/>
			</output>
		</layer>
		<layer id="243" name="156141561877320" type="Const" version="opset1">
			<data element_type="f32" offset="336" shape="" size="4"/>
			<output>
				<port id="0" precision="FP32"/>
			</output>
		</layer>
		<layer id="244" name="168511685583653" type="Const" version="opset1">
			<data element_type="f32" offset="340" shape="" size="4"/>
			<output>
				<port id="0" precision="FP32"/>
			</output>
		</layer>
		<layer id="245" name="168521685680548" type="Const" version="opset1">
			<data element_type="f32" offset="344" shape="" size="4"/>
			<output>
				<port id="0" precision="FP32"/>
			</output>
		</layer>
		<layer id="246" name="168531685776024" type="Const" version="opset1">
			<data element_type="f32" offset="340" shape="" size="4"/>
			<output>
				<port id="0" precision="FP32"/>
			</output>
		</layer>
		<layer id="247" name="168541685873651" type="Const" version="opset1">
			<data element_type="f32" offset="344" shape="" size="4"/>
			<output>
				<port id="0" precision="FP32"/>
			</output>
		</layer>
		<layer id="248" name="150711507579258" type="Const" version="opset1">
			<data element_type="f32" offset="0" shape="" size="4"/>
			<output>
				<port id="0" precision="FP32"/>
			</output>
		</layer>
		<layer id="249" name="150721507675961" type="Const" version="opset1">
			<data element_type="f32" offset="348" shape="" size="4"/>
			<output>
				<port id="0" precision="FP32"/>
			</output>
		</layer>
		<layer id="250" name="150731507777605" type="Const" version="opset1">
			<data element_type="f32" offset="0" shape="" size="4"/>
			<output>
				<port id="0" precision="FP32"/>
			</output>
		</layer>
		<layer id="251" name="150741507873327" type="Const" version="opset1">
			<data element_type="f32" offset="348" shape="" size="4"/>
			<output>
				<port id="0" precision="FP32"/>
			</output>
		</layer>
		<layer id="252" name="170711707578742" type="Const" version="opset1">
			<data element_type="f32" offset="352" shape="" size="4"/>
			<output>
				<port id="0" precision="FP32"/>
			</output>
		</layer>
		<layer id="253" name="170721707681115" type="Const" version="opset1">
			<data element_type="f32" offset="356" shape="" size="4"/>
			<output>
				<port id="0" precision="FP32"/>
			</output>
		</layer>
		<layer id="254" name="170731707773792" type="Const" version="opset1">
			<data element_type="f32" offset="352" shape="" size="4"/>
			<output>
				<port id="0" precision="FP32"/>
			</output>
		</layer>
		<layer id="255" name="170741707879516" type="Const" version="opset1">
			<data element_type="f32" offset="356" shape="" size="4"/>
			<output>
				<port id="0" precision="FP32"/>
			</output>
		</layer>
		<layer id="256" name="193411934579243" type="Const" version="opset1">
			<data element_type="f32" offset="0" shape="" size="4"/>
			<output>
				<port id="0" precision="FP32"/>
			</output>
		</layer>
		<layer id="257" name="193421934679354" type="Const" version="opset1">
			<data element_type="f32" offset="360" shape="" size="4"/>
			<output>
				<port id="0" precision="FP32"/>
			</output>
		</layer>
		<layer id="258" name="193431934781631" type="Const" version="opset1">
			<data element_type="f32" offset="0" shape="" size="4"/>
			<output>
				<port id="0" precision="FP32"/>
			</output>
		</layer>
		<layer id="259" name="193441934873822" type="Const" version="opset1">
			<data element_type="f32" offset="360" shape="" size="4"/>
			<output>
				<port id="0" precision="FP32"/>
			</output>
		</layer>
		<layer id="260" name="170811708574470" type="Const" version="opset1">
			<data element_type="f32" offset="0" shape="" size="4"/>
			<output>
				<port id="0" precision="FP32"/>
			</output>
		</layer>
		<layer id="261" name="170821708674251" type="Const" version="opset1">
			<data element_type="f32" offset="364" shape="" size="4"/>
			<output>
				<port id="0" precision="FP32"/>
			</output>
		</layer>
		<layer id="262" name="170831708774782" type="Const" version="opset1">
			<data element_type="f32" offset="0" shape="" size="4"/>
			<output>
				<port id="0" precision="FP32"/>
			</output>
		</layer>
		<layer id="263" name="170841708882177" type="Const" version="opset1">
			<data element_type="f32" offset="364" shape="" size="4"/>
			<output>
				<port id="0" precision="FP32"/>
			</output>
		</layer>
		<layer id="264" name="194411944575907" type="Const" version="opset1">
			<data element_type="f32" offset="368" shape="" size="4"/>
			<output>
				<port id="0" precision="FP32"/>
			</output>
		</layer>
		<layer id="265" name="194421944678460" type="Const" version="opset1">
			<data element_type="f32" offset="372" shape="" size="4"/>
			<output>
				<port id="0" precision="FP32"/>
			</output>
		</layer>
		<layer id="266" name="194431944776948" type="Const" version="opset1">
			<data element_type="f32" offset="368" shape="" size="4"/>
			<output>
				<port id="0" precision="FP32"/>
			</output>
		</layer>
		<layer id="267" name="194441944881442" type="Const" version="opset1">
			<data element_type="f32" offset="372" shape="" size="4"/>
			<output>
				<port id="0" precision="FP32"/>
			</output>
		</layer>
		<layer id="268" name="137911379573888" type="Const" version="opset1">
			<data element_type="f32" offset="0" shape="" size="4"/>
			<output>
				<port id="0" precision="FP32"/>
			</output>
		</layer>
		<layer id="269" name="137921379681181" type="Const" version="opset1">
			<data element_type="f32" offset="376" shape="" size="4"/>
			<output>
				<port id="0" precision="FP32"/>
			</output>
		</layer>
		<layer id="270" name="137931379779795" type="Const" version="opset1">
			<data element_type="f32" offset="0" shape="" size="4"/>
			<output>
				<port id="0" precision="FP32"/>
			</output>
		</layer>
		<layer id="271" name="137941379876363" type="Const" version="opset1">
			<data element_type="f32" offset="376" shape="" size="4"/>
			<output>
				<port id="0" precision="FP32"/>
			</output>
		</layer>
		<layer id="272" name="194511945583284" type="Const" version="opset1">
			<data element_type="f32" offset="0" shape="" size="4"/>
			<output>
				<port id="0" precision="FP32"/>
			</output>
		</layer>
		<layer id="273" name="194521945683554" type="Const" version="opset1">
			<data element_type="f32" offset="380" shape="" size="4"/>
			<output>
				<port id="0" precision="FP32"/>
			</output>
		</layer>
		<layer id="274" name="194531945780557" type="Const" version="opset1">
			<data element_type="f32" offset="0" shape="" size="4"/>
			<output>
				<port id="0" precision="FP32"/>
			</output>
		</layer>
		<layer id="275" name="194541945875187" type="Const" version="opset1">
			<data element_type="f32" offset="380" shape="" size="4"/>
			<output>
				<port id="0" precision="FP32"/>
			</output>
		</layer>
		<layer id="276" name="175711757576507" type="Const" version="opset1">
			<data element_type="f32" offset="384" shape="" size="4"/>
			<output>
				<port id="0" precision="FP32"/>
			</output>
		</layer>
		<layer id="277" name="175721757676960" type="Const" version="opset1">
			<data element_type="f32" offset="388" shape="" size="4"/>
			<output>
				<port id="0" precision="FP32"/>
			</output>
		</layer>
		<layer id="278" name="175731757778193" type="Const" version="opset1">
			<data element_type="f32" offset="384" shape="" size="4"/>
			<output>
				<port id="0" precision="FP32"/>
			</output>
		</layer>
		<layer id="279" name="175741757882519" type="Const" version="opset1">
			<data element_type="f32" offset="388" shape="" size="4"/>
			<output>
				<port id="0" precision="FP32"/>
			</output>
		</layer>
		<layer id="280" name="159011590583755" type="Const" version="opset1">
			<data element_type="f32" offset="0" shape="" size="4"/>
			<output>
				<port id="0" precision="FP32"/>
			</output>
		</layer>
		<layer id="281" name="159021590683305" type="Const" version="opset1">
			<data element_type="f32" offset="392" shape="" size="4"/>
			<output>
				<port id="0" precision="FP32"/>
			</output>
		</layer>
		<layer id="282" name="159031590778268" type="Const" version="opset1">
			<data element_type="f32" offset="0" shape="" size="4"/>
			<output>
				<port id="0" precision="FP32"/>
			</output>
		</layer>
		<layer id="283" name="159041590878841" type="Const" version="opset1">
			<data element_type="f32" offset="392" shape="" size="4"/>
			<output>
				<port id="0" precision="FP32"/>
			</output>
		</layer>
		<layer id="284" name="175811758583659" type="Const" version="opset1">
			<data element_type="f32" offset="0" shape="" size="4"/>
			<output>
				<port id="0" precision="FP32"/>
			</output>
		</layer>
		<layer id="285" name="175821758680116" type="Const" version="opset1">
			<data element_type="f32" offset="396" shape="" size="4"/>
			<output>
				<port id="0" precision="FP32"/>
			</output>
		</layer>
		<layer id="286" name="175831758777572" type="Const" version="opset1">
			<data element_type="f32" offset="0" shape="" size="4"/>
			<output>
				<port id="0" precision="FP32"/>
			</output>
		</layer>
		<layer id="287" name="175841758874452" type="Const" version="opset1">
			<data element_type="f32" offset="396" shape="" size="4"/>
			<output>
				<port id="0" precision="FP32"/>
			</output>
		</layer>
		<layer id="288" name="190611906574656" type="Const" version="opset1">
			<data element_type="f32" offset="400" shape="" size="4"/>
			<output>
				<port id="0" precision="FP32"/>
			</output>
		</layer>
		<layer id="289" name="190621906683086" type="Const" version="opset1">
			<data element_type="f32" offset="404" shape="" size="4"/>
			<output>
				<port id="0" precision="FP32"/>
			</output>
		</layer>
		<layer id="290" name="190631906779300" type="Const" version="opset1">
			<data element_type="f32" offset="400" shape="" size="4"/>
			<output>
				<port id="0" precision="FP32"/>
			</output>
		</layer>
		<layer id="291" name="190641906878064" type="Const" version="opset1">
			<data element_type="f32" offset="404" shape="" size="4"/>
			<output>
				<port id="0" precision="FP32"/>
			</output>
		</layer>
		<layer id="292" name="127011270577398" type="Const" version="opset1">
			<data element_type="f32" offset="0" shape="" size="4"/>
			<output>
				<port id="0" precision="FP32"/>
			</output>
		</layer>
		<layer id="293" name="127021270680191" type="Const" version="opset1">
			<data element_type="f32" offset="408" shape="" size="4"/>
			<output>
				<port id="0" precision="FP32"/>
			</output>
		</layer>
		<layer id="294" name="127031270777635" type="Const" version="opset1">
			<data element_type="f32" offset="0" shape="" size="4"/>
			<output>
				<port id="0" precision="FP32"/>
			</output>
		</layer>
		<layer id="295" name="127041270874872" type="Const" version="opset1">
			<data element_type="f32" offset="408" shape="" size="4"/>
			<output>
				<port id="0" precision="FP32"/>
			</output>
		</layer>
		<layer id="296" name="190711907582945" type="Const" version="opset1">
			<data element_type="f32" offset="0" shape="" size="4"/>
			<output>
				<port id="0" precision="FP32"/>
			</output>
		</layer>
		<layer id="297" name="190721907680107" type="Const" version="opset1">
			<data element_type="f32" offset="412" shape="" size="4"/>
			<output>
				<port id="0" precision="FP32"/>
			</output>
		</layer>
		<layer id="298" name="190731907777101" type="Const" version="opset1">
			<data element_type="f32" offset="0" shape="" size="4"/>
			<output>
				<port id="0" precision="FP32"/>
			</output>
		</layer>
		<layer id="299" name="190741907875658" type="Const" version="opset1">
			<data element_type="f32" offset="412" shape="" size="4"/>
			<output>
				<port id="0" precision="FP32"/>
			</output>
		</layer>
		<layer id="300" name="152911529578400" type="Const" version="opset1">
			<data element_type="f32" offset="416" shape="" size="4"/>
			<output>
				<port id="0" precision="FP32"/>
			</output>
		</layer>
		<layer id="301" name="152921529679198" type="Const" version="opset1">
			<data element_type="f32" offset="420" shape="" size="4"/>
			<output>
				<port id="0" precision="FP32"/>
			</output>
		</layer>
		<layer id="302" name="152931529774716" type="Const" version="opset1">
			<data element_type="f32" offset="416" shape="" size="4"/>
			<output>
				<port id="0" precision="FP32"/>
			</output>
		</layer>
		<layer id="303" name="152941529877491" type="Const" version="opset1">
			<data element_type="f32" offset="420" shape="" size="4"/>
			<output>
				<port id="0" precision="FP32"/>
			</output>
		</layer>
		<layer id="304" name="192811928584046" type="Const" version="opset1">
			<data element_type="f32" offset="0" shape="" size="4"/>
			<output>
				<port id="0" precision="FP32"/>
			</output>
		</layer>
		<layer id="305" name="192821928683845" type="Const" version="opset1">
			<data element_type="f32" offset="424" shape="" size="4"/>
			<output>
				<port id="0" precision="FP32"/>
			</output>
		</layer>
		<layer id="306" name="192831928773351" type="Const" version="opset1">
			<data element_type="f32" offset="0" shape="" size="4"/>
			<output>
				<port id="0" precision="FP32"/>
			</output>
		</layer>
		<layer id="307" name="192841928873633" type="Const" version="opset1">
			<data element_type="f32" offset="424" shape="" size="4"/>
			<output>
				<port id="0" precision="FP32"/>
			</output>
		</layer>
		<layer id="308" name="200912009580317" type="Const" version="opset1">
			<data element_type="f32" offset="428" shape="" size="4"/>
			<output>
				<port id="0" precision="FP32"/>
			</output>
		</layer>
		<layer id="309" name="200922009681823" type="Const" version="opset1">
			<data element_type="f32" offset="432" shape="" size="4"/>
			<output>
				<port id="0" precision="FP32"/>
			</output>
		</layer>
		<layer id="310" name="200932009776687" type="Const" version="opset1">
			<data element_type="f32" offset="428" shape="" size="4"/>
			<output>
				<port id="0" precision="FP32"/>
			</output>
		</layer>
		<layer id="311" name="200942009883485" type="Const" version="opset1">
			<data element_type="f32" offset="432" shape="" size="4"/>
			<output>
				<port id="0" precision="FP32"/>
			</output>
		</layer>
		<layer id="312" name="123711237579744" type="Const" version="opset1">
			<data element_type="f32" offset="0" shape="" size="4"/>
			<output>
				<port id="0" precision="FP32"/>
			</output>
		</layer>
		<layer id="313" name="123721237680266" type="Const" version="opset1">
			<data element_type="f32" offset="436" shape="" size="4"/>
			<output>
				<port id="0" precision="FP32"/>
			</output>
		</layer>
		<layer id="314" name="123731237778322" type="Const" version="opset1">
			<data element_type="f32" offset="0" shape="" size="4"/>
			<output>
				<port id="0" precision="FP32"/>
			</output>
		</layer>
		<layer id="315" name="123741237882459" type="Const" version="opset1">
			<data element_type="f32" offset="436" shape="" size="4"/>
			<output>
				<port id="0" precision="FP32"/>
			</output>
		</layer>
		<layer id="316" name="201012010573954" type="Const" version="opset1">
			<data element_type="f32" offset="0" shape="" size="4"/>
			<output>
				<port id="0" precision="FP32"/>
			</output>
		</layer>
		<layer id="317" name="201022010674422" type="Const" version="opset1">
			<data element_type="f32" offset="440" shape="" size="4"/>
			<output>
				<port id="0" precision="FP32"/>
			</output>
		</layer>
		<layer id="318" name="201032010775760" type="Const" version="opset1">
			<data element_type="f32" offset="0" shape="" size="4"/>
			<output>
				<port id="0" precision="FP32"/>
			</output>
		</layer>
		<layer id="319" name="201042010874137" type="Const" version="opset1">
			<data element_type="f32" offset="440" shape="" size="4"/>
			<output>
				<port id="0" precision="FP32"/>
			</output>
		</layer>
		<layer id="320" name="128111281578259" type="Const" version="opset1">
			<data element_type="f32" offset="444" shape="" size="4"/>
			<output>
				<port id="0" precision="FP32"/>
			</output>
		</layer>
		<layer id="321" name="128121281682114" type="Const" version="opset1">
			<data element_type="f32" offset="448" shape="" size="4"/>
			<output>
				<port id="0" precision="FP32"/>
			</output>
		</layer>
		<layer id="322" name="128131281777323" type="Const" version="opset1">
			<data element_type="f32" offset="444" shape="" size="4"/>
			<output>
				<port id="0" precision="FP32"/>
			</output>
		</layer>
		<layer id="323" name="128141281881205" type="Const" version="opset1">
			<data element_type="f32" offset="448" shape="" size="4"/>
			<output>
				<port id="0" precision="FP32"/>
			</output>
		</layer>
		<layer id="324" name="116411164580167" type="Const" version="opset1">
			<data element_type="f32" offset="0" shape="" size="4"/>
			<output>
				<port id="0" precision="FP32"/>
			</output>
		</layer>
		<layer id="325" name="116421164682225" type="Const" version="opset1">
			<data element_type="f32" offset="452" shape="" size="4"/>
			<output>
				<port id="0" precision="FP32"/>
			</output>
		</layer>
		<layer id="326" name="116431164774140" type="Const" version="opset1">
			<data element_type="f32" offset="0" shape="" size="4"/>
			<output>
				<port id="0" precision="FP32"/>
			</output>
		</layer>
		<layer id="327" name="116441164882621" type="Const" version="opset1">
			<data element_type="f32" offset="452" shape="" size="4"/>
			<output>
				<port id="0" precision="FP32"/>
			</output>
		</layer>
		<layer id="328" name="128211282574398" type="Const" version="opset1">
			<data element_type="f32" offset="0" shape="" size="4"/>
			<output>
				<port id="0" precision="FP32"/>
			</output>
		</layer>
		<layer id="329" name="128221282682960" type="Const" version="opset1">
			<data element_type="f32" offset="456" shape="" size="4"/>
			<output>
				<port id="0" precision="FP32"/>
			</output>
		</layer>
		<layer id="330" name="128231282774005" type="Const" version="opset1">
			<data element_type="f32" offset="0" shape="" size="4"/>
			<output>
				<port id="0" precision="FP32"/>
			</output>
		</layer>
		<layer id="331" name="128241282880473" type="Const" version="opset1">
			<data element_type="f32" offset="456" shape="" size="4"/>
			<output>
				<port id="0" precision="FP32"/>
			</output>
		</layer>
		<layer id="332" name="149011490576075" type="Const" version="opset1">
			<data element_type="f32" offset="460" shape="" size="4"/>
			<output>
				<port id="0" precision="FP32"/>
			</output>
		</layer>
		<layer id="333" name="149021490673675" type="Const" version="opset1">
			<data element_type="f32" offset="464" shape="" size="4"/>
			<output>
				<port id="0" precision="FP32"/>
			</output>
		</layer>
		<layer id="334" name="149031490775157" type="Const" version="opset1">
			<data element_type="f32" offset="460" shape="" size="4"/>
			<output>
				<port id="0" precision="FP32"/>
			</output>
		</layer>
		<layer id="335" name="149041490878493" type="Const" version="opset1">
			<data element_type="f32" offset="464" shape="" size="4"/>
			<output>
				<port id="0" precision="FP32"/>
			</output>
		</layer>
		<layer id="336" name="192211922581193" type="Const" version="opset1">
			<data element_type="f32" offset="0" shape="" size="4"/>
			<output>
				<port id="0" precision="FP32"/>
			</output>
		</layer>
		<layer id="337" name="192221922678523" type="Const" version="opset1">
			<data element_type="f32" offset="468" shape="" size="4"/>
			<output>
				<port id="0" precision="FP32"/>
			</output>
		</layer>
		<layer id="338" name="192231922781079" type="Const" version="opset1">
			<data element_type="f32" offset="0" shape="" size="4"/>
			<output>
				<port id="0" precision="FP32"/>
			</output>
		</layer>
		<layer id="339" name="192241922879360" type="Const" version="opset1">
			<data element_type="f32" offset="468" shape="" size="4"/>
			<output>
				<port id="0" precision="FP32"/>
			</output>
		</layer>
		<layer id="340" name="149111491580710" type="Const" version="opset1">
			<data element_type="f32" offset="0" shape="" size="4"/>
			<output>
				<port id="0" precision="FP32"/>
			</output>
		</layer>
		<layer id="341" name="149121491683569" type="Const" version="opset1">
			<data element_type="f32" offset="472" shape="" size="4"/>
			<output>
				<port id="0" precision="FP32"/>
			</output>
		</layer>
		<layer id="342" name="149131491783635" type="Const" version="opset1">
			<data element_type="f32" offset="0" shape="" size="4"/>
			<output>
				<port id="0" precision="FP32"/>
			</output>
		</layer>
		<layer id="343" name="149141491880551" type="Const" version="opset1">
			<data element_type="f32" offset="472" shape="" size="4"/>
			<output>
				<port id="0" precision="FP32"/>
			</output>
		</layer>
		<layer id="344" name="131511315583236" type="Const" version="opset1">
			<data element_type="f32" offset="476" shape="" size="4"/>
			<output>
				<port id="0" precision="FP32"/>
			</output>
		</layer>
		<layer id="345" name="131521315681082" type="Const" version="opset1">
			<data element_type="f32" offset="480" shape="" size="4"/>
			<output>
				<port id="0" precision="FP32"/>
			</output>
		</layer>
		<layer id="346" name="131531315773525" type="Const" version="opset1">
			<data element_type="f32" offset="476" shape="" size="4"/>
			<output>
				<port id="0" precision="FP32"/>
			</output>
		</layer>
		<layer id="347" name="131541315880923" type="Const" version="opset1">
			<data element_type="f32" offset="480" shape="" size="4"/>
			<output>
				<port id="0" precision="FP32"/>
			</output>
		</layer>
		<layer id="348" name="163711637577722" type="Const" version="opset1">
			<data element_type="f32" offset="0" shape="" size="4"/>
			<output>
				<port id="0" precision="FP32"/>
			</output>
		</layer>
		<layer id="349" name="163721637677776" type="Const" version="opset1">
			<data element_type="f32" offset="484" shape="" size="4"/>
			<output>
				<port id="0" precision="FP32"/>
			</output>
		</layer>
		<layer id="350" name="163731637776141" type="Const" version="opset1">
			<data element_type="f32" offset="0" shape="" size="4"/>
			<output>
				<port id="0" precision="FP32"/>
			</output>
		</layer>
		<layer id="351" name="163741637874095" type="Const" version="opset1">
			<data element_type="f32" offset="484" shape="" size="4"/>
			<output>
				<port id="0" precision="FP32"/>
			</output>
		</layer>
		<layer id="352" name="131611316581394" type="Const" version="opset1">
			<data element_type="f32" offset="0" shape="" size="4"/>
			<output>
				<port id="0" precision="FP32"/>
			</output>
		</layer>
		<layer id="353" name="131621316683500" type="Const" version="opset1">
			<data element_type="f32" offset="488" shape="" size="4"/>
			<output>
				<port id="0" precision="FP32"/>
			</output>
		</layer>
		<layer id="354" name="131631316776453" type="Const" version="opset1">
			<data element_type="f32" offset="0" shape="" size="4"/>
			<output>
				<port id="0" precision="FP32"/>
			</output>
		</layer>
		<layer id="355" name="131641316882222" type="Const" version="opset1">
			<data element_type="f32" offset="488" shape="" size="4"/>
			<output>
				<port id="0" precision="FP32"/>
			</output>
		</layer>
		<layer id="356" name="186511865581364" type="Const" version="opset1">
			<data element_type="f32" offset="492" shape="" size="4"/>
			<output>
				<port id="0" precision="FP32"/>
			</output>
		</layer>
		<layer id="357" name="186521865674926" type="Const" version="opset1">
			<data element_type="f32" offset="496" shape="" size="4"/>
			<output>
				<port id="0" precision="FP32"/>
			</output>
		</layer>
		<layer id="358" name="186531865781097" type="Const" version="opset1">
			<data element_type="f32" offset="492" shape="" size="4"/>
			<output>
				<port id="0" precision="FP32"/>
			</output>
		</layer>
		<layer id="359" name="186541865883671" type="Const" version="opset1">
			<data element_type="f32" offset="496" shape="" size="4"/>
			<output>
				<port id="0" precision="FP32"/>
			</output>
		</layer>
		<layer id="360" name="126611266577632" type="Const" version="opset1">
			<data element_type="f32" offset="0" shape="" size="4"/>
			<output>
				<port id="0" precision="FP32"/>
			</output>
		</layer>
		<layer id="361" name="126621266675838" type="Const" version="opset1">
			<data element_type="f32" offset="500" shape="" size="4"/>
			<output>
				<port id="0" precision="FP32"/>
			</output>
		</layer>
		<layer id="362" name="126631266783269" type="Const" version="opset1">
			<data element_type="f32" offset="0" shape="" size="4"/>
			<output>
				<port id="0" precision="FP32"/>
			</output>
		</layer>
		<layer id="363" name="126641266880584" type="Const" version="opset1">
			<data element_type="f32" offset="500" shape="" size="4"/>
			<output>
				<port id="0" precision="FP32"/>
			</output>
		</layer>
		<layer id="364" name="158411584581412" type="Const" version="opset1">
			<data element_type="f32" offset="504" shape="" size="4"/>
			<output>
				<port id="0" precision="FP32"/>
			</output>
		</layer>
		<layer id="365" name="158421584677395" type="Const" version="opset1">
			<data element_type="f32" offset="508" shape="" size="4"/>
			<output>
				<port id="0" precision="FP32"/>
			</output>
		</layer>
		<layer id="366" name="158431584778937" type="Const" version="opset1">
			<data element_type="f32" offset="504" shape="" size="4"/>
			<output>
				<port id="0" precision="FP32"/>
			</output>
		</layer>
		<layer id="367" name="158441584875082" type="Const" version="opset1">
			<data element_type="f32" offset="508" shape="" size="4"/>
			<output>
				<port id="0" precision="FP32"/>
			</output>
		</layer>
		<layer id="368" name="109211092578601" type="Const" version="opset1">
			<data element_type="f32" offset="0" shape="" size="4"/>
			<output>
				<port id="0" precision="FP32"/>
			</output>
		</layer>
		<layer id="369" name="109221092674989" type="Const" version="opset1">
			<data element_type="f32" offset="512" shape="" size="4"/>
			<output>
				<port id="0" precision="FP32"/>
			</output>
		</layer>
		<layer id="370" name="109231092780071" type="Const" version="opset1">
			<data element_type="f32" offset="0" shape="" size="4"/>
			<output>
				<port id="0" precision="FP32"/>
			</output>
		</layer>
		<layer id="371" name="109241092876498" type="Const" version="opset1">
			<data element_type="f32" offset="512" shape="" size="4"/>
			<output>
				<port id="0" precision="FP32"/>
			</output>
		</layer>
		<layer id="372" name="158511585580644" type="Const" version="opset1">
			<data element_type="f32" offset="0" shape="" size="4"/>
			<output>
				<port id="0" precision="FP32"/>
			</output>
		</layer>
		<layer id="373" name="158521585677914" type="Const" version="opset1">
			<data element_type="f32" offset="516" shape="" size="4"/>
			<output>
				<port id="0" precision="FP32"/>
			</output>
		</layer>
		<layer id="374" name="158531585781058" type="Const" version="opset1">
			<data element_type="f32" offset="0" shape="" size="4"/>
			<output>
				<port id="0" precision="FP32"/>
			</output>
		</layer>
		<layer id="375" name="158541585879102" type="Const" version="opset1">
			<data element_type="f32" offset="516" shape="" size="4"/>
			<output>
				<port id="0" precision="FP32"/>
			</output>
		</layer>
		<layer id="376" name="125011250581799" type="Const" version="opset1">
			<data element_type="f32" offset="520" shape="" size="4"/>
			<output>
				<port id="0" precision="FP32"/>
			</output>
		</layer>
		<layer id="377" name="125021250673594" type="Const" version="opset1">
			<data element_type="f32" offset="524" shape="" size="4"/>
			<output>
				<port id="0" precision="FP32"/>
			</output>
		</layer>
		<layer id="378" name="125031250781946" type="Const" version="opset1">
			<data element_type="f32" offset="520" shape="" size="4"/>
			<output>
				<port id="0" precision="FP32"/>
			</output>
		</layer>
		<layer id="379" name="125041250882510" type="Const" version="opset1">
			<data element_type="f32" offset="524" shape="" size="4"/>
			<output>
				<port id="0" precision="FP32"/>
			</output>
		</layer>
		<layer id="380" name="130711307583890" type="Const" version="opset1">
			<data element_type="f32" offset="0" shape="" size="4"/>
			<output>
				<port id="0" precision="FP32"/>
			</output>
		</layer>
		<layer id="381" name="130721307682030" type="Const" version="opset1">
			<data element_type="f32" offset="528" shape="" size="4"/>
			<output>
				<port id="0" precision="FP32"/>
			</output>
		</layer>
		<layer id="382" name="130731307779633" type="Const" version="opset1">
			<data element_type="f32" offset="0" shape="" size="4"/>
			<output>
				<port id="0" precision="FP32"/>
			</output>
		</layer>
		<layer id="383" name="130741307874770" type="Const" version="opset1">
			<data element_type="f32" offset="528" shape="" size="4"/>
			<output>
				<port id="0" precision="FP32"/>
			</output>
		</layer>
		<layer id="384" name="125111251578469" type="Const" version="opset1">
			<data element_type="f32" offset="0" shape="" size="4"/>
			<output>
				<port id="0" precision="FP32"/>
			</output>
		</layer>
		<layer id="385" name="125121251679081" type="Const" version="opset1">
			<data element_type="f32" offset="532" shape="" size="4"/>
			<output>
				<port id="0" precision="FP32"/>
			</output>
		</layer>
		<layer id="386" name="125131251781274" type="Const" version="opset1">
			<data element_type="f32" offset="0" shape="" size="4"/>
			<output>
				<port id="0" precision="FP32"/>
			</output>
		</layer>
		<layer id="387" name="125141251878124" type="Const" version="opset1">
			<data element_type="f32" offset="532" shape="" size="4"/>
			<output>
				<port id="0" precision="FP32"/>
			</output>
		</layer>
		<layer id="388" name="161611616583848" type="Const" version="opset1">
			<data element_type="f32" offset="536" shape="" size="4"/>
			<output>
				<port id="0" precision="FP32"/>
			</output>
		</layer>
		<layer id="389" name="161621616673831" type="Const" version="opset1">
			<data element_type="f32" offset="540" shape="" size="4"/>
			<output>
				<port id="0" precision="FP32"/>
			</output>
		</layer>
		<layer id="390" name="161631616779708" type="Const" version="opset1">
			<data element_type="f32" offset="536" shape="" size="4"/>
			<output>
				<port id="0" precision="FP32"/>
			</output>
		</layer>
		<layer id="391" name="161641616879363" type="Const" version="opset1">
			<data element_type="f32" offset="540" shape="" size="4"/>
			<output>
				<port id="0" precision="FP32"/>
			</output>
		</layer>
		<layer id="392" name="140411404582984" type="Const" version="opset1">
			<data element_type="f32" offset="0" shape="" size="4"/>
			<output>
				<port id="0" precision="FP32"/>
			</output>
		</layer>
		<layer id="393" name="140421404684133" type="Const" version="opset1">
			<data element_type="f32" offset="544" shape="" size="4"/>
			<output>
				<port id="0" precision="FP32"/>
			</output>
		</layer>
		<layer id="394" name="140431404780950" type="Const" version="opset1">
			<data element_type="f32" offset="0" shape="" size="4"/>
			<output>
				<port id="0" precision="FP32"/>
			</output>
		</layer>
		<layer id="395" name="140441404874749" type="Const" version="opset1">
			<data element_type="f32" offset="544" shape="" size="4"/>
			<output>
				<port id="0" precision="FP32"/>
			</output>
		</layer>
		<layer id="396" name="161711617580869" type="Const" version="opset1">
			<data element_type="f32" offset="0" shape="" size="4"/>
			<output>
				<port id="0" precision="FP32"/>
			</output>
		</layer>
		<layer id="397" name="161721617683692" type="Const" version="opset1">
			<data element_type="f32" offset="548" shape="" size="4"/>
			<output>
				<port id="0" precision="FP32"/>
			</output>
		</layer>
		<layer id="398" name="161731617774815" type="Const" version="opset1">
			<data element_type="f32" offset="0" shape="" size="4"/>
			<output>
				<port id="0" precision="FP32"/>
			</output>
		</layer>
		<layer id="399" name="161741617883773" type="Const" version="opset1">
			<data element_type="f32" offset="548" shape="" size="4"/>
			<output>
				<port id="0" precision="FP32"/>
			</output>
		</layer>
		<layer id="400" name="114911149575172" type="Const" version="opset1">
			<data element_type="f32" offset="552" shape="" size="4"/>
			<output>
				<port id="0" precision="FP32"/>
			</output>
		</layer>
		<layer id="401" name="114921149674908" type="Const" version="opset1">
			<data element_type="f32" offset="556" shape="" size="4"/>
			<output>
				<port id="0" precision="FP32"/>
			</output>
		</layer>
		<layer id="402" name="114931149783881" type="Const" version="opset1">
			<data element_type="f32" offset="552" shape="" size="4"/>
			<output>
				<port id="0" precision="FP32"/>
			</output>
		</layer>
		<layer id="403" name="114941149876618" type="Const" version="opset1">
			<data element_type="f32" offset="556" shape="" size="4"/>
			<output>
				<port id="0" precision="FP32"/>
			</output>
		</layer>
		<layer id="404" name="116611166580683" type="Const" version="opset1">
			<data element_type="f32" offset="0" shape="" size="4"/>
			<output>
				<port id="0" precision="FP32"/>
			</output>
		</layer>
		<layer id="405" name="116621166673906" type="Const" version="opset1">
			<data element_type="f32" offset="560" shape="" size="4"/>
			<output>
				<port id="0" precision="FP32"/>
			</output>
		</layer>
		<layer id="406" name="116631166778169" type="Const" version="opset1">
			<data element_type="f32" offset="0" shape="" size="4"/>
			<output>
				<port id="0" precision="FP32"/>
			</output>
		</layer>
		<layer id="407" name="116641166882252" type="Const" version="opset1">
			<data element_type="f32" offset="560" shape="" size="4"/>
			<output>
				<port id="0" precision="FP32"/>
			</output>
		</layer>
		<layer id="408" name="115011150577335" type="Const" version="opset1">
			<data element_type="f32" offset="0" shape="" size="4"/>
			<output>
				<port id="0" precision="FP32"/>
			</output>
		</layer>
		<layer id="409" name="115021150683587" type="Const" version="opset1">
			<data element_type="f32" offset="564" shape="" size="4"/>
			<output>
				<port id="0" precision="FP32"/>
			</output>
		</layer>
		<layer id="410" name="115031150780287" type="Const" version="opset1">
			<data element_type="f32" offset="0" shape="" size="4"/>
			<output>
				<port id="0" precision="FP32"/>
			</output>
		</layer>
		<layer id="411" name="115041150881100" type="Const" version="opset1">
			<data element_type="f32" offset="564" shape="" size="4"/>
			<output>
				<port id="0" precision="FP32"/>
			</output>
		</layer>
		<layer id="412" name="141711417574329" type="Const" version="opset1">
			<data element_type="f32" offset="0" shape="" size="4"/>
			<output>
				<port id="0" precision="FP32"/>
			</output>
		</layer>
		<layer id="413" name="141721417679666" type="Const" version="opset1">
			<data element_type="f32" offset="568" shape="" size="4"/>
			<output>
				<port id="0" precision="FP32"/>
			</output>
		</layer>
		<layer id="414" name="141731417777665" type="Const" version="opset1">
			<data element_type="f32" offset="0" shape="" size="4"/>
			<output>
				<port id="0" precision="FP32"/>
			</output>
		</layer>
		<layer id="415" name="141741417874626" type="Const" version="opset1">
			<data element_type="f32" offset="568" shape="" size="4"/>
			<output>
				<port id="0" precision="FP32"/>
			</output>
		</layer>
		<layer id="416" name="189211892583728" type="Const" version="opset1">
			<data element_type="f32" offset="572" shape="" size="4"/>
			<output>
				<port id="0" precision="FP32"/>
			</output>
		</layer>
		<layer id="417" name="189221892675532" type="Const" version="opset1">
			<data element_type="f32" offset="576" shape="" size="4"/>
			<output>
				<port id="0" precision="FP32"/>
			</output>
		</layer>
		<layer id="418" name="189231892775469" type="Const" version="opset1">
			<data element_type="f32" offset="572" shape="" size="4"/>
			<output>
				<port id="0" precision="FP32"/>
			</output>
		</layer>
		<layer id="419" name="189241892878724" type="Const" version="opset1">
			<data element_type="f32" offset="576" shape="" size="4"/>
			<output>
				<port id="0" precision="FP32"/>
			</output>
		</layer>
		<layer id="420" name="133511335581022" type="Const" version="opset1">
			<data element_type="f32" offset="0" shape="" size="4"/>
			<output>
				<port id="0" precision="FP32"/>
			</output>
		</layer>
		<layer id="421" name="133521335680665" type="Const" version="opset1">
			<data element_type="f32" offset="580" shape="" size="4"/>
			<output>
				<port id="0" precision="FP32"/>
			</output>
		</layer>
		<layer id="422" name="133531335775010" type="Const" version="opset1">
			<data element_type="f32" offset="0" shape="" size="4"/>
			<output>
				<port id="0" precision="FP32"/>
			</output>
		</layer>
		<layer id="423" name="133541335879561" type="Const" version="opset1">
			<data element_type="f32" offset="580" shape="" size="4"/>
			<output>
				<port id="0" precision="FP32"/>
			</output>
		</layer>
		<layer id="424" name="189311893574179" type="Const" version="opset1">
			<data element_type="f32" offset="0" shape="" size="4"/>
			<output>
				<port id="0" precision="FP32"/>
			</output>
		</layer>
		<layer id="425" name="189321893682027" type="Const" version="opset1">
			<data element_type="f32" offset="584" shape="" size="4"/>
			<output>
				<port id="0" precision="FP32"/>
			</output>
		</layer>
		<layer id="426" name="189331893773324" type="Const" version="opset1">
			<data element_type="f32" offset="0" shape="" size="4"/>
			<output>
				<port id="0" precision="FP32"/>
			</output>
		</layer>
		<layer id="427" name="189341893876930" type="Const" version="opset1">
			<data element_type="f32" offset="584" shape="" size="4"/>
			<output>
				<port id="0" precision="FP32"/>
			</output>
		</layer>
		<layer id="428" name="186311863574062" type="Const" version="opset1">
			<data element_type="f32" offset="588" shape="" size="4"/>
			<output>
				<port id="0" precision="FP32"/>
			</output>
		</layer>
		<layer id="429" name="186321863676147" type="Const" version="opset1">
			<data element_type="f32" offset="592" shape="" size="4"/>
			<output>
				<port id="0" precision="FP32"/>
			</output>
		</layer>
		<layer id="430" name="186331863780536" type="Const" version="opset1">
			<data element_type="f32" offset="588" shape="" size="4"/>
			<output>
				<port id="0" precision="FP32"/>
			</output>
		</layer>
		<layer id="431" name="186341863881877" type="Const" version="opset1">
			<data element_type="f32" offset="592" shape="" size="4"/>
			<output>
				<port id="0" precision="FP32"/>
			</output>
		</layer>
		<layer id="432" name="185911859577818" type="Const" version="opset1">
			<data element_type="f32" offset="0" shape="" size="4"/>
			<output>
				<port id="0" precision="FP32"/>
			</output>
		</layer>
		<layer id="433" name="185921859679018" type="Const" version="opset1">
			<data element_type="f32" offset="596" shape="" size="4"/>
			<output>
				<port id="0" precision="FP32"/>
			</output>
		</layer>
		<layer id="434" name="185931859784175" type="Const" version="opset1">
			<data element_type="f32" offset="0" shape="" size="4"/>
			<output>
				<port id="0" precision="FP32"/>
			</output>
		</layer>
		<layer id="435" name="185941859880878" type="Const" version="opset1">
			<data element_type="f32" offset="596" shape="" size="4"/>
			<output>
				<port id="0" precision="FP32"/>
			</output>
		</layer>
		<layer id="436" name="186411864580281" type="Const" version="opset1">
			<data element_type="f32" offset="0" shape="" size="4"/>
			<output>
				<port id="0" precision="FP32"/>
			</output>
		</layer>
		<layer id="437" name="186421864676804" type="Const" version="opset1">
			<data element_type="f32" offset="600" shape="" size="4"/>
			<output>
				<port id="0" precision="FP32"/>
			</output>
		</layer>
		<layer id="438" name="186431864776927" type="Const" version="opset1">
			<data element_type="f32" offset="0" shape="" size="4"/>
			<output>
				<port id="0" precision="FP32"/>
			</output>
		</layer>
		<layer id="439" name="186441864882798" type="Const" version="opset1">
			<data element_type="f32" offset="600" shape="" size="4"/>
			<output>
				<port id="0" precision="FP32"/>
			</output>
		</layer>
		<layer id="440" name="156411564577041" type="Const" version="opset1">
			<data element_type="f32" offset="604" shape="" size="4"/>
			<output>
				<port id="0" precision="FP32"/>
			</output>
		</layer>
		<layer id="441" name="156421564682615" type="Const" version="opset1">
			<data element_type="f32" offset="608" shape="" size="4"/>
			<output>
				<port id="0" precision="FP32"/>
			</output>
		</layer>
		<layer id="442" name="156431564782411" type="Const" version="opset1">
			<data element_type="f32" offset="604" shape="" size="4"/>
			<output>
				<port id="0" precision="FP32"/>
			</output>
		</layer>
		<layer id="443" name="156441564876408" type="Const" version="opset1">
			<data element_type="f32" offset="608" shape="" size="4"/>
			<output>
				<port id="0" precision="FP32"/>
			</output>
		</layer>
		<layer id="444" name="120611206579798" type="Const" version="opset1">
			<data element_type="f32" offset="0" shape="" size="4"/>
			<output>
				<port id="0" precision="FP32"/>
			</output>
		</layer>
		<layer id="445" name="120621206673801" type="Const" version="opset1">
			<data element_type="f32" offset="612" shape="" size="4"/>
			<output>
				<port id="0" precision="FP32"/>
			</output>
		</layer>
		<layer id="446" name="120631206776783" type="Const" version="opset1">
			<data element_type="f32" offset="0" shape="" size="4"/>
			<output>
				<port id="0" precision="FP32"/>
			</output>
		</layer>
		<layer id="447" name="120641206883584" type="Const" version="opset1">
			<data element_type="f32" offset="612" shape="" size="4"/>
			<output>
				<port id="0" precision="FP32"/>
			</output>
		</layer>
		<layer id="448" name="156511565573531" type="Const" version="opset1">
			<data element_type="f32" offset="0" shape="" size="4"/>
			<output>
				<port id="0" precision="FP32"/>
			</output>
		</layer>
		<layer id="449" name="156521565680413" type="Const" version="opset1">
			<data element_type="f32" offset="616" shape="" size="4"/>
			<output>
				<port id="0" precision="FP32"/>
			</output>
		</layer>
		<layer id="450" name="156531565775637" type="Const" version="opset1">
			<data element_type="f32" offset="0" shape="" size="4"/>
			<output>
				<port id="0" precision="FP32"/>
			</output>
		</layer>
		<layer id="451" name="156541565876129" type="Const" version="opset1">
			<data element_type="f32" offset="616" shape="" size="4"/>
			<output>
				<port id="0" precision="FP32"/>
			</output>
		</layer>
		<layer id="452" name="110011100575886" type="Const" version="opset1">
			<data element_type="f32" offset="620" shape="" size="4"/>
			<output>
				<port id="0" precision="FP32"/>
			</output>
		</layer>
		<layer id="453" name="110021100678676" type="Const" version="opset1">
			<data element_type="f32" offset="624" shape="" size="4"/>
			<output>
				<port id="0" precision="FP32"/>
			</output>
		</layer>
		<layer id="454" name="110031100779540" type="Const" version="opset1">
			<data element_type="f32" offset="620" shape="" size="4"/>
			<output>
				<port id="0" precision="FP32"/>
			</output>
		</layer>
		<layer id="455" name="110041100875100" type="Const" version="opset1">
			<data element_type="f32" offset="624" shape="" size="4"/>
			<output>
				<port id="0" precision="FP32"/>
			</output>
		</layer>
		<layer id="456" name="123311233583590" type="Const" version="opset1">
			<data element_type="f32" offset="0" shape="" size="4"/>
			<output>
				<port id="0" precision="FP32"/>
			</output>
		</layer>
		<layer id="457" name="123321233679648" type="Const" version="opset1">
			<data element_type="f32" offset="628" shape="" size="4"/>
			<output>
				<port id="0" precision="FP32"/>
			</output>
		</layer>
		<layer id="458" name="123331233775121" type="Const" version="opset1">
			<data element_type="f32" offset="0" shape="" size="4"/>
			<output>
				<port id="0" precision="FP32"/>
			</output>
		</layer>
		<layer id="459" name="123341233880161" type="Const" version="opset1">
			<data element_type="f32" offset="628" shape="" size="4"/>
			<output>
				<port id="0" precision="FP32"/>
			</output>
		</layer>
		<layer id="460" name="110111101583884" type="Const" version="opset1">
			<data element_type="f32" offset="0" shape="" size="4"/>
			<output>
				<port id="0" precision="FP32"/>
			</output>
		</layer>
		<layer id="461" name="110121101676378" type="Const" version="opset1">
			<data element_type="f32" offset="632" shape="" size="4"/>
			<output>
				<port id="0" precision="FP32"/>
			</output>
		</layer>
		<layer id="462" name="110131101780206" type="Const" version="opset1">
			<data element_type="f32" offset="0" shape="" size="4"/>
			<output>
				<port id="0" precision="FP32"/>
			</output>
		</layer>
		<layer id="463" name="110141101880254" type="Const" version="opset1">
			<data element_type="f32" offset="632" shape="" size="4"/>
			<output>
				<port id="0" precision="FP32"/>
			</output>
		</layer>
		<layer id="464" name="194011940580587" type="Const" version="opset1">
			<data element_type="f32" offset="0" shape="" size="4"/>
			<output>
				<port id="0" precision="FP32"/>
			</output>
		</layer>
		<layer id="465" name="194021940681187" type="Const" version="opset1">
			<data element_type="f32" offset="636" shape="" size="4"/>
			<output>
				<port id="0" precision="FP32"/>
			</output>
		</layer>
		<layer id="466" name="194031940782765" type="Const" version="opset1">
			<data element_type="f32" offset="0" shape="" size="4"/>
			<output>
				<port id="0" precision="FP32"/>
			</output>
		</layer>
		<layer id="467" name="194041940883368" type="Const" version="opset1">
			<data element_type="f32" offset="636" shape="" size="4"/>
			<output>
				<port id="0" precision="FP32"/>
			</output>
		</layer>
		<layer id="468" name="165111651575064" type="Const" version="opset1">
			<data element_type="f32" offset="640" shape="" size="4"/>
			<output>
				<port id="0" precision="FP32"/>
			</output>
		</layer>
		<layer id="469" name="165121651678040" type="Const" version="opset1">
			<data element_type="f32" offset="644" shape="" size="4"/>
			<output>
				<port id="0" precision="FP32"/>
			</output>
		</layer>
		<layer id="470" name="165131651776126" type="Const" version="opset1">
			<data element_type="f32" offset="640" shape="" size="4"/>
			<output>
				<port id="0" precision="FP32"/>
			</output>
		</layer>
		<layer id="471" name="165141651876111" type="Const" version="opset1">
			<data element_type="f32" offset="644" shape="" size="4"/>
			<output>
				<port id="0" precision="FP32"/>
			</output>
		</layer>
		<layer id="472" name="195011950578190" type="Const" version="opset1">
			<data element_type="f32" offset="0" shape="" size="4"/>
			<output>
				<port id="0" precision="FP32"/>
			</output>
		</layer>
		<layer id="473" name="195021950679399" type="Const" version="opset1">
			<data element_type="f32" offset="648" shape="" size="4"/>
			<output>
				<port id="0" precision="FP32"/>
			</output>
		</layer>
		<layer id="474" name="195031950773774" type="Const" version="opset1">
			<data element_type="f32" offset="0" shape="" size="4"/>
			<output>
				<port id="0" precision="FP32"/>
			</output>
		</layer>
		<layer id="475" name="195041950875283" type="Const" version="opset1">
			<data element_type="f32" offset="648" shape="" size="4"/>
			<output>
				<port id="0" precision="FP32"/>
			</output>
		</layer>
		<layer id="476" name="170511705574317" type="Const" version="opset1">
			<data element_type="f32" offset="0" shape="" size="4"/>
			<output>
				<port id="0" precision="FP32"/>
			</output>
		</layer>
		<layer id="477" name="170521705674266" type="Const" version="opset1">
			<data element_type="f32" offset="652" shape="" size="4"/>
			<output>
				<port id="0" precision="FP32"/>
			</output>
		</layer>
		<layer id="478" name="170531705782555" type="Const" version="opset1">
			<data element_type="f32" offset="0" shape="" size="4"/>
			<output>
				<port id="0" precision="FP32"/>
			</output>
		</layer>
		<layer id="479" name="170541705878643" type="Const" version="opset1">
			<data element_type="f32" offset="652" shape="" size="4"/>
			<output>
				<port id="0" precision="FP32"/>
			</output>
		</layer>
		<layer id="480" name="165211652582147" type="Const" version="opset1">
			<data element_type="f32" offset="0" shape="" size="4"/>
			<output>
				<port id="0" precision="FP32"/>
			</output>
		</layer>
		<layer id="481" name="165221652682354" type="Const" version="opset1">
			<data element_type="f32" offset="656" shape="" size="4"/>
			<output>
				<port id="0" precision="FP32"/>
			</output>
		</layer>
		<layer id="482" name="165231652779141" type="Const" version="opset1">
			<data element_type="f32" offset="0" shape="" size="4"/>
			<output>
				<port id="0" precision="FP32"/>
			</output>
		</layer>
		<layer id="483" name="165241652875742" type="Const" version="opset1">
			<data element_type="f32" offset="656" shape="" size="4"/>
			<output>
				<port id="0" precision="FP32"/>
			</output>
		</layer>
		<layer id="484" name="177911779579471" type="Const" version="opset1">
			<data element_type="f32" offset="660" shape="" size="4"/>
			<output>
				<port id="0" precision="FP32"/>
			</output>
		</layer>
		<layer id="485" name="177921779676390" type="Const" version="opset1">
			<data element_type="f32" offset="664" shape="" size="4"/>
			<output>
				<port id="0" precision="FP32"/>
			</output>
		</layer>
		<layer id="486" name="177931779777809" type="Const" version="opset1">
			<data element_type="f32" offset="660" shape="" size="4"/>
			<output>
				<port id="0" precision="FP32"/>
			</output>
		</layer>
		<layer id="487" name="177941779878319" type="Const" version="opset1">
			<data element_type="f32" offset="664" shape="" size="4"/>
			<output>
				<port id="0" precision="FP32"/>
			</output>
		</layer>
		<layer id="488" name="170111701584130" type="Const" version="opset1">
			<data element_type="f32" offset="0" shape="" size="4"/>
			<output>
				<port id="0" precision="FP32"/>
			</output>
		</layer>
		<layer id="489" name="170121701681163" type="Const" version="opset1">
			<data element_type="f32" offset="668" shape="" size="4"/>
			<output>
				<port id="0" precision="FP32"/>
			</output>
		</layer>
		<layer id="490" name="170131701784214" type="Const" version="opset1">
			<data element_type="f32" offset="0" shape="" size="4"/>
			<output>
				<port id="0" precision="FP32"/>
			</output>
		</layer>
		<layer id="491" name="170141701873711" type="Const" version="opset1">
			<data element_type="f32" offset="668" shape="" size="4"/>
			<output>
				<port id="0" precision="FP32"/>
			</output>
		</layer>
		<layer id="492" name="108611086574503" type="Const" version="opset1">
			<data element_type="f32" offset="0" shape="" size="4"/>
			<output>
				<port id="0" precision="FP32"/>
			</output>
		</layer>
		<layer id="493" name="108621086675493" type="Const" version="opset1">
			<data element_type="f32" offset="672" shape="" size="4"/>
			<output>
				<port id="0" precision="FP32"/>
			</output>
		</layer>
		<layer id="494" name="108631086774848" type="Const" version="opset1">
			<data element_type="f32" offset="0" shape="" size="4"/>
			<output>
				<port id="0" precision="FP32"/>
			</output>
		</layer>
		<layer id="495" name="108641086881619" type="Const" version="opset1">
			<data element_type="f32" offset="672" shape="" size="4"/>
			<output>
				<port id="0" precision="FP32"/>
			</output>
		</layer>
		<layer id="496" name="178011780581355" type="Const" version="opset1">
			<data element_type="f32" offset="0" shape="" size="4"/>
			<output>
				<port id="0" precision="FP32"/>
			</output>
		</layer>
		<layer id="497" name="178021780681319" type="Const" version="opset1">
			<data element_type="f32" offset="676" shape="" size="4"/>
			<output>
				<port id="0" precision="FP32"/>
			</output>
		</layer>
		<layer id="498" name="178031780783077" type="Const" version="opset1">
			<data element_type="f32" offset="0" shape="" size="4"/>
			<output>
				<port id="0" precision="FP32"/>
			</output>
		</layer>
		<layer id="499" name="178041780873993" type="Const" version="opset1">
			<data element_type="f32" offset="676" shape="" size="4"/>
			<output>
				<port id="0" precision="FP32"/>
			</output>
		</layer>
		<layer id="500" name="114111141578652" type="Const" version="opset1">
			<data element_type="f32" offset="680" shape="" size="4"/>
			<output>
				<port id="0" precision="FP32"/>
			</output>
		</layer>
		<layer id="501" name="114121141678097" type="Const" version="opset1">
			<data element_type="f32" offset="684" shape="" size="4"/>
			<output>
				<port id="0" precision="FP32"/>
			</output>
		</layer>
		<layer id="502" name="114131141784271" type="Const" version="opset1">
			<data element_type="f32" offset="680" shape="" size="4"/>
			<output>
				<port id="0" precision="FP32"/>
			</output>
		</layer>
		<layer id="503" name="114141141875109" type="Const" version="opset1">
			<data element_type="f32" offset="684" shape="" size="4"/>
			<output>
				<port id="0" precision="FP32"/>
			</output>
		</layer>
		<layer id="504" name="115411154582609" type="Const" version="opset1">
			<data element_type="f32" offset="0" shape="" size="4"/>
			<output>
				<port id="0" precision="FP32"/>
			</output>
		</layer>
		<layer id="505" name="115421154678760" type="Const" version="opset1">
			<data element_type="f32" offset="688" shape="" size="4"/>
			<output>
				<port id="0" precision="FP32"/>
			</output>
		</layer>
		<layer id="506" name="115431154779381" type="Const" version="opset1">
			<data element_type="f32" offset="0" shape="" size="4"/>
			<output>
				<port id="0" precision="FP32"/>
			</output>
		</layer>
		<layer id="507" name="115441154882414" type="Const" version="opset1">
			<data element_type="f32" offset="688" shape="" size="4"/>
			<output>
				<port id="0" precision="FP32"/>
			</output>
		</layer>
		<layer id="508" name="200112001575277" type="Const" version="opset1">
			<data element_type="f32" offset="0" shape="" size="4"/>
			<output>
				<port id="0" precision="FP32"/>
			</output>
		</layer>
		<layer id="509" name="200122001674587" type="Const" version="opset1">
			<data element_type="f32" offset="692" shape="" size="4"/>
			<output>
				<port id="0" precision="FP32"/>
			</output>
		</layer>
		<layer id="510" name="200132001777956" type="Const" version="opset1">
			<data element_type="f32" offset="0" shape="" size="4"/>
			<output>
				<port id="0" precision="FP32"/>
			</output>
		</layer>
		<layer id="511" name="200142001881472" type="Const" version="opset1">
			<data element_type="f32" offset="692" shape="" size="4"/>
			<output>
				<port id="0" precision="FP32"/>
			</output>
		</layer>
		<layer id="512" name="114211142576921" type="Const" version="opset1">
			<data element_type="f32" offset="0" shape="" size="4"/>
			<output>
				<port id="0" precision="FP32"/>
			</output>
		</layer>
		<layer id="513" name="114221142681073" type="Const" version="opset1">
			<data element_type="f32" offset="696" shape="" size="4"/>
			<output>
				<port id="0" precision="FP32"/>
			</output>
		</layer>
		<layer id="514" name="114231142776285" type="Const" version="opset1">
			<data element_type="f32" offset="0" shape="" size="4"/>
			<output>
				<port id="0" precision="FP32"/>
			</output>
		</layer>
		<layer id="515" name="114241142877860" type="Const" version="opset1">
			<data element_type="f32" offset="696" shape="" size="4"/>
			<output>
				<port id="0" precision="FP32"/>
			</output>
		</layer>
		<layer id="516" name="117011170582156" type="Const" version="opset1">
			<data element_type="f32" offset="700" shape="" size="4"/>
			<output>
				<port id="0" precision="FP32"/>
			</output>
		</layer>
		<layer id="517" name="117021170683785" type="Const" version="opset1">
			<data element_type="f32" offset="704" shape="" size="4"/>
			<output>
				<port id="0" precision="FP32"/>
			</output>
		</layer>
		<layer id="518" name="117031170777194" type="Const" version="opset1">
			<data element_type="f32" offset="700" shape="" size="4"/>
			<output>
				<port id="0" precision="FP32"/>
			</output>
		</layer>
		<layer id="519" name="117041170879684" type="Const" version="opset1">
			<data element_type="f32" offset="704" shape="" size="4"/>
			<output>
				<port id="0" precision="FP32"/>
			</output>
		</layer>
		<layer id="520" name="205412054575853" type="Const" version="opset1">
			<data element_type="f32" offset="0" shape="" size="4"/>
			<output>
				<port id="0" precision="FP32"/>
			</output>
		</layer>
		<layer id="521" name="205422054676750" type="Const" version="opset1">
			<data element_type="f32" offset="708" shape="" size="4"/>
			<output>
				<port id="0" precision="FP32"/>
			</output>
		</layer>
		<layer id="522" name="205432054773936" type="Const" version="opset1">
			<data element_type="f32" offset="0" shape="" size="4"/>
			<output>
				<port id="0" precision="FP32"/>
			</output>
		</layer>
		<layer id="523" name="205442054880239" type="Const" version="opset1">
			<data element_type="f32" offset="708" shape="" size="4"/>
			<output>
				<port id="0" precision="FP32"/>
			</output>
		</layer>
		<layer id="524" name="171711717580638" type="Const" version="opset1">
			<data element_type="f32" offset="0" shape="" size="4"/>
			<output>
				<port id="0" precision="FP32"/>
			</output>
		</layer>
		<layer id="525" name="171721717682735" type="Const" version="opset1">
			<data element_type="f32" offset="712" shape="" size="4"/>
			<output>
				<port id="0" precision="FP32"/>
			</output>
		</layer>
		<layer id="526" name="171731717777848" type="Const" version="opset1">
			<data element_type="f32" offset="0" shape="" size="4"/>
			<output>
				<port id="0" precision="FP32"/>
			</output>
		</layer>
		<layer id="527" name="171741717878682" type="Const" version="opset1">
			<data element_type="f32" offset="712" shape="" size="4"/>
			<output>
				<port id="0" precision="FP32"/>
			</output>
		</layer>
		<layer id="528" name="201812018582099" type="Const" version="opset1">
			<data element_type="f32" offset="0" shape="" size="4"/>
			<output>
				<port id="0" precision="FP32"/>
			</output>
		</layer>
		<layer id="529" name="201822018674185" type="Const" version="opset1">
			<data element_type="f32" offset="716" shape="" size="4"/>
			<output>
				<port id="0" precision="FP32"/>
			</output>
		</layer>
		<layer id="530" name="201832018775844" type="Const" version="opset1">
			<data element_type="f32" offset="0" shape="" size="4"/>
			<output>
				<port id="0" precision="FP32"/>
			</output>
		</layer>
		<layer id="531" name="201842018883656" type="Const" version="opset1">
			<data element_type="f32" offset="716" shape="" size="4"/>
			<output>
				<port id="0" precision="FP32"/>
			</output>
		</layer>
		<layer id="532" name="116811168575334" type="Const" version="opset1">
			<data element_type="f32" offset="0" shape="" size="4"/>
			<output>
				<port id="0" precision="FP32"/>
			</output>
		</layer>
		<layer id="533" name="116821168673432" type="Const" version="opset1">
			<data element_type="f32" offset="720" shape="" size="4"/>
			<output>
				<port id="0" precision="FP32"/>
			</output>
		</layer>
		<layer id="534" name="116831168776954" type="Const" version="opset1">
			<data element_type="f32" offset="0" shape="" size="4"/>
			<output>
				<port id="0" precision="FP32"/>
			</output>
		</layer>
		<layer id="535" name="116841168875802" type="Const" version="opset1">
			<data element_type="f32" offset="720" shape="" size="4"/>
			<output>
				<port id="0" precision="FP32"/>
			</output>
		</layer>
		<layer id="536" name="192411924574617" type="Const" version="opset1">
			<data element_type="f32" offset="0" shape="" size="4"/>
			<output>
				<port id="0" precision="FP32"/>
			</output>
		</layer>
		<layer id="537" name="192421924682990" type="Const" version="opset1">
			<data element_type="f32" offset="724" shape="" size="4"/>
			<output>
				<port id="0" precision="FP32"/>
			</output>
		</layer>
		<layer id="538" name="192431924773669" type="Const" version="opset1">
			<data element_type="f32" offset="0" shape="" size="4"/>
			<output>
				<port id="0" precision="FP32"/>
			</output>
		</layer>
		<layer id="539" name="192441924882474" type="Const" version="opset1">
			<data element_type="f32" offset="724" shape="" size="4"/>
			<output>
				<port id="0" precision="FP32"/>
			</output>
		</layer>
		<layer id="541" name="Multiply_76890/fq_input_0" type="FakeQuantize" version="opset1">
			<data auto_broadcast="numpy" levels="256"/>
			<input>
				<port id="0">
					<dim>1</dim>
					<dim>3</dim>
					<dim>64</dim>
					<dim>64</dim>
				</port>
				<port id="1"/>
				<port id="2"/>
				<port id="3"/>
				<port id="4"/>
			</input>
			<output>
				<port id="5" precision="FP32">
					<dim>1</dim>
					<dim>3</dim>
					<dim>64</dim>
					<dim>64</dim>
				</port>
			</output>
		</layer>
		<layer id="542" name="Gather_89480333143392/restored_convert/quantized5592974875" type="Const" version="opset1">
			<data element_type="i8" offset="728" shape="64,3,3,3" size="1728"/>
			<output>
				<port id="0" precision="I8">
					<dim>64</dim>
					<dim>3</dim>
					<dim>3</dim>
					<dim>3</dim>
				</port>
			</output>
		</layer>
		<layer id="543" name="Gather_89480333143392/restored_convert/quantized/to_f32" type="Convert" version="opset1">
			<data destination_type="f32"/>
			<input>
				<port id="0">
					<dim>64</dim>
					<dim>3</dim>
					<dim>3</dim>
					<dim>3</dim>
				</port>
			</input>
			<output>
				<port id="1" precision="FP32">
					<dim>64</dim>
					<dim>3</dim>
					<dim>3</dim>
					<dim>3</dim>
				</port>
			</output>
		</layer>
		<layer id="544" name="Multiply_76890/fq_weights_1/zero_point5594882807" type="Const" version="opset1">
			<data element_type="f32" offset="2456" shape="64,1,1,1" size="256"/>
			<output>
				<port id="0" precision="FP32">
					<dim>64</dim>
					<dim>1</dim>
					<dim>1</dim>
					<dim>1</dim>
				</port>
			</output>
		</layer>
		<layer id="545" name="Multiply_76890/fq_weights_1/minus_zp" type="Subtract" version="opset1">
			<data auto_broadcast="numpy"/>
			<input>
				<port id="0">
					<dim>64</dim>
					<dim>3</dim>
					<dim>3</dim>
					<dim>3</dim>
				</port>
				<port id="1">
					<dim>64</dim>
					<dim>1</dim>
					<dim>1</dim>
					<dim>1</dim>
				</port>
			</input>
			<output>
				<port id="2" precision="FP32">
					<dim>64</dim>
					<dim>3</dim>
					<dim>3</dim>
					<dim>3</dim>
				</port>
			</output>
		</layer>
		<layer id="546" name="Multiply_76890/fq_weights_1/scale5593777701" type="Const" version="opset1">
			<data element_type="f32" offset="2712" shape="64,1,1,1" size="256"/>
			<output>
				<port id="0" precision="FP32">
					<dim>64</dim>
					<dim>1</dim>
					<dim>1</dim>
					<dim>1</dim>
				</port>
			</output>
		</layer>
		<layer id="547" name="Multiply_76890/fq_weights_1/mulpiply_by_scale" type="Multiply" version="opset1">
			<data auto_broadcast="numpy"/>
			<input>
				<port id="0">
					<dim>64</dim>
					<dim>3</dim>
					<dim>3</dim>
					<dim>3</dim>
				</port>
				<port id="1">
					<dim>64</dim>
					<dim>1</dim>
					<dim>1</dim>
					<dim>1</dim>
				</port>
			</input>
			<output>
				<port id="2" precision="FP32">
					<dim>64</dim>
					<dim>3</dim>
					<dim>3</dim>
					<dim>3</dim>
				</port>
			</output>
		</layer>
		<layer id="548" name="Multiply_76890" type="Convolution" version="opset1">
			<data auto_pad="explicit" dilations="1,1" pads_begin="1,1" pads_end="1,1" strides="2,2"/>
			<rt_info>
				<attribute name="fused_names" value="1840, 1841, Constant_8862, Divide_8863, backbone.bn1.bias, backbone.bn1.running_mean, backbone.bn1.running_var, backbone.bn1.weight, backbone.conv1.weight" version="0"/>
				<attribute name="preprocessing" version="0"/>
			</rt_info>
			<input>
				<port id="0">
					<dim>1</dim>
					<dim>3</dim>
					<dim>64</dim>
					<dim>64</dim>
				</port>
				<port id="1">
					<dim>64</dim>
					<dim>3</dim>
					<dim>3</dim>
					<dim>3</dim>
				</port>
			</input>
			<output>
				<port id="2" precision="FP32">
					<dim>1</dim>
					<dim>64</dim>
					<dim>32</dim>
					<dim>32</dim>
				</port>
			</output>
		</layer>
		<layer id="549" name="Constant_76895333481175" type="Const" version="opset1">
			<data element_type="f16" offset="2968" shape="1,64,1,1" size="128"/>
			<output>
				<port id="0" precision="FP16">
					<dim>1</dim>
					<dim>64</dim>
					<dim>1</dim>
					<dim>1</dim>
				</port>
			</output>
		</layer>
		<layer id="550" name="Constant_76895333443393/restored_convert" type="Convert" version="opset1">
			<data destination_type="f32"/>
			<rt_info>
				<attribute name="decompression" version="0"/>
			</rt_info>
			<input>
				<port id="0">
					<dim>1</dim>
					<dim>64</dim>
					<dim>1</dim>
					<dim>1</dim>
				</port>
			</input>
			<output>
				<port id="1" precision="FP32">
					<dim>1</dim>
					<dim>64</dim>
					<dim>1</dim>
					<dim>1</dim>
				</port>
			</output>
		</layer>
		<layer id="551" name="1841" type="Add" version="opset1">
			<data auto_broadcast="numpy"/>
			<rt_info>
				<attribute name="fused_names" value="1841, backbone.bn1.bias, backbone.bn1.running_mean, backbone.bn1.running_var, backbone.bn1.weight" version="0"/>
			</rt_info>
			<input>
				<port id="0">
					<dim>1</dim>
					<dim>64</dim>
					<dim>32</dim>
					<dim>32</dim>
				</port>
				<port id="1">
					<dim>1</dim>
					<dim>64</dim>
					<dim>1</dim>
					<dim>1</dim>
				</port>
			</input>
			<output>
				<port id="2" names="1841" precision="FP32">
					<dim>1</dim>
					<dim>64</dim>
					<dim>32</dim>
					<dim>32</dim>
				</port>
			</output>
		</layer>
		<layer id="552" name="1842" type="ReLU" version="opset1">
			<rt_info>
				<attribute name="fused_names" value="1842" version="0"/>
			</rt_info>
			<input>
				<port id="0">
					<dim>1</dim>
					<dim>64</dim>
					<dim>32</dim>
					<dim>32</dim>
				</port>
			</input>
			<output>
				<port id="1" names="1842" precision="FP32">
					<dim>1</dim>
					<dim>64</dim>
					<dim>32</dim>
					<dim>32</dim>
				</port>
			</output>
		</layer>
		<layer id="553" name="Multiply_76897/fq_input_0" type="FakeQuantize" version="opset1">
			<data auto_broadcast="numpy" levels="256"/>
			<input>
				<port id="0">
					<dim>1</dim>
					<dim>64</dim>
					<dim>32</dim>
					<dim>32</dim>
				</port>
				<port id="1"/>
				<port id="2"/>
				<port id="3"/>
				<port id="4"/>
			</input>
			<output>
				<port id="5" precision="FP32">
					<dim>1</dim>
					<dim>64</dim>
					<dim>32</dim>
					<dim>32</dim>
				</port>
			</output>
		</layer>
		<layer id="554" name="Multiply_79057333843394/restored_convert/quantized5241977890" type="Const" version="opset1">
			<data element_type="i8" offset="3096" shape="64,64,3,3" size="36864"/>
			<output>
				<port id="0" precision="I8">
					<dim>64</dim>
					<dim>64</dim>
					<dim>3</dim>
					<dim>3</dim>
				</port>
			</output>
		</layer>
		<layer id="555" name="Multiply_79057333843394/restored_convert/quantized/to_f32" type="Convert" version="opset1">
			<data destination_type="f32"/>
			<input>
				<port id="0">
					<dim>64</dim>
					<dim>64</dim>
					<dim>3</dim>
					<dim>3</dim>
				</port>
			</input>
			<output>
				<port id="1" precision="FP32">
					<dim>64</dim>
					<dim>64</dim>
					<dim>3</dim>
					<dim>3</dim>
				</port>
			</output>
		</layer>
		<layer id="556" name="Multiply_76897/fq_weights_1/zero_point5243881511" type="Const" version="opset1">
			<data element_type="f32" offset="39960" shape="64,1,1,1" size="256"/>
			<output>
				<port id="0" precision="FP32">
					<dim>64</dim>
					<dim>1</dim>
					<dim>1</dim>
					<dim>1</dim>
				</port>
			</output>
		</layer>
		<layer id="557" name="Multiply_76897/fq_weights_1/minus_zp" type="Subtract" version="opset1">
			<data auto_broadcast="numpy"/>
			<input>
				<port id="0">
					<dim>64</dim>
					<dim>64</dim>
					<dim>3</dim>
					<dim>3</dim>
				</port>
				<port id="1">
					<dim>64</dim>
					<dim>1</dim>
					<dim>1</dim>
					<dim>1</dim>
				</port>
			</input>
			<output>
				<port id="2" precision="FP32">
					<dim>64</dim>
					<dim>64</dim>
					<dim>3</dim>
					<dim>3</dim>
				</port>
			</output>
		</layer>
		<layer id="558" name="Multiply_76897/fq_weights_1/scale5242783764" type="Const" version="opset1">
			<data element_type="f32" offset="40216" shape="64,1,1,1" size="256"/>
			<output>
				<port id="0" precision="FP32">
					<dim>64</dim>
					<dim>1</dim>
					<dim>1</dim>
					<dim>1</dim>
				</port>
			</output>
		</layer>
		<layer id="559" name="Multiply_76897/fq_weights_1/mulpiply_by_scale" type="Multiply" version="opset1">
			<data auto_broadcast="numpy"/>
			<input>
				<port id="0">
					<dim>64</dim>
					<dim>64</dim>
					<dim>3</dim>
					<dim>3</dim>
				</port>
				<port id="1">
					<dim>64</dim>
					<dim>1</dim>
					<dim>1</dim>
					<dim>1</dim>
				</port>
			</input>
			<output>
				<port id="2" precision="FP32">
					<dim>64</dim>
					<dim>64</dim>
					<dim>3</dim>
					<dim>3</dim>
				</port>
			</output>
		</layer>
		<layer id="560" name="Multiply_76897" type="Convolution" version="opset1">
			<data auto_pad="explicit" dilations="1,1" pads_begin="1,1" pads_end="1,1" strides="2,2"/>
			<rt_info>
				<attribute name="fused_names" value="1843, 1844, backbone.bn2.bias, backbone.bn2.running_mean, backbone.bn2.running_var, backbone.bn2.weight" version="0"/>
			</rt_info>
			<input>
				<port id="0">
					<dim>1</dim>
					<dim>64</dim>
					<dim>32</dim>
					<dim>32</dim>
				</port>
				<port id="1">
					<dim>64</dim>
					<dim>64</dim>
					<dim>3</dim>
					<dim>3</dim>
				</port>
			</input>
			<output>
				<port id="2" precision="FP32">
					<dim>1</dim>
					<dim>64</dim>
					<dim>16</dim>
					<dim>16</dim>
				</port>
			</output>
		</layer>
		<layer id="561" name="Constant_76902334177476" type="Const" version="opset1">
			<data element_type="f16" offset="40472" shape="1,64,1,1" size="128"/>
			<output>
				<port id="0" precision="FP16">
					<dim>1</dim>
					<dim>64</dim>
					<dim>1</dim>
					<dim>1</dim>
				</port>
			</output>
		</layer>
		<layer id="562" name="Constant_76902334143395/restored_convert" type="Convert" version="opset1">
			<data destination_type="f32"/>
			<rt_info>
				<attribute name="decompression" version="0"/>
			</rt_info>
			<input>
				<port id="0">
					<dim>1</dim>
					<dim>64</dim>
					<dim>1</dim>
					<dim>1</dim>
				</port>
			</input>
			<output>
				<port id="1" precision="FP32">
					<dim>1</dim>
					<dim>64</dim>
					<dim>1</dim>
					<dim>1</dim>
				</port>
			</output>
		</layer>
		<layer id="563" name="1844" type="Add" version="opset1">
			<data auto_broadcast="numpy"/>
			<rt_info>
				<attribute name="fused_names" value="1844, backbone.bn2.bias, backbone.bn2.running_mean, backbone.bn2.running_var, backbone.bn2.weight" version="0"/>
			</rt_info>
			<input>
				<port id="0">
					<dim>1</dim>
					<dim>64</dim>
					<dim>16</dim>
					<dim>16</dim>
				</port>
				<port id="1">
					<dim>1</dim>
					<dim>64</dim>
					<dim>1</dim>
					<dim>1</dim>
				</port>
			</input>
			<output>
				<port id="2" names="1844" precision="FP32">
					<dim>1</dim>
					<dim>64</dim>
					<dim>16</dim>
					<dim>16</dim>
				</port>
			</output>
		</layer>
		<layer id="564" name="1845" type="ReLU" version="opset1">
			<rt_info>
				<attribute name="fused_names" value="1845" version="0"/>
			</rt_info>
			<input>
				<port id="0">
					<dim>1</dim>
					<dim>64</dim>
					<dim>16</dim>
					<dim>16</dim>
				</port>
			</input>
			<output>
				<port id="1" names="1845" precision="FP32">
					<dim>1</dim>
					<dim>64</dim>
					<dim>16</dim>
					<dim>16</dim>
				</port>
			</output>
		</layer>
		<layer id="565" name="Multiply_76904/fq_input_0" type="FakeQuantize" version="opset1">
			<data auto_broadcast="numpy" levels="256"/>
			<input>
				<port id="0">
					<dim>1</dim>
					<dim>64</dim>
					<dim>16</dim>
					<dim>16</dim>
				</port>
				<port id="1"/>
				<port id="2"/>
				<port id="3"/>
				<port id="4"/>
			</input>
			<output>
				<port id="5" precision="FP32">
					<dim>1</dim>
					<dim>64</dim>
					<dim>16</dim>
					<dim>16</dim>
				</port>
			</output>
		</layer>
		<layer id="566" name="Multiply_79066334543396/restored_convert/quantized5547976156" type="Const" version="opset1">
			<data element_type="i8" offset="40600" shape="64,64,1,1" size="4096"/>
			<output>
				<port id="0" precision="I8">
					<dim>64</dim>
					<dim>64</dim>
					<dim>1</dim>
					<dim>1</dim>
				</port>
			</output>
		</layer>
		<layer id="567" name="Multiply_79066334543396/restored_convert/quantized/to_f32" type="Convert" version="opset1">
			<data destination_type="f32"/>
			<input>
				<port id="0">
					<dim>64</dim>
					<dim>64</dim>
					<dim>1</dim>
					<dim>1</dim>
				</port>
			</input>
			<output>
				<port id="1" precision="FP32">
					<dim>64</dim>
					<dim>64</dim>
					<dim>1</dim>
					<dim>1</dim>
				</port>
			</output>
		</layer>
		<layer id="568" name="Multiply_76904/fq_weights_1/zero_point5549880503" type="Const" version="opset1">
			<data element_type="f32" offset="44696" shape="64,1,1,1" size="256"/>
			<output>
				<port id="0" precision="FP32">
					<dim>64</dim>
					<dim>1</dim>
					<dim>1</dim>
					<dim>1</dim>
				</port>
			</output>
		</layer>
		<layer id="569" name="Multiply_76904/fq_weights_1/minus_zp" type="Subtract" version="opset1">
			<data auto_broadcast="numpy"/>
			<input>
				<port id="0">
					<dim>64</dim>
					<dim>64</dim>
					<dim>1</dim>
					<dim>1</dim>
				</port>
				<port id="1">
					<dim>64</dim>
					<dim>1</dim>
					<dim>1</dim>
					<dim>1</dim>
				</port>
			</input>
			<output>
				<port id="2" precision="FP32">
					<dim>64</dim>
					<dim>64</dim>
					<dim>1</dim>
					<dim>1</dim>
				</port>
			</output>
		</layer>
		<layer id="570" name="Multiply_76904/fq_weights_1/scale5548776195" type="Const" version="opset1">
			<data element_type="f32" offset="44952" shape="64,1,1,1" size="256"/>
			<output>
				<port id="0" precision="FP32">
					<dim>64</dim>
					<dim>1</dim>
					<dim>1</dim>
					<dim>1</dim>
				</port>
			</output>
		</layer>
		<layer id="571" name="Multiply_76904/fq_weights_1/mulpiply_by_scale" type="Multiply" version="opset1">
			<data auto_broadcast="numpy"/>
			<input>
				<port id="0">
					<dim>64</dim>
					<dim>64</dim>
					<dim>1</dim>
					<dim>1</dim>
				</port>
				<port id="1">
					<dim>64</dim>
					<dim>1</dim>
					<dim>1</dim>
					<dim>1</dim>
				</port>
			</input>
			<output>
				<port id="2" precision="FP32">
					<dim>64</dim>
					<dim>64</dim>
					<dim>1</dim>
					<dim>1</dim>
				</port>
			</output>
		</layer>
		<layer id="572" name="Multiply_76904" type="Convolution" version="opset1">
			<data auto_pad="explicit" dilations="1,1" pads_begin="0,0" pads_end="0,0" strides="1,1"/>
			<rt_info>
				<attribute name="fused_names" value="1846, 1847, backbone.layer1.0.bn1.bias, backbone.layer1.0.bn1.running_mean, backbone.layer1.0.bn1.running_var, backbone.layer1.0.bn1.weight" version="0"/>
			</rt_info>
			<input>
				<port id="0">
					<dim>1</dim>
					<dim>64</dim>
					<dim>16</dim>
					<dim>16</dim>
				</port>
				<port id="1">
					<dim>64</dim>
					<dim>64</dim>
					<dim>1</dim>
					<dim>1</dim>
				</port>
			</input>
			<output>
				<port id="2" precision="FP32">
					<dim>1</dim>
					<dim>64</dim>
					<dim>16</dim>
					<dim>16</dim>
				</port>
			</output>
		</layer>
		<layer id="573" name="Constant_76909334881085" type="Const" version="opset1">
			<data element_type="f16" offset="45208" shape="1,64,1,1" size="128"/>
			<output>
				<port id="0" precision="FP16">
					<dim>1</dim>
					<dim>64</dim>
					<dim>1</dim>
					<dim>1</dim>
				</port>
			</output>
		</layer>
		<layer id="574" name="Constant_76909334843397/restored_convert" type="Convert" version="opset1">
			<data destination_type="f32"/>
			<rt_info>
				<attribute name="decompression" version="0"/>
			</rt_info>
			<input>
				<port id="0">
					<dim>1</dim>
					<dim>64</dim>
					<dim>1</dim>
					<dim>1</dim>
				</port>
			</input>
			<output>
				<port id="1" precision="FP32">
					<dim>1</dim>
					<dim>64</dim>
					<dim>1</dim>
					<dim>1</dim>
				</port>
			</output>
		</layer>
		<layer id="575" name="1847" type="Add" version="opset1">
			<data auto_broadcast="numpy"/>
			<rt_info>
				<attribute name="fused_names" value="1847, backbone.layer1.0.bn1.bias, backbone.layer1.0.bn1.running_mean, backbone.layer1.0.bn1.running_var, backbone.layer1.0.bn1.weight" version="0"/>
			</rt_info>
			<input>
				<port id="0">
					<dim>1</dim>
					<dim>64</dim>
					<dim>16</dim>
					<dim>16</dim>
				</port>
				<port id="1">
					<dim>1</dim>
					<dim>64</dim>
					<dim>1</dim>
					<dim>1</dim>
				</port>
			</input>
			<output>
				<port id="2" names="1847" precision="FP32">
					<dim>1</dim>
					<dim>64</dim>
					<dim>16</dim>
					<dim>16</dim>
				</port>
			</output>
		</layer>
		<layer id="576" name="1848" type="ReLU" version="opset1">
			<rt_info>
				<attribute name="fused_names" value="1848" version="0"/>
			</rt_info>
			<input>
				<port id="0">
					<dim>1</dim>
					<dim>64</dim>
					<dim>16</dim>
					<dim>16</dim>
				</port>
			</input>
			<output>
				<port id="1" names="1848" precision="FP32">
					<dim>1</dim>
					<dim>64</dim>
					<dim>16</dim>
					<dim>16</dim>
				</port>
			</output>
		</layer>
		<layer id="577" name="Multiply_76911/fq_input_0" type="FakeQuantize" version="opset1">
			<data auto_broadcast="numpy" levels="256"/>
			<input>
				<port id="0">
					<dim>1</dim>
					<dim>64</dim>
					<dim>16</dim>
					<dim>16</dim>
				</port>
				<port id="1"/>
				<port id="2"/>
				<port id="3"/>
				<port id="4"/>
			</input>
			<output>
				<port id="5" precision="FP32">
					<dim>1</dim>
					<dim>64</dim>
					<dim>16</dim>
					<dim>16</dim>
				</port>
			</output>
		</layer>
		<layer id="578" name="Multiply_79075335243398/restored_convert/quantized5109974170" type="Const" version="opset1">
			<data element_type="i8" offset="45336" shape="64,64,3,3" size="36864"/>
			<output>
				<port id="0" precision="I8">
					<dim>64</dim>
					<dim>64</dim>
					<dim>3</dim>
					<dim>3</dim>
				</port>
			</output>
		</layer>
		<layer id="579" name="Multiply_79075335243398/restored_convert/quantized/to_f32" type="Convert" version="opset1">
			<data destination_type="f32"/>
			<input>
				<port id="0">
					<dim>64</dim>
					<dim>64</dim>
					<dim>3</dim>
					<dim>3</dim>
				</port>
			</input>
			<output>
				<port id="1" precision="FP32">
					<dim>64</dim>
					<dim>64</dim>
					<dim>3</dim>
					<dim>3</dim>
				</port>
			</output>
		</layer>
		<layer id="580" name="Multiply_76911/fq_weights_1/zero_point5111874167" type="Const" version="opset1">
			<data element_type="f32" offset="82200" shape="64,1,1,1" size="256"/>
			<output>
				<port id="0" precision="FP32">
					<dim>64</dim>
					<dim>1</dim>
					<dim>1</dim>
					<dim>1</dim>
				</port>
			</output>
		</layer>
		<layer id="581" name="Multiply_76911/fq_weights_1/minus_zp" type="Subtract" version="opset1">
			<data auto_broadcast="numpy"/>
			<input>
				<port id="0">
					<dim>64</dim>
					<dim>64</dim>
					<dim>3</dim>
					<dim>3</dim>
				</port>
				<port id="1">
					<dim>64</dim>
					<dim>1</dim>
					<dim>1</dim>
					<dim>1</dim>
				</port>
			</input>
			<output>
				<port id="2" precision="FP32">
					<dim>64</dim>
					<dim>64</dim>
					<dim>3</dim>
					<dim>3</dim>
				</port>
			</output>
		</layer>
		<layer id="582" name="Multiply_76911/fq_weights_1/scale5110779075" type="Const" version="opset1">
			<data element_type="f32" offset="82456" shape="64,1,1,1" size="256"/>
			<output>
				<port id="0" precision="FP32">
					<dim>64</dim>
					<dim>1</dim>
					<dim>1</dim>
					<dim>1</dim>
				</port>
			</output>
		</layer>
		<layer id="583" name="Multiply_76911/fq_weights_1/mulpiply_by_scale" type="Multiply" version="opset1">
			<data auto_broadcast="numpy"/>
			<input>
				<port id="0">
					<dim>64</dim>
					<dim>64</dim>
					<dim>3</dim>
					<dim>3</dim>
				</port>
				<port id="1">
					<dim>64</dim>
					<dim>1</dim>
					<dim>1</dim>
					<dim>1</dim>
				</port>
			</input>
			<output>
				<port id="2" precision="FP32">
					<dim>64</dim>
					<dim>64</dim>
					<dim>3</dim>
					<dim>3</dim>
				</port>
			</output>
		</layer>
		<layer id="584" name="Multiply_76911" type="Convolution" version="opset1">
			<data auto_pad="explicit" dilations="1,1" pads_begin="1,1" pads_end="1,1" strides="1,1"/>
			<rt_info>
				<attribute name="fused_names" value="1849, 1850, backbone.layer1.0.bn2.bias, backbone.layer1.0.bn2.running_mean, backbone.layer1.0.bn2.running_var, backbone.layer1.0.bn2.weight" version="0"/>
			</rt_info>
			<input>
				<port id="0">
					<dim>1</dim>
					<dim>64</dim>
					<dim>16</dim>
					<dim>16</dim>
				</port>
				<port id="1">
					<dim>64</dim>
					<dim>64</dim>
					<dim>3</dim>
					<dim>3</dim>
				</port>
			</input>
			<output>
				<port id="2" precision="FP32">
					<dim>1</dim>
					<dim>64</dim>
					<dim>16</dim>
					<dim>16</dim>
				</port>
			</output>
		</layer>
		<layer id="585" name="Constant_76916335577077" type="Const" version="opset1">
			<data element_type="f16" offset="82712" shape="1,64,1,1" size="128"/>
			<output>
				<port id="0" precision="FP16">
					<dim>1</dim>
					<dim>64</dim>
					<dim>1</dim>
					<dim>1</dim>
				</port>
			</output>
		</layer>
		<layer id="586" name="Constant_76916335543399/restored_convert" type="Convert" version="opset1">
			<data destination_type="f32"/>
			<rt_info>
				<attribute name="decompression" version="0"/>
			</rt_info>
			<input>
				<port id="0">
					<dim>1</dim>
					<dim>64</dim>
					<dim>1</dim>
					<dim>1</dim>
				</port>
			</input>
			<output>
				<port id="1" precision="FP32">
					<dim>1</dim>
					<dim>64</dim>
					<dim>1</dim>
					<dim>1</dim>
				</port>
			</output>
		</layer>
		<layer id="587" name="1850" type="Add" version="opset1">
			<data auto_broadcast="numpy"/>
			<rt_info>
				<attribute name="fused_names" value="1850, backbone.layer1.0.bn2.bias, backbone.layer1.0.bn2.running_mean, backbone.layer1.0.bn2.running_var, backbone.layer1.0.bn2.weight" version="0"/>
			</rt_info>
			<input>
				<port id="0">
					<dim>1</dim>
					<dim>64</dim>
					<dim>16</dim>
					<dim>16</dim>
				</port>
				<port id="1">
					<dim>1</dim>
					<dim>64</dim>
					<dim>1</dim>
					<dim>1</dim>
				</port>
			</input>
			<output>
				<port id="2" names="1850" precision="FP32">
					<dim>1</dim>
					<dim>64</dim>
					<dim>16</dim>
					<dim>16</dim>
				</port>
			</output>
		</layer>
		<layer id="588" name="1851" type="ReLU" version="opset1">
			<rt_info>
				<attribute name="fused_names" value="1851" version="0"/>
			</rt_info>
			<input>
				<port id="0">
					<dim>1</dim>
					<dim>64</dim>
					<dim>16</dim>
					<dim>16</dim>
				</port>
			</input>
			<output>
				<port id="1" names="1851" precision="FP32">
					<dim>1</dim>
					<dim>64</dim>
					<dim>16</dim>
					<dim>16</dim>
				</port>
			</output>
		</layer>
		<layer id="589" name="Multiply_76918/fq_input_0" type="FakeQuantize" version="opset1">
			<data auto_broadcast="numpy" levels="256"/>
			<input>
				<port id="0">
					<dim>1</dim>
					<dim>64</dim>
					<dim>16</dim>
					<dim>16</dim>
				</port>
				<port id="1"/>
				<port id="2"/>
				<port id="3"/>
				<port id="4"/>
			</input>
			<output>
				<port id="5" precision="FP32">
					<dim>1</dim>
					<dim>64</dim>
					<dim>16</dim>
					<dim>16</dim>
				</port>
			</output>
		</layer>
		<layer id="590" name="Multiply_79084335943400/restored_convert/quantized5370982921" type="Const" version="opset1">
			<data element_type="i8" offset="82840" shape="256,64,1,1" size="16384"/>
			<output>
				<port id="0" precision="I8">
					<dim>256</dim>
					<dim>64</dim>
					<dim>1</dim>
					<dim>1</dim>
				</port>
			</output>
		</layer>
		<layer id="591" name="Multiply_79084335943400/restored_convert/quantized/to_f32" type="Convert" version="opset1">
			<data destination_type="f32"/>
			<input>
				<port id="0">
					<dim>256</dim>
					<dim>64</dim>
					<dim>1</dim>
					<dim>1</dim>
				</port>
			</input>
			<output>
				<port id="1" precision="FP32">
					<dim>256</dim>
					<dim>64</dim>
					<dim>1</dim>
					<dim>1</dim>
				</port>
			</output>
		</layer>
		<layer id="592" name="Multiply_76918/fq_weights_1/zero_point5372873933" type="Const" version="opset1">
			<data element_type="f32" offset="99224" shape="256,1,1,1" size="1024"/>
			<output>
				<port id="0" precision="FP32">
					<dim>256</dim>
					<dim>1</dim>
					<dim>1</dim>
					<dim>1</dim>
				</port>
			</output>
		</layer>
		<layer id="593" name="Multiply_76918/fq_weights_1/minus_zp" type="Subtract" version="opset1">
			<data auto_broadcast="numpy"/>
			<input>
				<port id="0">
					<dim>256</dim>
					<dim>64</dim>
					<dim>1</dim>
					<dim>1</dim>
				</port>
				<port id="1">
					<dim>256</dim>
					<dim>1</dim>
					<dim>1</dim>
					<dim>1</dim>
				</port>
			</input>
			<output>
				<port id="2" precision="FP32">
					<dim>256</dim>
					<dim>64</dim>
					<dim>1</dim>
					<dim>1</dim>
				</port>
			</output>
		</layer>
		<layer id="594" name="Multiply_76918/fq_weights_1/scale5371780629" type="Const" version="opset1">
			<data element_type="f32" offset="100248" shape="256,1,1,1" size="1024"/>
			<output>
				<port id="0" precision="FP32">
					<dim>256</dim>
					<dim>1</dim>
					<dim>1</dim>
					<dim>1</dim>
				</port>
			</output>
		</layer>
		<layer id="595" name="Multiply_76918/fq_weights_1/mulpiply_by_scale" type="Multiply" version="opset1">
			<data auto_broadcast="numpy"/>
			<input>
				<port id="0">
					<dim>256</dim>
					<dim>64</dim>
					<dim>1</dim>
					<dim>1</dim>
				</port>
				<port id="1">
					<dim>256</dim>
					<dim>1</dim>
					<dim>1</dim>
					<dim>1</dim>
				</port>
			</input>
			<output>
				<port id="2" precision="FP32">
					<dim>256</dim>
					<dim>64</dim>
					<dim>1</dim>
					<dim>1</dim>
				</port>
			</output>
		</layer>
		<layer id="596" name="Multiply_76918" type="Convolution" version="opset1">
			<data auto_pad="explicit" dilations="1,1" pads_begin="0,0" pads_end="0,0" strides="1,1"/>
			<rt_info>
				<attribute name="fused_names" value="1852, 1853, backbone.layer1.0.bn3.bias, backbone.layer1.0.bn3.running_mean, backbone.layer1.0.bn3.running_var, backbone.layer1.0.bn3.weight" version="0"/>
			</rt_info>
			<input>
				<port id="0">
					<dim>1</dim>
					<dim>64</dim>
					<dim>16</dim>
					<dim>16</dim>
				</port>
				<port id="1">
					<dim>256</dim>
					<dim>64</dim>
					<dim>1</dim>
					<dim>1</dim>
				</port>
			</input>
			<output>
				<port id="2" precision="FP32">
					<dim>1</dim>
					<dim>256</dim>
					<dim>16</dim>
					<dim>16</dim>
				</port>
			</output>
		</layer>
		<layer id="597" name="Constant_76923336278739" type="Const" version="opset1">
			<data element_type="f16" offset="101272" shape="1,256,1,1" size="512"/>
			<output>
				<port id="0" precision="FP16">
					<dim>1</dim>
					<dim>256</dim>
					<dim>1</dim>
					<dim>1</dim>
				</port>
			</output>
		</layer>
		<layer id="598" name="Constant_76923336243401/restored_convert" type="Convert" version="opset1">
			<data destination_type="f32"/>
			<rt_info>
				<attribute name="decompression" version="0"/>
			</rt_info>
			<input>
				<port id="0">
					<dim>1</dim>
					<dim>256</dim>
					<dim>1</dim>
					<dim>1</dim>
				</port>
			</input>
			<output>
				<port id="1" precision="FP32">
					<dim>1</dim>
					<dim>256</dim>
					<dim>1</dim>
					<dim>1</dim>
				</port>
			</output>
		</layer>
		<layer id="599" name="1853" type="Add" version="opset1">
			<data auto_broadcast="numpy"/>
			<rt_info>
				<attribute name="fused_names" value="1853, backbone.layer1.0.bn3.bias, backbone.layer1.0.bn3.running_mean, backbone.layer1.0.bn3.running_var, backbone.layer1.0.bn3.weight" version="0"/>
			</rt_info>
			<input>
				<port id="0">
					<dim>1</dim>
					<dim>256</dim>
					<dim>16</dim>
					<dim>16</dim>
				</port>
				<port id="1">
					<dim>1</dim>
					<dim>256</dim>
					<dim>1</dim>
					<dim>1</dim>
				</port>
			</input>
			<output>
				<port id="2" names="1853" precision="FP32">
					<dim>1</dim>
					<dim>256</dim>
					<dim>16</dim>
					<dim>16</dim>
				</port>
			</output>
		</layer>
		<layer id="600" name="1856/fq_input_0" type="FakeQuantize" version="opset1">
			<data auto_broadcast="numpy" levels="256"/>
			<input>
				<port id="0">
					<dim>1</dim>
					<dim>256</dim>
					<dim>16</dim>
					<dim>16</dim>
				</port>
				<port id="1"/>
				<port id="2"/>
				<port id="3"/>
				<port id="4"/>
			</input>
			<output>
				<port id="5" precision="FP32">
					<dim>1</dim>
					<dim>256</dim>
					<dim>16</dim>
					<dim>16</dim>
				</port>
			</output>
		</layer>
		<layer id="601" name="117111171582243" type="Const" version="opset1">
			<data element_type="f32" offset="101784" shape="" size="4"/>
			<output>
				<port id="0" precision="FP32"/>
			</output>
		</layer>
		<layer id="602" name="117121171676759" type="Const" version="opset1">
			<data element_type="f32" offset="101788" shape="" size="4"/>
			<output>
				<port id="0" precision="FP32"/>
			</output>
		</layer>
		<layer id="603" name="117131171781901" type="Const" version="opset1">
			<data element_type="f32" offset="101784" shape="" size="4"/>
			<output>
				<port id="0" precision="FP32"/>
			</output>
		</layer>
		<layer id="604" name="117141171880860" type="Const" version="opset1">
			<data element_type="f32" offset="101788" shape="" size="4"/>
			<output>
				<port id="0" precision="FP32"/>
			</output>
		</layer>
		<layer id="605" name="Multiply_79093336543402/restored_convert/quantized5706976633" type="Const" version="opset1">
			<data element_type="i8" offset="101792" shape="256,64,1,1" size="16384"/>
			<output>
				<port id="0" precision="I8">
					<dim>256</dim>
					<dim>64</dim>
					<dim>1</dim>
					<dim>1</dim>
				</port>
			</output>
		</layer>
		<layer id="606" name="Multiply_79093336543402/restored_convert/quantized/to_f32" type="Convert" version="opset1">
			<data destination_type="f32"/>
			<input>
				<port id="0">
					<dim>256</dim>
					<dim>64</dim>
					<dim>1</dim>
					<dim>1</dim>
				</port>
			</input>
			<output>
				<port id="1" precision="FP32">
					<dim>256</dim>
					<dim>64</dim>
					<dim>1</dim>
					<dim>1</dim>
				</port>
			</output>
		</layer>
		<layer id="607" name="Multiply_76925/fq_weights_1/zero_point5708876279" type="Const" version="opset1">
			<data element_type="f32" offset="118176" shape="256,1,1,1" size="1024"/>
			<output>
				<port id="0" precision="FP32">
					<dim>256</dim>
					<dim>1</dim>
					<dim>1</dim>
					<dim>1</dim>
				</port>
			</output>
		</layer>
		<layer id="608" name="Multiply_76925/fq_weights_1/minus_zp" type="Subtract" version="opset1">
			<data auto_broadcast="numpy"/>
			<input>
				<port id="0">
					<dim>256</dim>
					<dim>64</dim>
					<dim>1</dim>
					<dim>1</dim>
				</port>
				<port id="1">
					<dim>256</dim>
					<dim>1</dim>
					<dim>1</dim>
					<dim>1</dim>
				</port>
			</input>
			<output>
				<port id="2" precision="FP32">
					<dim>256</dim>
					<dim>64</dim>
					<dim>1</dim>
					<dim>1</dim>
				</port>
			</output>
		</layer>
		<layer id="609" name="Multiply_76925/fq_weights_1/scale5707778847" type="Const" version="opset1">
			<data element_type="f32" offset="119200" shape="256,1,1,1" size="1024"/>
			<output>
				<port id="0" precision="FP32">
					<dim>256</dim>
					<dim>1</dim>
					<dim>1</dim>
					<dim>1</dim>
				</port>
			</output>
		</layer>
		<layer id="610" name="Multiply_76925/fq_weights_1/mulpiply_by_scale" type="Multiply" version="opset1">
			<data auto_broadcast="numpy"/>
			<input>
				<port id="0">
					<dim>256</dim>
					<dim>64</dim>
					<dim>1</dim>
					<dim>1</dim>
				</port>
				<port id="1">
					<dim>256</dim>
					<dim>1</dim>
					<dim>1</dim>
					<dim>1</dim>
				</port>
			</input>
			<output>
				<port id="2" precision="FP32">
					<dim>256</dim>
					<dim>64</dim>
					<dim>1</dim>
					<dim>1</dim>
				</port>
			</output>
		</layer>
		<layer id="611" name="Multiply_76925" type="Convolution" version="opset1">
			<data auto_pad="explicit" dilations="1,1" pads_begin="0,0" pads_end="0,0" strides="1,1"/>
			<rt_info>
				<attribute name="fused_names" value="1854, 1855, backbone.layer1.0.downsample.1.bias, backbone.layer1.0.downsample.1.running_mean, backbone.layer1.0.downsample.1.running_var, backbone.layer1.0.downsample.1.weight" version="0"/>
			</rt_info>
			<input>
				<port id="0">
					<dim>1</dim>
					<dim>64</dim>
					<dim>16</dim>
					<dim>16</dim>
				</port>
				<port id="1">
					<dim>256</dim>
					<dim>64</dim>
					<dim>1</dim>
					<dim>1</dim>
				</port>
			</input>
			<output>
				<port id="2" precision="FP32">
					<dim>1</dim>
					<dim>256</dim>
					<dim>16</dim>
					<dim>16</dim>
				</port>
			</output>
		</layer>
		<layer id="612" name="Constant_76930336875721" type="Const" version="opset1">
			<data element_type="f16" offset="120224" shape="1,256,1,1" size="512"/>
			<output>
				<port id="0" precision="FP16">
					<dim>1</dim>
					<dim>256</dim>
					<dim>1</dim>
					<dim>1</dim>
				</port>
			</output>
		</layer>
		<layer id="613" name="Constant_76930336843403/restored_convert" type="Convert" version="opset1">
			<data destination_type="f32"/>
			<rt_info>
				<attribute name="decompression" version="0"/>
			</rt_info>
			<input>
				<port id="0">
					<dim>1</dim>
					<dim>256</dim>
					<dim>1</dim>
					<dim>1</dim>
				</port>
			</input>
			<output>
				<port id="1" precision="FP32">
					<dim>1</dim>
					<dim>256</dim>
					<dim>1</dim>
					<dim>1</dim>
				</port>
			</output>
		</layer>
		<layer id="614" name="1855" type="Add" version="opset1">
			<data auto_broadcast="numpy"/>
			<rt_info>
				<attribute name="fused_names" value="1855, backbone.layer1.0.downsample.1.bias, backbone.layer1.0.downsample.1.running_mean, backbone.layer1.0.downsample.1.running_var, backbone.layer1.0.downsample.1.weight" version="0"/>
			</rt_info>
			<input>
				<port id="0">
					<dim>1</dim>
					<dim>256</dim>
					<dim>16</dim>
					<dim>16</dim>
				</port>
				<port id="1">
					<dim>1</dim>
					<dim>256</dim>
					<dim>1</dim>
					<dim>1</dim>
				</port>
			</input>
			<output>
				<port id="2" names="1855" precision="FP32">
					<dim>1</dim>
					<dim>256</dim>
					<dim>16</dim>
					<dim>16</dim>
				</port>
			</output>
		</layer>
		<layer id="615" name="1856/fq_input_1" type="FakeQuantize" version="opset1">
			<data auto_broadcast="numpy" levels="256"/>
			<input>
				<port id="0">
					<dim>1</dim>
					<dim>256</dim>
					<dim>16</dim>
					<dim>16</dim>
				</port>
				<port id="1"/>
				<port id="2"/>
				<port id="3"/>
				<port id="4"/>
			</input>
			<output>
				<port id="5" precision="FP32">
					<dim>1</dim>
					<dim>256</dim>
					<dim>16</dim>
					<dim>16</dim>
				</port>
			</output>
		</layer>
		<layer id="616" name="1856" type="Add" version="opset1">
			<data auto_broadcast="numpy"/>
			<rt_info>
				<attribute name="fused_names" value="1856" version="0"/>
			</rt_info>
			<input>
				<port id="0">
					<dim>1</dim>
					<dim>256</dim>
					<dim>16</dim>
					<dim>16</dim>
				</port>
				<port id="1">
					<dim>1</dim>
					<dim>256</dim>
					<dim>16</dim>
					<dim>16</dim>
				</port>
			</input>
			<output>
				<port id="2" names="1856" precision="FP32">
					<dim>1</dim>
					<dim>256</dim>
					<dim>16</dim>
					<dim>16</dim>
				</port>
			</output>
		</layer>
		<layer id="617" name="1857" type="ReLU" version="opset1">
			<rt_info>
				<attribute name="fused_names" value="1857" version="0"/>
			</rt_info>
			<input>
				<port id="0">
					<dim>1</dim>
					<dim>256</dim>
					<dim>16</dim>
					<dim>16</dim>
				</port>
			</input>
			<output>
				<port id="1" names="1857" precision="FP32">
					<dim>1</dim>
					<dim>256</dim>
					<dim>16</dim>
					<dim>16</dim>
				</port>
			</output>
		</layer>
		<layer id="618" name="1866/fq_input_1" type="FakeQuantize" version="opset1">
			<data auto_broadcast="numpy" levels="256"/>
			<input>
				<port id="0">
					<dim>1</dim>
					<dim>256</dim>
					<dim>16</dim>
					<dim>16</dim>
				</port>
				<port id="1"/>
				<port id="2"/>
				<port id="3"/>
				<port id="4"/>
			</input>
			<output>
				<port id="5" precision="FP32">
					<dim>1</dim>
					<dim>256</dim>
					<dim>16</dim>
					<dim>16</dim>
				</port>
			</output>
		</layer>
		<layer id="619" name="Multiply_79102337343404/restored_convert/quantized5301980560" type="Const" version="opset1">
			<data element_type="i8" offset="120736" shape="64,256,1,1" size="16384"/>
			<output>
				<port id="0" precision="I8">
					<dim>64</dim>
					<dim>256</dim>
					<dim>1</dim>
					<dim>1</dim>
				</port>
			</output>
		</layer>
		<layer id="620" name="Multiply_79102337343404/restored_convert/quantized/to_f32" type="Convert" version="opset1">
			<data destination_type="f32"/>
			<input>
				<port id="0">
					<dim>64</dim>
					<dim>256</dim>
					<dim>1</dim>
					<dim>1</dim>
				</port>
			</input>
			<output>
				<port id="1" precision="FP32">
					<dim>64</dim>
					<dim>256</dim>
					<dim>1</dim>
					<dim>1</dim>
				</port>
			</output>
		</layer>
		<layer id="621" name="Multiply_76932/fq_weights_1/zero_point5303878037" type="Const" version="opset1">
			<data element_type="f32" offset="137120" shape="64,1,1,1" size="256"/>
			<output>
				<port id="0" precision="FP32">
					<dim>64</dim>
					<dim>1</dim>
					<dim>1</dim>
					<dim>1</dim>
				</port>
			</output>
		</layer>
		<layer id="622" name="Multiply_76932/fq_weights_1/minus_zp" type="Subtract" version="opset1">
			<data auto_broadcast="numpy"/>
			<input>
				<port id="0">
					<dim>64</dim>
					<dim>256</dim>
					<dim>1</dim>
					<dim>1</dim>
				</port>
				<port id="1">
					<dim>64</dim>
					<dim>1</dim>
					<dim>1</dim>
					<dim>1</dim>
				</port>
			</input>
			<output>
				<port id="2" precision="FP32">
					<dim>64</dim>
					<dim>256</dim>
					<dim>1</dim>
					<dim>1</dim>
				</port>
			</output>
		</layer>
		<layer id="623" name="Multiply_76932/fq_weights_1/scale5302776891" type="Const" version="opset1">
			<data element_type="f32" offset="137376" shape="64,1,1,1" size="256"/>
			<output>
				<port id="0" precision="FP32">
					<dim>64</dim>
					<dim>1</dim>
					<dim>1</dim>
					<dim>1</dim>
				</port>
			</output>
		</layer>
		<layer id="624" name="Multiply_76932/fq_weights_1/mulpiply_by_scale" type="Multiply" version="opset1">
			<data auto_broadcast="numpy"/>
			<input>
				<port id="0">
					<dim>64</dim>
					<dim>256</dim>
					<dim>1</dim>
					<dim>1</dim>
				</port>
				<port id="1">
					<dim>64</dim>
					<dim>1</dim>
					<dim>1</dim>
					<dim>1</dim>
				</port>
			</input>
			<output>
				<port id="2" precision="FP32">
					<dim>64</dim>
					<dim>256</dim>
					<dim>1</dim>
					<dim>1</dim>
				</port>
			</output>
		</layer>
		<layer id="625" name="Multiply_76932" type="Convolution" version="opset1">
			<data auto_pad="explicit" dilations="1,1" pads_begin="0,0" pads_end="0,0" strides="1,1"/>
			<rt_info>
…
		<edge from-layer="6550" from-port="0" to-layer="6551" to-port="0"/>
		<edge from-layer="6551" from-port="1" to-layer="6553" to-port="0"/>
		<edge from-layer="6552" from-port="0" to-layer="6553" to-port="1"/>
		<edge from-layer="6553" from-port="2" to-layer="6555" to-port="0"/>
		<edge from-layer="6554" from-port="0" to-layer="6555" to-port="1"/>
		<edge from-layer="6549" from-port="5" to-layer="6556" to-port="0"/>
		<edge from-layer="6555" from-port="2" to-layer="6556" to-port="1"/>
		<edge from-layer="6557" from-port="0" to-layer="6558" to-port="0"/>
		<edge from-layer="6556" from-port="2" to-layer="6559" to-port="0"/>
		<edge from-layer="6558" from-port="1" to-layer="6559" to-port="1"/>
		<edge from-layer="6559" from-port="2" to-layer="6560" to-port="0"/>
		<edge from-layer="6560" from-port="1" to-layer="6561" to-port="0"/>
		<edge from-layer="6358" from-port="0" to-layer="6561" to-port="1"/>
		<edge from-layer="6359" from-port="0" to-layer="6561" to-port="2"/>
		<edge from-layer="6360" from-port="0" to-layer="6561" to-port="3"/>
		<edge from-layer="6361" from-port="0" to-layer="6561" to-port="4"/>
		<edge from-layer="6562" from-port="0" to-layer="6563" to-port="0"/>
		<edge from-layer="6563" from-port="1" to-layer="6565" to-port="0"/>
		<edge from-layer="6564" from-port="0" to-layer="6565" to-port="1"/>
		<edge from-layer="6565" from-port="2" to-layer="6567" to-port="0"/>
		<edge from-layer="6566" from-port="0" to-layer="6567" to-port="1"/>
		<edge from-layer="6561" from-port="5" to-layer="6568" to-port="0"/>
		<edge from-layer="6567" from-port="2" to-layer="6568" to-port="1"/>
		<edge from-layer="6569" from-port="0" to-layer="6570" to-port="0"/>
		<edge from-layer="6568" from-port="2" to-layer="6571" to-port="0"/>
		<edge from-layer="6570" from-port="1" to-layer="6571" to-port="1"/>
		<edge from-layer="6571" from-port="2" to-layer="6572" to-port="0"/>
		<edge from-layer="6354" from-port="0" to-layer="6572" to-port="1"/>
		<edge from-layer="6355" from-port="0" to-layer="6572" to-port="2"/>
		<edge from-layer="6356" from-port="0" to-layer="6572" to-port="3"/>
		<edge from-layer="6357" from-port="0" to-layer="6572" to-port="4"/>
		<edge from-layer="6572" from-port="5" to-layer="6573" to-port="0"/>
		<edge from-layer="6549" from-port="5" to-layer="6573" to-port="1"/>
		<edge from-layer="6573" from-port="2" to-layer="6574" to-port="0"/>
		<edge from-layer="6574" from-port="1" to-layer="6575" to-port="0"/>
		<edge from-layer="6350" from-port="0" to-layer="6575" to-port="1"/>
		<edge from-layer="6351" from-port="0" to-layer="6575" to-port="2"/>
		<edge from-layer="6352" from-port="0" to-layer="6575" to-port="3"/>
		<edge from-layer="6353" from-port="0" to-layer="6575" to-port="4"/>
		<edge from-layer="6576" from-port="0" to-layer="6577" to-port="0"/>
		<edge from-layer="6577" from-port="1" to-layer="6579" to-port="0"/>
		<edge from-layer="6578" from-port="0" to-layer="6579" to-port="1"/>
		<edge from-layer="6579" from-port="2" to-layer="6581" to-port="0"/>
		<edge from-layer="6580" from-port="0" to-layer="6581" to-port="1"/>
		<edge from-layer="6575" from-port="5" to-layer="6582" to-port="0"/>
		<edge from-layer="6581" from-port="2" to-layer="6582" to-port="1"/>
		<edge from-layer="6583" from-port="0" to-layer="6584" to-port="0"/>
		<edge from-layer="6582" from-port="2" to-layer="6585" to-port="0"/>
		<edge from-layer="6584" from-port="1" to-layer="6585" to-port="1"/>
		<edge from-layer="6585" from-port="2" to-layer="6586" to-port="0"/>
		<edge from-layer="6586" from-port="1" to-layer="6587" to-port="0"/>
		<edge from-layer="6346" from-port="0" to-layer="6587" to-port="1"/>
		<edge from-layer="6347" from-port="0" to-layer="6587" to-port="2"/>
		<edge from-layer="6348" from-port="0" to-layer="6587" to-port="3"/>
		<edge from-layer="6349" from-port="0" to-layer="6587" to-port="4"/>
		<edge from-layer="6588" from-port="0" to-layer="6589" to-port="0"/>
		<edge from-layer="6589" from-port="1" to-layer="6591" to-port="0"/>
		<edge from-layer="6590" from-port="0" to-layer="6591" to-port="1"/>
		<edge from-layer="6591" from-port="2" to-layer="6593" to-port="0"/>
		<edge from-layer="6592" from-port="0" to-layer="6593" to-port="1"/>
		<edge from-layer="6587" from-port="5" to-layer="6594" to-port="0"/>
		<edge from-layer="6593" from-port="2" to-layer="6594" to-port="1"/>
		<edge from-layer="6595" from-port="0" to-layer="6596" to-port="0"/>
		<edge from-layer="6594" from-port="2" to-layer="6597" to-port="0"/>
		<edge from-layer="6596" from-port="1" to-layer="6597" to-port="1"/>
		<edge from-layer="6597" from-port="2" to-layer="6598" to-port="0"/>
		<edge from-layer="6342" from-port="0" to-layer="6598" to-port="1"/>
		<edge from-layer="6343" from-port="0" to-layer="6598" to-port="2"/>
		<edge from-layer="6344" from-port="0" to-layer="6598" to-port="3"/>
		<edge from-layer="6345" from-port="0" to-layer="6598" to-port="4"/>
		<edge from-layer="6598" from-port="5" to-layer="6599" to-port="0"/>
		<edge from-layer="6575" from-port="5" to-layer="6599" to-port="1"/>
		<edge from-layer="6599" from-port="2" to-layer="6600" to-port="0"/>
		<edge from-layer="6600" from-port="1" to-layer="6601" to-port="0"/>
		<edge from-layer="6338" from-port="0" to-layer="6601" to-port="1"/>
		<edge from-layer="6339" from-port="0" to-layer="6601" to-port="2"/>
		<edge from-layer="6340" from-port="0" to-layer="6601" to-port="3"/>
		<edge from-layer="6341" from-port="0" to-layer="6601" to-port="4"/>
		<edge from-layer="6602" from-port="0" to-layer="6603" to-port="0"/>
		<edge from-layer="6603" from-port="1" to-layer="6605" to-port="0"/>
		<edge from-layer="6604" from-port="0" to-layer="6605" to-port="1"/>
		<edge from-layer="6605" from-port="2" to-layer="6607" to-port="0"/>
		<edge from-layer="6606" from-port="0" to-layer="6607" to-port="1"/>
		<edge from-layer="6601" from-port="5" to-layer="6608" to-port="0"/>
		<edge from-layer="6607" from-port="2" to-layer="6608" to-port="1"/>
		<edge from-layer="6609" from-port="0" to-layer="6610" to-port="0"/>
		<edge from-layer="6608" from-port="2" to-layer="6611" to-port="0"/>
		<edge from-layer="6610" from-port="1" to-layer="6611" to-port="1"/>
		<edge from-layer="6611" from-port="2" to-layer="6612" to-port="0"/>
		<edge from-layer="6612" from-port="1" to-layer="6616" to-port="0"/>
		<edge from-layer="6613" from-port="0" to-layer="6616" to-port="1"/>
		<edge from-layer="6614" from-port="0" to-layer="6616" to-port="2"/>
		<edge from-layer="6615" from-port="0" to-layer="6616" to-port="3"/>
		<edge from-layer="6612" from-port="1" to-layer="6619" to-port="0"/>
		<edge from-layer="6617" from-port="0" to-layer="6619" to-port="1"/>
		<edge from-layer="6618" from-port="0" to-layer="6619" to-port="2"/>
		<edge from-layer="6619" from-port="3" to-layer="6620" to-port="0"/>
		<edge from-layer="6620" from-port="1" to-layer="6622" to-port="0"/>
		<edge from-layer="6621" from-port="0" to-layer="6622" to-port="1"/>
		<edge from-layer="6622" from-port="2" to-layer="6623" to-port="0"/>
		<edge from-layer="6623" from-port="1" to-layer="6625" to-port="0"/>
		<edge from-layer="6624" from-port="0" to-layer="6625" to-port="1"/>
		<edge from-layer="6612" from-port="1" to-layer="6628" to-port="0"/>
		<edge from-layer="6626" from-port="0" to-layer="6628" to-port="1"/>
		<edge from-layer="6627" from-port="0" to-layer="6628" to-port="2"/>
		<edge from-layer="6628" from-port="3" to-layer="6629" to-port="0"/>
		<edge from-layer="6629" from-port="1" to-layer="6631" to-port="0"/>
		<edge from-layer="6630" from-port="0" to-layer="6631" to-port="1"/>
		<edge from-layer="6631" from-port="2" to-layer="6632" to-port="0"/>
		<edge from-layer="6632" from-port="1" to-layer="6634" to-port="0"/>
		<edge from-layer="6633" from-port="0" to-layer="6634" to-port="1"/>
		<edge from-layer="6625" from-port="2" to-layer="6635" to-port="0"/>
		<edge from-layer="6634" from-port="2" to-layer="6635" to-port="1"/>
		<edge from-layer="6635" from-port="2" to-layer="6636" to-port="0"/>
		<edge from-layer="6616" from-port="4" to-layer="6637" to-port="0"/>
		<edge from-layer="6636" from-port="1" to-layer="6637" to-port="1"/>
		<edge from-layer="6637" from-port="2" to-layer="6638" to-port="0"/>
		<edge from-layer="6612" from-port="1" to-layer="6639" to-port="0"/>
		<edge from-layer="6638" from-port="1" to-layer="6640" to-port="0"/>
		<edge from-layer="6639" from-port="1" to-layer="6640" to-port="1"/>
		<edge from-layer="6640" from-port="2" to-layer="6642" to-port="0"/>
		<edge from-layer="6641" from-port="0" to-layer="6642" to-port="1"/>
		<edge from-layer="6611" from-port="2" to-layer="6647" to-port="0"/>
		<edge from-layer="6643" from-port="0" to-layer="6647" to-port="1"/>
		<edge from-layer="6644" from-port="0" to-layer="6647" to-port="2"/>
		<edge from-layer="6645" from-port="0" to-layer="6647" to-port="3"/>
		<edge from-layer="6646" from-port="0" to-layer="6647" to-port="4"/>
		<edge from-layer="6647" from-port="5" to-layer="6648" to-port="0"/>
		<edge from-layer="6637" from-port="2" to-layer="6648" to-port="1"/>
		<edge from-layer="6642" from-port="2" to-layer="6648" to-port="2"/>
		<edge from-layer="6648" from-port="3" to-layer="6649" to-port="0"/>
		<edge from-layer="6334" from-port="0" to-layer="6649" to-port="1"/>
		<edge from-layer="6335" from-port="0" to-layer="6649" to-port="2"/>
		<edge from-layer="6336" from-port="0" to-layer="6649" to-port="3"/>
		<edge from-layer="6337" from-port="0" to-layer="6649" to-port="4"/>
		<edge from-layer="6333" from-port="5" to-layer="6650" to-port="0"/>
		<edge from-layer="6649" from-port="5" to-layer="6650" to-port="1"/>
		<edge from-layer="6650" from-port="2" to-layer="6651" to-port="0"/>
		<edge from-layer="6651" from-port="1" to-layer="6652" to-port="0"/>
		<edge from-layer="6652" from-port="1" to-layer="6656" to-port="0"/>
		<edge from-layer="6653" from-port="0" to-layer="6656" to-port="1"/>
		<edge from-layer="6654" from-port="0" to-layer="6656" to-port="2"/>
		<edge from-layer="6655" from-port="0" to-layer="6656" to-port="3"/>
		<edge from-layer="6656" from-port="4" to-layer="6658" to-port="0"/>
		<edge from-layer="6657" from-port="0" to-layer="6658" to-port="1"/>
		<edge from-layer="6658" from-port="2" to-layer="6659" to-port="0"/>
		<edge from-layer="6652" from-port="1" to-layer="6660" to-port="0"/>
		<edge from-layer="6659" from-port="1" to-layer="6661" to-port="0"/>
		<edge from-layer="6660" from-port="1" to-layer="6661" to-port="1"/>
		<edge from-layer="6661" from-port="2" to-layer="6663" to-port="0"/>
		<edge from-layer="6662" from-port="0" to-layer="6663" to-port="1"/>
		<edge from-layer="6651" from-port="1" to-layer="6668" to-port="0"/>
		<edge from-layer="6664" from-port="0" to-layer="6668" to-port="1"/>
		<edge from-layer="6665" from-port="0" to-layer="6668" to-port="2"/>
		<edge from-layer="6666" from-port="0" to-layer="6668" to-port="3"/>
		<edge from-layer="6667" from-port="0" to-layer="6668" to-port="4"/>
		<edge from-layer="6668" from-port="5" to-layer="6669" to-port="0"/>
		<edge from-layer="6658" from-port="2" to-layer="6669" to-port="1"/>
		<edge from-layer="6663" from-port="2" to-layer="6669" to-port="2"/>
		<edge from-layer="6669" from-port="3" to-layer="6670" to-port="0"/>
		<edge from-layer="4" from-port="0" to-layer="6670" to-port="1"/>
		<edge from-layer="5" from-port="0" to-layer="6670" to-port="2"/>
		<edge from-layer="6" from-port="0" to-layer="6670" to-port="3"/>
		<edge from-layer="7" from-port="0" to-layer="6670" to-port="4"/>
		<edge from-layer="6687" from-port="0" to-layer="6688" to-port="0"/>
		<edge from-layer="6688" from-port="1" to-layer="6690" to-port="0"/>
		<edge from-layer="6689" from-port="0" to-layer="6690" to-port="1"/>
		<edge from-layer="6690" from-port="2" to-layer="6692" to-port="0"/>
		<edge from-layer="6691" from-port="0" to-layer="6692" to-port="1"/>
		<edge from-layer="5666" from-port="5" to-layer="6693" to-port="0"/>
		<edge from-layer="6692" from-port="2" to-layer="6693" to-port="1"/>
		<edge from-layer="6694" from-port="0" to-layer="6695" to-port="0"/>
		<edge from-layer="6693" from-port="2" to-layer="6696" to-port="0"/>
		<edge from-layer="6695" from-port="1" to-layer="6696" to-port="1"/>
		<edge from-layer="6696" from-port="2" to-layer="6697" to-port="0"/>
		<edge from-layer="6683" from-port="0" to-layer="6697" to-port="1"/>
		<edge from-layer="6684" from-port="0" to-layer="6697" to-port="2"/>
		<edge from-layer="6685" from-port="0" to-layer="6697" to-port="3"/>
		<edge from-layer="6686" from-port="0" to-layer="6697" to-port="4"/>
		<edge from-layer="6697" from-port="5" to-layer="6698" to-port="0"/>
		<edge from-layer="5960" from-port="5" to-layer="6698" to-port="1"/>
		<edge from-layer="6698" from-port="2" to-layer="6699" to-port="0"/>
		<edge from-layer="6679" from-port="0" to-layer="6699" to-port="1"/>
		<edge from-layer="6680" from-port="0" to-layer="6699" to-port="2"/>
		<edge from-layer="6681" from-port="0" to-layer="6699" to-port="3"/>
		<edge from-layer="6682" from-port="0" to-layer="6699" to-port="4"/>
		<edge from-layer="6704" from-port="0" to-layer="6705" to-port="0"/>
		<edge from-layer="6705" from-port="1" to-layer="6707" to-port="0"/>
		<edge from-layer="6706" from-port="0" to-layer="6707" to-port="1"/>
		<edge from-layer="6707" from-port="2" to-layer="6709" to-port="0"/>
		<edge from-layer="6708" from-port="0" to-layer="6709" to-port="1"/>
		<edge from-layer="6283" from-port="5" to-layer="6710" to-port="0"/>
		<edge from-layer="6709" from-port="2" to-layer="6710" to-port="1"/>
		<edge from-layer="6711" from-port="0" to-layer="6712" to-port="0"/>
		<edge from-layer="6710" from-port="2" to-layer="6713" to-port="0"/>
		<edge from-layer="6712" from-port="1" to-layer="6713" to-port="1"/>
		<edge from-layer="6713" from-port="2" to-layer="6714" to-port="0"/>
		<edge from-layer="6714" from-port="1" to-layer="6718" to-port="0"/>
		<edge from-layer="6715" from-port="0" to-layer="6718" to-port="1"/>
		<edge from-layer="6716" from-port="0" to-layer="6718" to-port="2"/>
		<edge from-layer="6717" from-port="0" to-layer="6718" to-port="3"/>
		<edge from-layer="6714" from-port="1" to-layer="6721" to-port="0"/>
		<edge from-layer="6719" from-port="0" to-layer="6721" to-port="1"/>
		<edge from-layer="6720" from-port="0" to-layer="6721" to-port="2"/>
		<edge from-layer="6721" from-port="3" to-layer="6722" to-port="0"/>
		<edge from-layer="6722" from-port="1" to-layer="6724" to-port="0"/>
		<edge from-layer="6723" from-port="0" to-layer="6724" to-port="1"/>
		<edge from-layer="6724" from-port="2" to-layer="6725" to-port="0"/>
		<edge from-layer="6725" from-port="1" to-layer="6727" to-port="0"/>
		<edge from-layer="6726" from-port="0" to-layer="6727" to-port="1"/>
		<edge from-layer="6714" from-port="1" to-layer="6730" to-port="0"/>
		<edge from-layer="6728" from-port="0" to-layer="6730" to-port="1"/>
		<edge from-layer="6729" from-port="0" to-layer="6730" to-port="2"/>
		<edge from-layer="6730" from-port="3" to-layer="6731" to-port="0"/>
		<edge from-layer="6731" from-port="1" to-layer="6733" to-port="0"/>
		<edge from-layer="6732" from-port="0" to-layer="6733" to-port="1"/>
		<edge from-layer="6733" from-port="2" to-layer="6734" to-port="0"/>
		<edge from-layer="6734" from-port="1" to-layer="6736" to-port="0"/>
		<edge from-layer="6735" from-port="0" to-layer="6736" to-port="1"/>
		<edge from-layer="6727" from-port="2" to-layer="6737" to-port="0"/>
		<edge from-layer="6736" from-port="2" to-layer="6737" to-port="1"/>
		<edge from-layer="6737" from-port="2" to-layer="6738" to-port="0"/>
		<edge from-layer="6718" from-port="4" to-layer="6739" to-port="0"/>
		<edge from-layer="6738" from-port="1" to-layer="6739" to-port="1"/>
		<edge from-layer="6739" from-port="2" to-layer="6740" to-port="0"/>
		<edge from-layer="6714" from-port="1" to-layer="6741" to-port="0"/>
		<edge from-layer="6740" from-port="1" to-layer="6742" to-port="0"/>
		<edge from-layer="6741" from-port="1" to-layer="6742" to-port="1"/>
		<edge from-layer="6742" from-port="2" to-layer="6744" to-port="0"/>
		<edge from-layer="6743" from-port="0" to-layer="6744" to-port="1"/>
		<edge from-layer="6713" from-port="2" to-layer="6749" to-port="0"/>
		<edge from-layer="6745" from-port="0" to-layer="6749" to-port="1"/>
		<edge from-layer="6746" from-port="0" to-layer="6749" to-port="2"/>
		<edge from-layer="6747" from-port="0" to-layer="6749" to-port="3"/>
		<edge from-layer="6748" from-port="0" to-layer="6749" to-port="4"/>
		<edge from-layer="6749" from-port="5" to-layer="6750" to-port="0"/>
		<edge from-layer="6739" from-port="2" to-layer="6750" to-port="1"/>
		<edge from-layer="6744" from-port="2" to-layer="6750" to-port="2"/>
		<edge from-layer="6750" from-port="3" to-layer="6751" to-port="0"/>
		<edge from-layer="6700" from-port="0" to-layer="6751" to-port="1"/>
		<edge from-layer="6701" from-port="0" to-layer="6751" to-port="2"/>
		<edge from-layer="6702" from-port="0" to-layer="6751" to-port="3"/>
		<edge from-layer="6703" from-port="0" to-layer="6751" to-port="4"/>
		<edge from-layer="6699" from-port="5" to-layer="6752" to-port="0"/>
		<edge from-layer="6751" from-port="5" to-layer="6752" to-port="1"/>
		<edge from-layer="6752" from-port="2" to-layer="6753" to-port="0"/>
		<edge from-layer="6675" from-port="0" to-layer="6753" to-port="1"/>
		<edge from-layer="6676" from-port="0" to-layer="6753" to-port="2"/>
		<edge from-layer="6677" from-port="0" to-layer="6753" to-port="3"/>
		<edge from-layer="6678" from-port="0" to-layer="6753" to-port="4"/>
		<edge from-layer="6758" from-port="0" to-layer="6759" to-port="0"/>
		<edge from-layer="6759" from-port="1" to-layer="6761" to-port="0"/>
		<edge from-layer="6760" from-port="0" to-layer="6761" to-port="1"/>
		<edge from-layer="6761" from-port="2" to-layer="6763" to-port="0"/>
		<edge from-layer="6762" from-port="0" to-layer="6763" to-port="1"/>
		<edge from-layer="6601" from-port="5" to-layer="6764" to-port="0"/>
		<edge from-layer="6763" from-port="2" to-layer="6764" to-port="1"/>
		<edge from-layer="6765" from-port="0" to-layer="6766" to-port="0"/>
		<edge from-layer="6764" from-port="2" to-layer="6767" to-port="0"/>
		<edge from-layer="6766" from-port="1" to-layer="6767" to-port="1"/>
		<edge from-layer="6767" from-port="2" to-layer="6768" to-port="0"/>
		<edge from-layer="6768" from-port="1" to-layer="6772" to-port="0"/>
		<edge from-layer="6769" from-port="0" to-layer="6772" to-port="1"/>
		<edge from-layer="6770" from-port="0" to-layer="6772" to-port="2"/>
		<edge from-layer="6771" from-port="0" to-layer="6772" to-port="3"/>
		<edge from-layer="6768" from-port="1" to-layer="6775" to-port="0"/>
		<edge from-layer="6773" from-port="0" to-layer="6775" to-port="1"/>
		<edge from-layer="6774" from-port="0" to-layer="6775" to-port="2"/>
		<edge from-layer="6775" from-port="3" to-layer="6776" to-port="0"/>
		<edge from-layer="6776" from-port="1" to-layer="6778" to-port="0"/>
		<edge from-layer="6777" from-port="0" to-layer="6778" to-port="1"/>
		<edge from-layer="6778" from-port="2" to-layer="6779" to-port="0"/>
		<edge from-layer="6779" from-port="1" to-layer="6781" to-port="0"/>
		<edge from-layer="6780" from-port="0" to-layer="6781" to-port="1"/>
		<edge from-layer="6768" from-port="1" to-layer="6784" to-port="0"/>
		<edge from-layer="6782" from-port="0" to-layer="6784" to-port="1"/>
		<edge from-layer="6783" from-port="0" to-layer="6784" to-port="2"/>
		<edge from-layer="6784" from-port="3" to-layer="6785" to-port="0"/>
		<edge from-layer="6785" from-port="1" to-layer="6787" to-port="0"/>
		<edge from-layer="6786" from-port="0" to-layer="6787" to-port="1"/>
		<edge from-layer="6787" from-port="2" to-layer="6788" to-port="0"/>
		<edge from-layer="6788" from-port="1" to-layer="6790" to-port="0"/>
		<edge from-layer="6789" from-port="0" to-layer="6790" to-port="1"/>
		<edge from-layer="6781" from-port="2" to-layer="6791" to-port="0"/>
		<edge from-layer="6790" from-port="2" to-layer="6791" to-port="1"/>
		<edge from-layer="6791" from-port="2" to-layer="6792" to-port="0"/>
		<edge from-layer="6772" from-port="4" to-layer="6793" to-port="0"/>
		<edge from-layer="6792" from-port="1" to-layer="6793" to-port="1"/>
		<edge from-layer="6793" from-port="2" to-layer="6794" to-port="0"/>
		<edge from-layer="6768" from-port="1" to-layer="6795" to-port="0"/>
		<edge from-layer="6794" from-port="1" to-layer="6796" to-port="0"/>
		<edge from-layer="6795" from-port="1" to-layer="6796" to-port="1"/>
		<edge from-layer="6796" from-port="2" to-layer="6798" to-port="0"/>
		<edge from-layer="6797" from-port="0" to-layer="6798" to-port="1"/>
		<edge from-layer="6767" from-port="2" to-layer="6803" to-port="0"/>
		<edge from-layer="6799" from-port="0" to-layer="6803" to-port="1"/>
		<edge from-layer="6800" from-port="0" to-layer="6803" to-port="2"/>
		<edge from-layer="6801" from-port="0" to-layer="6803" to-port="3"/>
		<edge from-layer="6802" from-port="0" to-layer="6803" to-port="4"/>
		<edge from-layer="6803" from-port="5" to-layer="6804" to-port="0"/>
		<edge from-layer="6793" from-port="2" to-layer="6804" to-port="1"/>
		<edge from-layer="6798" from-port="2" to-layer="6804" to-port="2"/>
		<edge from-layer="6804" from-port="3" to-layer="6805" to-port="0"/>
		<edge from-layer="6754" from-port="0" to-layer="6805" to-port="1"/>
		<edge from-layer="6755" from-port="0" to-layer="6805" to-port="2"/>
		<edge from-layer="6756" from-port="0" to-layer="6805" to-port="3"/>
		<edge from-layer="6757" from-port="0" to-layer="6805" to-port="4"/>
		<edge from-layer="6753" from-port="5" to-layer="6806" to-port="0"/>
		<edge from-layer="6805" from-port="5" to-layer="6806" to-port="1"/>
		<edge from-layer="6806" from-port="2" to-layer="6807" to-port="0"/>
		<edge from-layer="6807" from-port="1" to-layer="6808" to-port="0"/>
		<edge from-layer="6808" from-port="1" to-layer="6812" to-port="0"/>
		<edge from-layer="6809" from-port="0" to-layer="6812" to-port="1"/>
		<edge from-layer="6810" from-port="0" to-layer="6812" to-port="2"/>
		<edge from-layer="6811" from-port="0" to-layer="6812" to-port="3"/>
		<edge from-layer="6812" from-port="4" to-layer="6814" to-port="0"/>
		<edge from-layer="6813" from-port="0" to-layer="6814" to-port="1"/>
		<edge from-layer="6814" from-port="2" to-layer="6815" to-port="0"/>
		<edge from-layer="6808" from-port="1" to-layer="6816" to-port="0"/>
		<edge from-layer="6815" from-port="1" to-layer="6817" to-port="0"/>
		<edge from-layer="6816" from-port="1" to-layer="6817" to-port="1"/>
		<edge from-layer="6817" from-port="2" to-layer="6819" to-port="0"/>
		<edge from-layer="6818" from-port="0" to-layer="6819" to-port="1"/>
		<edge from-layer="6807" from-port="1" to-layer="6824" to-port="0"/>
		<edge from-layer="6820" from-port="0" to-layer="6824" to-port="1"/>
		<edge from-layer="6821" from-port="0" to-layer="6824" to-port="2"/>
		<edge from-layer="6822" from-port="0" to-layer="6824" to-port="3"/>
		<edge from-layer="6823" from-port="0" to-layer="6824" to-port="4"/>
		<edge from-layer="6824" from-port="5" to-layer="6825" to-port="0"/>
		<edge from-layer="6814" from-port="2" to-layer="6825" to-port="1"/>
		<edge from-layer="6819" from-port="2" to-layer="6825" to-port="2"/>
		<edge from-layer="6825" from-port="3" to-layer="6826" to-port="0"/>
		<edge from-layer="6671" from-port="0" to-layer="6826" to-port="1"/>
		<edge from-layer="6672" from-port="0" to-layer="6826" to-port="2"/>
		<edge from-layer="6673" from-port="0" to-layer="6826" to-port="3"/>
		<edge from-layer="6674" from-port="0" to-layer="6826" to-port="4"/>
		<edge from-layer="6847" from-port="0" to-layer="6848" to-port="0"/>
		<edge from-layer="6848" from-port="1" to-layer="6850" to-port="0"/>
		<edge from-layer="6849" from-port="0" to-layer="6850" to-port="1"/>
		<edge from-layer="6850" from-port="2" to-layer="6852" to-port="0"/>
		<edge from-layer="6851" from-port="0" to-layer="6852" to-port="1"/>
		<edge from-layer="5666" from-port="5" to-layer="6853" to-port="0"/>
		<edge from-layer="6852" from-port="2" to-layer="6853" to-port="1"/>
		<edge from-layer="6854" from-port="0" to-layer="6855" to-port="0"/>
		<edge from-layer="6853" from-port="2" to-layer="6856" to-port="0"/>
		<edge from-layer="6855" from-port="1" to-layer="6856" to-port="1"/>
		<edge from-layer="6856" from-port="2" to-layer="6857" to-port="0"/>
		<edge from-layer="6857" from-port="1" to-layer="6858" to-port="0"/>
		<edge from-layer="6843" from-port="0" to-layer="6858" to-port="1"/>
		<edge from-layer="6844" from-port="0" to-layer="6858" to-port="2"/>
		<edge from-layer="6845" from-port="0" to-layer="6858" to-port="3"/>
		<edge from-layer="6846" from-port="0" to-layer="6858" to-port="4"/>
		<edge from-layer="6859" from-port="0" to-layer="6860" to-port="0"/>
		<edge from-layer="6860" from-port="1" to-layer="6862" to-port="0"/>
		<edge from-layer="6861" from-port="0" to-layer="6862" to-port="1"/>
		<edge from-layer="6862" from-port="2" to-layer="6864" to-port="0"/>
		<edge from-layer="6863" from-port="0" to-layer="6864" to-port="1"/>
		<edge from-layer="6858" from-port="5" to-layer="6865" to-port="0"/>
		<edge from-layer="6864" from-port="2" to-layer="6865" to-port="1"/>
		<edge from-layer="6866" from-port="0" to-layer="6867" to-port="0"/>
		<edge from-layer="6865" from-port="2" to-layer="6868" to-port="0"/>
		<edge from-layer="6867" from-port="1" to-layer="6868" to-port="1"/>
		<edge from-layer="6868" from-port="2" to-layer="6869" to-port="0"/>
		<edge from-layer="6839" from-port="0" to-layer="6869" to-port="1"/>
		<edge from-layer="6840" from-port="0" to-layer="6869" to-port="2"/>
		<edge from-layer="6841" from-port="0" to-layer="6869" to-port="3"/>
		<edge from-layer="6842" from-port="0" to-layer="6869" to-port="4"/>
		<edge from-layer="6874" from-port="0" to-layer="6875" to-port="0"/>
		<edge from-layer="6875" from-port="1" to-layer="6877" to-port="0"/>
		<edge from-layer="6876" from-port="0" to-layer="6877" to-port="1"/>
		<edge from-layer="6877" from-port="2" to-layer="6879" to-port="0"/>
		<edge from-layer="6878" from-port="0" to-layer="6879" to-port="1"/>
		<edge from-layer="5960" from-port="5" to-layer="6880" to-port="0"/>
		<edge from-layer="6879" from-port="2" to-layer="6880" to-port="1"/>
		<edge from-layer="6881" from-port="0" to-layer="6882" to-port="0"/>
		<edge from-layer="6880" from-port="2" to-layer="6883" to-port="0"/>
		<edge from-layer="6882" from-port="1" to-layer="6883" to-port="1"/>
		<edge from-layer="6883" from-port="2" to-layer="6884" to-port="0"/>
		<edge from-layer="6870" from-port="0" to-layer="6884" to-port="1"/>
		<edge from-layer="6871" from-port="0" to-layer="6884" to-port="2"/>
		<edge from-layer="6872" from-port="0" to-layer="6884" to-port="3"/>
		<edge from-layer="6873" from-port="0" to-layer="6884" to-port="4"/>
		<edge from-layer="6869" from-port="5" to-layer="6885" to-port="0"/>
		<edge from-layer="6884" from-port="5" to-layer="6885" to-port="1"/>
		<edge from-layer="6885" from-port="2" to-layer="6886" to-port="0"/>
		<edge from-layer="6835" from-port="0" to-layer="6886" to-port="1"/>
		<edge from-layer="6836" from-port="0" to-layer="6886" to-port="2"/>
		<edge from-layer="6837" from-port="0" to-layer="6886" to-port="3"/>
		<edge from-layer="6838" from-port="0" to-layer="6886" to-port="4"/>
		<edge from-layer="6886" from-port="5" to-layer="6887" to-port="0"/>
		<edge from-layer="6283" from-port="5" to-layer="6887" to-port="1"/>
		<edge from-layer="6887" from-port="2" to-layer="6888" to-port="0"/>
		<edge from-layer="6831" from-port="0" to-layer="6888" to-port="1"/>
		<edge from-layer="6832" from-port="0" to-layer="6888" to-port="2"/>
		<edge from-layer="6833" from-port="0" to-layer="6888" to-port="3"/>
		<edge from-layer="6834" from-port="0" to-layer="6888" to-port="4"/>
		<edge from-layer="6893" from-port="0" to-layer="6894" to-port="0"/>
		<edge from-layer="6894" from-port="1" to-layer="6896" to-port="0"/>
		<edge from-layer="6895" from-port="0" to-layer="6896" to-port="1"/>
		<edge from-layer="6896" from-port="2" to-layer="6898" to-port="0"/>
		<edge from-layer="6897" from-port="0" to-layer="6898" to-port="1"/>
		<edge from-layer="6601" from-port="5" to-layer="6899" to-port="0"/>
		<edge from-layer="6898" from-port="2" to-layer="6899" to-port="1"/>
		<edge from-layer="6900" from-port="0" to-layer="6901" to-port="0"/>
		<edge from-layer="6899" from-port="2" to-layer="6902" to-port="0"/>
		<edge from-layer="6901" from-port="1" to-layer="6902" to-port="1"/>
		<edge from-layer="6902" from-port="2" to-layer="6903" to-port="0"/>
		<edge from-layer="6903" from-port="1" to-layer="6907" to-port="0"/>
		<edge from-layer="6904" from-port="0" to-layer="6907" to-port="1"/>
		<edge from-layer="6905" from-port="0" to-layer="6907" to-port="2"/>
		<edge from-layer="6906" from-port="0" to-layer="6907" to-port="3"/>
		<edge from-layer="6903" from-port="1" to-layer="6910" to-port="0"/>
		<edge from-layer="6908" from-port="0" to-layer="6910" to-port="1"/>
		<edge from-layer="6909" from-port="0" to-layer="6910" to-port="2"/>
		<edge from-layer="6910" from-port="3" to-layer="6911" to-port="0"/>
		<edge from-layer="6911" from-port="1" to-layer="6913" to-port="0"/>
		<edge from-layer="6912" from-port="0" to-layer="6913" to-port="1"/>
		<edge from-layer="6913" from-port="2" to-layer="6914" to-port="0"/>
		<edge from-layer="6914" from-port="1" to-layer="6916" to-port="0"/>
		<edge from-layer="6915" from-port="0" to-layer="6916" to-port="1"/>
		<edge from-layer="6903" from-port="1" to-layer="6919" to-port="0"/>
		<edge from-layer="6917" from-port="0" to-layer="6919" to-port="1"/>
		<edge from-layer="6918" from-port="0" to-layer="6919" to-port="2"/>
		<edge from-layer="6919" from-port="3" to-layer="6920" to-port="0"/>
		<edge from-layer="6920" from-port="1" to-layer="6922" to-port="0"/>
		<edge from-layer="6921" from-port="0" to-layer="6922" to-port="1"/>
		<edge from-layer="6922" from-port="2" to-layer="6923" to-port="0"/>
		<edge from-layer="6923" from-port="1" to-layer="6925" to-port="0"/>
		<edge from-layer="6924" from-port="0" to-layer="6925" to-port="1"/>
		<edge from-layer="6916" from-port="2" to-layer="6926" to-port="0"/>
		<edge from-layer="6925" from-port="2" to-layer="6926" to-port="1"/>
		<edge from-layer="6926" from-port="2" to-layer="6927" to-port="0"/>
		<edge from-layer="6907" from-port="4" to-layer="6928" to-port="0"/>
		<edge from-layer="6927" from-port="1" to-layer="6928" to-port="1"/>
		<edge from-layer="6928" from-port="2" to-layer="6929" to-port="0"/>
		<edge from-layer="6903" from-port="1" to-layer="6930" to-port="0"/>
		<edge from-layer="6929" from-port="1" to-layer="6931" to-port="0"/>
		<edge from-layer="6930" from-port="1" to-layer="6931" to-port="1"/>
		<edge from-layer="6931" from-port="2" to-layer="6933" to-port="0"/>
		<edge from-layer="6932" from-port="0" to-layer="6933" to-port="1"/>
		<edge from-layer="6902" from-port="2" to-layer="6938" to-port="0"/>
		<edge from-layer="6934" from-port="0" to-layer="6938" to-port="1"/>
		<edge from-layer="6935" from-port="0" to-layer="6938" to-port="2"/>
		<edge from-layer="6936" from-port="0" to-layer="6938" to-port="3"/>
		<edge from-layer="6937" from-port="0" to-layer="6938" to-port="4"/>
		<edge from-layer="6938" from-port="5" to-layer="6939" to-port="0"/>
		<edge from-layer="6928" from-port="2" to-layer="6939" to-port="1"/>
		<edge from-layer="6933" from-port="2" to-layer="6939" to-port="2"/>
		<edge from-layer="6939" from-port="3" to-layer="6940" to-port="0"/>
		<edge from-layer="6889" from-port="0" to-layer="6940" to-port="1"/>
		<edge from-layer="6890" from-port="0" to-layer="6940" to-port="2"/>
		<edge from-layer="6891" from-port="0" to-layer="6940" to-port="3"/>
		<edge from-layer="6892" from-port="0" to-layer="6940" to-port="4"/>
		<edge from-layer="6888" from-port="5" to-layer="6941" to-port="0"/>
		<edge from-layer="6940" from-port="5" to-layer="6941" to-port="1"/>
		<edge from-layer="6941" from-port="2" to-layer="6942" to-port="0"/>
		<edge from-layer="6942" from-port="1" to-layer="6943" to-port="0"/>
		<edge from-layer="6943" from-port="1" to-layer="6947" to-port="0"/>
		<edge from-layer="6944" from-port="0" to-layer="6947" to-port="1"/>
		<edge from-layer="6945" from-port="0" to-layer="6947" to-port="2"/>
		<edge from-layer="6946" from-port="0" to-layer="6947" to-port="3"/>
		<edge from-layer="6947" from-port="4" to-layer="6949" to-port="0"/>
		<edge from-layer="6948" from-port="0" to-layer="6949" to-port="1"/>
		<edge from-layer="6949" from-port="2" to-layer="6950" to-port="0"/>
		<edge from-layer="6943" from-port="1" to-layer="6951" to-port="0"/>
		<edge from-layer="6950" from-port="1" to-layer="6952" to-port="0"/>
		<edge from-layer="6951" from-port="1" to-layer="6952" to-port="1"/>
		<edge from-layer="6952" from-port="2" to-layer="6954" to-port="0"/>
		<edge from-layer="6953" from-port="0" to-layer="6954" to-port="1"/>
		<edge from-layer="6942" from-port="1" to-layer="6959" to-port="0"/>
		<edge from-layer="6955" from-port="0" to-layer="6959" to-port="1"/>
		<edge from-layer="6956" from-port="0" to-layer="6959" to-port="2"/>
		<edge from-layer="6957" from-port="0" to-layer="6959" to-port="3"/>
		<edge from-layer="6958" from-port="0" to-layer="6959" to-port="4"/>
		<edge from-layer="6959" from-port="5" to-layer="6960" to-port="0"/>
		<edge from-layer="6949" from-port="2" to-layer="6960" to-port="1"/>
		<edge from-layer="6954" from-port="2" to-layer="6960" to-port="2"/>
		<edge from-layer="6960" from-port="3" to-layer="6961" to-port="0"/>
		<edge from-layer="6827" from-port="0" to-layer="6961" to-port="1"/>
		<edge from-layer="6828" from-port="0" to-layer="6961" to-port="2"/>
		<edge from-layer="6829" from-port="0" to-layer="6961" to-port="3"/>
		<edge from-layer="6830" from-port="0" to-layer="6961" to-port="4"/>
		<edge from-layer="6986" from-port="0" to-layer="6987" to-port="0"/>
		<edge from-layer="6987" from-port="1" to-layer="6989" to-port="0"/>
		<edge from-layer="6988" from-port="0" to-layer="6989" to-port="1"/>
		<edge from-layer="6989" from-port="2" to-layer="6991" to-port="0"/>
		<edge from-layer="6990" from-port="0" to-layer="6991" to-port="1"/>
		<edge from-layer="5666" from-port="5" to-layer="6992" to-port="0"/>
		<edge from-layer="6991" from-port="2" to-layer="6992" to-port="1"/>
		<edge from-layer="6993" from-port="0" to-layer="6994" to-port="0"/>
		<edge from-layer="6992" from-port="2" to-layer="6995" to-port="0"/>
		<edge from-layer="6994" from-port="1" to-layer="6995" to-port="1"/>
		<edge from-layer="6995" from-port="2" to-layer="6996" to-port="0"/>
		<edge from-layer="6996" from-port="1" to-layer="6997" to-port="0"/>
		<edge from-layer="6982" from-port="0" to-layer="6997" to-port="1"/>
		<edge from-layer="6983" from-port="0" to-layer="6997" to-port="2"/>
		<edge from-layer="6984" from-port="0" to-layer="6997" to-port="3"/>
		<edge from-layer="6985" from-port="0" to-layer="6997" to-port="4"/>
		<edge from-layer="6998" from-port="0" to-layer="6999" to-port="0"/>
		<edge from-layer="6999" from-port="1" to-layer="7001" to-port="0"/>
		<edge from-layer="7000" from-port="0" to-layer="7001" to-port="1"/>
		<edge from-layer="7001" from-port="2" to-layer="7003" to-port="0"/>
		<edge from-layer="7002" from-port="0" to-layer="7003" to-port="1"/>
		<edge from-layer="6997" from-port="5" to-layer="7004" to-port="0"/>
		<edge from-layer="7003" from-port="2" to-layer="7004" to-port="1"/>
		<edge from-layer="7005" from-port="0" to-layer="7006" to-port="0"/>
		<edge from-layer="7004" from-port="2" to-layer="7007" to-port="0"/>
		<edge from-layer="7006" from-port="1" to-layer="7007" to-port="1"/>
		<edge from-layer="7007" from-port="2" to-layer="7008" to-port="0"/>
		<edge from-layer="7008" from-port="1" to-layer="7009" to-port="0"/>
		<edge from-layer="6978" from-port="0" to-layer="7009" to-port="1"/>
		<edge from-layer="6979" from-port="0" to-layer="7009" to-port="2"/>
		<edge from-layer="6980" from-port="0" to-layer="7009" to-port="3"/>
		<edge from-layer="6981" from-port="0" to-layer="7009" to-port="4"/>
		<edge from-layer="7010" from-port="0" to-layer="7011" to-port="0"/>
		<edge from-layer="7011" from-port="1" to-layer="7013" to-port="0"/>
		<edge from-layer="7012" from-port="0" to-layer="7013" to-port="1"/>
		<edge from-layer="7013" from-port="2" to-layer="7015" to-port="0"/>
		<edge from-layer="7014" from-port="0" to-layer="7015" to-port="1"/>
		<edge from-layer="7009" from-port="5" to-layer="7016" to-port="0"/>
		<edge from-layer="7015" from-port="2" to-layer="7016" to-port="1"/>
		<edge from-layer="7017" from-port="0" to-layer="7018" to-port="0"/>
		<edge from-layer="7016" from-port="2" to-layer="7019" to-port="0"/>
		<edge from-layer="7018" from-port="1" to-layer="7019" to-port="1"/>
		<edge from-layer="7019" from-port="2" to-layer="7020" to-port="0"/>
		<edge from-layer="6974" from-port="0" to-layer="7020" to-port="1"/>
		<edge from-layer="6975" from-port="0" to-layer="7020" to-port="2"/>
		<edge from-layer="6976" from-port="0" to-layer="7020" to-port="3"/>
		<edge from-layer="6977" from-port="0" to-layer="7020" to-port="4"/>
		<edge from-layer="7029" from-port="0" to-layer="7030" to-port="0"/>
		<edge from-layer="7030" from-port="1" to-layer="7032" to-port="0"/>
		<edge from-layer="7031" from-port="0" to-layer="7032" to-port="1"/>
		<edge from-layer="7032" from-port="2" to-layer="7034" to-port="0"/>
		<edge from-layer="7033" from-port="0" to-layer="7034" to-port="1"/>
		<edge from-layer="5960" from-port="5" to-layer="7035" to-port="0"/>
		<edge from-layer="7034" from-port="2" to-layer="7035" to-port="1"/>
		<edge from-layer="7036" from-port="0" to-layer="7037" to-port="0"/>
		<edge from-layer="7035" from-port="2" to-layer="7038" to-port="0"/>
		<edge from-layer="7037" from-port="1" to-layer="7038" to-port="1"/>
		<edge from-layer="7038" from-port="2" to-layer="7039" to-port="0"/>
		<edge from-layer="7039" from-port="1" to-layer="7040" to-port="0"/>
		<edge from-layer="7025" from-port="0" to-layer="7040" to-port="1"/>
		<edge from-layer="7026" from-port="0" to-layer="7040" to-port="2"/>
		<edge from-layer="7027" from-port="0" to-layer="7040" to-port="3"/>
		<edge from-layer="7028" from-port="0" to-layer="7040" to-port="4"/>
		<edge from-layer="7041" from-port="0" to-layer="7042" to-port="0"/>
		<edge from-layer="7042" from-port="1" to-layer="7044" to-port="0"/>
		<edge from-layer="7043" from-port="0" to-layer="7044" to-port="1"/>
		<edge from-layer="7044" from-port="2" to-layer="7046" to-port="0"/>
		<edge from-layer="7045" from-port="0" to-layer="7046" to-port="1"/>
		<edge from-layer="7040" from-port="5" to-layer="7047" to-port="0"/>
		<edge from-layer="7046" from-port="2" to-layer="7047" to-port="1"/>
		<edge from-layer="7048" from-port="0" to-layer="7049" to-port="0"/>
		<edge from-layer="7047" from-port="2" to-layer="7050" to-port="0"/>
		<edge from-layer="7049" from-port="1" to-layer="7050" to-port="1"/>
		<edge from-layer="7050" from-port="2" to-layer="7051" to-port="0"/>
		<edge from-layer="7021" from-port="0" to-layer="7051" to-port="1"/>
		<edge from-layer="7022" from-port="0" to-layer="7051" to-port="2"/>
		<edge from-layer="7023" from-port="0" to-layer="7051" to-port="3"/>
		<edge from-layer="7024" from-port="0" to-layer="7051" to-port="4"/>
		<edge from-layer="7020" from-port="5" to-layer="7052" to-port="0"/>
		<edge from-layer="7051" from-port="5" to-layer="7052" to-port="1"/>
		<edge from-layer="7052" from-port="2" to-layer="7053" to-port="0"/>
		<edge from-layer="6970" from-port="0" to-layer="7053" to-port="1"/>
		<edge from-layer="6971" from-port="0" to-layer="7053" to-port="2"/>
		<edge from-layer="6972" from-port="0" to-layer="7053" to-port="3"/>
		<edge from-layer="6973" from-port="0" to-layer="7053" to-port="4"/>
		<edge from-layer="7058" from-port="0" to-layer="7059" to-port="0"/>
		<edge from-layer="7059" from-port="1" to-layer="7061" to-port="0"/>
		<edge from-layer="7060" from-port="0" to-layer="7061" to-port="1"/>
		<edge from-layer="7061" from-port="2" to-layer="7063" to-port="0"/>
		<edge from-layer="7062" from-port="0" to-layer="7063" to-port="1"/>
		<edge from-layer="6283" from-port="5" to-layer="7064" to-port="0"/>
		<edge from-layer="7063" from-port="2" to-layer="7064" to-port="1"/>
		<edge from-layer="7065" from-port="0" to-layer="7066" to-port="0"/>
		<edge from-layer="7064" from-port="2" to-layer="7067" to-port="0"/>
		<edge from-layer="7066" from-port="1" to-layer="7067" to-port="1"/>
		<edge from-layer="7067" from-port="2" to-layer="7068" to-port="0"/>
		<edge from-layer="7054" from-port="0" to-layer="7068" to-port="1"/>
		<edge from-layer="7055" from-port="0" to-layer="7068" to-port="2"/>
		<edge from-layer="7056" from-port="0" to-layer="7068" to-port="3"/>
		<edge from-layer="7057" from-port="0" to-layer="7068" to-port="4"/>
		<edge from-layer="7053" from-port="5" to-layer="7069" to-port="0"/>
		<edge from-layer="7068" from-port="5" to-layer="7069" to-port="1"/>
		<edge from-layer="7069" from-port="2" to-layer="7070" to-port="0"/>
		<edge from-layer="6966" from-port="0" to-layer="7070" to-port="1"/>
		<edge from-layer="6967" from-port="0" to-layer="7070" to-port="2"/>
		<edge from-layer="6968" from-port="0" to-layer="7070" to-port="3"/>
		<edge from-layer="6969" from-port="0" to-layer="7070" to-port="4"/>
		<edge from-layer="7070" from-port="5" to-layer="7071" to-port="0"/>
		<edge from-layer="6601" from-port="5" to-layer="7071" to-port="1"/>
		<edge from-layer="7071" from-port="2" to-layer="7072" to-port="0"/>
		<edge from-layer="7072" from-port="1" to-layer="7073" to-port="0"/>
		<edge from-layer="7073" from-port="1" to-layer="7077" to-port="0"/>
		<edge from-layer="7074" from-port="0" to-layer="7077" to-port="1"/>
		<edge from-layer="7075" from-port="0" to-layer="7077" to-port="2"/>
		<edge from-layer="7076" from-port="0" to-layer="7077" to-port="3"/>
		<edge from-layer="7077" from-port="4" to-layer="7079" to-port="0"/>
		<edge from-layer="7078" from-port="0" to-layer="7079" to-port="1"/>
		<edge from-layer="7079" from-port="2" to-layer="7080" to-port="0"/>
		<edge from-layer="7073" from-port="1" to-layer="7081" to-port="0"/>
		<edge from-layer="7080" from-port="1" to-layer="7082" to-port="0"/>
		<edge from-layer="7081" from-port="1" to-layer="7082" to-port="1"/>
		<edge from-layer="7082" from-port="2" to-layer="7084" to-port="0"/>
		<edge from-layer="7083" from-port="0" to-layer="7084" to-port="1"/>
		<edge from-layer="7072" from-port="1" to-layer="7089" to-port="0"/>
		<edge from-layer="7085" from-port="0" to-layer="7089" to-port="1"/>
		<edge from-layer="7086" from-port="0" to-layer="7089" to-port="2"/>
		<edge from-layer="7087" from-port="0" to-layer="7089" to-port="3"/>
		<edge from-layer="7088" from-port="0" to-layer="7089" to-port="4"/>
		<edge from-layer="7089" from-port="5" to-layer="7090" to-port="0"/>
		<edge from-layer="7079" from-port="2" to-layer="7090" to-port="1"/>
		<edge from-layer="7084" from-port="2" to-layer="7090" to-port="2"/>
		<edge from-layer="7090" from-port="3" to-layer="7091" to-port="0"/>
		<edge from-layer="6962" from-port="0" to-layer="7091" to-port="1"/>
		<edge from-layer="6963" from-port="0" to-layer="7091" to-port="2"/>
		<edge from-layer="6964" from-port="0" to-layer="7091" to-port="3"/>
		<edge from-layer="6965" from-port="0" to-layer="7091" to-port="4"/>
		<edge from-layer="6670" from-port="5" to-layer="7092" to-port="0"/>
		<edge from-layer="6826" from-port="5" to-layer="7092" to-port="1"/>
		<edge from-layer="6961" from-port="5" to-layer="7092" to-port="2"/>
		<edge from-layer="7091" from-port="5" to-layer="7092" to-port="3"/>
		<edge from-layer="7093" from-port="0" to-layer="7094" to-port="0"/>
		<edge from-layer="7094" from-port="1" to-layer="7096" to-port="0"/>
		<edge from-layer="7095" from-port="0" to-layer="7096" to-port="1"/>
		<edge from-layer="7096" from-port="2" to-layer="7098" to-port="0"/>
		<edge from-layer="7097" from-port="0" to-layer="7098" to-port="1"/>
		<edge from-layer="7092" from-port="4" to-layer="7099" to-port="0"/>
		<edge from-layer="7098" from-port="2" to-layer="7099" to-port="1"/>
		<edge from-layer="7100" from-port="0" to-layer="7101" to-port="0"/>
		<edge from-layer="7099" from-port="2" to-layer="7102" to-port="0"/>
		<edge from-layer="7101" from-port="1" to-layer="7102" to-port="1"/>
		<edge from-layer="7102" from-port="2" to-layer="7103" to-port="0"/>
		<edge from-layer="7103" from-port="1" to-layer="7104" to-port="0"/>
		<edge from-layer="0" from-port="0" to-layer="7104" to-port="1"/>
		<edge from-layer="1" from-port="0" to-layer="7104" to-port="2"/>
		<edge from-layer="2" from-port="0" to-layer="7104" to-port="3"/>
		<edge from-layer="3" from-port="0" to-layer="7104" to-port="4"/>
		<edge from-layer="7105" from-port="0" to-layer="7106" to-port="0"/>
		<edge from-layer="7106" from-port="1" to-layer="7108" to-port="0"/>
		<edge from-layer="7107" from-port="0" to-layer="7108" to-port="1"/>
		<edge from-layer="7108" from-port="2" to-layer="7110" to-port="0"/>
		<edge from-layer="7109" from-port="0" to-layer="7110" to-port="1"/>
		<edge from-layer="7104" from-port="5" to-layer="7111" to-port="0"/>
		<edge from-layer="7110" from-port="2" to-layer="7111" to-port="1"/>
		<edge from-layer="7112" from-port="0" to-layer="7113" to-port="0"/>
		<edge from-layer="7111" from-port="2" to-layer="7114" to-port="0"/>
		<edge from-layer="7113" from-port="1" to-layer="7114" to-port="1"/>
		<edge from-layer="7114" from-port="2" to-layer="7115" to-port="0"/>
	</edges>
	<meta_data>
		<MO_version value="custom_HEAD_73caba0f677dd6dbf9e464753baad9afa26b28dc"/>
		<Runtime_version value="custom_HEAD_73caba0f677dd6dbf9e464753baad9afa26b28dc"/>
		<legacy_path value="True"/>
		<cli_parameters>
			<caffe_parser_path value="DIR"/>
			<compress_fp16 value="True"/>
			<data_type value="FP32"/>
			<disable_nhwc_to_nchw value="False"/>
			<disable_omitting_optional value="False"/>
			<disable_resnet_optimization value="False"/>
			<disable_weights_compression value="False"/>
			<enable_concat_optimization value="False"/>
			<enable_flattening_nested_params value="False"/>
			<enable_ssd_gluoncv value="False"/>
			<extensions value="DIR"/>
			<framework value="onnx"/>
			<freeze_placeholder_with_value value="{}"/>
			<generate_deprecated_IR_V7 value="False"/>
			<input value="input.1"/>
			<input_model value="DIR/facial-landmarks-98-detection-0001.onnx"/>
			<input_model_is_text value="False"/>
			<input_shape value="[1,3,64,64]"/>
			<k value="DIR/CustomLayersMapping.xml"/>
			<keep_shape_ops value="True"/>
			<layout value="input.1(nchw)"/>
			<layout_values value="{'input.1': {'source_layout': 'nchw', 'target_layout': None, 'is_input': True}}"/>
			<legacy_ir_generation value="False"/>
			<legacy_mxnet_model value="False"/>
			<log_level value="ERROR"/>
			<mean_scale_values value="{'input.1': {'mean': None, 'scale': array([255.])}}"/>
			<mean_values value="()"/>
			<model_name value="facial-landmarks-98-detection-0001"/>
			<output_dir value="DIR"/>
			<placeholder_data_types value="{}"/>
			<placeholder_shapes value="{'input.1': (1, 3, 64, 64)}"/>
			<progress value="False"/>
			<remove_memory value="False"/>
			<remove_output_softmax value="False"/>
			<reverse_input_channels value="True"/>
			<save_params_from_nd value="False"/>
			<scale_values value="input.1[255.0]"/>
			<silent value="False"/>
			<source_layout value="()"/>
			<static_shape value="False"/>
			<stream_output value="False"/>
			<target_layout value="()"/>
			<transform value=""/>
			<use_legacy_frontend value="False"/>
			<use_new_frontend value="False"/>
			<unset unset_cli_parameters="batch, counts, disable_fusing, disable_gfusing, finegrain_fusing, input_checkpoint, input_meta_graph, input_proto, input_symbol, mean_file, mean_file_offsets, move_to_preprocess, nd_prefix_name, output, pretrained_model_name, saved_model_dir, saved_model_tags, scale, tensorboard_logdir, tensorflow_custom_layer_libraries, tensorflow_custom_operations_config_update, tensorflow_object_detection_api_pipeline_config, tensorflow_use_custom_operations_config, transformations_config"/>
		</cli_parameters>
	</meta_data>
	<quantization_parameters>
		<config>{
		'compression': {
			'algorithms': [
				{
					'name': 'DefaultQuantization',
					'params': {
						'num_samples_for_tuning': 2000,
						'preset': 'performance',
						'stat_subset_size': 300,
						'use_layerwise_tuning': false
					}
				}
			],
			'dump_intermediate_model': true,
			'target_device': 'ANY'
		},
		'engine': {
			'models': [
				{
					'name': 'facial-landmarks-98-detection-0001',
					'launchers': [
						{
							'framework': 'openvino',
							'adapter': {
								'type': 'facial_landmarks_detection',
								'output_blob': 3851
							},
							'device': 'cpu'
						}
					],
					'datasets': [
						{
							'name': 'facial_landmarks_98_db',
							'data_source': 'PATH',
							'annotation_conversion': {
								'converter': 'coco_facial_landmarks',
								'annotation_file': 'PATH'
							},
							'preprocessing': [
								{
									'type': 'crop_rect'
								},
								{
									'type': 'resize',
									'dst_width': 64,
									'dst_height': 64,
									'interpolation': 'LINEAR'
								}
							],
							'postprocessing': [
								{
									'type': 'heatmap2keypoints'
								}
							],
							'metrics': [
								{
									'type': 'nme',
									'only_2d': true
								}
							],
							'_command_line_mapping': {
								'annotation_file': 'PATH'
							}
						}
					]
				}
			],
			'stat_requests_number': null,
			'eval_requests_number': null,
			'type': 'accuracy_checker'
		}
	}</config>
		<version value="invalid version"/>
		<cli_params value="{'quantize': None, 'preset': None, 'model': None, 'weights': None, 'name': None, 'engine': None, 'ac_config': None, 'max_drop': None, 'evaluate': False, 'output_dir': 'PATH', 'direct_dump': True, 'log_level': 'INFO', 'pbar': False, 'stream_output': False, 'keep_uncompressed_weights': False, 'data_source': None, 'shape': None, 'data_type': 'image', 'generate_data': False}"/>
	</quantization_parameters>
</net>
