<?xml version="1.0" ?>
<net name="torch-jit-export" version="11">
	<layers>
		<layer id="0" name="input.1" type="Parameter" version="opset1">
			<data shape="1,3,64,64" element_type="f32"/>
			<rt_info>
				<attribute name="fused_names" version="0" value="input.1"/>
				<attribute name="old_api_map_element_type" version="0" value="f16"/>
			</rt_info>
			<output>
				<port id="0" precision="FP32" names="input.1">
					<dim>1</dim>
					<dim>3</dim>
					<dim>64</dim>
					<dim>64</dim>
					<rt_info>
						<attribute name="layout" version="0" layout="[N,C,H,W]"/>
					</rt_info>
				</port>
			</output>
		</layer>
		<layer id="1" name="Gather_89484_compressed" type="Const" version="opset1">
			<data element_type="f16" shape="64, 3, 3, 3" offset="0" size="3456"/>
			<output>
				<port id="0" precision="FP16">
					<dim>64</dim>
					<dim>3</dim>
					<dim>3</dim>
					<dim>3</dim>
				</port>
			</output>
		</layer>
		<layer id="2" name="Gather_89484" type="Convert" version="opset1">
			<data destination_type="f32"/>
			<rt_info>
				<attribute name="decompression" version="0"/>
			</rt_info>
			<input>
				<port id="0" precision="FP16">
					<dim>64</dim>
					<dim>3</dim>
					<dim>3</dim>
					<dim>3</dim>
				</port>
			</input>
			<output>
				<port id="1" precision="FP32">
					<dim>64</dim>
					<dim>3</dim>
					<dim>3</dim>
					<dim>3</dim>
				</port>
			</output>
		</layer>
		<layer id="3" name="Multiply_76894" type="Convolution" version="opset1">
			<data strides="2, 2" dilations="1, 1" pads_begin="1, 1" pads_end="1, 1" auto_pad="explicit"/>
			<rt_info>
				<attribute name="fused_names" version="0" value="1840, 1841, Constant_8862, Divide_8863, backbone.bn1.bias, backbone.bn1.running_mean, backbone.bn1.running_var, backbone.bn1.weight, backbone.conv1.weight"/>
				<attribute name="preprocessing" version="0"/>
			</rt_info>
			<input>
				<port id="0" precision="FP32">
					<dim>1</dim>
					<dim>3</dim>
					<dim>64</dim>
					<dim>64</dim>
				</port>
				<port id="1" precision="FP32">
					<dim>64</dim>
					<dim>3</dim>
					<dim>3</dim>
					<dim>3</dim>
				</port>
			</input>
			<output>
				<port id="2" precision="FP32">
					<dim>1</dim>
					<dim>64</dim>
					<dim>32</dim>
					<dim>32</dim>
				</port>
			</output>
		</layer>
		<layer id="4" name="Constant_76899_compressed" type="Const" version="opset1">
			<data element_type="f16" shape="1, 64, 1, 1" offset="3456" size="128"/>
			<output>
				<port id="0" precision="FP16">
					<dim>1</dim>
					<dim>64</dim>
					<dim>1</dim>
					<dim>1</dim>
				</port>
			</output>
		</layer>
		<layer id="5" name="Constant_76899" type="Convert" version="opset1">
			<data destination_type="f32"/>
			<rt_info>
				<attribute name="decompression" version="0"/>
			</rt_info>
			<input>
				<port id="0" precision="FP16">
					<dim>1</dim>
					<dim>64</dim>
					<dim>1</dim>
					<dim>1</dim>
				</port>
			</input>
			<output>
				<port id="1" precision="FP32">
					<dim>1</dim>
					<dim>64</dim>
					<dim>1</dim>
					<dim>1</dim>
				</port>
			</output>
		</layer>
		<layer id="6" name="1841" type="Add" version="opset1">
			<data auto_broadcast="numpy"/>
			<rt_info>
				<attribute name="fused_names" version="0" value="1841, backbone.bn1.bias, backbone.bn1.running_mean, backbone.bn1.running_var, backbone.bn1.weight"/>
			</rt_info>
			<input>
				<port id="0" precision="FP32">
					<dim>1</dim>
					<dim>64</dim>
					<dim>32</dim>
					<dim>32</dim>
				</port>
				<port id="1" precision="FP32">
					<dim>1</dim>
					<dim>64</dim>
					<dim>1</dim>
					<dim>1</dim>
				</port>
			</input>
			<output>
				<port id="2" precision="FP32" names="1841">
					<dim>1</dim>
					<dim>64</dim>
					<dim>32</dim>
					<dim>32</dim>
				</port>
			</output>
		</layer>
		<layer id="7" name="1842" type="ReLU" version="opset1">
			<rt_info>
				<attribute name="fused_names" version="0" value="1842"/>
			</rt_info>
			<input>
				<port id="0" precision="FP32">
					<dim>1</dim>
					<dim>64</dim>
					<dim>32</dim>
					<dim>32</dim>
				</port>
			</input>
			<output>
				<port id="1" precision="FP32" names="1842">
					<dim>1</dim>
					<dim>64</dim>
					<dim>32</dim>
					<dim>32</dim>
				</port>
			</output>
		</layer>
		<layer id="8" name="Multiply_79061_compressed" type="Const" version="opset1">
			<data element_type="f16" shape="64, 64, 3, 3" offset="3584" size="73728"/>
			<output>
				<port id="0" precision="FP16">
					<dim>64</dim>
					<dim>64</dim>
					<dim>3</dim>
					<dim>3</dim>
				</port>
			</output>
		</layer>
		<layer id="9" name="Multiply_79061" type="Convert" version="opset1">
			<data destination_type="f32"/>
			<rt_info>
				<attribute name="decompression" version="0"/>
			</rt_info>
			<input>
				<port id="0" precision="FP16">
					<dim>64</dim>
					<dim>64</dim>
					<dim>3</dim>
					<dim>3</dim>
				</port>
			</input>
			<output>
				<port id="1" precision="FP32">
					<dim>64</dim>
					<dim>64</dim>
					<dim>3</dim>
					<dim>3</dim>
				</port>
			</output>
		</layer>
		<layer id="10" name="Multiply_76901" type="Convolution" version="opset1">
			<data strides="2, 2" dilations="1, 1" pads_begin="1, 1" pads_end="1, 1" auto_pad="explicit"/>
			<rt_info>
				<attribute name="fused_names" version="0" value="1843, 1844, backbone.bn2.bias, backbone.bn2.running_mean, backbone.bn2.running_var, backbone.bn2.weight"/>
			</rt_info>
			<input>
				<port id="0" precision="FP32">
					<dim>1</dim>
					<dim>64</dim>
					<dim>32</dim>
					<dim>32</dim>
				</port>
				<port id="1" precision="FP32">
					<dim>64</dim>
					<dim>64</dim>
					<dim>3</dim>
					<dim>3</dim>
				</port>
			</input>
			<output>
				<port id="2" precision="FP32">
					<dim>1</dim>
					<dim>64</dim>
					<dim>16</dim>
					<dim>16</dim>
				</port>
			</output>
		</layer>
		<layer id="11" name="Constant_76906_compressed" type="Const" version="opset1">
			<data element_type="f16" shape="1, 64, 1, 1" offset="77312" size="128"/>
			<output>
				<port id="0" precision="FP16">
					<dim>1</dim>
					<dim>64</dim>
					<dim>1</dim>
					<dim>1</dim>
				</port>
			</output>
		</layer>
		<layer id="12" name="Constant_76906" type="Convert" version="opset1">
			<data destination_type="f32"/>
			<rt_info>
				<attribute name="decompression" version="0"/>
			</rt_info>
			<input>
				<port id="0" precision="FP16">
					<dim>1</dim>
					<dim>64</dim>
					<dim>1</dim>
					<dim>1</dim>
				</port>
			</input>
			<output>
				<port id="1" precision="FP32">
					<dim>1</dim>
					<dim>64</dim>
					<dim>1</dim>
					<dim>1</dim>
				</port>
			</output>
		</layer>
		<layer id="13" name="1844" type="Add" version="opset1">
			<data auto_broadcast="numpy"/>
			<rt_info>
				<attribute name="fused_names" version="0" value="1844, backbone.bn2.bias, backbone.bn2.running_mean, backbone.bn2.running_var, backbone.bn2.weight"/>
			</rt_info>
			<input>
				<port id="0" precision="FP32">
					<dim>1</dim>
					<dim>64</dim>
					<dim>16</dim>
					<dim>16</dim>
				</port>
				<port id="1" precision="FP32">
					<dim>1</dim>
					<dim>64</dim>
					<dim>1</dim>
					<dim>1</dim>
				</port>
			</input>
			<output>
				<port id="2" precision="FP32" names="1844">
					<dim>1</dim>
					<dim>64</dim>
					<dim>16</dim>
					<dim>16</dim>
				</port>
			</output>
		</layer>
		<layer id="14" name="1845" type="ReLU" version="opset1">
			<rt_info>
				<attribute name="fused_names" version="0" value="1845"/>
			</rt_info>
			<input>
				<port id="0" precision="FP32">
					<dim>1</dim>
					<dim>64</dim>
					<dim>16</dim>
					<dim>16</dim>
				</port>
			</input>
			<output>
				<port id="1" precision="FP32" names="1845">
					<dim>1</dim>
					<dim>64</dim>
					<dim>16</dim>
					<dim>16</dim>
				</port>
			</output>
		</layer>
		<layer id="15" name="Multiply_79070_compressed" type="Const" version="opset1">
			<data element_type="f16" shape="64, 64, 1, 1" offset="77440" size="8192"/>
			<output>
				<port id="0" precision="FP16">
					<dim>64</dim>
					<dim>64</dim>
					<dim>1</dim>
					<dim>1</dim>
				</port>
			</output>
		</layer>
		<layer id="16" name="Multiply_79070" type="Convert" version="opset1">
			<data destination_type="f32"/>
			<rt_info>
				<attribute name="decompression" version="0"/>
			</rt_info>
			<input>
				<port id="0" precision="FP16">
					<dim>64</dim>
					<dim>64</dim>
					<dim>1</dim>
					<dim>1</dim>
				</port>
			</input>
			<output>
				<port id="1" precision="FP32">
					<dim>64</dim>
					<dim>64</dim>
					<dim>1</dim>
					<dim>1</dim>
				</port>
			</output>
		</layer>
		<layer id="17" name="Multiply_76908" type="Convolution" version="opset1">
			<data strides="1, 1" dilations="1, 1" pads_begin="0, 0" pads_end="0, 0" auto_pad="explicit"/>
			<rt_info>
				<attribute name="fused_names" version="0" value="1846, 1847, backbone.layer1.0.bn1.bias, backbone.layer1.0.bn1.running_mean, backbone.layer1.0.bn1.running_var, backbone.layer1.0.bn1.weight"/>
			</rt_info>
			<input>
				<port id="0" precision="FP32">
					<dim>1</dim>
					<dim>64</dim>
					<dim>16</dim>
					<dim>16</dim>
				</port>
				<port id="1" precision="FP32">
					<dim>64</dim>
					<dim>64</dim>
					<dim>1</dim>
					<dim>1</dim>
				</port>
			</input>
			<output>
				<port id="2" precision="FP32">
					<dim>1</dim>
					<dim>64</dim>
					<dim>16</dim>
					<dim>16</dim>
				</port>
			</output>
		</layer>
		<layer id="18" name="Constant_76913_compressed" type="Const" version="opset1">
			<data element_type="f16" shape="1, 64, 1, 1" offset="85632" size="128"/>
			<output>
				<port id="0" precision="FP16">
					<dim>1</dim>
					<dim>64</dim>
					<dim>1</dim>
					<dim>1</dim>
				</port>
			</output>
		</layer>
		<layer id="19" name="Constant_76913" type="Convert" version="opset1">
			<data destination_type="f32"/>
			<rt_info>
				<attribute name="decompression" version="0"/>
			</rt_info>
			<input>
				<port id="0" precision="FP16">
					<dim>1</dim>
					<dim>64</dim>
					<dim>1</dim>
					<dim>1</dim>
				</port>
			</input>
			<output>
				<port id="1" precision="FP32">
					<dim>1</dim>
					<dim>64</dim>
					<dim>1</dim>
					<dim>1</dim>
				</port>
			</output>
		</layer>
		<layer id="20" name="1847" type="Add" version="opset1">
			<data auto_broadcast="numpy"/>
			<rt_info>
				<attribute name="fused_names" version="0" value="1847, backbone.layer1.0.bn1.bias, backbone.layer1.0.bn1.running_mean, backbone.layer1.0.bn1.running_var, backbone.layer1.0.bn1.weight"/>
			</rt_info>
			<input>
				<port id="0" precision="FP32">
					<dim>1</dim>
					<dim>64</dim>
					<dim>16</dim>
					<dim>16</dim>
				</port>
				<port id="1" precision="FP32">
					<dim>1</dim>
					<dim>64</dim>
					<dim>1</dim>
					<dim>1</dim>
				</port>
			</input>
			<output>
				<port id="2" precision="FP32" names="1847">
					<dim>1</dim>
					<dim>64</dim>
					<dim>16</dim>
					<dim>16</dim>
				</port>
			</output>
		</layer>
		<layer id="21" name="1848" type="ReLU" version="opset1">
			<rt_info>
				<attribute name="fused_names" version="0" value="1848"/>
			</rt_info>
			<input>
				<port id="0" precision="FP32">
					<dim>1</dim>
					<dim>64</dim>
					<dim>16</dim>
					<dim>16</dim>
				</port>
			</input>
			<output>
				<port id="1" precision="FP32" names="1848">
					<dim>1</dim>
					<dim>64</dim>
					<dim>16</dim>
					<dim>16</dim>
				</port>
			</output>
		</layer>
		<layer id="22" name="Multiply_79079_compressed" type="Const" version="opset1">
			<data element_type="f16" shape="64, 64, 3, 3" offset="85760" size="73728"/>
			<output>
				<port id="0" precision="FP16">
					<dim>64</dim>
					<dim>64</dim>
					<dim>3</dim>
					<dim>3</dim>
				</port>
			</output>
		</layer>
		<layer id="23" name="Multiply_79079" type="Convert" version="opset1">
			<data destination_type="f32"/>
			<rt_info>
				<attribute name="decompression" version="0"/>
			</rt_info>
			<input>
				<port id="0" precision="FP16">
					<dim>64</dim>
					<dim>64</dim>
					<dim>3</dim>
					<dim>3</dim>
				</port>
			</input>
			<output>
				<port id="1" precision="FP32">
					<dim>64</dim>
					<dim>64</dim>
					<dim>3</dim>
					<dim>3</dim>
				</port>
			</output>
		</layer>
		<layer id="24" name="Multiply_76915" type="Convolution" version="opset1">
			<data strides="1, 1" dilations="1, 1" pads_begin="1, 1" pads_end="1, 1" auto_pad="explicit"/>
			<rt_info>
				<attribute name="fused_names" version="0" value="1849, 1850, backbone.layer1.0.bn2.bias, backbone.layer1.0.bn2.running_mean, backbone.layer1.0.bn2.running_var, backbone.layer1.0.bn2.weight"/>
			</rt_info>
			<input>
				<port id="0" precision="FP32">
					<dim>1</dim>
					<dim>64</dim>
					<dim>16</dim>
					<dim>16</dim>
				</port>
				<port id="1" precision="FP32">
					<dim>64</dim>
					<dim>64</dim>
					<dim>3</dim>
					<dim>3</dim>
				</port>
			</input>
			<output>
				<port id="2" precision="FP32">
					<dim>1</dim>
					<dim>64</dim>
					<dim>16</dim>
					<dim>16</dim>
				</port>
			</output>
		</layer>
		<layer id="25" name="Constant_76920_compressed" type="Const" version="opset1">
			<data element_type="f16" shape="1, 64, 1, 1" offset="159488" size="128"/>
			<output>
				<port id="0" precision="FP16">
					<dim>1</dim>
					<dim>64</dim>
					<dim>1</dim>
					<dim>1</dim>
				</port>
			</output>
		</layer>
		<layer id="26" name="Constant_76920" type="Convert" version="opset1">
			<data destination_type="f32"/>
			<rt_info>
				<attribute name="decompression" version="0"/>
			</rt_info>
			<input>
				<port id="0" precision="FP16">
					<dim>1</dim>
					<dim>64</dim>
					<dim>1</dim>
					<dim>1</dim>
				</port>
			</input>
			<output>
				<port id="1" precision="FP32">
					<dim>1</dim>
					<dim>64</dim>
					<dim>1</dim>
					<dim>1</dim>
				</port>
			</output>
		</layer>
		<layer id="27" name="1850" type="Add" version="opset1">
			<data auto_broadcast="numpy"/>
			<rt_info>
				<attribute name="fused_names" version="0" value="1850, backbone.layer1.0.bn2.bias, backbone.layer1.0.bn2.running_mean, backbone.layer1.0.bn2.running_var, backbone.layer1.0.bn2.weight"/>
			</rt_info>
			<input>
				<port id="0" precision="FP32">
					<dim>1</dim>
					<dim>64</dim>
					<dim>16</dim>
					<dim>16</dim>
				</port>
				<port id="1" precision="FP32">
					<dim>1</dim>
					<dim>64</dim>
					<dim>1</dim>
					<dim>1</dim>
				</port>
			</input>
			<output>
				<port id="2" precision="FP32" names="1850">
					<dim>1</dim>
					<dim>64</dim>
					<dim>16</dim>
					<dim>16</dim>
				</port>
			</output>
		</layer>
		<layer id="28" name="1851" type="ReLU" version="opset1">
			<rt_info>
				<attribute name="fused_names" version="0" value="1851"/>
			</rt_info>
			<input>
				<port id="0" precision="FP32">
					<dim>1</dim>
					<dim>64</dim>
					<dim>16</dim>
					<dim>16</dim>
				</port>
			</input>
			<output>
				<port id="1" precision="FP32" names="1851">
					<dim>1</dim>
					<dim>64</dim>
					<dim>16</dim>
					<dim>16</dim>
				</port>
			</output>
		</layer>
		<layer id="29" name="Multiply_79088_compressed" type="Const" version="opset1">
			<data element_type="f16" shape="256, 64, 1, 1" offset="159616" size="32768"/>
			<output>
				<port id="0" precision="FP16">
					<dim>256</dim>
					<dim>64</dim>
					<dim>1</dim>
					<dim>1</dim>
				</port>
			</output>
		</layer>
		<layer id="30" name="Multiply_79088" type="Convert" version="opset1">
			<data destination_type="f32"/>
			<rt_info>
				<attribute name="decompression" version="0"/>
			</rt_info>
			<input>
				<port id="0" precision="FP16">
					<dim>256</dim>
					<dim>64</dim>
					<dim>1</dim>
					<dim>1</dim>
				</port>
			</input>
			<output>
				<port id="1" precision="FP32">
					<dim>256</dim>
					<dim>64</dim>
					<dim>1</dim>
					<dim>1</dim>
				</port>
			</output>
		</layer>
		<layer id="31" name="Multiply_76922" type="Convolution" version="opset1">
			<data strides="1, 1" dilations="1, 1" pads_begin="0, 0" pads_end="0, 0" auto_pad="explicit"/>
			<rt_info>
				<attribute name="fused_names" version="0" value="1852, 1853, backbone.layer1.0.bn3.bias, backbone.layer1.0.bn3.running_mean, backbone.layer1.0.bn3.running_var, backbone.layer1.0.bn3.weight"/>
			</rt_info>
			<input>
				<port id="0" precision="FP32">
					<dim>1</dim>
					<dim>64</dim>
					<dim>16</dim>
					<dim>16</dim>
				</port>
				<port id="1" precision="FP32">
					<dim>256</dim>
					<dim>64</dim>
					<dim>1</dim>
					<dim>1</dim>
				</port>
			</input>
			<output>
				<port id="2" precision="FP32">
					<dim>1</dim>
					<dim>256</dim>
					<dim>16</dim>
					<dim>16</dim>
				</port>
			</output>
		</layer>
		<layer id="32" name="Constant_76927_compressed" type="Const" version="opset1">
			<data element_type="f16" shape="1, 256, 1, 1" offset="192384" size="512"/>
			<output>
				<port id="0" precision="FP16">
					<dim>1</dim>
					<dim>256</dim>
					<dim>1</dim>
					<dim>1</dim>
				</port>
			</output>
		</layer>
		<layer id="33" name="Constant_76927" type="Convert" version="opset1">
			<data destination_type="f32"/>
			<rt_info>
				<attribute name="decompression" version="0"/>
			</rt_info>
			<input>
				<port id="0" precision="FP16">
					<dim>1</dim>
					<dim>256</dim>
					<dim>1</dim>
					<dim>1</dim>
				</port>
			</input>
			<output>
				<port id="1" precision="FP32">
					<dim>1</dim>
					<dim>256</dim>
					<dim>1</dim>
					<dim>1</dim>
				</port>
			</output>
		</layer>
		<layer id="34" name="1853" type="Add" version="opset1">
			<data auto_broadcast="numpy"/>
			<rt_info>
				<attribute name="fused_names" version="0" value="1853, backbone.layer1.0.bn3.bias, backbone.layer1.0.bn3.running_mean, backbone.layer1.0.bn3.running_var, backbone.layer1.0.bn3.weight"/>
			</rt_info>
			<input>
				<port id="0" precision="FP32">
					<dim>1</dim>
					<dim>256</dim>
					<dim>16</dim>
					<dim>16</dim>
				</port>
				<port id="1" precision="FP32">
					<dim>1</dim>
					<dim>256</dim>
					<dim>1</dim>
					<dim>1</dim>
				</port>
			</input>
			<output>
				<port id="2" precision="FP32" names="1853">
					<dim>1</dim>
					<dim>256</dim>
					<dim>16</dim>
					<dim>16</dim>
				</port>
			</output>
		</layer>
		<layer id="35" name="Multiply_79097_compressed" type="Const" version="opset1">
			<data element_type="f16" shape="256, 64, 1, 1" offset="192896" size="32768"/>
			<output>
				<port id="0" precision="FP16">
					<dim>256</dim>
					<dim>64</dim>
					<dim>1</dim>
					<dim>1</dim>
				</port>
			</output>
		</layer>
		<layer id="36" name="Multiply_79097" type="Convert" version="opset1">
			<data destination_type="f32"/>
			<rt_info>
				<attribute name="decompression" version="0"/>
			</rt_info>
			<input>
				<port id="0" precision="FP16">
					<dim>256</dim>
					<dim>64</dim>
					<dim>1</dim>
					<dim>1</dim>
				</port>
			</input>
			<output>
				<port id="1" precision="FP32">
					<dim>256</dim>
					<dim>64</dim>
					<dim>1</dim>
					<dim>1</dim>
				</port>
			</output>
		</layer>
		<layer id="37" name="Multiply_76929" type="Convolution" version="opset1">
			<data strides="1, 1" dilations="1, 1" pads_begin="0, 0" pads_end="0, 0" auto_pad="explicit"/>
			<rt_info>
				<attribute name="fused_names" version="0" value="1854, 1855, backbone.layer1.0.downsample.1.bias, backbone.layer1.0.downsample.1.running_mean, backbone.layer1.0.downsample.1.running_var, backbone.layer1.0.downsample.1.weight"/>
			</rt_info>
			<input>
				<port id="0" precision="FP32">
					<dim>1</dim>
					<dim>64</dim>
					<dim>16</dim>
					<dim>16</dim>
				</port>
				<port id="1" precision="FP32">
					<dim>256</dim>
					<dim>64</dim>
					<dim>1</dim>
					<dim>1</dim>
				</port>
			</input>
			<output>
				<port id="2" precision="FP32">
					<dim>1</dim>
					<dim>256</dim>
					<dim>16</dim>
					<dim>16</dim>
				</port>
			</output>
		</layer>
		<layer id="38" name="Constant_76934_compressed" type="Const" version="opset1">
			<data element_type="f16" shape="1, 256, 1, 1" offset="225664" size="512"/>
			<output>
				<port id="0" precision="FP16">
					<dim>1</dim>
					<dim>256</dim>
					<dim>1</dim>
					<dim>1</dim>
				</port>
			</output>
		</layer>
		<layer id="39" name="Constant_76934" type="Convert" version="opset1">
			<data destination_type="f32"/>
			<rt_info>
				<attribute name="decompression" version="0"/>
			</rt_info>
			<input>
				<port id="0" precision="FP16">
					<dim>1</dim>
					<dim>256</dim>
					<dim>1</dim>
					<dim>1</dim>
				</port>
			</input>
			<output>
				<port id="1" precision="FP32">
					<dim>1</dim>
					<dim>256</dim>
					<dim>1</dim>
					<dim>1</dim>
				</port>
			</output>
		</layer>
		<layer id="40" name="1855" type="Add" version="opset1">
			<data auto_broadcast="numpy"/>
			<rt_info>
				<attribute name="fused_names" version="0" value="1855, backbone.layer1.0.downsample.1.bias, backbone.layer1.0.downsample.1.running_mean, backbone.layer1.0.downsample.1.running_var, backbone.layer1.0.downsample.1.weight"/>
			</rt_info>
			<input>
				<port id="0" precision="FP32">
					<dim>1</dim>
					<dim>256</dim>
					<dim>16</dim>
					<dim>16</dim>
				</port>
				<port id="1" precision="FP32">
					<dim>1</dim>
					<dim>256</dim>
					<dim>1</dim>
					<dim>1</dim>
				</port>
			</input>
			<output>
				<port id="2" precision="FP32" names="1855">
					<dim>1</dim>
					<dim>256</dim>
					<dim>16</dim>
					<dim>16</dim>
				</port>
			</output>
		</layer>
		<layer id="41" name="1856" type="Add" version="opset1">
			<data auto_broadcast="numpy"/>
			<rt_info>
				<attribute name="fused_names" version="0" value="1856"/>
			</rt_info>
			<input>
				<port id="0" precision="FP32">
					<dim>1</dim>
					<dim>256</dim>
					<dim>16</dim>
					<dim>16</dim>
				</port>
				<port id="1" precision="FP32">
					<dim>1</dim>
					<dim>256</dim>
					<dim>16</dim>
					<dim>16</dim>
				</port>
			</input>
			<output>
				<port id="2" precision="FP32" names="1856">
					<dim>1</dim>
					<dim>256</dim>
					<dim>16</dim>
					<dim>16</dim>
				</port>
			</output>
		</layer>
		<layer id="42" name="1857" type="ReLU" version="opset1">
			<rt_info>
				<attribute name="fused_names" version="0" value="1857"/>
			</rt_info>
			<input>
				<port id="0" precision="FP32">
					<dim>1</dim>
					<dim>256</dim>
					<dim>16</dim>
					<dim>16</dim>
				</port>
			</input>
			<output>
				<port id="1" precision="FP32" names="1857">
					<dim>1</dim>
					<dim>256</dim>
					<dim>16</dim>
					<dim>16</dim>
				</port>
			</output>
		</layer>
		<layer id="43" name="Multiply_79106_compressed" type="Const" version="opset1">
			<data element_type="f16" shape="64, 256, 1, 1" offset="226176" size="32768"/>
			<output>
				<port id="0" precision="FP16">
					<dim>64</dim>
					<dim>256</dim>
					<dim>1</dim>
					<dim>1</dim>
				</port>
			</output>
		</layer>
		<layer id="44" name="Multiply_79106" type="Convert" version="opset1">
			<data destination_type="f32"/>
			<rt_info>
				<attribute name="decompression" version="0"/>
			</rt_info>
			<input>
				<port id="0" precision="FP16">
					<dim>64</dim>
					<dim>256</dim>
					<dim>1</dim>
					<dim>1</dim>
				</port>
			</input>
			<output>
				<port id="1" precision="FP32">
					<dim>64</dim>
					<dim>256</dim>
					<dim>1</dim>
					<dim>1</dim>
				</port>
			</output>
		</layer>
		<layer id="45" name="Multiply_76936" type="Convolution" version="opset1">
			<data strides="1, 1" dilations="1, 1" pads_begin="0, 0" pads_end="0, 0" auto_pad="explicit"/>
			<rt_info>
				<attribute name="fused_names" version="0" value="1858, 1859, backbone.layer1.1.bn1.bias, backbone.layer1.1.bn1.running_mean, backbone.layer1.1.bn1.running_var, backbone.layer1.1.bn1.weight"/>
			</rt_info>
			<input>
				<port id="0" precision="FP32">
					<dim>1</dim>
					<dim>256</dim>
					<dim>16</dim>
					<dim>16</dim>
				</port>
				<port id="1" precision="FP32">
					<dim>64</dim>
					<dim>256</dim>
					<dim>1</dim>
					<dim>1</dim>
				</port>
			</input>
			<output>
				<port id="2" precision="FP32">
					<dim>1</dim>
					<dim>64</dim>
					<dim>16</dim>
					<dim>16</dim>
				</port>
			</output>
		</layer>
		<layer id="46" name="Constant_76941_compressed" type="Const" version="opset1">
			<data element_type="f16" shape="1, 64, 1, 1" offset="258944" size="128"/>
			<output>
				<port id="0" precision="FP16">
					<dim>1</dim>
					<dim>64</dim>
					<dim>1</dim>
					<dim>1</dim>
				</port>
			</output>
		</layer>
		<layer id="47" name="Constant_76941" type="Convert" version="opset1">
			<data destination_type="f32"/>
			<rt_info>
				<attribute name="decompression" version="0"/>
			</rt_info>
			<input>
				<port id="0" precision="FP16">
					<dim>1</dim>
					<dim>64</dim>
					<dim>1</dim>
					<dim>1</dim>
				</port>
			</input>
			<output>
				<port id="1" precision="FP32">
					<dim>1</dim>
					<dim>64</dim>
					<dim>1</dim>
					<dim>1</dim>
				</port>
			</output>
		</layer>
		<layer id="48" name="1859" type="Add" version="opset1">
			<data auto_broadcast="numpy"/>
			<rt_info>
				<attribute name="fused_names" version="0" value="1859, backbone.layer1.1.bn1.bias, backbone.layer1.1.bn1.running_mean, backbone.layer1.1.bn1.running_var, backbone.layer1.1.bn1.weight"/>
			</rt_info>
			<input>
				<port id="0" precision="FP32">
					<dim>1</dim>
					<dim>64</dim>
					<dim>16</dim>
					<dim>16</dim>
				</port>
				<port id="1" precision="FP32">
					<dim>1</dim>
					<dim>64</dim>
					<dim>1</dim>
					<dim>1</dim>
				</port>
			</input>
			<output>
				<port id="2" precision="FP32" names="1859">
					<dim>1</dim>
					<dim>64</dim>
					<dim>16</dim>
					<dim>16</dim>
				</port>
			</output>
		</layer>
		<layer id="49" name="1860" type="ReLU" version="opset1">
			<rt_info>
				<attribute name="fused_names" version="0" value="1860"/>
			</rt_info>
			<input>
				<port id="0" precision="FP32">
					<dim>1</dim>
					<dim>64</dim>
					<dim>16</dim>
					<dim>16</dim>
				</port>
			</input>
			<output>
				<port id="1" precision="FP32" names="1860">
					<dim>1</dim>
					<dim>64</dim>
					<dim>16</dim>
					<dim>16</dim>
				</port>
			</output>
		</layer>
		<layer id="50" name="Multiply_79115_compressed" type="Const" version="opset1">
			<data element_type="f16" shape="64, 64, 3, 3" offset="259072" size="73728"/>
			<output>
				<port id="0" precision="FP16">
					<dim>64</dim>
					<dim>64</dim>
					<dim>3</dim>
					<dim>3</dim>
				</port>
			</output>
		</layer>
		<layer id="51" name="Multiply_79115" type="Convert" version="opset1">
			<data destination_type="f32"/>
			<rt_info>
				<attribute name="decompression" version="0"/>
			</rt_info>
			<input>
				<port id="0" precision="FP16">
					<dim>64</dim>
					<dim>64</dim>
					<dim>3</dim>
					<dim>3</dim>
				</port>
			</input>
			<output>
				<port id="1" precision="FP32">
					<dim>64</dim>
					<dim>64</dim>
					<dim>3</dim>
					<dim>3</dim>
				</port>
			</output>
		</layer>
		<layer id="52" name="Multiply_76943" type="Convolution" version="opset1">
			<data strides="1, 1" dilations="1, 1" pads_begin="1, 1" pads_end="1, 1" auto_pad="explicit"/>
			<rt_info>
				<attribute name="fused_names" version="0" value="1861, 1862, backbone.layer1.1.bn2.bias, backbone.layer1.1.bn2.running_mean, backbone.layer1.1.bn2.running_var, backbone.layer1.1.bn2.weight"/>
			</rt_info>
			<input>
				<port id="0" precision="FP32">
					<dim>1</dim>
					<dim>64</dim>
					<dim>16</dim>
					<dim>16</dim>
				</port>
				<port id="1" precision="FP32">
					<dim>64</dim>
					<dim>64</dim>
					<dim>3</dim>
					<dim>3</dim>
				</port>
			</input>
			<output>
				<port id="2" precision="FP32">
					<dim>1</dim>
					<dim>64</dim>
					<dim>16</dim>
					<dim>16</dim>
				</port>
			</output>
		</layer>
		<layer id="53" name="Constant_76948_compressed" type="Const" version="opset1">
			<data element_type="f16" shape="1, 64, 1, 1" offset="332800" size="128"/>
			<output>
				<port id="0" precision="FP16">
					<dim>1</dim>
					<dim>64</dim>
					<dim>1</dim>
					<dim>1</dim>
				</port>
			</output>
		</layer>
		<layer id="54" name="Constant_76948" type="Convert" version="opset1">
			<data destination_type="f32"/>
			<rt_info>
				<attribute name="decompression" version="0"/>
			</rt_info>
			<input>
				<port id="0" precision="FP16">
					<dim>1</dim>
					<dim>64</dim>
					<dim>1</dim>
					<dim>1</dim>
				</port>
			</input>
			<output>
				<port id="1" precision="FP32">
					<dim>1</dim>
					<dim>64</dim>
					<dim>1</dim>
					<dim>1</dim>
				</port>
			</output>
		</layer>
		<layer id="55" name="1862" type="Add" version="opset1">
			<data auto_broadcast="numpy"/>
			<rt_info>
				<attribute name="fused_names" version="0" value="1862, backbone.layer1.1.bn2.bias, backbone.layer1.1.bn2.running_mean, backbone.layer1.1.bn2.running_var, backbone.layer1.1.bn2.weight"/>
			</rt_info>
			<input>
				<port id="0" precision="FP32">
					<dim>1</dim>
					<dim>64</dim>
					<dim>16</dim>
					<dim>16</dim>
				</port>
				<port id="1" precision="FP32">
					<dim>1</dim>
					<dim>64</dim>
					<dim>1</dim>
					<dim>1</dim>
				</port>
			</input>
			<output>
				<port id="2" precision="FP32" names="1862">
					<dim>1</dim>
					<dim>64</dim>
					<dim>16</dim>
					<dim>16</dim>
				</port>
			</output>
		</layer>
		<layer id="56" name="1863" type="ReLU" version="opset1">
			<rt_info>
				<attribute name="fused_names" version="0" value="1863"/>
			</rt_info>
			<input>
				<port id="0" precision="FP32">
					<dim>1</dim>
					<dim>64</dim>
					<dim>16</dim>
					<dim>16</dim>
				</port>
			</input>
			<output>
				<port id="1" precision="FP32" names="1863">
					<dim>1</dim>
					<dim>64</dim>
					<dim>16</dim>
					<dim>16</dim>
				</port>
			</output>
		</layer>
		<layer id="57" name="Multiply_79124_compressed" type="Const" version="opset1">
			<data element_type="f16" shape="256, 64, 1, 1" offset="332928" size="32768"/>
			<output>
				<port id="0" precision="FP16">
					<dim>256</dim>
					<dim>64</dim>
					<dim>1</dim>
					<dim>1</dim>
				</port>
			</output>
		</layer>
		<layer id="58" name="Multiply_79124" type="Convert" version="opset1">
			<data destination_type="f32"/>
			<rt_info>
				<attribute name="decompression" version="0"/>
			</rt_info>
			<input>
				<port id="0" precision="FP16">
					<dim>256</dim>
					<dim>64</dim>
					<dim>1</dim>
					<dim>1</dim>
				</port>
			</input>
			<output>
				<port id="1" precision="FP32">
					<dim>256</dim>
					<dim>64</dim>
					<dim>1</dim>
					<dim>1</dim>
				</port>
			</output>
		</layer>
		<layer id="59" name="Multiply_76950" type="Convolution" version="opset1">
			<data strides="1, 1" dilations="1, 1" pads_begin="0, 0" pads_end="0, 0" auto_pad="explicit"/>
			<rt_info>
				<attribute name="fused_names" version="0" value="1864, 1865, backbone.layer1.1.bn3.bias, backbone.layer1.1.bn3.running_mean, backbone.layer1.1.bn3.running_var, backbone.layer1.1.bn3.weight"/>
			</rt_info>
			<input>
				<port id="0" precision="FP32">
					<dim>1</dim>
					<dim>64</dim>
					<dim>16</dim>
					<dim>16</dim>
				</port>
				<port id="1" precision="FP32">
					<dim>256</dim>
					<dim>64</dim>
					<dim>1</dim>
					<dim>1</dim>
				</port>
			</input>
			<output>
				<port id="2" precision="FP32">
					<dim>1</dim>
					<dim>256</dim>
					<dim>16</dim>
					<dim>16</dim>
				</port>
			</output>
		</layer>
		<layer id="60" name="Constant_76955_compressed" type="Const" version="opset1">
			<data element_type="f16" shape="1, 256, 1, 1" offset="365696" size="512"/>
			<output>
				<port id="0" precision="FP16">
					<dim>1</dim>
					<dim>256</dim>
					<dim>1</dim>
					<dim>1</dim>
				</port>
			</output>
		</layer>
		<layer id="61" name="Constant_76955" type="Convert" version="opset1">
			<data destination_type="f32"/>
			<rt_info>
				<attribute name="decompression" version="0"/>
			</rt_info>
			<input>
				<port id="0" precision="FP16">
					<dim>1</dim>
					<dim>256</dim>
					<dim>1</dim>
					<dim>1</dim>
				</port>
			</input>
			<output>
				<port id="1" precision="FP32">
					<dim>1</dim>
					<dim>256</dim>
					<dim>1</dim>
					<dim>1</dim>
				</port>
			</output>
		</layer>
		<layer id="62" name="1865" type="Add" version="opset1">
			<data auto_broadcast="numpy"/>
			<rt_info>
				<attribute name="fused_names" version="0" value="1865, backbone.layer1.1.bn3.bias, backbone.layer1.1.bn3.running_mean, backbone.layer1.1.bn3.running_var, backbone.layer1.1.bn3.weight"/>
			</rt_info>
			<input>
				<port id="0" precision="FP32">
					<dim>1</dim>
					<dim>256</dim>
					<dim>16</dim>
					<dim>16</dim>
				</port>
				<port id="1" precision="FP32">
					<dim>1</dim>
					<dim>256</dim>
					<dim>1</dim>
					<dim>1</dim>
				</port>
			</input>
			<output>
				<port id="2" precision="FP32" names="1865">
					<dim>1</dim>
					<dim>256</dim>
					<dim>16</dim>
					<dim>16</dim>
				</port>
			</output>
		</layer>
		<layer id="63" name="1866" type="Add" version="opset1">
			<data auto_broadcast="numpy"/>
			<rt_info>
				<attribute name="fused_names" version="0" value="1866"/>
			</rt_info>
			<input>
				<port id="0" precision="FP32">
					<dim>1</dim>
					<dim>256</dim>
					<dim>16</dim>
					<dim>16</dim>
				</port>
				<port id="1" precision="FP32">
					<dim>1</dim>
					<dim>256</dim>
					<dim>16</dim>
					<dim>16</dim>
				</port>
			</input>
			<output>
				<port id="2" precision="FP32" names="1866">
					<dim>1</dim>
					<dim>256</dim>
					<dim>16</dim>
					<dim>16</dim>
				</port>
			</output>
		</layer>
		<layer id="64" name="1867" type="ReLU" version="opset1">
			<rt_info>
				<attribute name="fused_names" version="0" value="1867"/>
			</rt_info>
			<input>
				<port id="0" precision="FP32">
					<dim>1</dim>
					<dim>256</dim>
					<dim>16</dim>
					<dim>16</dim>
				</port>
			</input>
			<output>
				<port id="1" precision="FP32" names="1867">
					<dim>1</dim>
					<dim>256</dim>
					<dim>16</dim>
					<dim>16</dim>
				</port>
			</output>
		</layer>
		<layer id="65" name="Multiply_79133_compressed" type="Const" version="opset1">
			<data element_type="f16" shape="64, 256, 1, 1" offset="366208" size="32768"/>
			<output>
				<port id="0" precision="FP16">
					<dim>64</dim>
					<dim>256</dim>
					<dim>1</dim>
					<dim>1</dim>
				</port>
			</output>
		</layer>
		<layer id="66" name="Multiply_79133" type="Convert" version="opset1">
			<data destination_type="f32"/>
			<rt_info>
				<attribute name="decompression" version="0"/>
			</rt_info>
			<input>
				<port id="0" precision="FP16">
					<dim>64</dim>
					<dim>256</dim>
					<dim>1</dim>
					<dim>1</dim>
				</port>
			</input>
			<output>
				<port id="1" precision="FP32">
					<dim>64</dim>
					<dim>256</dim>
					<dim>1</dim>
					<dim>1</dim>
				</port>
			</output>
		</layer>
		<layer id="67" name="Multiply_76957" type="Convolution" version="opset1">
			<data strides="1, 1" dilations="1, 1" pads_begin="0, 0" pads_end="0, 0" auto_pad="explicit"/>
			<rt_info>
				<attribute name="fused_names" version="0" value="1868, 1869, backbone.layer1.2.bn1.bias, backbone.layer1.2.bn1.running_mean, backbone.layer1.2.bn1.running_var, backbone.layer1.2.bn1.weight"/>
			</rt_info>
			<input>
				<port id="0" precision="FP32">
					<dim>1</dim>
					<dim>256</dim>
					<dim>16</dim>
					<dim>16</dim>
				</port>
				<port id="1" precision="FP32">
					<dim>64</dim>
					<dim>256</dim>
					<dim>1</dim>
					<dim>1</dim>
				</port>
			</input>
			<output>
				<port id="2" precision="FP32">
					<dim>1</dim>
					<dim>64</dim>
					<dim>16</dim>
					<dim>16</dim>
				</port>
			</output>
		</layer>
		<layer id="68" name="Constant_76962_compressed" type="Const" version="opset1">
			<data element_type="f16" shape="1, 64, 1, 1" offset="398976" size="128"/>
			<output>
				<port id="0" precision="FP16">
					<dim>1</dim>
					<dim>64</dim>
					<dim>1</dim>
					<dim>1</dim>
				</port>
			</output>
		</layer>
		<layer id="69" name="Constant_76962" type="Convert" version="opset1">
			<data destination_type="f32"/>
			<rt_info>
				<attribute name="decompression" version="0"/>
			</rt_info>
			<input>
				<port id="0" precision="FP16">
					<dim>1</dim>
					<dim>64</dim>
					<dim>1</dim>
					<dim>1</dim>
				</port>
			</input>
			<output>
				<port id="1" precision="FP32">
					<dim>1</dim>
					<dim>64</dim>
					<dim>1</dim>
					<dim>1</dim>
				</port>
			</output>
		</layer>
		<layer id="70" name="1869" type="Add" version="opset1">
			<data auto_broadcast="numpy"/>
			<rt_info>
				<attribute name="fused_names" version="0" value="1869, backbone.layer1.2.bn1.bias, backbone.layer1.2.bn1.running_mean, backbone.layer1.2.bn1.running_var, backbone.layer1.2.bn1.weight"/>
			</rt_info>
			<input>
				<port id="0" precision="FP32">
					<dim>1</dim>
					<dim>64</dim>
					<dim>16</dim>
					<dim>16</dim>
				</port>
				<port id="1" precision="FP32">
					<dim>1</dim>
					<dim>64</dim>
					<dim>1</dim>
					<dim>1</dim>
				</port>
			</input>
			<output>
				<port id="2" precision="FP32" names="1869">
					<dim>1</dim>
					<dim>64</dim>
					<dim>16</dim>
					<dim>16</dim>
				</port>
			</output>
		</layer>
		<layer id="71" name="1870" type="ReLU" version="opset1">
			<rt_info>
				<attribute name="fused_names" version="0" value="1870"/>
			</rt_info>
			<input>
				<port id="0" precision="FP32">
					<dim>1</dim>
					<dim>64</dim>
					<dim>16</dim>
					<dim>16</dim>
				</port>
			</input>
			<output>
				<port id="1" precision="FP32" names="1870">
					<dim>1</dim>
					<dim>64</dim>
					<dim>16</dim>
					<dim>16</dim>
				</port>
			</output>
		</layer>
		<layer id="72" name="Multiply_79142_compressed" type="Const" version="opset1">
			<data element_type="f16" shape="64, 64, 3, 3" offset="399104" size="73728"/>
			<output>
				<port id="0" precision="FP16">
					<dim>64</dim>
					<dim>64</dim>
					<dim>3</dim>
					<dim>3</dim>
				</port>
			</output>
		</layer>
		<layer id="73" name="Multiply_79142" type="Convert" version="opset1">
			<data destination_type="f32"/>
			<rt_info>
				<attribute name="decompression" version="0"/>
			</rt_info>
			<input>
				<port id="0" precision="FP16">
					<dim>64</dim>
					<dim>64</dim>
					<dim>3</dim>
					<dim>3</dim>
				</port>
			</input>
			<output>
				<port id="1" precision="FP32">
					<dim>64</dim>
					<dim>64</dim>
					<dim>3</dim>
					<dim>3</dim>
				</port>
			</output>
		</layer>
		<layer id="74" name="Multiply_76964" type="Convolution" version="opset1">
			<data strides="1, 1" dilations="1, 1" pads_begin="1, 1" pads_end="1, 1" auto_pad="explicit"/>
			<rt_info>
				<attribute name="fused_names" version="0" value="1871, 1872, backbone.layer1.2.bn2.bias, backbone.layer1.2.bn2.running_mean, backbone.layer1.2.bn2.running_var, backbone.layer1.2.bn2.weight"/>
			</rt_info>
			<input>
				<port id="0" precision="FP32">
					<dim>1</dim>
					<dim>64</dim>
					<dim>16</dim>
					<dim>16</dim>
				</port>
				<port id="1" precision="FP32">
					<dim>64</dim>
					<dim>64</dim>
					<dim>3</dim>
					<dim>3</dim>
				</port>
			</input>
			<output>
				<port id="2" precision="FP32">
					<dim>1</dim>
					<dim>64</dim>
					<dim>16</dim>
					<dim>16</dim>
				</port>
			</output>
		</layer>
		<layer id="75" name="Constant_76969_compressed" type="Const" version="opset1">
			<data element_type="f16" shape="1, 64, 1, 1" offset="472832" size="128"/>
			<output>
				<port id="0" precision="FP16">
					<dim>1</dim>
					<dim>64</dim>
					<dim>1</dim>
					<dim>1</dim>
				</port>
			</output>
		</layer>
		<layer id="76" name="Constant_76969" type="Convert" version="opset1">
			<data destination_type="f32"/>
			<rt_info>
				<attribute name="decompression" version="0"/>
			</rt_info>
			<input>
				<port id="0" precision="FP16">
					<dim>1</dim>
					<dim>64</dim>
					<dim>1</dim>
					<dim>1</dim>
				</port>
			</input>
			<output>
				<port id="1" precision="FP32">
					<dim>1</dim>
					<dim>64</dim>
					<dim>1</dim>
					<dim>1</dim>
				</port>
			</output>
		</layer>
		<layer id="77" name="1872" type="Add" version="opset1">
			<data auto_broadcast="numpy"/>
			<rt_info>
				<attribute name="fused_names" version="0" value="1872, backbone.layer1.2.bn2.bias, backbone.layer1.2.bn2.running_mean, backbone.layer1.2.bn2.running_var, backbone.layer1.2.bn2.weight"/>
			</rt_info>
			<input>
				<port id="0" precision="FP32">
					<dim>1</dim>
					<dim>64</dim>
					<dim>16</dim>
					<dim>16</dim>
				</port>
				<port id="1" precision="FP32">
					<dim>1</dim>
					<dim>64</dim>
					<dim>1</dim>
					<dim>1</dim>
				</port>
			</input>
			<output>
				<port id="2" precision="FP32" names="1872">
					<dim>1</dim>
					<dim>64</dim>
					<dim>16</dim>
					<dim>16</dim>
				</port>
			</output>
		</layer>
		<layer id="78" name="1873" type="ReLU" version="opset1">
			<rt_info>
				<attribute name="fused_names" version="0" value="1873"/>
			</rt_info>
			<input>
				<port id="0" precision="FP32">
					<dim>1</dim>
					<dim>64</dim>
					<dim>16</dim>
					<dim>16</dim>
				</port>
			</input>
			<output>
				<port id="1" precision="FP32" names="1873">
					<dim>1</dim>
					<dim>64</dim>
					<dim>16</dim>
					<dim>16</dim>
				</port>
			</output>
		</layer>
		<layer id="79" name="Multiply_79151_compressed" type="Const" version="opset1">
			<data element_type="f16" shape="256, 64, 1, 1" offset="472960" size="32768"/>
			<output>
				<port id="0" precision="FP16">
					<dim>256</dim>
					<dim>64</dim>
					<dim>1</dim>
					<dim>1</dim>
				</port>
			</output>
		</layer>
		<layer id="80" name="Multiply_79151" type="Convert" version="opset1">
			<data destination_type="f32"/>
			<rt_info>
				<attribute name="decompression" version="0"/>
			</rt_info>
			<input>
				<port id="0" precision="FP16">
					<dim>256</dim>
					<dim>64</dim>
					<dim>1</dim>
					<dim>1</dim>
				</port>
			</input>
			<output>
				<port id="1" precision="FP32">
					<dim>256</dim>
					<dim>64</dim>
					<dim>1</dim>
					<dim>1</dim>
				</port>
			</output>
		</layer>
		<layer id="81" name="Multiply_76971" type="Convolution" version="opset1">
			<data strides="1, 1" dilations="1, 1" pads_begin="0, 0" pads_end="0, 0" auto_pad="explicit"/>
			<rt_info>
				<attribute name="fused_names" version="0" value="1874, 1875, backbone.layer1.2.bn3.bias, backbone.layer1.2.bn3.running_mean, backbone.layer1.2.bn3.running_var, backbone.layer1.2.bn3.weight"/>
			</rt_info>
			<input>
				<port id="0" precision="FP32">
					<dim>1</dim>
					<dim>64</dim>
					<dim>16</dim>
					<dim>16</dim>
				</port>
				<port id="1" precision="FP32">
					<dim>256</dim>
					<dim>64</dim>
					<dim>1</dim>
					<dim>1</dim>
				</port>
			</input>
			<output>
				<port id="2" precision="FP32">
					<dim>1</dim>
					<dim>256</dim>
					<dim>16</dim>
					<dim>16</dim>
				</port>
			</output>
		</layer>
		<layer id="82" name="Constant_76976_compressed" type="Const" version="opset1">
			<data element_type="f16" shape="1, 256, 1, 1" offset="505728" size="512"/>
			<output>
				<port id="0" precision="FP16">
					<dim>1</dim>
					<dim>256</dim>
					<dim>1</dim>
					<dim>1</dim>
				</port>
			</output>
		</layer>
		<layer id="83" name="Constant_76976" type="Convert" version="opset1">
			<data destination_type="f32"/>
			<rt_info>
				<attribute name="decompression" version="0"/>
			</rt_info>
			<input>
				<port id="0" precision="FP16">
					<dim>1</dim>
					<dim>256</dim>
					<dim>1</dim>
					<dim>1</dim>
				</port>
			</input>
			<output>
				<port id="1" precision="FP32">
					<dim>1</dim>
					<dim>256</dim>
					<dim>1</dim>
					<dim>1</dim>
				</port>
			</output>
		</layer>
		<layer id="84" name="1875" type="Add" version="opset1">
			<data auto_broadcast="numpy"/>
			<rt_info>
				<attribute name="fused_names" version="0" value="1875, backbone.layer1.2.bn3.bias, backbone.layer1.2.bn3.running_mean, backbone.layer1.2.bn3.running_var, backbone.layer1.2.bn3.weight"/>
			</rt_info>
			<input>
				<port id="0" precision="FP32">
					<dim>1</dim>
					<dim>256</dim>
					<dim>16</dim>
					<dim>16</dim>
				</port>
				<port id="1" precision="FP32">
					<dim>1</dim>
					<dim>256</dim>
					<dim>1</dim>
					<dim>1</dim>
				</port>
			</input>
			<output>
				<port id="2" precision="FP32" names="1875">
					<dim>1</dim>
					<dim>256</dim>
					<dim>16</dim>
					<dim>16</dim>
				</port>
			</output>
		</layer>
		<layer id="85" name="1876" type="Add" version="opset1">
			<data auto_broadcast="numpy"/>
			<rt_info>
				<attribute name="fused_names" version="0" value="1876"/>
			</rt_info>
			<input>
				<port id="0" precision="FP32">
					<dim>1</dim>
					<dim>256</dim>
					<dim>16</dim>
					<dim>16</dim>
				</port>
				<port id="1" precision="FP32">
					<dim>1</dim>
					<dim>256</dim>
					<dim>16</dim>
					<dim>16</dim>
				</port>
			</input>
			<output>
				<port id="2" precision="FP32" names="1876">
					<dim>1</dim>
					<dim>256</dim>
					<dim>16</dim>
					<dim>16</dim>
				</port>
			</output>
		</layer>
		<layer id="86" name="1877" type="ReLU" version="opset1">
			<rt_info>
				<attribute name="fused_names" version="0" value="1877"/>
			</rt_info>
			<input>
				<port id="0" precision="FP32">
					<dim>1</dim>
					<dim>256</dim>
					<dim>16</dim>
					<dim>16</dim>
				</port>
			</input>
			<output>
				<port id="1" precision="FP32" names="1877">
					<dim>1</dim>
					<dim>256</dim>
					<dim>16</dim>
					<dim>16</dim>
				</port>
			</output>
		</layer>
		<layer id="87" name="Multiply_79160_compressed" type="Const" version="opset1">
			<data element_type="f16" shape="64, 256, 1, 1" offset="506240" size="32768"/>
			<output>
				<port id="0" precision="FP16">
					<dim>64</dim>
					<dim>256</dim>
					<dim>1</dim>
					<dim>1</dim>
				</port>
			</output>
		</layer>
		<layer id="88" name="Multiply_79160" type="Convert" version="opset1">
			<data destination_type="f32"/>
			<rt_info>
				<attribute name="decompression" version="0"/>
			</rt_info>
			<input>
				<port id="0" precision="FP16">
					<dim>64</dim>
					<dim>256</dim>
					<dim>1</dim>
					<dim>1</dim>
				</port>
			</input>
			<output>
				<port id="1" precision="FP32">
					<dim>64</dim>
					<dim>256</dim>
					<dim>1</dim>
					<dim>1</dim>
				</port>
			</output>
		</layer>
		<layer id="89" name="Multiply_76978" type="Convolution" version="opset1">
			<data strides="1, 1" dilations="1, 1" pads_begin="0, 0" pads_end="0, 0" auto_pad="explicit"/>
			<rt_info>
				<attribute name="fused_names" version="0" value="1878, 1879, backbone.layer1.3.bn1.bias, backbone.layer1.3.bn1.running_mean, backbone.layer1.3.bn1.running_var, backbone.layer1.3.bn1.weight"/>
			</rt_info>
			<input>
				<port id="0" precision="FP32">
					<dim>1</dim>
					<dim>256</dim>
					<dim>16</dim>
					<dim>16</dim>
				</port>
				<port id="1" precision="FP32">
					<dim>64</dim>
					<dim>256</dim>
					<dim>1</dim>
					<dim>1</dim>
				</port>
			</input>
			<output>
				<port id="2" precision="FP32">
					<dim>1</dim>
					<dim>64</dim>
					<dim>16</dim>
					<dim>16</dim>
				</port>
			</output>
		</layer>
		<layer id="90" name="Constant_76983_compressed" type="Const" version="opset1">
			<data element_type="f16" shape="1, 64, 1, 1" offset="539008" size="128"/>
			<output>
				<port id="0" precision="FP16">
					<dim>1</dim>
					<dim>64</dim>
					<dim>1</dim>
					<dim>1</dim>
				</port>
			</output>
		</layer>
		<layer id="91" name="Constant_76983" type="Convert" version="opset1">
			<data destination_type="f32"/>
			<rt_info>
				<attribute name="decompression" version="0"/>
			</rt_info>
			<input>
				<port id="0" precision="FP16">
					<dim>1</dim>
					<dim>64</dim>
					<dim>1</dim>
					<dim>1</dim>
				</port>
			</input>
			<output>
				<port id="1" precision="FP32">
					<dim>1</dim>
					<dim>64</dim>
					<dim>1</dim>
					<dim>1</dim>
				</port>
			</output>
		</layer>
		<layer id="92" name="1879" type="Add" version="opset1">
			<data auto_broadcast="numpy"/>
			<rt_info>
				<attribute name="fused_names" version="0" value="1879, backbone.layer1.3.bn1.bias, backbone.layer1.3.bn1.running_mean, backbone.layer1.3.bn1.running_var, backbone.layer1.3.bn1.weight"/>
			</rt_info>
			<input>
				<port id="0" precision="FP32">
					<dim>1</dim>
					<dim>64</dim>
					<dim>16</dim>
					<dim>16</dim>
				</port>
				<port id="1" precision="FP32">
					<dim>1</dim>
					<dim>64</dim>
					<dim>1</dim>
					<dim>1</dim>
				</port>
			</input>
			<output>
				<port id="2" precision="FP32" names="1879">
					<dim>1</dim>
					<dim>64</dim>
					<dim>16</dim>
					<dim>16</dim>
				</port>
			</output>
		</layer>
		<layer id="93" name="1880" type="ReLU" version="opset1">
			<rt_info>
				<attribute name="fused_names" version="0" value="1880"/>
			</rt_info>
			<input>
				<port id="0" precision="FP32">
					<dim>1</dim>
					<dim>64</dim>
					<dim>16</dim>
					<dim>16</dim>
				</port>
			</input>
			<output>
				<port id="1" precision="FP32" names="1880">
					<dim>1</dim>
					<dim>64</dim>
					<dim>16</dim>
					<dim>16</dim>
				</port>
			</output>
		</layer>
		<layer id="94" name="Multiply_79169_compressed" type="Const" version="opset1">
			<data element_type="f16" shape="64, 64, 3, 3" offset="539136" size="73728"/>
			<output>
				<port id="0" precision="FP16">
					<dim>64</dim>
					<dim>64</dim>
					<dim>3</dim>
					<dim>3</dim>
				</port>
			</output>
		</layer>
		<layer id="95" name="Multiply_79169" type="Convert" version="opset1">
			<data destination_type="f32"/>
			<rt_info>
				<attribute name="decompression" version="0"/>
			</rt_info>
			<input>
				<port id="0" precision="FP16">
					<dim>64</dim>
					<dim>64</dim>
					<dim>3</dim>
					<dim>3</dim>
				</port>
			</input>
			<output>
				<port id="1" precision="FP32">
					<dim>64</dim>
					<dim>64</dim>
					<dim>3</dim>
					<dim>3</dim>
				</port>
			</output>
		</layer>
		<layer id="96" name="Multiply_76985" type="Convolution" version="opset1">
			<data strides="1, 1" dilations="1, 1" pads_begin="1, 1" pads_end="1, 1" auto_pad="explicit"/>
			<rt_info>
				<attribute name="fused_names" version="0" value="1881, 1882, backbone.layer1.3.bn2.bias, backbone.layer1.3.bn2.running_mean, backbone.layer1.3.bn2.running_var, backbone.layer1.3.bn2.weight"/>
			</rt_info>
			<input>
				<port id="0" precision="FP32">
					<dim>1</dim>
					<dim>64</dim>
					<dim>16</dim>
					<dim>16</dim>
				</port>
				<port id="1" precision="FP32">
					<dim>64</dim>
					<dim>64</dim>
					<dim>3</dim>
					<dim>3</dim>
				</port>
			</input>
			<output>
				<port id="2" precision="FP32">
					<dim>1</dim>
					<dim>64</dim>
					<dim>16</dim>
					<dim>16</dim>
				</port>
			</output>
		</layer>
		<layer id="97" name="Constant_76990_compressed" type="Const" version="opset1">
			<data element_type="f16" shape="1, 64, 1, 1" offset="612864" size="128"/>
			<output>
				<port id="0" precision="FP16">
					<dim>1</dim>
					<dim>64</dim>
					<dim>1</dim>
					<dim>1</dim>
				</port>
			</output>
		</layer>
		<layer id="98" name="Constant_76990" type="Convert" version="opset1">
			<data destination_type="f32"/>
			<rt_info>
				<attribute name="decompression" version="0"/>
			</rt_info>
			<input>
				<port id="0" precision="FP16">
					<dim>1</dim>
					<dim>64</dim>
					<dim>1</dim>
					<dim>1</dim>
				</port>
			</input>
			<output>
				<port id="1" precision="FP32">
					<dim>1</dim>
					<dim>64</dim>
					<dim>1</dim>
					<dim>1</dim>
				</port>
			</output>
		</layer>
		<layer id="99" name="1882" type="Add" version="opset1">
			<data auto_broadcast="numpy"/>
			<rt_info>
				<attribute name="fused_names" version="0" value="1882, backbone.layer1.3.bn2.bias, backbone.layer1.3.bn2.running_mean, backbone.layer1.3.bn2.running_var, backbone.layer1.3.bn2.weight"/>
			</rt_info>
			<input>
				<port id="0" precision="FP32">
					<dim>1</dim>
					<dim>64</dim>
					<dim>16</dim>
					<dim>16</dim>
				</port>
				<port id="1" precision="FP32">
					<dim>1</dim>
					<dim>64</dim>
					<dim>1</dim>
					<dim>1</dim>
				</port>
			</input>
			<output>
				<port id="2" precision="FP32" names="1882">
					<dim>1</dim>
					<dim>64</dim>
					<dim>16</dim>
					<dim>16</dim>
				</port>
			</output>
		</layer>
		<layer id="100" name="1883" type="ReLU" version="opset1">
			<rt_info>
				<attribute name="fused_names" version="0" value="1883"/>
			</rt_info>
			<input>
				<port id="0" precision="FP32">
					<dim>1</dim>
					<dim>64</dim>
					<dim>16</dim>
					<dim>16</dim>
				</port>
			</input>
			<output>
				<port id="1" precision="FP32" names="1883">
					<dim>1</dim>
					<dim>64</dim>
					<dim>16</dim>
					<dim>16</dim>
				</port>
			</output>
		</layer>
		<layer id="101" name="Multiply_79178_compressed" type="Const" version="opset1">
			<data element_type="f16" shape="256, 64, 1, 1" offset="612992" size="32768"/>
			<output>
				<port id="0" precision="FP16">
					<dim>256</dim>
					<dim>64</dim>
					<dim>1</dim>
					<dim>1</dim>
				</port>
			</output>
		</layer>
		<layer id="102" name="Multiply_79178" type="Convert" version="opset1">
			<data destination_type="f32"/>
			<rt_info>
				<attribute name="decompression" version="0"/>
			</rt_info>
			<input>
				<port id="0" precision="FP16">
					<dim>256</dim>
					<dim>64</dim>
					<dim>1</dim>
					<dim>1</dim>
				</port>
			</input>
			<output>
				<port id="1" precision="FP32">
					<dim>256</dim>
					<dim>64</dim>
					<dim>1</dim>
					<dim>1</dim>
				</port>
			</output>
		</layer>
		<layer id="103" name="Multiply_76992" type="Convolution" version="opset1">
			<data strides="1, 1" dilations="1, 1" pads_begin="0, 0" pads_end="0, 0" auto_pad="explicit"/>
			<rt_info>
				<attribute name="fused_names" version="0" value="1884, 1885, backbone.layer1.3.bn3.bias, backbone.layer1.3.bn3.running_mean, backbone.layer1.3.bn3.running_var, backbone.layer1.3.bn3.weight"/>
			</rt_info>
			<input>
				<port id="0" precision="FP32">
					<dim>1</dim>
					<dim>64</dim>
					<dim>16</dim>
					<dim>16</dim>
				</port>
				<port id="1" precision="FP32">
					<dim>256</dim>
					<dim>64</dim>
					<dim>1</dim>
					<dim>1</dim>
				</port>
			</input>
			<output>
				<port id="2" precision="FP32">
					<dim>1</dim>
					<dim>256</dim>
					<dim>16</dim>
					<dim>16</dim>
				</port>
			</output>
		</layer>
		<layer id="104" name="Constant_76997_compressed" type="Const" version="opset1">
			<data element_type="f16" shape="1, 256, 1, 1" offset="645760" size="512"/>
			<output>
				<port id="0" precision="FP16">
					<dim>1</dim>
					<dim>256</dim>
					<dim>1</dim>
					<dim>1</dim>
				</port>
			</output>
		</layer>
		<layer id="105" name="Constant_76997" type="Convert" version="opset1">
			<data destination_type="f32"/>
			<rt_info>
				<attribute name="decompression" version="0"/>
			</rt_info>
			<input>
				<port id="0" precision="FP16">
					<dim>1</dim>
					<dim>256</dim>
					<dim>1</dim>
					<dim>1</dim>
				</port>
			</input>
			<output>
				<port id="1" precision="FP32">
					<dim>1</dim>
					<dim>256</dim>
					<dim>1</dim>
					<dim>1</dim>
				</port>
			</output>
		</layer>
		<layer id="106" name="1885" type="Add" version="opset1">
			<data auto_broadcast="numpy"/>
			<rt_info>
				<attribute name="fused_names" version="0" value="1885, backbone.layer1.3.bn3.bias, backbone.layer1.3.bn3.running_mean, backbone.layer1.3.bn3.running_var, backbone.layer1.3.bn3.weight"/>
			</rt_info>
			<input>
				<port id="0" precision="FP32">
					<dim>1</dim>
					<dim>256</dim>
					<dim>16</dim>
					<dim>16</dim>
				</port>
				<port id="1" precision="FP32">
					<dim>1</dim>
					<dim>256</dim>
					<dim>1</dim>
					<dim>1</dim>
				</port>
			</input>
			<output>
				<port id="2" precision="FP32" names="1885">
					<dim>1</dim>
					<dim>256</dim>
					<dim>16</dim>
					<dim>16</dim>
				</port>
			</output>
		</layer>
		<layer id="107" name="1886" type="Add" version="opset1">
			<data auto_broadcast="numpy"/>
			<rt_info>
				<attribute name="fused_names" version="0" value="1886"/>
			</rt_info>
			<input>
				<port id="0" precision="FP32">
					<dim>1</dim>
					<dim>256</dim>
					<dim>16</dim>
					<dim>16</dim>
				</port>
				<port id="1" precision="FP32">
					<dim>1</dim>
					<dim>256</dim>
					<dim>16</dim>
					<dim>16</dim>
				</port>
			</input>
			<output>
				<port id="2" precision="FP32" names="1886">
					<dim>1</dim>
					<dim>256</dim>
					<dim>16</dim>
					<dim>16</dim>
				</port>
			</output>
		</layer>
		<layer id="108" name="1887" type="ReLU" version="opset1">
			<rt_info>
				<attribute name="fused_names" version="0" value="1887"/>
			</rt_info>
			<input>
				<port id="0" precision="FP32">
					<dim>1</dim>
					<dim>256</dim>
					<dim>16</dim>
					<dim>16</dim>
				</port>
			</input>
			<output>
				<port id="1" precision="FP32" names="1887">
					<dim>1</dim>
					<dim>256</dim>
					<dim>16</dim>
					<dim>16</dim>
				</port>
			</output>
		</layer>
		<layer id="109" name="Multiply_79187_compressed" type="Const" version="opset1">
			<data element_type="f16" shape="18, 256, 3, 3" offset="646272" size="82944"/>
			<output>
				<port id="0" precision="FP16">
					<dim>18</dim>
					<dim>256</dim>
					<dim>3</dim>
					<dim>3</dim>
				</port>
			</output>
		</layer>
		<layer id="110" name="Multiply_79187" type="Convert" version="opset1">
			<data destination_type="f32"/>
			<rt_info>
				<attribute name="decompression" version="0"/>
			</rt_info>
			<input>
				<port id="0" precision="FP16">
					<dim>18</dim>
					<dim>256</dim>
					<dim>3</dim>
					<dim>3</dim>
				</port>
			</input>
			<output>
				<port id="1" precision="FP32">
					<dim>18</dim>
					<dim>256</dim>
					<dim>3</dim>
					<dim>3</dim>
				</port>
			</output>
		</layer>
		<layer id="111" name="Multiply_76999" type="Convolution" version="opset1">
			<data strides="1, 1" dilations="1, 1" pads_begin="1, 1" pads_end="1, 1" auto_pad="explicit"/>
			<rt_info>
				<attribute name="fused_names" version="0" value="1888, 1889, backbone.transition1.0.1.bias, backbone.transition1.0.1.running_mean, backbone.transition1.0.1.running_var, backbone.transition1.0.1.weight"/>
			</rt_info>
			<input>
				<port id="0" precision="FP32">
					<dim>1</dim>
					<dim>256</dim>
					<dim>16</dim>
					<dim>16</dim>
				</port>
				<port id="1" precision="FP32">
					<dim>18</dim>
					<dim>256</dim>
					<dim>3</dim>
					<dim>3</dim>
				</port>
			</input>
			<output>
				<port id="2" precision="FP32">
					<dim>1</dim>
					<dim>18</dim>
					<dim>16</dim>
					<dim>16</dim>
				</port>
			</output>
		</layer>
		<layer id="112" name="Constant_77004_compressed" type="Const" version="opset1">
			<data element_type="f16" shape="1, 18, 1, 1" offset="729216" size="36"/>
			<output>
				<port id="0" precision="FP16">
					<dim>1</dim>
					<dim>18</dim>
					<dim>1</dim>
					<dim>1</dim>
				</port>
			</output>
		</layer>
		<layer id="113" name="Constant_77004" type="Convert" version="opset1">
			<data destination_type="f32"/>
			<rt_info>
				<attribute name="decompression" version="0"/>
			</rt_info>
			<input>
				<port id="0" precision="FP16">
					<dim>1</dim>
					<dim>18</dim>
					<dim>1</dim>
					<dim>1</dim>
				</port>
			</input>
			<output>
				<port id="1" precision="FP32">
					<dim>1</dim>
					<dim>18</dim>
					<dim>1</dim>
					<dim>1</dim>
				</port>
			</output>
		</layer>
		<layer id="114" name="1889" type="Add" version="opset1">
			<data auto_broadcast="numpy"/>
			<rt_info>
				<attribute name="fused_names" version="0" value="1889, backbone.transition1.0.1.bias, backbone.transition1.0.1.running_mean, backbone.transition1.0.1.running_var, backbone.transition1.0.1.weight"/>
			</rt_info>
			<input>
				<port id="0" precision="FP32">
					<dim>1</dim>
					<dim>18</dim>
					<dim>16</dim>
					<dim>16</dim>
				</port>
				<port id="1" precision="FP32">
					<dim>1</dim>
					<dim>18</dim>
					<dim>1</dim>
					<dim>1</dim>
				</port>
			</input>
			<output>
				<port id="2" precision="FP32" names="1889">
					<dim>1</dim>
					<dim>18</dim>
					<dim>16</dim>
					<dim>16</dim>
				</port>
			</output>
		</layer>
		<layer id="115" name="1890" type="ReLU" version="opset1">
			<rt_info>
				<attribute name="fused_names" version="0" value="1890"/>
			</rt_info>
			<input>
				<port id="0" precision="FP32">
					<dim>1</dim>
					<dim>18</dim>
					<dim>16</dim>
					<dim>16</dim>
				</port>
			</input>
			<output>
				<port id="1" precision="FP32" names="1890">
					<dim>1</dim>
					<dim>18</dim>
					<dim>16</dim>
					<dim>16</dim>
				</port>
			</output>
		</layer>
		<layer id="116" name="Multiply_79196_compressed" type="Const" version="opset1">
			<data element_type="f16" shape="18, 18, 3, 3" offset="729252" size="5832"/>
			<output>
				<port id="0" precision="FP16">
					<dim>18</dim>
					<dim>18</dim>
					<dim>3</dim>
					<dim>3</dim>
				</port>
			</output>
		</layer>
		<layer id="117" name="Multiply_79196" type="Convert" version="opset1">
			<data destination_type="f32"/>
			<rt_info>
				<attribute name="decompression" version="0"/>
			</rt_info>
			<input>
				<port id="0" precision="FP16">
					<dim>18</dim>
					<dim>18</dim>
					<dim>3</dim>
					<dim>3</dim>
				</port>
			</input>
			<output>
				<port id="1" precision="FP32">
					<dim>18</dim>
					<dim>18</dim>
					<dim>3</dim>
					<dim>3</dim>
				</port>
			</output>
		</layer>
		<layer id="118" name="Multiply_77006" type="Convolution" version="opset1">
			<data strides="1, 1" dilations="1, 1" pads_begin="1, 1" pads_end="1, 1" auto_pad="explicit"/>
			<rt_info>
				<attribute name="fused_names" version="0" value="1894, 1895, backbone.stage2.0.branches.0.0.bn1.bias, backbone.stage2.0.branches.0.0.bn1.running_mean, backbone.stage2.0.branches.0.0.bn1.running_var, backbone.stage2.0.branches.0.0.bn1.weight"/>
			</rt_info>
			<input>
				<port id="0" precision="FP32">
					<dim>1</dim>
					<dim>18</dim>
					<dim>16</dim>
					<dim>16</dim>
				</port>
				<port id="1" precision="FP32">
					<dim>18</dim>
					<dim>18</dim>
					<dim>3</dim>
					<dim>3</dim>
				</port>
			</input>
			<output>
				<port id="2" precision="FP32">
					<dim>1</dim>
					<dim>18</dim>
					<dim>16</dim>
					<dim>16</dim>
				</port>
			</output>
		</layer>
		<layer id="119" name="Constant_77011_compressed" type="Const" version="opset1">
			<data element_type="f16" shape="1, 18, 1, 1" offset="735084" size="36"/>
			<output>
				<port id="0" precision="FP16">
					<dim>1</dim>
					<dim>18</dim>
					<dim>1</dim>
					<dim>1</dim>
				</port>
			</output>
		</layer>
		<layer id="120" name="Constant_77011" type="Convert" version="opset1">
			<data destination_type="f32"/>
			<rt_info>
				<attribute name="decompression" version="0"/>
			</rt_info>
			<input>
				<port id="0" precision="FP16">
					<dim>1</dim>
					<dim>18</dim>
					<dim>1</dim>
					<dim>1</dim>
				</port>
			</input>
			<output>
				<port id="1" precision="FP32">
					<dim>1</dim>
					<dim>18</dim>
					<dim>1</dim>
					<dim>1</dim>
				</port>
			</output>
		</layer>
		<layer id="121" name="1895" type="Add" version="opset1">
			<data auto_broadcast="numpy"/>
			<rt_info>
				<attribute name="fused_names" version="0" value="1895, backbone.stage2.0.branches.0.0.bn1.bias, backbone.stage2.0.branches.0.0.bn1.running_mean, backbone.stage2.0.branches.0.0.bn1.running_var, backbone.stage2.0.branches.0.0.bn1.weight"/>
			</rt_info>
			<input>
				<port id="0" precision="FP32">
					<dim>1</dim>
					<dim>18</dim>
					<dim>16</dim>
					<dim>16</dim>
				</port>
				<port id="1" precision="FP32">
					<dim>1</dim>
					<dim>18</dim>
					<dim>1</dim>
					<dim>1</dim>
				</port>
			</input>
			<output>
				<port id="2" precision="FP32" names="1895">
					<dim>1</dim>
					<dim>18</dim>
					<dim>16</dim>
					<dim>16</dim>
				</port>
			</output>
		</layer>
		<layer id="122" name="1896" type="ReLU" version="opset1">
			<rt_info>
				<attribute name="fused_names" version="0" value="1896"/>
			</rt_info>
			<input>
				<port id="0" precision="FP32">
					<dim>1</dim>
					<dim>18</dim>
					<dim>16</dim>
					<dim>16</dim>
				</port>
			</input>
			<output>
				<port id="1" precision="FP32" names="1896">
					<dim>1</dim>
					<dim>18</dim>
					<dim>16</dim>
					<dim>16</dim>
				</port>
			</output>
		</layer>
		<layer id="123" name="Multiply_79205_compressed" type="Const" version="opset1">
			<data element_type="f16" shape="18, 18, 3, 3" offset="735120" size="5832"/>
			<output>
				<port id="0" precision="FP16">
					<dim>18</dim>
					<dim>18</dim>
					<dim>3</dim>
					<dim>3</dim>
				</port>
			</output>
		</layer>
		<layer id="124" name="Multiply_79205" type="Convert" version="opset1">
			<data destination_type="f32"/>
			<rt_info>
				<attribute name="decompression" version="0"/>
			</rt_info>
			<input>
				<port id="0" precision="FP16">
					<dim>18</dim>
					<dim>18</dim>
					<dim>3</dim>
					<dim>3</dim>
				</port>
			</input>
			<output>
				<port id="1" precision="FP32">
					<dim>18</dim>
					<dim>18</dim>
					<dim>3</dim>
					<dim>3</dim>
				</port>
			</output>
		</layer>
		<layer id="125" name="Multiply_77013" type="Convolution" version="opset1">
			<data strides="1, 1" dilations="1, 1" pads_begin="1, 1" pads_end="1, 1" auto_pad="explicit"/>
			<rt_info>
				<attribute name="fused_names" version="0" value="1897, 1898, backbone.stage2.0.branches.0.0.bn2.bias, backbone.stage2.0.branches.0.0.bn2.running_mean, backbone.stage2.0.branches.0.0.bn2.running_var, backbone.stage2.0.branches.0.0.bn2.weight"/>
			</rt_info>
			<input>
				<port id="0" precision="FP32">
					<dim>1</dim>
					<dim>18</dim>
					<dim>16</dim>
					<dim>16</dim>
				</port>
				<port id="1" precision="FP32">
					<dim>18</dim>
					<dim>18</dim>
					<dim>3</dim>
					<dim>3</dim>
				</port>
			</input>
			<output>
				<port id="2" precision="FP32">
					<dim>1</dim>
					<dim>18</dim>
					<dim>16</dim>
					<dim>16</dim>
				</port>
			</output>
		</layer>
		<layer id="126" name="Constant_77018_compressed" type="Const" version="opset1">
			<data element_type="f16" shape="1, 18, 1, 1" offset="740952" size="36"/>
			<output>
				<port id="0" precision="FP16">
					<dim>1</dim>
					<dim>18</dim>
					<dim>1</dim>
					<dim>1</dim>
				</port>
			</output>
		</layer>
		<layer id="127" name="Constant_77018" type="Convert" version="opset1">
			<data destination_type="f32"/>
			<rt_info>
				<attribute name="decompression" version="0"/>
			</rt_info>
			<input>
				<port id="0" precision="FP16">
					<dim>1</dim>
					<dim>18</dim>
					<dim>1</dim>
					<dim>1</dim>
				</port>
			</input>
			<output>
				<port id="1" precision="FP32">
					<dim>1</dim>
					<dim>18</dim>
					<dim>1</dim>
					<dim>1</dim>
				</port>
			</output>
		</layer>
		<layer id="128" name="1898" type="Add" version="opset1">
			<data auto_broadcast="numpy"/>
			<rt_info>
				<attribute name="fused_names" version="0" value="1898, backbone.stage2.0.branches.0.0.bn2.bias, backbone.stage2.0.branches.0.0.bn2.running_mean, backbone.stage2.0.branches.0.0.bn2.running_var, backbone.stage2.0.branches.0.0.bn2.weight"/>
			</rt_info>
			<input>
				<port id="0" precision="FP32">
					<dim>1</dim>
					<dim>18</dim>
					<dim>16</dim>
					<dim>16</dim>
				</port>
				<port id="1" precision="FP32">
					<dim>1</dim>
					<dim>18</dim>
					<dim>1</dim>
					<dim>1</dim>
				</port>
			</input>
			<output>
				<port id="2" precision="FP32" names="1898">
					<dim>1</dim>
					<dim>18</dim>
					<dim>16</dim>
					<dim>16</dim>
				</port>
			</output>
		</layer>
		<layer id="129" name="1899" type="Add" version="opset1">
			<data auto_broadcast="numpy"/>
			<rt_info>
				<attribute name="fused_names" version="0" value="1899"/>
			</rt_info>
			<input>
				<port id="0" precision="FP32">
					<dim>1</dim>
					<dim>18</dim>
					<dim>16</dim>
					<dim>16</dim>
				</port>
				<port id="1" precision="FP32">
					<dim>1</dim>
					<dim>18</dim>
					<dim>16</dim>
					<dim>16</dim>
				</port>
			</input>
			<output>
				<port id="2" precision="FP32" names="1899">
					<dim>1</dim>
					<dim>18</dim>
					<dim>16</dim>
					<dim>16</dim>
				</port>
			</output>
		</layer>
		<layer id="130" name="1900" type="ReLU" version="opset1">
			<rt_info>
				<attribute name="fused_names" version="0" value="1900"/>
			</rt_info>
			<input>
				<port id="0" precision="FP32">
					<dim>1</dim>
					<dim>18</dim>
					<dim>16</dim>
					<dim>16</dim>
				</port>
			</input>
			<output>
				<port id="1" precision="FP32" names="1900">
					<dim>1</dim>
					<dim>18</dim>
					<dim>16</dim>
					<dim>16</dim>
				</port>
			</output>
		</layer>
		<layer id="131" name="Multiply_79214_compressed" type="Const" version="opset1">
			<data element_type="f16" shape="18, 18, 3, 3" offset="740988" size="5832"/>
			<output>
				<port id="0" precision="FP16">
					<dim>18</dim>
					<dim>18</dim>
					<dim>3</dim>
					<dim>3</dim>
				</port>
			</output>
		</layer>
		<layer id="132" name="Multiply_79214" type="Convert" version="opset1">
			<data destination_type="f32"/>
			<rt_info>
				<attribute name="decompression" version="0"/>
			</rt_info>
			<input>
				<port id="0" precision="FP16">
					<dim>18</dim>
					<dim>18</dim>
					<dim>3</dim>
					<dim>3</dim>
				</port>
			</input>
			<output>
				<port id="1" precision="FP32">
					<dim>18</dim>
					<dim>18</dim>
					<dim>3</dim>
					<dim>3</dim>
				</port>
			</output>
		</layer>
		<layer id="133" name="Multiply_77020" type="Convolution" version="opset1">
			<data strides="1, 1" dilations="1, 1" pads_begin="1, 1" pads_end="1, 1" auto_pad="explicit"/>
			<rt_info>
				<attribute name="fused_names" version="0" value="1901, 1902, backbone.stage2.0.branches.0.1.bn1.bias, backbone.stage2.0.branches.0.1.bn1.running_mean, backbone.stage2.0.branches.0.1.bn1.running_var, backbone.stage2.0.branches.0.1.bn1.weight"/>
			</rt_info>
			<input>
				<port id="0" precision="FP32">
					<dim>1</dim>
					<dim>18</dim>
					<dim>16</dim>
					<dim>16</dim>
				</port>
				<port id="1" precision="FP32">
					<dim>18</dim>
					<dim>18</dim>
					<dim>3</dim>
					<dim>3</dim>
				</port>
			</input>
			<output>
				<port id="2" precision="FP32">
					<dim>1</dim>
					<dim>18</dim>
					<dim>16</dim>
					<dim>16</dim>
				</port>
			</output>
		</layer>
		<layer id="134" name="Constant_77025_compressed" type="Const" version="opset1">
			<data element_type="f16" shape="1, 18, 1, 1" offset="746820" size="36"/>
			<output>
				<port id="0" precision="FP16">
					<dim>1</dim>
					<dim>18</dim>
					<dim>1</dim>
					<dim>1</dim>
				</port>
			</output>
		</layer>
		<layer id="135" name="Constant_77025" type="Convert" version="opset1">
			<data destination_type="f32"/>
			<rt_info>
				<attribute name="decompression" version="0"/>
			</rt_info>
			<input>
				<port id="0" precision="FP16">
					<dim>1</dim>
					<dim>18</dim>
					<dim>1</dim>
					<dim>1</dim>
				</port>
			</input>
			<output>
				<port id="1" precision="FP32">
					<dim>1</dim>
					<dim>18</dim>
					<dim>1</dim>
					<dim>1</dim>
				</port>
			</output>
		</layer>
		<layer id="136" name="1902" type="Add" version="opset1">
			<data auto_broadcast="numpy"/>
			<rt_info>
				<attribute name="fused_names" version="0" value="1902, backbone.stage2.0.branches.0.1.bn1.bias, backbone.stage2.0.branches.0.1.bn1.running_mean, backbone.stage2.0.branches.0.1.bn1.running_var, backbone.stage2.0.branches.0.1.bn1.weight"/>
			</rt_info>
			<input>
				<port id="0" precision="FP32">
					<dim>1</dim>
					<dim>18</dim>
					<dim>16</dim>
					<dim>16</dim>
				</port>
				<port id="1" precision="FP32">
					<dim>1</dim>
					<dim>18</dim>
					<dim>1</dim>
					<dim>1</dim>
				</port>
			</input>
			<output>
				<port id="2" precision="FP32" names="1902">
					<dim>1</dim>
					<dim>18</dim>
					<dim>16</dim>
					<dim>16</dim>
				</port>
			</output>
		</layer>
		<layer id="137" name="1903" type="ReLU" version="opset1">
			<rt_info>
				<attribute name="fused_names" version="0" value="1903"/>
			</rt_info>
			<input>
				<port id="0" precision="FP32">
					<dim>1</dim>
					<dim>18</dim>
					<dim>16</dim>
					<dim>16</dim>
				</port>
			</input>
			<output>
				<port id="1" precision="FP32" names="1903">
					<dim>1</dim>
					<dim>18</dim>
					<dim>16</dim>
					<dim>16</dim>
				</port>
			</output>
		</layer>
		<layer id="138" name="Multiply_79223_compressed" type="Const" version="opset1">
			<data element_type="f16" shape="18, 18, 3, 3" offset="746856" size="5832"/>
			<output>
				<port id="0" precision="FP16">
					<dim>18</dim>
					<dim>18</dim>
					<dim>3</dim>
					<dim>3</dim>
				</port>
			</output>
		</layer>
		<layer id="139" name="Multiply_79223" type="Convert" version="opset1">
			<data destination_type="f32"/>
			<rt_info>
				<attribute name="decompression" version="0"/>
			</rt_info>
			<input>
				<port id="0" precision="FP16">
					<dim>18</dim>
					<dim>18</dim>
					<dim>3</dim>
					<dim>3</dim>
				</port>
			</input>
			<output>
				<port id="1" precision="FP32">
					<dim>18</dim>
					<dim>18</dim>
					<dim>3</dim>
					<dim>3</dim>
				</port>
			</output>
		</layer>
		<layer id="140" name="Multiply_77027" type="Convolution" version="opset1">
			<data strides="1, 1" dilations="1, 1" pads_begin="1, 1" pads_end="1, 1" auto_pad="explicit"/>
			<rt_info>
				<attribute name="fused_names" version="0" value="1904, 1905, backbone.stage2.0.branches.0.1.bn2.bias, backbone.stage2.0.branches.0.1.bn2.running_mean, backbone.stage2.0.branches.0.1.bn2.running_var, backbone.stage2.0.branches.0.1.bn2.weight"/>
			</rt_info>
			<input>
				<port id="0" precision="FP32">
					<dim>1</dim>
					<dim>18</dim>
					<dim>16</dim>
					<dim>16</dim>
				</port>
				<port id="1" precision="FP32">
					<dim>18</dim>
					<dim>18</dim>
					<dim>3</dim>
					<dim>3</dim>
				</port>
			</input>
			<output>
				<port id="2" precision="FP32">
					<dim>1</dim>
					<dim>18</dim>
					<dim>16</dim>
					<dim>16</dim>
				</port>
			</output>
		</layer>
		<layer id="141" name="Constant_77032_compressed" type="Const" version="opset1">
			<data element_type="f16" shape="1, 18, 1, 1" offset="752688" size="36"/>
			<output>
				<port id="0" precision="FP16">
					<dim>1</dim>
					<dim>18</dim>
					<dim>1</dim>
					<dim>1</dim>
				</port>
			</output>
		</layer>
		<layer id="142" name="Constant_77032" type="Convert" version="opset1">
			<data destination_type="f32"/>
			<rt_info>
				<attribute name="decompression" version="0"/>
			</rt_info>
			<input>
				<port id="0" precision="FP16">
					<dim>1</dim>
					<dim>18</dim>
					<dim>1</dim>
					<dim>1</dim>
				</port>
			</input>
			<output>
				<port id="1" precision="FP32">
					<dim>1</dim>
					<dim>18</dim>
					<dim>1</dim>
					<dim>1</dim>
				</port>
			</output>
		</layer>
		<layer id="143" name="1905" type="Add" version="opset1">
			<data auto_broadcast="numpy"/>
			<rt_info>
				<attribute name="fused_names" version="0" value="1905, backbone.stage2.0.branches.0.1.bn2.bias, backbone.stage2.0.branches.0.1.bn2.running_mean, backbone.stage2.0.branches.0.1.bn2.running_var, backbone.stage2.0.branches.0.1.bn2.weight"/>
			</rt_info>
			<input>
				<port id="0" precision="FP32">
					<dim>1</dim>
					<dim>18</dim>
					<dim>16</dim>
					<dim>16</dim>
				</port>
				<port id="1" precision="FP32">
					<dim>1</dim>
					<dim>18</dim>
					<dim>1</dim>
					<dim>1</dim>
				</port>
			</input>
			<output>
				<port id="2" precision="FP32" names="1905">
					<dim>1</dim>
					<dim>18</dim>
					<dim>16</dim>
					<dim>16</dim>
				</port>
			</output>
		</layer>
		<layer id="144" name="1906" type="Add" version="opset1">
			<data auto_broadcast="numpy"/>
			<rt_info>
				<attribute name="fused_names" version="0" value="1906"/>
			</rt_info>
			<input>
				<port id="0" precision="FP32">
					<dim>1</dim>
					<dim>18</dim>
					<dim>16</dim>
					<dim>16</dim>
				</port>
				<port id="1" precision="FP32">
					<dim>1</dim>
					<dim>18</dim>
					<dim>16</dim>
					<dim>16</dim>
				</port>
			</input>
			<output>
				<port id="2" precision="FP32" names="1906">
					<dim>1</dim>
					<dim>18</dim>
					<dim>16</dim>
					<dim>16</dim>
				</port>
			</output>
		</layer>
		<layer id="145" name="1907" type="ReLU" version="opset1">
			<rt_info>
				<attribute name="fused_names" version="0" value="1907"/>
			</rt_info>
			<input>
				<port id="0" precision="FP32">
					<dim>1</dim>
					<dim>18</dim>
					<dim>16</dim>
					<dim>16</dim>
				</port>
			</input>
			<output>
				<port id="1" precision="FP32" names="1907">
					<dim>1</dim>
					<dim>18</dim>
					<dim>16</dim>
					<dim>16</dim>
				</port>
			</output>
		</layer>
		<layer id="146" name="Multiply_79232_compressed" type="Const" version="opset1">
			<data element_type="f16" shape="18, 18, 3, 3" offset="752724" size="5832"/>
			<output>
				<port id="0" precision="FP16">
					<dim>18</dim>
					<dim>18</dim>
					<dim>3</dim>
					<dim>3</dim>
				</port>
			</output>
		</layer>
		<layer id="147" name="Multiply_79232" type="Convert" version="opset1">
			<data destination_type="f32"/>
			<rt_info>
				<attribute name="decompression" version="0"/>
			</rt_info>
			<input>
				<port id="0" precision="FP16">
					<dim>18</dim>
					<dim>18</dim>
					<dim>3</dim>
					<dim>3</dim>
				</port>
			</input>
			<output>
				<port id="1" precision="FP32">
					<dim>18</dim>
					<dim>18</dim>
					<dim>3</dim>
					<dim>3</dim>
				</port>
			</output>
		</layer>
		<layer id="148" name="Multiply_77034" type="Convolution" version="opset1">
			<data strides="1, 1" dilations="1, 1" pads_begin="1, 1" pads_end="1, 1" auto_pad="explicit"/>
			<rt_info>
				<attribute name="fused_names" version="0" value="1908, 1909, backbone.stage2.0.branches.0.2.bn1.bias, backbone.stage2.0.branches.0.2.bn1.running_mean, backbone.stage2.0.branches.0.2.bn1.running_var, backbone.stage2.0.branches.0.2.bn1.weight"/>
			</rt_info>
			<input>
				<port id="0" precision="FP32">
					<dim>1</dim>
					<dim>18</dim>
					<dim>16</dim>
					<dim>16</dim>
				</port>
				<port id="1" precision="FP32">
					<dim>18</dim>
					<dim>18</dim>
					<dim>3</dim>
					<dim>3</dim>
				</port>
			</input>
			<output>
				<port id="2" precision="FP32">
					<dim>1</dim>
					<dim>18</dim>
					<dim>16</dim>
					<dim>16</dim>
				</port>
			</output>
		</layer>
		<layer id="149" name="Constant_77039_compressed" type="Const" version="opset1">
			<data element_type="f16" shape="1, 18, 1, 1" offset="758556" size="36"/>
			<output>
				<port id="0" precision="FP16">
					<dim>1</dim>
					<dim>18</dim>
					<dim>1</dim>
					<dim>1</dim>
				</port>
			</output>
		</layer>
		<layer id="150" name="Constant_77039" type="Convert" version="opset1">
			<data destination_type="f32"/>
			<rt_info>
				<attribute name="decompression" version="0"/>
			</rt_info>
			<input>
				<port id="0" precision="FP16">
					<dim>1</dim>
					<dim>18</dim>
					<dim>1</dim>
					<dim>1</dim>
				</port>
			</input>
			<output>
				<port id="1" precision="FP32">
					<dim>1</dim>
					<dim>18</dim>
					<dim>1</dim>
					<dim>1</dim>
				</port>
			</output>
		</layer>
		<layer id="151" name="1909" type="Add" version="opset1">
			<data auto_broadcast="numpy"/>
			<rt_info>
				<attribute name="fused_names" version="0" value="1909, backbone.stage2.0.branches.0.2.bn1.bias, backbone.stage2.0.branches.0.2.bn1.running_mean, backbone.stage2.0.branches.0.2.bn1.running_var, backbone.stage2.0.branches.0.2.bn1.weight"/>
			</rt_info>
			<input>
				<port id="0" precision="FP32">
					<dim>1</dim>
					<dim>18</dim>
					<dim>16</dim>
					<dim>16</dim>
				</port>
				<port id="1" precision="FP32">
					<dim>1</dim>
					<dim>18</dim>
					<dim>1</dim>
					<dim>1</dim>
				</port>
			</input>
			<output>
				<port id="2" precision="FP32" names="1909">
					<dim>1</dim>
					<dim>18</dim>
					<dim>16</dim>
					<dim>16</dim>
				</port>
			</output>
		</layer>
		<layer id="152" name="1910" type="ReLU" version="opset1">
			<rt_info>
				<attribute name="fused_names" version="0" value="1910"/>
			</rt_info>
			<input>
				<port id="0" precision="FP32">
					<dim>1</dim>
					<dim>18</dim>
					<dim>16</dim>
					<dim>16</dim>
				</port>
			</input>
			<output>
				<port id="1" precision="FP32" names="1910">
					<dim>1</dim>
					<dim>18</dim>
					<dim>16</dim>
					<dim>16</dim>
				</port>
			</output>
		</layer>
		<layer id="153" name="Multiply_79241_compressed" type="Const" version="opset1">
			<data element_type="f16" shape="18, 18, 3, 3" offset="758592" size="5832"/>
			<output>
				<port id="0" precision="FP16">
					<dim>18</dim>
					<dim>18</dim>
					<dim>3</dim>
					<dim>3</dim>
				</port>
			</output>
		</layer>
		<layer id="154" name="Multiply_79241" type="Convert" version="opset1">
			<data destination_type="f32"/>
			<rt_info>
				<attribute name="decompression" version="0"/>
			</rt_info>
			<input>
				<port id="0" precision="FP16">
					<dim>18</dim>
					<dim>18</dim>
					<dim>3</dim>
					<dim>3</dim>
				</port>
			</input>
			<output>
				<port id="1" precision="FP32">
					<dim>18</dim>
					<dim>18</dim>
					<dim>3</dim>
					<dim>3</dim>
				</port>
			</output>
		</layer>
		<layer id="155" name="Multiply_77041" type="Convolution" version="opset1">
			<data strides="1, 1" dilations="1, 1" pads_begin="1, 1" pads_end="1, 1" auto_pad="explicit"/>
			<rt_info>
				<attribute name="fused_names" version="0" value="1911, 1912, backbone.stage2.0.branches.0.2.bn2.bias, backbone.stage2.0.branches.0.2.bn2.running_mean, backbone.stage2.0.branches.0.2.bn2.running_var, backbone.stage2.0.branches.0.2.bn2.weight"/>
			</rt_info>
			<input>
				<port id="0" precision="FP32">
					<dim>1</dim>
					<dim>18</dim>
					<dim>16</dim>
					<dim>16</dim>
				</port>
				<port id="1" precision="FP32">
					<dim>18</dim>
					<dim>18</dim>
					<dim>3</dim>
					<dim>3</dim>
				</port>
			</input>
			<output>
				<port id="2" precision="FP32">
					<dim>1</dim>
					<dim>18</dim>
					<dim>16</dim>
					<dim>16</dim>
				</port>
			</output>
		</layer>
		<layer id="156" name="Constant_77046_compressed" type="Const" version="opset1">
			<data element_type="f16" shape="1, 18, 1, 1" offset="764424" size="36"/>
			<output>
				<port id="0" precision="FP16">
					<dim>1</dim>
					<dim>18</dim>
					<dim>1</dim>
					<dim>1</dim>
				</port>
			</output>
		</layer>
		<layer id="157" name="Constant_77046" type="Convert" version="opset1">
			<data destination_type="f32"/>
			<rt_info>
				<attribute name="decompression" version="0"/>
			</rt_info>
			<input>
				<port id="0" precision="FP16">
					<dim>1</dim>
					<dim>18</dim>
					<dim>1</dim>
					<dim>1</dim>
				</port>
			</input>
			<output>
				<port id="1" precision="FP32">
					<dim>1</dim>
					<dim>18</dim>
					<dim>1</dim>
					<dim>1</dim>
				</port>
			</output>
		</layer>
		<layer id="158" name="1912" type="Add" version="opset1">
			<data auto_broadcast="numpy"/>
			<rt_info>
				<attribute name="fused_names" version="0" value="1912, backbone.stage2.0.branches.0.2.bn2.bias, backbone.stage2.0.branches.0.2.bn2.running_mean, backbone.stage2.0.branches.0.2.bn2.running_var, backbone.stage2.0.branches.0.2.bn2.weight"/>
			</rt_info>
			<input>
				<port id="0" precision="FP32">
					<dim>1</dim>
					<dim>18</dim>
					<dim>16</dim>
					<dim>16</dim>
				</port>
				<port id="1" precision="FP32">
					<dim>1</dim>
					<dim>18</dim>
					<dim>1</dim>
					<dim>1</dim>
				</port>
			</input>
			<output>
				<port id="2" precision="FP32" names="1912">
					<dim>1</dim>
					<dim>18</dim>
					<dim>16</dim>
					<dim>16</dim>
				</port>
			</output>
		</layer>
		<layer id="159" name="1913" type="Add" version="opset1">
			<data auto_broadcast="numpy"/>
			<rt_info>
				<attribute name="fused_names" version="0" value="1913"/>
			</rt_info>
			<input>
				<port id="0" precision="FP32">
					<dim>1</dim>
					<dim>18</dim>
					<dim>16</dim>
					<dim>16</dim>
				</port>
				<port id="1" precision="FP32">
					<dim>1</dim>
					<dim>18</dim>
					<dim>16</dim>
					<dim>16</dim>
				</port>
			</input>
			<output>
				<port id="2" precision="FP32" names="1913">
					<dim>1</dim>
					<dim>18</dim>
					<dim>16</dim>
					<dim>16</dim>
				</port>
			</output>
		</layer>
		<layer id="160" name="1914" type="ReLU" version="opset1">
			<rt_info>
				<attribute name="fused_names" version="0" value="1914"/>
			</rt_info>
			<input>
				<port id="0" precision="FP32">
					<dim>1</dim>
					<dim>18</dim>
					<dim>16</dim>
					<dim>16</dim>
				</port>
			</input>
			<output>
				<port id="1" precision="FP32" names="1914">
					<dim>1</dim>
					<dim>18</dim>
					<dim>16</dim>
					<dim>16</dim>
				</port>
			</output>
		</layer>
		<layer id="161" name="Multiply_79250_compressed" type="Const" version="opset1">
			<data element_type="f16" shape="18, 18, 3, 3" offset="764460" size="5832"/>
			<output>
				<port id="0" precision="FP16">
					<dim>18</dim>
					<dim>18</dim>
					<dim>3</dim>
					<dim>3</dim>
				</port>
			</output>
		</layer>
		<layer id="162" name="Multiply_79250" type="Convert" version="opset1">
			<data destination_type="f32"/>
			<rt_info>
				<attribute name="decompression" version="0"/>
			</rt_info>
			<input>
				<port id="0" precision="FP16">
					<dim>18</dim>
					<dim>18</dim>
					<dim>3</dim>
					<dim>3</dim>
				</port>
			</input>
			<output>
				<port id="1" precision="FP32">
					<dim>18</dim>
					<dim>18</dim>
					<dim>3</dim>
					<dim>3</dim>
				</port>
			</output>
		</layer>
		<layer id="163" name="Multiply_77048" type="Convolution" version="opset1">
			<data strides="1, 1" dilations="1, 1" pads_begin="1, 1" pads_end="1, 1" auto_pad="explicit"/>
			<rt_info>
				<attribute name="fused_names" version="0" value="1915, 1916, backbone.stage2.0.branches.0.3.bn1.bias, backbone.stage2.0.branches.0.3.bn1.running_mean, backbone.stage2.0.branches.0.3.bn1.running_var, backbone.stage2.0.branches.0.3.bn1.weight"/>
			</rt_info>
			<input>
				<port id="0" precision="FP32">
					<dim>1</dim>
					<dim>18</dim>
					<dim>16</dim>
					<dim>16</dim>
				</port>
				<port id="1" precision="FP32">
					<dim>18</dim>
					<dim>18</dim>
					<dim>3</dim>
					<dim>3</dim>
				</port>
			</input>
			<output>
				<port id="2" precision="FP32">
					<dim>1</dim>
					<dim>18</dim>
					<dim>16</dim>
					<dim>16</dim>
				</port>
			</output>
		</layer>
		<layer id="164" name="Constant_77053_compressed" type="Const" version="opset1">
			<data element_type="f16" shape="1, 18, 1, 1" offset="770292" size="36"/>
			<output>
				<port id="0" precision="FP16">
					<dim>1</dim>
					<dim>18</dim>
					<dim>1</dim>
					<dim>1</dim>
				</port>
			</output>
		</layer>
		<layer id="165" name="Constant_77053" type="Convert" version="opset1">
			<data destination_type="f32"/>
			<rt_info>
				<attribute name="decompression" version="0"/>
			</rt_info>
			<input>
				<port id="0" precision="FP16">
					<dim>1</dim>
					<dim>18</dim>
					<dim>1</dim>
					<dim>1</dim>
				</port>
			</input>
			<output>
				<port id="1" precision="FP32">
					<dim>1</dim>
					<dim>18</dim>
					<dim>1</dim>
					<dim>1</dim>
				</port>
			</output>
		</layer>
		<layer id="166" name="1916" type="Add" version="opset1">
			<data auto_broadcast="numpy"/>
			<rt_info>
				<attribute name="fused_names" version="0" value="1916, backbone.stage2.0.branches.0.3.bn1.bias, backbone.stage2.0.branches.0.3.bn1.running_mean, backbone.stage2.0.branches.0.3.bn1.running_var, backbone.stage2.0.branches.0.3.bn1.weight"/>
			</rt_info>
			<input>
				<port id="0" precision="FP32">
					<dim>1</dim>
					<dim>18</dim>
					<dim>16</dim>
					<dim>16</dim>
				</port>
				<port id="1" precision="FP32">
					<dim>1</dim>
					<dim>18</dim>
					<dim>1</dim>
					<dim>1</dim>
				</port>
			</input>
			<output>
				<port id="2" precision="FP32" names="1916">
					<dim>1</dim>
					<dim>18</dim>
					<dim>16</dim>
					<dim>16</dim>
				</port>
			</output>
		</layer>
		<layer id="167" name="1917" type="ReLU" version="opset1">
			<rt_info>
				<attribute name="fused_names" version="0" value="1917"/>
			</rt_info>
			<input>
				<port id="0" precision="FP32">
					<dim>1</dim>
					<dim>18</dim>
					<dim>16</dim>
					<dim>16</dim>
				</port>
			</input>
			<output>
				<port id="1" precision="FP32" names="1917">
					<dim>1</dim>
					<dim>18</dim>
					<dim>16</dim>
					<dim>16</dim>
				</port>
			</output>
		</layer>
		<layer id="168" name="Multiply_79259_compressed" type="Const" version="opset1">
			<data element_type="f16" shape="18, 18, 3, 3" offset="770328" size="5832"/>
			<output>
				<port id="0" precision="FP16">
					<dim>18</dim>
					<dim>18</dim>
					<dim>3</dim>
					<dim>3</dim>
				</port>
			</output>
		</layer>
		<layer id="169" name="Multiply_79259" type="Convert" version="opset1">
			<data destination_type="f32"/>
			<rt_info>
				<attribute name="decompression" version="0"/>
			</rt_info>
			<input>
				<port id="0" precision="FP16">
					<dim>18</dim>
					<dim>18</dim>
					<dim>3</dim>
					<dim>3</dim>
				</port>
			</input>
			<output>
				<port id="1" precision="FP32">
					<dim>18</dim>
					<dim>18</dim>
					<dim>3</dim>
					<dim>3</dim>
				</port>
			</output>
		</layer>
		<layer id="170" name="Multiply_77055" type="Convolution" version="opset1">
			<data strides="1, 1" dilations="1, 1" pads_begin="1, 1" pads_end="1, 1" auto_pad="explicit"/>
			<rt_info>
				<attribute name="fused_names" version="0" value="1918, 1919, backbone.stage2.0.branches.0.3.bn2.bias, backbone.stage2.0.branches.0.3.bn2.running_mean, backbone.stage2.0.branches.0.3.bn2.running_var, backbone.stage2.0.branches.0.3.bn2.weight"/>
			</rt_info>
			<input>
				<port id="0" precision="FP32">
					<dim>1</dim>
					<dim>18</dim>
					<dim>16</dim>
					<dim>16</dim>
				</port>
				<port id="1" precision="FP32">
					<dim>18</dim>
					<dim>18</dim>
					<dim>3</dim>
					<dim>3</dim>
				</port>
			</input>
			<output>
				<port id="2" precision="FP32">
					<dim>1</dim>
					<dim>18</dim>
					<dim>16</dim>
					<dim>16</dim>
				</port>
			</output>
		</layer>
		<layer id="171" name="Constant_77060_compressed" type="Const" version="opset1">
			<data element_type="f16" shape="1, 18, 1, 1" offset="776160" size="36"/>
			<output>
				<port id="0" precision="FP16">
					<dim>1</dim>
					<dim>18</dim>
					<dim>1</dim>
					<dim>1</dim>
				</port>
			</output>
		</layer>
		<layer id="172" name="Constant_77060" type="Convert" version="opset1">
			<data destination_type="f32"/>
			<rt_info>
				<attribute name="decompression" version="0"/>
			</rt_info>
			<input>
				<port id="0" precision="FP16">
					<dim>1</dim>
					<dim>18</dim>
					<dim>1</dim>
					<dim>1</dim>
				</port>
			</input>
			<output>
				<port id="1" precision="FP32">
					<dim>1</dim>
					<dim>18</dim>
					<dim>1</dim>
					<dim>1</dim>
				</port>
			</output>
		</layer>
		<layer id="173" name="1919" type="Add" version="opset1">
			<data auto_broadcast="numpy"/>
			<rt_info>
				<attribute name="fused_names" version="0" value="1919, backbone.stage2.0.branches.0.3.bn2.bias, backbone.stage2.0.branches.0.3.bn2.running_mean, backbone.stage2.0.branches.0.3.bn2.running_var, backbone.stage2.0.branches.0.3.bn2.weight"/>
			</rt_info>
			<input>
				<port id="0" precision="FP32">
					<dim>1</dim>
					<dim>18</dim>
					<dim>16</dim>
					<dim>16</dim>
				</port>
				<port id="1" precision="FP32">
					<dim>1</dim>
					<dim>18</dim>
					<dim>1</dim>
					<dim>1</dim>
				</port>
			</input>
			<output>
				<port id="2" precision="FP32" names="1919">
					<dim>1</dim>
					<dim>18</dim>
					<dim>16</dim>
					<dim>16</dim>
				</port>
			</output>
		</layer>
		<layer id="174" name="1920" type="Add" version="opset1">
			<data auto_broadcast="numpy"/>
			<rt_info>
				<attribute name="fused_names" version="0" value="1920"/>
			</rt_info>
			<input>
				<port id="0" precision="FP32">
					<dim>1</dim>
					<dim>18</dim>
					<dim>16</dim>
					<dim>16</dim>
				</port>
				<port id="1" precision="FP32">
					<dim>1</dim>
					<dim>18</dim>
					<dim>16</dim>
					<dim>16</dim>
				</port>
			</input>
			<output>
				<port id="2" precision="FP32" names="1920">
					<dim>1</dim>
					<dim>18</dim>
					<dim>16</dim>
					<dim>16</dim>
				</port>
			</output>
		</layer>
		<layer id="175" name="1921" type="ReLU" version="opset1">
			<rt_info>
				<attribute name="fused_names" version="0" value="1921, 1951"/>
			</rt_info>
			<input>
				<port id="0" precision="FP32">
					<dim>1</dim>
					<dim>18</dim>
					<dim>16</dim>
					<dim>16</dim>
				</port>
			</input>
			<output>
				<port id="1" precision="FP32" names="1921,1951">
					<dim>1</dim>
					<dim>18</dim>
					<dim>16</dim>
					<dim>16</dim>
				</port>
			</output>
		</layer>
		<layer id="176" name="Multiply_79268_compressed" type="Const" version="opset1">
			<data element_type="f16" shape="36, 256, 3, 3" offset="776196" size="165888"/>
			<output>
				<port id="0" precision="FP16">
					<dim>36</dim>
					<dim>256</dim>
					<dim>3</dim>
					<dim>3</dim>
				</port>
			</output>
		</layer>
		<layer id="177" name="Multiply_79268" type="Convert" version="opset1">
			<data destination_type="f32"/>
			<rt_info>
				<attribute name="decompression" version="0"/>
			</rt_info>
			<input>
				<port id="0" precision="FP16">
					<dim>36</dim>
					<dim>256</dim>
					<dim>3</dim>
					<dim>3</dim>
				</port>
			</input>
			<output>
				<port id="1" precision="FP32">
					<dim>36</dim>
					<dim>256</dim>
					<dim>3</dim>
					<dim>3</dim>
				</port>
			</output>
		</layer>
		<layer id="178" name="Multiply_77062" type="Convolution" version="opset1">
			<data strides="2, 2" dilations="1, 1" pads_begin="1, 1" pads_end="1, 1" auto_pad="explicit"/>
			<rt_info>
				<attribute name="fused_names" version="0" value="1891, 1892, backbone.transition1.1.0.1.bias, backbone.transition1.1.0.1.running_mean, backbone.transition1.1.0.1.running_var, backbone.transition1.1.0.1.weight"/>
			</rt_info>
			<input>
				<port id="0" precision="FP32">
					<dim>1</dim>
					<dim>256</dim>
					<dim>16</dim>
					<dim>16</dim>
				</port>
				<port id="1" precision="FP32">
					<dim>36</dim>
					<dim>256</dim>
					<dim>3</dim>
					<dim>3</dim>
				</port>
			</input>
			<output>
				<port id="2" precision="FP32">
					<dim>1</dim>
					<dim>36</dim>
					<dim>8</dim>
					<dim>8</dim>
				</port>
			</output>
		</layer>
		<layer id="179" name="Constant_77067_compressed" type="Const" version="opset1">
			<data element_type="f16" shape="1, 36, 1, 1" offset="942084" size="72"/>
			<output>
				<port id="0" precision="FP16">
					<dim>1</dim>
					<dim>36</dim>
					<dim>1</dim>
					<dim>1</dim>
				</port>
			</output>
		</layer>
		<layer id="180" name="Constant_77067" type="Convert" version="opset1">
			<data destination_type="f32"/>
			<rt_info>
				<attribute name="decompression" version="0"/>
			</rt_info>
			<input>
				<port id="0" precision="FP16">
					<dim>1</dim>
					<dim>36</dim>
					<dim>1</dim>
					<dim>1</dim>
				</port>
			</input>
			<output>
				<port id="1" precision="FP32">
					<dim>1</dim>
					<dim>36</dim>
					<dim>1</dim>
					<dim>1</dim>
				</port>
			</output>
		</layer>
		<layer id="181" name="1892" type="Add" version="opset1">
			<data auto_broadcast="numpy"/>
			<rt_info>
				<attribute name="fused_names" version="0" value="1892, backbone.transition1.1.0.1.bias, backbone.transition1.1.0.1.running_mean, backbone.transition1.1.0.1.running_var, backbone.transition1.1.0.1.weight"/>
			</rt_info>
			<input>
				<port id="0" precision="FP32">
					<dim>1</dim>
					<dim>36</dim>
					<dim>8</dim>
					<dim>8</dim>
				</port>
				<port id="1" precision="FP32">
					<dim>1</dim>
					<dim>36</dim>
					<dim>1</dim>
					<dim>1</dim>
				</port>
			</input>
			<output>
				<port id="2" precision="FP32" names="1892">
					<dim>1</dim>
					<dim>36</dim>
					<dim>8</dim>
					<dim>8</dim>
				</port>
			</output>
		</layer>
		<layer id="182" name="1893" type="ReLU" version="opset1">
			<rt_info>
				<attribute name="fused_names" version="0" value="1893"/>
			</rt_info>
			<input>
				<port id="0" precision="FP32">
					<dim>1</dim>
					<dim>36</dim>
					<dim>8</dim>
					<dim>8</dim>
				</port>
			</input>
			<output>
				<port id="1" precision="FP32" names="1893">
					<dim>1</dim>
					<dim>36</dim>
					<dim>8</dim>
					<dim>8</dim>
				</port>
			</output>
		</layer>
		<layer id="183" name="Multiply_79277_compressed" type="Const" version="opset1">
			<data element_type="f16" shape="36, 36, 3, 3" offset="942156" size="23328"/>
			<output>
				<port id="0" precision="FP16">
					<dim>36</dim>
					<dim>36</dim>
					<dim>3</dim>
					<dim>3</dim>
				</port>
			</output>
		</layer>
		<layer id="184" name="Multiply_79277" type="Convert" version="opset1">
			<data destination_type="f32"/>
			<rt_info>
				<attribute name="decompression" version="0"/>
			</rt_info>
			<input>
				<port id="0" precision="FP16">
					<dim>36</dim>
					<dim>36</dim>
					<dim>3</dim>
					<dim>3</dim>
				</port>
			</input>
			<output>
				<port id="1" precision="FP32">
					<dim>36</dim>
					<dim>36</dim>
					<dim>3</dim>
					<dim>3</dim>
				</port>
			</output>
		</layer>
		<layer id="185" name="Multiply_77069" type="Convolution" version="opset1">
			<data strides="1, 1" dilations="1, 1" pads_begin="1, 1" pads_end="1, 1" auto_pad="explicit"/>
			<rt_info>
				<attribute name="fused_names" version="0" value="1922, 1923, backbone.stage2.0.branches.1.0.bn1.bias, backbone.stage2.0.branches.1.0.bn1.running_mean, backbone.stage2.0.branches.1.0.bn1.running_var, backbone.stage2.0.branches.1.0.bn1.weight"/>
			</rt_info>
			<input>
				<port id="0" precision="FP32">
					<dim>1</dim>
					<dim>36</dim>
					<dim>8</dim>
					<dim>8</dim>
				</port>
				<port id="1" precision="FP32">
					<dim>36</dim>
					<dim>36</dim>
					<dim>3</dim>
					<dim>3</dim>
				</port>
			</input>
			<output>
				<port id="2" precision="FP32">
					<dim>1</dim>
					<dim>36</dim>
					<dim>8</dim>
					<dim>8</dim>
				</port>
			</output>
		</layer>
		<layer id="186" name="Constant_77074_compressed" type="Const" version="opset1">
			<data element_type="f16" shape="1, 36, 1, 1" offset="965484" size="72"/>
			<output>
				<port id="0" precision="FP16">
					<dim>1</dim>
					<dim>36</dim>
					<dim>1</dim>
					<dim>1</dim>
				</port>
			</output>
		</layer>
		<layer id="187" name="Constant_77074" type="Convert" version="opset1">
			<data destination_type="f32"/>
			<rt_info>
				<attribute name="decompression" version="0"/>
			</rt_info>
			<input>
				<port id="0" precision="FP16">
					<dim>1</dim>
					<dim>36</dim>
					<dim>1</dim>
					<dim>1</dim>
				</port>
			</input>
			<output>
				<port id="1" precision="FP32">
					<dim>1</dim>
					<dim>36</dim>
					<dim>1</dim>
					<dim>1</dim>
				</port>
			</output>
		</layer>
		<layer id="188" name="1923" type="Add" version="opset1">
			<data auto_broadcast="numpy"/>
			<rt_info>
				<attribute name="fused_names" version="0" value="1923, backbone.stage2.0.branches.1.0.bn1.bias, backbone.stage2.0.branches.1.0.bn1.running_mean, backbone.stage2.0.branches.1.0.bn1.running_var, backbone.stage2.0.branches.1.0.bn1.weight"/>
			</rt_info>
			<input>
				<port id="0" precision="FP32">
					<dim>1</dim>
					<dim>36</dim>
					<dim>8</dim>
					<dim>8</dim>
				</port>
				<port id="1" precision="FP32">
					<dim>1</dim>
					<dim>36</dim>
					<dim>1</dim>
					<dim>1</dim>
				</port>
			</input>
			<output>
				<port id="2" precision="FP32" names="1923">
					<dim>1</dim>
					<dim>36</dim>
					<dim>8</dim>
					<dim>8</dim>
				</port>
			</output>
		</layer>
		<layer id="189" name="1924" type="ReLU" version="opset1">
			<rt_info>
				<attribute name="fused_names" version="0" value="1924"/>
			</rt_info>
			<input>
				<port id="0" precision="FP32">
					<dim>1</dim>
					<dim>36</dim>
					<dim>8</dim>
					<dim>8</dim>
				</port>
			</input>
			<output>
				<port id="1" precision="FP32" names="1924">
					<dim>1</dim>
					<dim>36</dim>
					<dim>8</dim>
					<dim>8</dim>
				</port>
			</output>
		</layer>
		<layer id="190" name="Multiply_79286_compressed" type="Const" version="opset1">
			<data element_type="f16" shape="36, 36, 3, 3" offset="965556" size="23328"/>
			<output>
				<port id="0" precision="FP16">
					<dim>36</dim>
					<dim>36</dim>
					<dim>3</dim>
					<dim>3</dim>
				</port>
			</output>
		</layer>
		<layer id="191" name="Multiply_79286" type="Convert" version="opset1">
			<data destination_type="f32"/>
			<rt_info>
				<attribute name="decompression" version="0"/>
			</rt_info>
			<input>
				<port id="0" precision="FP16">
					<dim>36</dim>
					<dim>36</dim>
					<dim>3</dim>
					<dim>3</dim>
				</port>
			</input>
			<output>
				<port id="1" precision="FP32">
					<dim>36</dim>
					<dim>36</dim>
					<dim>3</dim>
					<dim>3</dim>
				</port>
			</output>
		</layer>
		<layer id="192" name="Multiply_77076" type="Convolution" version="opset1">
			<data strides="1, 1" dilations="1, 1" pads_begin="1, 1" pads_end="1, 1" auto_pad="explicit"/>
			<rt_info>
				<attribute name="fused_names" version="0" value="1925, 1926, backbone.stage2.0.branches.1.0.bn2.bias, backbone.stage2.0.branches.1.0.bn2.running_mean, backbone.stage2.0.branches.1.0.bn2.running_var, backbone.stage2.0.branches.1.0.bn2.weight"/>
			</rt_info>
			<input>
				<port id="0" precision="FP32">
					<dim>1</dim>
					<dim>36</dim>
					<dim>8</dim>
					<dim>8</dim>
				</port>
				<port id="1" precision="FP32">
					<dim>36</dim>
					<dim>36</dim>
					<dim>3</dim>
					<dim>3</dim>
				</port>
			</input>
			<output>
				<port id="2" precision="FP32">
					<dim>1</dim>
					<dim>36</dim>
					<dim>8</dim>
					<dim>8</dim>
				</port>
			</output>
		</layer>
		<layer id="193" name="Constant_77081_compressed" type="Const" version="opset1">
			<data element_type="f16" shape="1, 36, 1, 1" offset="988884" size="72"/>
			<output>
				<port id="0" precision="FP16">
					<dim>1</dim>
					<dim>36</dim>
					<dim>1</dim>
					<dim>1</dim>
				</port>
			</output>
		</layer>
		<layer id="194" name="Constant_77081" type="Convert" version="opset1">
			<data destination_type="f32"/>
			<rt_info>
				<attribute name="decompression" version="0"/>
			</rt_info>
			<input>
				<port id="0" precision="FP16">
					<dim>1</dim>
					<dim>36</dim>
					<dim>1</dim>
					<dim>1</dim>
				</port>
			</input>
			<output>
				<port id="1" precision="FP32">
					<dim>1</dim>
					<dim>36</dim>
					<dim>1</dim>
					<dim>1</dim>
				</port>
			</output>
		</layer>
		<layer id="195" name="1926" type="Add" version="opset1">
			<data auto_broadcast="numpy"/>
			<rt_info>
				<attribute name="fused_names" version="0" value="1926, backbone.stage2.0.branches.1.0.bn2.bias, backbone.stage2.0.branches.1.0.bn2.running_mean, backbone.stage2.0.branches.1.0.bn2.running_var, backbone.stage2.0.branches.1.0.bn2.weight"/>
			</rt_info>
			<input>
				<port id="0" precision="FP32">
					<dim>1</dim>
					<dim>36</dim>
					<dim>8</dim>
					<dim>8</dim>
				</port>
				<port id="1" precision="FP32">
					<dim>1</dim>
					<dim>36</dim>
					<dim>1</dim>
					<dim>1</dim>
				</port>
			</input>
			<output>
				<port id="2" precision="FP32" names="1926">
					<dim>1</dim>
					<dim>36</dim>
					<dim>8</dim>
					<dim>8</dim>
				</port>
			</output>
		</layer>
		<layer id="196" name="1927" type="Add" version="opset1">
			<data auto_broadcast="numpy"/>
			<rt_info>
				<attribute name="fused_names" version="0" value="1927"/>
			</rt_info>
			<input>
				<port id="0" precision="FP32">
					<dim>1</dim>
					<dim>36</dim>
					<dim>8</dim>
					<dim>8</dim>
				</port>
				<port id="1" precision="FP32">
					<dim>1</dim>
					<dim>36</dim>
					<dim>8</dim>
					<dim>8</dim>
				</port>
			</input>
			<output>
				<port id="2" precision="FP32" names="1927">
					<dim>1</dim>
					<dim>36</dim>
					<dim>8</dim>
					<dim>8</dim>
				</port>
			</output>
		</layer>
		<layer id="197" name="1928" type="ReLU" version="opset1">
			<rt_info>
				<attribute name="fused_names" version="0" value="1928"/>
			</rt_info>
			<input>
				<port id="0" precision="FP32">
					<dim>1</dim>
					<dim>36</dim>
					<dim>8</dim>
					<dim>8</dim>
				</port>
			</input>
			<output>
				<port id="1" precision="FP32" names="1928">
					<dim>1</dim>
					<dim>36</dim>
					<dim>8</dim>
					<dim>8</dim>
				</port>
			</output>
		</layer>
		<layer id="198" name="Multiply_79295_compressed" type="Const" version="opset1">
			<data element_type="f16" shape="36, 36, 3, 3" offset="988956" size="23328"/>
			<output>
				<port id="0" precision="FP16">
					<dim>36</dim>
					<dim>36</dim>
					<dim>3</dim>
					<dim>3</dim>
				</port>
			</output>
		</layer>
		<layer id="199" name="Multiply_79295" type="Convert" version="opset1">
			<data destination_type="f32"/>
			<rt_info>
				<attribute name="decompression" version="0"/>
			</rt_info>
			<input>
				<port id="0" precision="FP16">
					<dim>36</dim>
					<dim>36</dim>
					<dim>3</dim>
					<dim>3</dim>
				</port>
			</input>
			<output>
				<port id="1" precision="FP32">
					<dim>36</dim>
					<dim>36</dim>
					<dim>3</dim>
					<dim>3</dim>
				</port>
			</output>
		</layer>
		<layer id="200" name="Multiply_77083" type="Convolution" version="opset1">
			<data strides="1, 1" dilations="1, 1" pads_begin="1, 1" pads_end="1, 1" auto_pad="explicit"/>
			<rt_info>
				<attribute name="fused_names" version="0" value="1929, 1930, backbone.stage2.0.branches.1.1.bn1.bias, backbone.stage2.0.branches.1.1.bn1.running_mean, backbone.stage2.0.branches.1.1.bn1.running_var, backbone.stage2.0.branches.1.1.bn1.weight"/>
			</rt_info>
			<input>
				<port id="0" precision="FP32">
					<dim>1</dim>
					<dim>36</dim>
					<dim>8</dim>
					<dim>8</dim>
				</port>
				<port id="1" precision="FP32">
					<dim>36</dim>
					<dim>36</dim>
					<dim>3</dim>
					<dim>3</dim>
				</port>
			</input>
			<output>
				<port id="2" precision="FP32">
					<dim>1</dim>
					<dim>36</dim>
					<dim>8</dim>
					<dim>8</dim>
				</port>
			</output>
		</layer>
		<layer id="201" name="Constant_77088_compressed" type="Const" version="opset1">
			<data element_type="f16" shape="1, 36, 1, 1" offset="1012284" size="72"/>
			<output>
				<port id="0" precision="FP16">
					<dim>1</dim>
					<dim>36</dim>
					<dim>1</dim>
					<dim>1</dim>
				</port>
			</output>
		</layer>
		<layer id="202" name="Constant_77088" type="Convert" version="opset1">
			<data destination_type="f32"/>
			<rt_info>
				<attribute name="decompression" version="0"/>
			</rt_info>
			<input>
				<port id="0" precision="FP16">
					<dim>1</dim>
					<dim>36</dim>
					<dim>1</dim>
					<dim>1</dim>
				</port>
			</input>
			<output>
				<port id="1" precision="FP32">
					<dim>1</dim>
					<dim>36</dim>
					<dim>1</dim>
					<dim>1</dim>
				</port>
			</output>
		</layer>
		<layer id="203" name="1930" type="Add" version="opset1">
			<data auto_broadcast="numpy"/>
			<rt_info>
				<attribute name="fused_names" version="0" value="1930, backbone.stage2.0.branches.1.1.bn1.bias, backbone.stage2.0.branches.1.1.bn1.running_mean, backbone.stage2.0.branches.1.1.bn1.running_var, backbone.stage2.0.branches.1.1.bn1.weight"/>
			</rt_info>
			<input>
				<port id="0" precision="FP32">
					<dim>1</dim>
					<dim>36</dim>
					<dim>8</dim>
					<dim>8</dim>
				</port>
				<port id="1" precision="FP32">
					<dim>1</dim>
					<dim>36</dim>
					<dim>1</dim>
					<dim>1</dim>
				</port>
			</input>
			<output>
				<port id="2" precision="FP32" names="1930">
					<dim>1</dim>
					<dim>36</dim>
					<dim>8</dim>
					<dim>8</dim>
				</port>
			</output>
		</layer>
		<layer id="204" name="1931" type="ReLU" version="opset1">
			<rt_info>
				<attribute name="fused_names" version="0" value="1931"/>
			</rt_info>
			<input>
				<port id="0" precision="FP32">
					<dim>1</dim>
					<dim>36</dim>
					<dim>8</dim>
					<dim>8</dim>
				</port>
			</input>
			<output>
				<port id="1" precision="FP32" names="1931">
					<dim>1</dim>
					<dim>36</dim>
					<dim>8</dim>
					<dim>8</dim>
				</port>
			</output>
		</layer>
		<layer id="205" name="Multiply_79304_compressed" type="Const" version="opset1">
			<data element_type="f16" shape="36, 36, 3, 3" offset="1012356" size="23328"/>
			<output>
				<port id="0" precision="FP16">
					<dim>36</dim>
					<dim>36</dim>
					<dim>3</dim>
					<dim>3</dim>
				</port>
			</output>
		</layer>
		<layer id="206" name="Multiply_79304" type="Convert" version="opset1">
			<data destination_type="f32"/>
			<rt_info>
				<attribute name="decompression" version="0"/>
			</rt_info>
			<input>
				<port id="0" precision="FP16">
					<dim>36</dim>
					<dim>36</dim>
					<dim>3</dim>
					<dim>3</dim>
				</port>
			</input>
			<output>
				<port id="1" precision="FP32">
					<dim>36</dim>
					<dim>36</dim>
					<dim>3</dim>
					<dim>3</dim>
				</port>
			</output>
		</layer>
		<layer id="207" name="Multiply_77090" type="Convolution" version="opset1">
			<data strides="1, 1" dilations="1, 1" pads_begin="1, 1" pads_end="1, 1" auto_pad="explicit"/>
			<rt_info>
				<attribute name="fused_names" version="0" value="1932, 1933, backbone.stage2.0.branches.1.1.bn2.bias, backbone.stage2.0.branches.1.1.bn2.running_mean, backbone.stage2.0.branches.1.1.bn2.running_var, backbone.stage2.0.branches.1.1.bn2.weight"/>
			</rt_info>
			<input>
				<port id="0" precision="FP32">
					<dim>1</dim>
					<dim>36</dim>
					<dim>8</dim>
					<dim>8</dim>
				</port>
				<port id="1" precision="FP32">
					<dim>36</dim>
					<dim>36</dim>
					<dim>3</dim>
					<dim>3</dim>
				</port>
			</input>
			<output>
				<port id="2" precision="FP32">
					<dim>1</dim>
					<dim>36</dim>
					<dim>8</dim>
					<dim>8</dim>
				</port>
			</output>
		</layer>
		<layer id="208" name="Constant_77095_compressed" type="Const" version="opset1">
			<data element_type="f16" shape="1, 36, 1, 1" offset="1035684" size="72"/>
			<output>
				<port id="0" precision="FP16">
					<dim>1</dim>
					<dim>36</dim>
					<dim>1</dim>
					<dim>1</dim>
				</port>
			</output>
		</layer>
		<layer id="209" name="Constant_77095" type="Convert" version="opset1">
			<data destination_type="f32"/>
			<rt_info>
				<attribute name="decompression" version="0"/>
			</rt_info>
			<input>
				<port id="0" precision="FP16">
					<dim>1</dim>
					<dim>36</dim>
					<dim>1</dim>
					<dim>1</dim>
				</port>
			</input>
			<output>
				<port id="1" precision="FP32">
					<dim>1</dim>
					<dim>36</dim>
					<dim>1</dim>
					<dim>1</dim>
				</port>
			</output>
		</layer>
		<layer id="210" name="1933" type="Add" version="opset1">
			<data auto_broadcast="numpy"/>
			<rt_info>
				<attribute name="fused_names" version="0" value="1933, backbone.stage2.0.branches.1.1.bn2.bias, backbone.stage2.0.branches.1.1.bn2.running_mean, backbone.stage2.0.branches.1.1.bn2.running_var, backbone.stage2.0.branches.1.1.bn2.weight"/>
			</rt_info>
			<input>
				<port id="0" precision="FP32">
					<dim>1</dim>
					<dim>36</dim>
					<dim>8</dim>
					<dim>8</dim>
				</port>
				<port id="1" precision="FP32">
					<dim>1</dim>
					<dim>36</dim>
					<dim>1</dim>
					<dim>1</dim>
				</port>
			</input>
			<output>
				<port id="2" precision="FP32" names="1933">
					<dim>1</dim>
					<dim>36</dim>
					<dim>8</dim>
					<dim>8</dim>
				</port>
			</output>
		</layer>
		<layer id="211" name="1934" type="Add" version="opset1">
			<data auto_broadcast="numpy"/>
			<rt_info>
				<attribute name="fused_names" version="0" value="1934"/>
			</rt_info>
			<input>
				<port id="0" precision="FP32">
					<dim>1</dim>
					<dim>36</dim>
					<dim>8</dim>
					<dim>8</dim>
				</port>
				<port id="1" precision="FP32">
					<dim>1</dim>
					<dim>36</dim>
					<dim>8</dim>
					<dim>8</dim>
				</port>
			</input>
			<output>
				<port id="2" precision="FP32" names="1934">
					<dim>1</dim>
					<dim>36</dim>
					<dim>8</dim>
					<dim>8</dim>
				</port>
			</output>
		</layer>
		<layer id="212" name="1935" type="ReLU" version="opset1">
			<rt_info>
				<attribute name="fused_names" version="0" value="1935"/>
			</rt_info>
			<input>
				<port id="0" precision="FP32">
					<dim>1</dim>
					<dim>36</dim>
					<dim>8</dim>
					<dim>8</dim>
				</port>
			</input>
			<output>
				<port id="1" precision="FP32" names="1935">
					<dim>1</dim>
					<dim>36</dim>
					<dim>8</dim>
					<dim>8</dim>
				</port>
			</output>
		</layer>
		<layer id="213" name="Multiply_79313_compressed" type="Const" version="opset1">
			<data element_type="f16" shape="36, 36, 3, 3" offset="1035756" size="23328"/>
			<output>
				<port id="0" precision="FP16">
					<dim>36</dim>
					<dim>36</dim>
					<dim>3</dim>
					<dim>3</dim>
				</port>
			</output>
		</layer>
		<layer id="214" name="Multiply_79313" type="Convert" version="opset1">
			<data destination_type="f32"/>
			<rt_info>
				<attribute name="decompression" version="0"/>
			</rt_info>
			<input>
				<port id="0" precision="FP16">
					<dim>36</dim>
					<dim>36</dim>
					<dim>3</dim>
					<dim>3</dim>
				</port>
			</input>
			<output>
				<port id="1" precision="FP32">
					<dim>36</dim>
					<dim>36</dim>
					<dim>3</dim>
					<dim>3</dim>
				</port>
			</output>
		</layer>
		<layer id="215" name="Multiply_77097" type="Convolution" version="opset1">
			<data strides="1, 1" dilations="1, 1" pads_begin="1, 1" pads_end="1, 1" auto_pad="explicit"/>
			<rt_info>
				<attribute name="fused_names" version="0" value="1936, 1937, backbone.stage2.0.branches.1.2.bn1.bias, backbone.stage2.0.branches.1.2.bn1.running_mean, backbone.stage2.0.branches.1.2.bn1.running_var, backbone.stage2.0.branches.1.2.bn1.weight"/>
			</rt_info>
			<input>
				<port id="0" precision="FP32">
					<dim>1</dim>
					<dim>36</dim>
					<dim>8</dim>
					<dim>8</dim>
				</port>
				<port id="1" precision="FP32">
					<dim>36</dim>
					<dim>36</dim>
					<dim>3</dim>
					<dim>3</dim>
				</port>
			</input>
			<output>
				<port id="2" precision="FP32">
					<dim>1</dim>
					<dim>36</dim>
					<dim>8</dim>
					<dim>8</dim>
				</port>
			</output>
		</layer>
		<layer id="216" name="Constant_77102_compressed" type="Const" version="opset1">
			<data element_type="f16" shape="1, 36, 1, 1" offset="1059084" size="72"/>
			<output>
				<port id="0" precision="FP16">
					<dim>1</dim>
					<dim>36</dim>
					<dim>1</dim>
					<dim>1</dim>
				</port>
			</output>
		</layer>
		<layer id="217" name="Constant_77102" type="Convert" version="opset1">
			<data destination_type="f32"/>
			<rt_info>
				<attribute name="decompression" version="0"/>
			</rt_info>
			<input>
				<port id="0" precision="FP16">
					<dim>1</dim>
					<dim>36</dim>
					<dim>1</dim>
					<dim>1</dim>
				</port>
			</input>
			<output>
				<port id="1" precision="FP32">
					<dim>1</dim>
					<dim>36</dim>
					<dim>1</dim>
					<dim>1</dim>
				</port>
			</output>
		</layer>
		<layer id="218" name="1937" type="Add" version="opset1">
			<data auto_broadcast="numpy"/>
			<rt_info>
				<attribute name="fused_names" version="0" value="1937, backbone.stage2.0.branches.1.2.bn1.bias, backbone.stage2.0.branches.1.2.bn1.running_mean, backbone.stage2.0.branches.1.2.bn1.running_var, backbone.stage2.0.branches.1.2.bn1.weight"/>
			</rt_info>
			<input>
				<port id="0" precision="FP32">
					<dim>1</dim>
					<dim>36</dim>
					<dim>8</dim>
					<dim>8</dim>
				</port>
				<port id="1" precision="FP32">
					<dim>1</dim>
					<dim>36</dim>
					<dim>1</dim>
					<dim>1</dim>
				</port>
			</input>
			<output>
				<port id="2" precision="FP32" names="1937">
					<dim>1</dim>
					<dim>36</dim>
					<dim>8</dim>
					<dim>8</dim>
				</port>
			</output>
		</layer>
		<layer id="219" name="1938" type="ReLU" version="opset1">
			<rt_info>
				<attribute name="fused_names" version="0" value="1938"/>
			</rt_info>
			<input>
				<port id="0" precision="FP32">
					<dim>1</dim>
					<dim>36</dim>
					<dim>8</dim>
					<dim>8</dim>
				</port>
			</input>
			<output>
				<port id="1" precision="FP32" names="1938">
					<dim>1</dim>
					<dim>36</dim>
					<dim>8</dim>
					<dim>8</dim>
				</port>
			</output>
		</layer>
		<layer id="220" name="Multiply_79322_compressed" type="Const" version="opset1">
			<data element_type="f16" shape="36, 36, 3, 3" offset="1059156" size="23328"/>
			<output>
				<port id="0" precision="FP16">
					<dim>36</dim>
					<dim>36</dim>
					<dim>3</dim>
					<dim>3</dim>
				</port>
			</output>
		</layer>
		<layer id="221" name="Multiply_79322" type="Convert" version="opset1">
			<data destination_type="f32"/>
			<rt_info>
				<attribute name="decompression" version="0"/>
			</rt_info>
			<input>
				<port id="0" precision="FP16">
					<dim>36</dim>
					<dim>36</dim>
					<dim>3</dim>
					<dim>3</dim>
				</port>
			</input>
			<output>
				<port id="1" precision="FP32">
					<dim>36</dim>
					<dim>36</dim>
					<dim>3</dim>
					<dim>3</dim>
				</port>
			</output>
		</layer>
		<layer id="222" name="Multiply_77104" type="Convolution" version="opset1">
			<data strides="1, 1" dilations="1, 1" pads_begin="1, 1" pads_end="1, 1" auto_pad="explicit"/>
			<rt_info>
				<attribute name="fused_names" version="0" value="1939, 1940, backbone.stage2.0.branches.1.2.bn2.bias, backbone.stage2.0.branches.1.2.bn2.running_mean, backbone.stage2.0.branches.1.2.bn2.running_var, backbone.stage2.0.branches.1.2.bn2.weight"/>
			</rt_info>
			<input>
				<port id="0" precision="FP32">
					<dim>1</dim>
					<dim>36</dim>
					<dim>8</dim>
					<dim>8</dim>
				</port>
				<port id="1" precision="FP32">
					<dim>36</dim>
					<dim>36</dim>
					<dim>3</dim>
					<dim>3</dim>
				</port>
			</input>
			<output>
				<port id="2" precision="FP32">
					<dim>1</dim>
					<dim>36</dim>
					<dim>8</dim>
					<dim>8</dim>
				</port>
			</output>
		</layer>
		<layer id="223" name="Constant_77109_compressed" type="Const" version="opset1">
			<data element_type="f16" shape="1, 36, 1, 1" offset="1082484" size="72"/>
			<output>
				<port id="0" precision="FP16">
					<dim>1</dim>
					<dim>36</dim>
					<dim>1</dim>
					<dim>1</dim>
				</port>
			</output>
		</layer>
		<layer id="224" name="Constant_77109" type="Convert" version="opset1">
			<data destination_type="f32"/>
			<rt_info>
				<attribute name="decompression" version="0"/>
			</rt_info>
			<input>
				<port id="0" precision="FP16">
					<dim>1</dim>
					<dim>36</dim>
					<dim>1</dim>
					<dim>1</dim>
				</port>
			</input>
			<output>
				<port id="1" precision="FP32">
					<dim>1</dim>
					<dim>36</dim>
					<dim>1</dim>
					<dim>1</dim>
				</port>
			</output>
		</layer>
		<layer id="225" name="1940" type="Add" version="opset1">
			<data auto_broadcast="numpy"/>
			<rt_info>
				<attribute name="fused_names" version="0" value="1940, backbone.stage2.0.branches.1.2.bn2.bias, backbone.stage2.0.branches.1.2.bn2.running_mean, backbone.stage2.0.branches.1.2.bn2.running_var, backbone.stage2.0.branches.1.2.bn2.weight"/>
			</rt_info>
			<input>
				<port id="0" precision="FP32">
					<dim>1</dim>
					<dim>36</dim>
					<dim>8</dim>
					<dim>8</dim>
				</port>
				<port id="1" precision="FP32">
					<dim>1</dim>
					<dim>36</dim>
					<dim>1</dim>
					<dim>1</dim>
				</port>
			</input>
			<output>
				<port id="2" precision="FP32" names="1940">
					<dim>1</dim>
					<dim>36</dim>
					<dim>8</dim>
					<dim>8</dim>
				</port>
			</output>
		</layer>
		<layer id="226" name="1941" type="Add" version="opset1">
			<data auto_broadcast="numpy"/>
			<rt_info>
				<attribute name="fused_names" version="0" value="1941"/>
			</rt_info>
			<input>
				<port id="0" precision="FP32">
					<dim>1</dim>
					<dim>36</dim>
					<dim>8</dim>
					<dim>8</dim>
				</port>
				<port id="1" precision="FP32">
					<dim>1</dim>
					<dim>36</dim>
					<dim>8</dim>
					<dim>8</dim>
				</port>
			</input>
			<output>
				<port id="2" precision="FP32" names="1941">
					<dim>1</dim>
					<dim>36</dim>
					<dim>8</dim>
					<dim>8</dim>
				</port>
			</output>
		</layer>
		<layer id="227" name="1942" type="ReLU" version="opset1">
			<rt_info>
				<attribute name="fused_names" version="0" value="1942"/>
			</rt_info>
			<input>
				<port id="0" precision="FP32">
					<dim>1</dim>
					<dim>36</dim>
					<dim>8</dim>
					<dim>8</dim>
				</port>
			</input>
			<output>
				<port id="1" precision="FP32" names="1942">
					<dim>1</dim>
					<dim>36</dim>
					<dim>8</dim>
					<dim>8</dim>
				</port>
			</output>
		</layer>
		<layer id="228" name="Multiply_79331_compressed" type="Const" version="opset1">
			<data element_type="f16" shape="36, 36, 3, 3" offset="1082556" size="23328"/>
			<output>
				<port id="0" precision="FP16">
					<dim>36</dim>
					<dim>36</dim>
					<dim>3</dim>
					<dim>3</dim>
				</port>
			</output>
		</layer>
		<layer id="229" name="Multiply_79331" type="Convert" version="opset1">
			<data destination_type="f32"/>
			<rt_info>
				<attribute name="decompression" version="0"/>
			</rt_info>
			<input>
				<port id="0" precision="FP16">
					<dim>36</dim>
					<dim>36</dim>
					<dim>3</dim>
					<dim>3</dim>
				</port>
			</input>
			<output>
				<port id="1" precision="FP32">
					<dim>36</dim>
					<dim>36</dim>
					<dim>3</dim>
					<dim>3</dim>
				</port>
			</output>
		</layer>
		<layer id="230" name="Multiply_77111" type="Convolution" version="opset1">
			<data strides="1, 1" dilations="1, 1" pads_begin="1, 1" pads_end="1, 1" auto_pad="explicit"/>
			<rt_info>
				<attribute name="fused_names" version="0" value="1943, 1944, backbone.stage2.0.branches.1.3.bn1.bias, backbone.stage2.0.branches.1.3.bn1.running_mean, backbone.stage2.0.branches.1.3.bn1.running_var, backbone.stage2.0.branches.1.3.bn1.weight"/>
			</rt_info>
			<input>
				<port id="0" precision="FP32">
					<dim>1</dim>
					<dim>36</dim>
					<dim>8</dim>
					<dim>8</dim>
				</port>
				<port id="1" precision="FP32">
					<dim>36</dim>
					<dim>36</dim>
					<dim>3</dim>
					<dim>3</dim>
				</port>
			</input>
			<output>
				<port id="2" precision="FP32">
					<dim>1</dim>
					<dim>36</dim>
					<dim>8</dim>
					<dim>8</dim>
				</port>
			</output>
		</layer>
		<layer id="231" name="Constant_77116_compressed" type="Const" version="opset1">
			<data element_type="f16" shape="1, 36, 1, 1" offset="1105884" size="72"/>
			<output>
				<port id="0" precision="FP16">
					<dim>1</dim>
					<dim>36</dim>
					<dim>1</dim>
					<dim>1</dim>
				</port>
			</output>
		</layer>
		<layer id="232" name="Constant_77116" type="Convert" version="opset1">
			<data destination_type="f32"/>
			<rt_info>
				<attribute name="decompression" version="0"/>
			</rt_info>
			<input>
				<port id="0" precision="FP16">
					<dim>1</dim>
					<dim>36</dim>
					<dim>1</dim>
					<dim>1</dim>
				</port>
			</input>
			<output>
				<port id="1" precision="FP32">
					<dim>1</dim>
					<dim>36</dim>
					<dim>1</dim>
					<dim>1</dim>
				</port>
			</output>
		</layer>
		<layer id="233" name="1944" type="Add" version="opset1">
			<data auto_broadcast="numpy"/>
			<rt_info>
				<attribute name="fused_names" version="0" value="1944, backbone.stage2.0.branches.1.3.bn1.bias, backbone.stage2.0.branches.1.3.bn1.running_mean, backbone.stage2.0.branches.1.3.bn1.running_var, backbone.stage2.0.branches.1.3.bn1.weight"/>
			</rt_info>
			<input>
				<port id="0" precision="FP32">
					<dim>1</dim>
					<dim>36</dim>
					<dim>8</dim>
					<dim>8</dim>
				</port>
				<port id="1" precision="FP32">
					<dim>1</dim>
					<dim>36</dim>
					<dim>1</dim>
					<dim>1</dim>
				</port>
			</input>
			<output>
				<port id="2" precision="FP32" names="1944">
					<dim>1</dim>
					<dim>36</dim>
					<dim>8</dim>
					<dim>8</dim>
				</port>
			</output>
		</layer>
		<layer id="234" name="1945" type="ReLU" version="opset1">
			<rt_info>
				<attribute name="fused_names" version="0" value="1945"/>
			</rt_info>
			<input>
				<port id="0" precision="FP32">
					<dim>1</dim>
					<dim>36</dim>
					<dim>8</dim>
					<dim>8</dim>
				</port>
			</input>
			<output>
				<port id="1" precision="FP32" names="1945">
					<dim>1</dim>
					<dim>36</dim>
					<dim>8</dim>
					<dim>8</dim>
				</port>
			</output>
		</layer>
		<layer id="235" name="Multiply_79340_compressed" type="Const" version="opset1">
			<data element_type="f16" shape="36, 36, 3, 3" offset="1105956" size="23328"/>
			<output>
				<port id="0" precision="FP16">
					<dim>36</dim>
					<dim>36</dim>
					<dim>3</dim>
					<dim>3</dim>
				</port>
			</output>
		</layer>
		<layer id="236" name="Multiply_79340" type="Convert" version="opset1">
			<data destination_type="f32"/>
			<rt_info>
				<attribute name="decompression" version="0"/>
			</rt_info>
			<input>
				<port id="0" precision="FP16">
					<dim>36</dim>
					<dim>36</dim>
					<dim>3</dim>
					<dim>3</dim>
				</port>
			</input>
			<output>
				<port id="1" precision="FP32">
					<dim>36</dim>
					<dim>36</dim>
					<dim>3</dim>
					<dim>3</dim>
				</port>
			</output>
		</layer>
		<layer id="237" name="Multiply_77118" type="Convolution" version="opset1">
			<data strides="1, 1" dilations="1, 1" pads_begin="1, 1" pads_end="1, 1" auto_pad="explicit"/>
			<rt_info>
				<attribute name="fused_names" version="0" value="1946, 1947, backbone.stage2.0.branches.1.3.bn2.bias, backbone.stage2.0.branches.1.3.bn2.running_mean, backbone.stage2.0.branches.1.3.bn2.running_var, backbone.stage2.0.branches.1.3.bn2.weight"/>
			</rt_info>
			<input>
				<port id="0" precision="FP32">
					<dim>1</dim>
					<dim>36</dim>
					<dim>8</dim>
					<dim>8</dim>
				</port>
				<port id="1" precision="FP32">
					<dim>36</dim>
					<dim>36</dim>
					<dim>3</dim>
					<dim>3</dim>
				</port>
			</input>
			<output>
				<port id="2" precision="FP32">
					<dim>1</dim>
					<dim>36</dim>
					<dim>8</dim>
					<dim>8</dim>
				</port>
			</output>
		</layer>
		<layer id="238" name="Constant_77123_compressed" type="Const" version="opset1">
			<data element_type="f16" shape="1, 36, 1, 1" offset="1129284" size="72"/>
			<output>
				<port id="0" precision="FP16">
					<dim>1</dim>
					<dim>36</dim>
					<dim>1</dim>
					<dim>1</dim>
				</port>
			</output>
		</layer>
		<layer id="239" name="Constant_77123" type="Convert" version="opset1">
			<data destination_type="f32"/>
			<rt_info>
				<attribute name="decompression" version="0"/>
			</rt_info>
			<input>
				<port id="0" precision="FP16">
					<dim>1</dim>
					<dim>36</dim>
					<dim>1</dim>
					<dim>1</dim>
				</port>
			</input>
			<output>
				<port id="1" precision="FP32">
					<dim>1</dim>
					<dim>36</dim>
					<dim>1</dim>
					<dim>1</dim>
				</port>
			</output>
		</layer>
		<layer id="240" name="1947" type="Add" version="opset1">
			<data auto_broadcast="numpy"/>
			<rt_info>
				<attribute name="fused_names" version="0" value="1947, backbone.stage2.0.branches.1.3.bn2.bias, backbone.stage2.0.branches.1.3.bn2.running_mean, backbone.stage2.0.branches.1.3.bn2.running_var, backbone.stage2.0.branches.1.3.bn2.weight"/>
			</rt_info>
			<input>
				<port id="0" precision="FP32">
					<dim>1</dim>
					<dim>36</dim>
					<dim>8</dim>
					<dim>8</dim>
				</port>
				<port id="1" precision="FP32">
					<dim>1</dim>
					<dim>36</dim>
					<dim>1</dim>
					<dim>1</dim>
				</port>
			</input>
			<output>
				<port id="2" precision="FP32" names="1947">
					<dim>1</dim>
					<dim>36</dim>
					<dim>8</dim>
					<dim>8</dim>
				</port>
			</output>
		</layer>
		<layer id="241" name="1948" type="Add" version="opset1">
			<data auto_broadcast="numpy"/>
			<rt_info>
				<attribute name="fused_names" version="0" value="1948"/>
			</rt_info>
			<input>
				<port id="0" precision="FP32">
					<dim>1</dim>
					<dim>36</dim>
					<dim>8</dim>
					<dim>8</dim>
				</port>
				<port id="1" precision="FP32">
					<dim>1</dim>
					<dim>36</dim>
					<dim>8</dim>
					<dim>8</dim>
				</port>
			</input>
			<output>
				<port id="2" precision="FP32" names="1948">
					<dim>1</dim>
					<dim>36</dim>
					<dim>8</dim>
					<dim>8</dim>
				</port>
			</output>
		</layer>
		<layer id="242" name="1949" type="ReLU" version="opset1">
			<rt_info>
				<attribute name="fused_names" version="0" value="1949"/>
			</rt_info>
			<input>
				<port id="0" precision="FP32">
					<dim>1</dim>
					<dim>36</dim>
					<dim>8</dim>
					<dim>8</dim>
				</port>
			</input>
			<output>
				<port id="1" precision="FP32" names="1949">
					<dim>1</dim>
					<dim>36</dim>
					<dim>8</dim>
					<dim>8</dim>
				</port>
			</output>
		</layer>
		<layer id="243" name="Multiply_79349_compressed" type="Const" version="opset1">
			<data element_type="f16" shape="18, 36, 1, 1" offset="1129356" size="1296"/>
			<output>
				<port id="0" precision="FP16">
					<dim>18</dim>
					<dim>36</dim>
					<dim>1</dim>
					<dim>1</dim>
				</port>
			</output>
		</layer>
		<layer id="244" name="Multiply_79349" type="Convert" version="opset1">
			<data destination_type="f32"/>
			<rt_info>
				<attribute name="decompression" version="0"/>
			</rt_info>
			<input>
				<port id="0" precision="FP16">
					<dim>18</dim>
					<dim>36</dim>
					<dim>1</dim>
					<dim>1</dim>
				</port>
			</input>
			<output>
				<port id="1" precision="FP32">
					<dim>18</dim>
					<dim>36</dim>
					<dim>1</dim>
					<dim>1</dim>
				</port>
			</output>
		</layer>
		<layer id="245" name="Multiply_77125" type="Convolution" version="opset1">
			<data strides="1, 1" dilations="1, 1" pads_begin="0, 0" pads_end="0, 0" auto_pad="explicit"/>
			<rt_info>
				<attribute name="fused_names" version="0" value="1952, 1953, backbone.stage2.0.fuse_layers.0.1.1.bias, backbone.stage2.0.fuse_layers.0.1.1.running_mean, backbone.stage2.0.fuse_layers.0.1.1.running_var, backbone.stage2.0.fuse_layers.0.1.1.weight"/>
			</rt_info>
			<input>
				<port id="0" precision="FP32">
					<dim>1</dim>
					<dim>36</dim>
					<dim>8</dim>
					<dim>8</dim>
				</port>
				<port id="1" precision="FP32">
					<dim>18</dim>
					<dim>36</dim>
					<dim>1</dim>
					<dim>1</dim>
				</port>
			</input>
			<output>
				<port id="2" precision="FP32">
					<dim>1</dim>
					<dim>18</dim>
					<dim>8</dim>
					<dim>8</dim>
				</port>
			</output>
		</layer>
		<layer id="246" name="Constant_77130_compressed" type="Const" version="opset1">
			<data element_type="f16" shape="1, 18, 1, 1" offset="1130652" size="36"/>
			<output>
				<port id="0" precision="FP16">
					<dim>1</dim>
					<dim>18</dim>
					<dim>1</dim>
					<dim>1</dim>
				</port>
			</output>
		</layer>
		<layer id="247" name="Constant_77130" type="Convert" version="opset1">
			<data destination_type="f32"/>
			<rt_info>
				<attribute name="decompression" version="0"/>
			</rt_info>
			<input>
				<port id="0" precision="FP16">
					<dim>1</dim>
					<dim>18</dim>
					<dim>1</dim>
					<dim>1</dim>
				</port>
			</input>
			<output>
				<port id="1" precision="FP32">
					<dim>1</dim>
					<dim>18</dim>
					<dim>1</dim>
					<dim>1</dim>
				</port>
			</output>
		</layer>
		<layer id="248" name="1953" type="Add" version="opset1">
			<data auto_broadcast="numpy"/>
			<rt_info>
				<attribute name="fused_names" version="0" value="1953, backbone.stage2.0.fuse_layers.0.1.1.bias, backbone.stage2.0.fuse_layers.0.1.1.running_mean, backbone.stage2.0.fuse_layers.0.1.1.running_var, backbone.stage2.0.fuse_layers.0.1.1.weight"/>
			</rt_info>
			<input>
				<port id="0" precision="FP32">
					<dim>1</dim>
					<dim>18</dim>
					<dim>8</dim>
					<dim>8</dim>
				</port>
				<port id="1" precision="FP32">
					<dim>1</dim>
					<dim>18</dim>
					<dim>1</dim>
					<dim>1</dim>
				</port>
			</input>
			<output>
				<port id="2" precision="FP32" names="1953">
					<dim>1</dim>
					<dim>18</dim>
					<dim>8</dim>
					<dim>8</dim>
				</port>
			</output>
		</layer>
		<layer id="249" name="1974" type="ShapeOf" version="opset3">
			<data output_type="i64"/>
			<rt_info>
				<attribute name="fused_names" version="0" value="1954, 1962, 1974, ShapeOf_1738"/>
			</rt_info>
			<input>
				<port id="0" precision="FP32">
					<dim>1</dim>
					<dim>18</dim>
					<dim>8</dim>
					<dim>8</dim>
				</port>
			</input>
			<output>
				<port id="1" precision="I64" names="1954,1962,1974">
					<dim>4</dim>
				</port>
			</output>
		</layer>
		<layer id="250" name="1976" type="Const" version="opset1">
			<data element_type="i64" shape="1" offset="1130688" size="8"/>
			<rt_info>
				<attribute name="fused_names" version="0" value="1975, 1976, 1977, 1978, Broadcast_1717"/>
			</rt_info>
			<output>
				<port id="0" precision="I64" names="1976">
					<dim>1</dim>
				</port>
			</output>
		</layer>
		<layer id="251" name="1977" type="Const" version="opset1">
			<data element_type="i64" shape="1" offset="1130696" size="8"/>
			<rt_info>
				<attribute name="fused_names" version="0" value="1975, 1976, 1977, 1978, Broadcast_1717"/>
			</rt_info>
			<output>
				<port id="0" precision="I64" names="1977">
					<dim>1</dim>
				</port>
			</output>
		</layer>
		<layer id="252" name="Broadcast_1717" type="Const" version="opset1">
			<data element_type="i64" shape="1" offset="1130704" size="8"/>
			<rt_info>
				<attribute name="fused_names" version="0" value="1975, 1976, 1977, 1978, Broadcast_1717"/>
			</rt_info>
			<output>
				<port id="0" precision="I64">
					<dim>1</dim>
				</port>
			</output>
		</layer>
		<layer id="253" name="1978" type="StridedSlice" version="opset1">
			<data begin_mask="0" end_mask="0" new_axis_mask="" shrink_axis_mask="" ellipsis_mask=""/>
			<rt_info>
				<attribute name="fused_names" version="0" value="1975, 1976, 1977, 1978, Broadcast_1717"/>
			</rt_info>
			<input>
				<port id="0" precision="I64">
					<dim>4</dim>
				</port>
				<port id="1" precision="I64">
					<dim>1</dim>
				</port>
				<port id="2" precision="I64">
					<dim>1</dim>
				</port>
				<port id="3" precision="I64">
					<dim>1</dim>
				</port>
			</input>
			<output>
				<port id="4" precision="I64" names="1978">
					<dim>2</dim>
				</port>
			</output>
		</layer>
		<layer id="254" name="1955" type="Const" version="opset1">
			<data element_type="i64" shape="" offset="1130696" size="8"/>
			<rt_info>
				<attribute name="fused_names" version="0" value="1955"/>
			</rt_info>
			<output>
				<port id="0" precision="I64" names="1955"/>
			</output>
		</layer>
		<layer id="255" name="Constant_1688" type="Const" version="opset1">
			<data element_type="i64" shape="" offset="1130688" size="8"/>
			<rt_info>
				<attribute name="fused_names" version="0" value="Constant_1688"/>
			</rt_info>
			<output>
				<port id="0" precision="I64"/>
			</output>
		</layer>
		<layer id="256" name="1956" type="Gather" version="opset8">
			<data batch_dims="0"/>
			<rt_info>
				<attribute name="fused_names" version="0" value="1955, 1956, Constant_1688"/>
			</rt_info>
			<input>
				<port id="0" precision="I64">
					<dim>4</dim>
				</port>
				<port id="1" precision="I64"/>
				<port id="2" precision="I64"/>
			</input>
			<output>
				<port id="3" precision="I64" names="1956"/>
			</output>
		</layer>
		<layer id="257" name="1957" type="Convert" version="opset1">
			<data destination_type="f32"/>
			<rt_info>
				<attribute name="fused_names" version="0" value="1957"/>
			</rt_info>
			<input>
				<port id="0" precision="I64"/>
			</input>
			<output>
				<port id="1" precision="FP32" names="1957"/>
			</output>
		</layer>
		<layer id="258" name="1958" type="Const" version="opset1">
			<data element_type="f32" shape="" offset="1130712" size="4"/>
			<rt_info>
				<attribute name="fused_names" version="0" value="1958"/>
			</rt_info>
			<output>
				<port id="0" precision="FP32" names="1958"/>
			</output>
		</layer>
		<layer id="259" name="1959" type="Multiply" version="opset1">
			<data auto_broadcast="numpy"/>
			<rt_info>
				<attribute name="fused_names" version="0" value="1958, 1959, 1960"/>
			</rt_info>
			<input>
				<port id="0" precision="FP32"/>
				<port id="1" precision="FP32"/>
			</input>
			<output>
				<port id="2" precision="FP32" names="1959,1960"/>
			</output>
		</layer>
		<layer id="260" name="1961" type="Floor" version="opset1">
			<rt_info>
				<attribute name="fused_names" version="0" value="1961"/>
			</rt_info>
			<input>
				<port id="0" precision="FP32"/>
			</input>
			<output>
				<port id="1" precision="FP32" names="1961"/>
			</output>
		</layer>
		<layer id="261" name="Constant_1704" type="Const" version="opset1">
			<data element_type="i64" shape="1" offset="1130688" size="8"/>
			<rt_info>
				<attribute name="fused_names" version="0" value="Constant_1704"/>
			</rt_info>
			<output>
				<port id="0" precision="I64">
					<dim>1</dim>
				</port>
			</output>
		</layer>
		<layer id="262" name="1970" type="Unsqueeze" version="opset1">
			<rt_info>
				<attribute name="fused_names" version="0" value="1970, Constant_1704"/>
			</rt_info>
			<input>
				<port id="0" precision="FP32"/>
				<port id="1" precision="I64">
					<dim>1</dim>
				</port>
			</input>
			<output>
				<port id="2" precision="FP32" names="1970">
					<dim>1</dim>
				</port>
			</output>
		</layer>
		<layer id="263" name="1963" type="Const" version="opset1">
			<data element_type="i64" shape="" offset="1130716" size="8"/>
			<rt_info>
				<attribute name="fused_names" version="0" value="1963"/>
			</rt_info>
			<output>
				<port id="0" precision="I64" names="1963"/>
			</output>
		</layer>
		<layer id="264" name="Constant_1697" type="Const" version="opset1">
			<data element_type="i64" shape="" offset="1130688" size="8"/>
			<rt_info>
				<attribute name="fused_names" version="0" value="Constant_1697"/>
			</rt_info>
			<output>
				<port id="0" precision="I64"/>
			</output>
		</layer>
		<layer id="265" name="1964" type="Gather" version="opset8">
			<data batch_dims="0"/>
			<rt_info>
				<attribute name="fused_names" version="0" value="1963, 1964, Constant_1697"/>
			</rt_info>
			<input>
				<port id="0" precision="I64">
					<dim>4</dim>
				</port>
				<port id="1" precision="I64"/>
				<port id="2" precision="I64"/>
			</input>
			<output>
				<port id="3" precision="I64" names="1964"/>
			</output>
		</layer>
		<layer id="266" name="1965" type="Convert" version="opset1">
			<data destination_type="f32"/>
			<rt_info>
				<attribute name="fused_names" version="0" value="1965"/>
			</rt_info>
			<input>
				<port id="0" precision="I64"/>
			</input>
			<output>
				<port id="1" precision="FP32" names="1965"/>
			</output>
		</layer>
		<layer id="267" name="1966" type="Const" version="opset1">
			<data element_type="f32" shape="" offset="1130712" size="4"/>
			<rt_info>
				<attribute name="fused_names" version="0" value="1966"/>
			</rt_info>
			<output>
				<port id="0" precision="FP32" names="1966"/>
			</output>
		</layer>
		<layer id="268" name="1967" type="Multiply" version="opset1">
			<data auto_broadcast="numpy"/>
			<rt_info>
				<attribute name="fused_names" version="0" value="1966, 1967, 1968"/>
			</rt_info>
			<input>
				<port id="0" precision="FP32"/>
				<port id="1" precision="FP32"/>
			</input>
			<output>
				<port id="2" precision="FP32" names="1967,1968"/>
			</output>
		</layer>
		<layer id="269" name="1969" type="Floor" version="opset1">
			<rt_info>
				<attribute name="fused_names" version="0" value="1969"/>
			</rt_info>
			<input>
				<port id="0" precision="FP32"/>
			</input>
			<output>
				<port id="1" precision="FP32" names="1969"/>
			</output>
		</layer>
		<layer id="270" name="Constant_1706" type="Const" version="opset1">
			<data element_type="i64" shape="1" offset="1130688" size="8"/>
			<rt_info>
				<attribute name="fused_names" version="0" value="Constant_1706"/>
			</rt_info>
			<output>
				<port id="0" precision="I64">
					<dim>1</dim>
				</port>
			</output>
		</layer>
		<layer id="271" name="1971" type="Unsqueeze" version="opset1">
			<rt_info>
				<attribute name="fused_names" version="0" value="1971, Constant_1706"/>
			</rt_info>
			<input>
				<port id="0" precision="FP32"/>
				<port id="1" precision="I64">
					<dim>1</dim>
				</port>
			</input>
			<output>
				<port id="2" precision="FP32" names="1971">
					<dim>1</dim>
				</port>
			</output>
		</layer>
		<layer id="272" name="1972" type="Concat" version="opset1">
			<data axis="0"/>
			<rt_info>
				<attribute name="fused_names" version="0" value="1972"/>
			</rt_info>
			<input>
				<port id="0" precision="FP32">
					<dim>1</dim>
				</port>
				<port id="1" precision="FP32">
					<dim>1</dim>
				</port>
			</input>
			<output>
				<port id="2" precision="FP32" names="1972">
					<dim>2</dim>
				</port>
			</output>
		</layer>
		<layer id="273" name="1979" type="Convert" version="opset1">
			<data destination_type="i64"/>
			<rt_info>
				<attribute name="fused_names" version="0" value="1979"/>
			</rt_info>
			<input>
				<port id="0" precision="FP32">
					<dim>2</dim>
				</port>
			</input>
			<output>
				<port id="1" precision="I64" names="1979">
					<dim>2</dim>
				</port>
			</output>
		</layer>
		<layer id="274" name="1980" type="Concat" version="opset1">
			<data axis="0"/>
			<rt_info>
				<attribute name="fused_names" version="0" value="1980"/>
			</rt_info>
			<input>
				<port id="0" precision="I64">
					<dim>2</dim>
				</port>
				<port id="1" precision="I64">
					<dim>2</dim>
				</port>
			</input>
			<output>
				<port id="2" precision="I64" names="1980">
					<dim>4</dim>
				</port>
			</output>
		</layer>
		<layer id="275" name="Convert_1740" type="Convert" version="opset1">
			<data destination_type="f32"/>
			<rt_info>
				<attribute name="fused_names" version="0" value="Convert_1740"/>
			</rt_info>
			<input>
				<port id="0" precision="I64">
					<dim>4</dim>
				</port>
			</input>
			<output>
				<port id="1" precision="FP32">
					<dim>4</dim>
				</port>
			</output>
		</layer>
		<layer id="276" name="Convert_1739" type="Convert" version="opset1">
			<data destination_type="f32"/>
			<rt_info>
				<attribute name="fused_names" version="0" value="Convert_1739"/>
			</rt_info>
			<input>
				<port id="0" precision="I64">
					<dim>4</dim>
				</port>
			</input>
			<output>
				<port id="1" precision="FP32">
					<dim>4</dim>
				</port>
			</output>
		</layer>
		<layer id="277" name="Divide_1741" type="Divide" version="opset1">
			<data auto_broadcast="numpy" m_pythondiv="true"/>
			<rt_info>
				<attribute name="fused_names" version="0" value="Divide_1741"/>
			</rt_info>
			<input>
				<port id="0" precision="FP32">
					<dim>4</dim>
				</port>
				<port id="1" precision="FP32">
					<dim>4</dim>
				</port>
			</input>
			<output>
				<port id="2" precision="FP32">
					<dim>4</dim>
				</port>
			</output>
		</layer>
		<layer id="278" name="Constant_89485" type="Const" version="opset1">
			<data element_type="f32" shape="1" offset="1130724" size="4"/>
			<output>
				<port id="0" precision="FP32">
					<dim>1</dim>
				</port>
			</output>
		</layer>
		<layer id="279" name="Add_1743" type="Add" version="opset1">
			<data auto_broadcast="numpy"/>
			<rt_info>
				<attribute name="fused_names" version="0" value="Add_1743"/>
			</rt_info>
			<input>
				<port id="0" precision="FP32">
					<dim>4</dim>
				</port>
				<port id="1" precision="FP32">
					<dim>1</dim>
				</port>
			</input>
			<output>
				<port id="2" precision="FP32">
					<dim>4</dim>
				</port>
			</output>
		</layer>
		<layer id="280" name="1982" type="Interpolate" version="opset4">
			<data mode="linear_onnx" shape_calculation_mode="sizes" coordinate_transformation_mode="pytorch_half_pixel" nearest_mode="floor" antialias="false" pads_begin="0, 0, 0, 0" pads_end="0, 0, 0, 0" cube_coeff="-0.75"/>
			<rt_info>
				<attribute name="fused_names" version="0" value="1982"/>
			</rt_info>
			<input>
				<port id="0" precision="FP32">
					<dim>1</dim>
					<dim>18</dim>
					<dim>8</dim>
					<dim>8</dim>
				</port>
				<port id="1" precision="I64">
					<dim>4</dim>
				</port>
				<port id="2" precision="FP32">
					<dim>4</dim>
				</port>
			</input>
			<output>
				<port id="3" precision="FP32" names="1982">
					<dim>1</dim>
					<dim>18</dim>
					<dim>16</dim>
					<dim>16</dim>
				</port>
			</output>
		</layer>
		<layer id="281" name="1983" type="Add" version="opset1">
			<data auto_broadcast="numpy"/>
			<rt_info>
				<attribute name="fused_names" version="0" value="1983"/>
			</rt_info>
			<input>
				<port id="0" precision="FP32">
					<dim>1</dim>
					<dim>18</dim>
					<dim>16</dim>
					<dim>16</dim>
				</port>
				<port id="1" precision="FP32">
					<dim>1</dim>
					<dim>18</dim>
					<dim>16</dim>
					<dim>16</dim>
				</port>
			</input>
			<output>
				<port id="2" precision="FP32" names="1983">
					<dim>1</dim>
					<dim>18</dim>
					<dim>16</dim>
					<dim>16</dim>
				</port>
			</output>
		</layer>
		<layer id="282" name="1984" type="ReLU" version="opset1">
			<rt_info>
				<attribute name="fused_names" version="0" value="1984"/>
			</rt_info>
			<input>
				<port id="0" precision="FP32">
					<dim>1</dim>
					<dim>18</dim>
					<dim>16</dim>
					<dim>16</dim>
				</port>
			</input>
			<output>
				<port id="1" precision="FP32" names="1984">
					<dim>1</dim>
					<dim>18</dim>
					<dim>16</dim>
					<dim>16</dim>
				</port>
			</output>
		</layer>
		<layer id="283" name="Multiply_79358_compressed" type="Const" version="opset1">
			<data element_type="f16" shape="18, 18, 3, 3" offset="1130728" size="5832"/>
			<output>
				<port id="0" precision="FP16">
					<dim>18</dim>
					<dim>18</dim>
					<dim>3</dim>
					<dim>3</dim>
				</port>
			</output>
		</layer>
		<layer id="284" name="Multiply_79358" type="Convert" version="opset1">
			<data destination_type="f32"/>
			<rt_info>
				<attribute name="decompression" version="0"/>
			</rt_info>
			<input>
				<port id="0" precision="FP16">
					<dim>18</dim>
					<dim>18</dim>
					<dim>3</dim>
					<dim>3</dim>
				</port>
			</input>
			<output>
				<port id="1" precision="FP32">
					<dim>18</dim>
					<dim>18</dim>
					<dim>3</dim>
					<dim>3</dim>
				</port>
			</output>
		</layer>
		<layer id="285" name="Multiply_77132" type="Convolution" version="opset1">
			<data strides="1, 1" dilations="1, 1" pads_begin="1, 1" pads_end="1, 1" auto_pad="explicit"/>
			<rt_info>
				<attribute name="fused_names" version="0" value="1992, 1993, backbone.stage3.0.branches.0.0.bn1.bias, backbone.stage3.0.branches.0.0.bn1.running_mean, backbone.stage3.0.branches.0.0.bn1.running_var, backbone.stage3.0.branches.0.0.bn1.weight"/>
			</rt_info>
			<input>
				<port id="0" precision="FP32">
					<dim>1</dim>
					<dim>18</dim>
					<dim>16</dim>
					<dim>16</dim>
				</port>
				<port id="1" precision="FP32">
					<dim>18</dim>
					<dim>18</dim>
					<dim>3</dim>
					<dim>3</dim>
				</port>
			</input>
			<output>
				<port id="2" precision="FP32">
					<dim>1</dim>
					<dim>18</dim>
					<dim>16</dim>
					<dim>16</dim>
				</port>
			</output>
		</layer>
		<layer id="286" name="Constant_77137_compressed" type="Const" version="opset1">
			<data element_type="f16" shape="1, 18, 1, 1" offset="1136560" size="36"/>
			<output>
				<port id="0" precision="FP16">
					<dim>1</dim>
					<dim>18</dim>
					<dim>1</dim>
					<dim>1</dim>
				</port>
			</output>
		</layer>
		<layer id="287" name="Constant_77137" type="Convert" version="opset1">
			<data destination_type="f32"/>
			<rt_info>
				<attribute name="decompression" version="0"/>
			</rt_info>
			<input>
				<port id="0" precision="FP16">
					<dim>1</dim>
					<dim>18</dim>
					<dim>1</dim>
					<dim>1</dim>
				</port>
			</input>
			<output>
				<port id="1" precision="FP32">
					<dim>1</dim>
					<dim>18</dim>
					<dim>1</dim>
					<dim>1</dim>
				</port>
			</output>
		</layer>
		<layer id="288" name="1993" type="Add" version="opset1">
			<data auto_broadcast="numpy"/>
			<rt_info>
				<attribute name="fused_names" version="0" value="1993, backbone.stage3.0.branches.0.0.bn1.bias, backbone.stage3.0.branches.0.0.bn1.running_mean, backbone.stage3.0.branches.0.0.bn1.running_var, backbone.stage3.0.branches.0.0.bn1.weight"/>
			</rt_info>
			<input>
				<port id="0" precision="FP32">
					<dim>1</dim>
					<dim>18</dim>
					<dim>16</dim>
					<dim>16</dim>
				</port>
				<port id="1" precision="FP32">
					<dim>1</dim>
					<dim>18</dim>
					<dim>1</dim>
					<dim>1</dim>
				</port>
			</input>
			<output>
				<port id="2" precision="FP32" names="1993">
					<dim>1</dim>
					<dim>18</dim>
					<dim>16</dim>
					<dim>16</dim>
				</port>
			</output>
		</layer>
		<layer id="289" name="1994" type="ReLU" version="opset1">
			<rt_info>
				<attribute name="fused_names" version="0" value="1994"/>
			</rt_info>
			<input>
				<port id="0" precision="FP32">
					<dim>1</dim>
					<dim>18</dim>
					<dim>16</dim>
					<dim>16</dim>
				</port>
			</input>
			<output>
				<port id="1" precision="FP32" names="1994">
					<dim>1</dim>
					<dim>18</dim>
					<dim>16</dim>
					<dim>16</dim>
				</port>
			</output>
		</layer>
		<layer id="290" name="Multiply_79367_compressed" type="Const" version="opset1">
			<data element_type="f16" shape="18, 18, 3, 3" offset="1136596" size="5832"/>
			<output>
				<port id="0" precision="FP16">
					<dim>18</dim>
					<dim>18</dim>
					<dim>3</dim>
					<dim>3</dim>
				</port>
			</output>
		</layer>
		<layer id="291" name="Multiply_79367" type="Convert" version="opset1">
			<data destination_type="f32"/>
…
		<edge from-layer="2713" from-port="1" to-layer="2716" to-port="0"/>
		<edge from-layer="2714" from-port="0" to-layer="2715" to-port="0"/>
		<edge from-layer="2715" from-port="1" to-layer="2716" to-port="1"/>
		<edge from-layer="2716" from-port="2" to-layer="2719" to-port="0"/>
		<edge from-layer="2717" from-port="0" to-layer="2718" to-port="0"/>
		<edge from-layer="2718" from-port="1" to-layer="2719" to-port="1"/>
		<edge from-layer="2719" from-port="2" to-layer="2720" to-port="0"/>
		<edge from-layer="2720" from-port="1" to-layer="2723" to-port="0"/>
		<edge from-layer="2721" from-port="0" to-layer="2722" to-port="0"/>
		<edge from-layer="2722" from-port="1" to-layer="2723" to-port="1"/>
		<edge from-layer="2723" from-port="2" to-layer="2726" to-port="0"/>
		<edge from-layer="2724" from-port="0" to-layer="2725" to-port="0"/>
		<edge from-layer="2725" from-port="1" to-layer="2726" to-port="1"/>
		<edge from-layer="2726" from-port="2" to-layer="2727" to-port="0"/>
		<edge from-layer="2727" from-port="2" to-layer="2728" to-port="0"/>
		<edge from-layer="2728" from-port="1" to-layer="3279" to-port="0"/>
		<edge from-layer="2728" from-port="1" to-layer="3198" to-port="0"/>
		<edge from-layer="2728" from-port="1" to-layer="3090" to-port="1"/>
		<edge from-layer="2728" from-port="1" to-layer="2731" to-port="0"/>
		<edge from-layer="2729" from-port="0" to-layer="2730" to-port="0"/>
		<edge from-layer="2730" from-port="1" to-layer="2731" to-port="1"/>
		<edge from-layer="2731" from-port="2" to-layer="2734" to-port="0"/>
		<edge from-layer="2732" from-port="0" to-layer="2733" to-port="0"/>
		<edge from-layer="2733" from-port="1" to-layer="2734" to-port="1"/>
		<edge from-layer="2734" from-port="2" to-layer="2735" to-port="0"/>
		<edge from-layer="2734" from-port="2" to-layer="2766" to-port="0"/>
		<edge from-layer="2735" from-port="1" to-layer="2742" to-port="0"/>
		<edge from-layer="2735" from-port="1" to-layer="2739" to-port="0"/>
		<edge from-layer="2735" from-port="1" to-layer="2762" to-port="0"/>
		<edge from-layer="2735" from-port="1" to-layer="2751" to-port="0"/>
		<edge from-layer="2736" from-port="0" to-layer="2739" to-port="1"/>
		<edge from-layer="2737" from-port="0" to-layer="2739" to-port="2"/>
		<edge from-layer="2738" from-port="0" to-layer="2739" to-port="3"/>
		<edge from-layer="2739" from-port="4" to-layer="2760" to-port="0"/>
		<edge from-layer="2740" from-port="0" to-layer="2742" to-port="1"/>
		<edge from-layer="2741" from-port="0" to-layer="2742" to-port="2"/>
		<edge from-layer="2742" from-port="3" to-layer="2743" to-port="0"/>
		<edge from-layer="2743" from-port="1" to-layer="2745" to-port="0"/>
		<edge from-layer="2744" from-port="0" to-layer="2745" to-port="1"/>
		<edge from-layer="2745" from-port="2" to-layer="2746" to-port="0"/>
		<edge from-layer="2746" from-port="1" to-layer="2748" to-port="0"/>
		<edge from-layer="2747" from-port="0" to-layer="2748" to-port="1"/>
		<edge from-layer="2748" from-port="2" to-layer="2758" to-port="0"/>
		<edge from-layer="2749" from-port="0" to-layer="2751" to-port="1"/>
		<edge from-layer="2750" from-port="0" to-layer="2751" to-port="2"/>
		<edge from-layer="2751" from-port="3" to-layer="2752" to-port="0"/>
		<edge from-layer="2752" from-port="1" to-layer="2754" to-port="0"/>
		<edge from-layer="2753" from-port="0" to-layer="2754" to-port="1"/>
		<edge from-layer="2754" from-port="2" to-layer="2755" to-port="0"/>
		<edge from-layer="2755" from-port="1" to-layer="2757" to-port="0"/>
		<edge from-layer="2756" from-port="0" to-layer="2757" to-port="1"/>
		<edge from-layer="2757" from-port="2" to-layer="2758" to-port="1"/>
		<edge from-layer="2758" from-port="2" to-layer="2759" to-port="0"/>
		<edge from-layer="2759" from-port="1" to-layer="2760" to-port="1"/>
		<edge from-layer="2760" from-port="2" to-layer="2766" to-port="1"/>
		<edge from-layer="2760" from-port="2" to-layer="2761" to-port="0"/>
		<edge from-layer="2761" from-port="1" to-layer="2763" to-port="0"/>
		<edge from-layer="2762" from-port="1" to-layer="2763" to-port="1"/>
		<edge from-layer="2763" from-port="2" to-layer="2765" to-port="0"/>
		<edge from-layer="2764" from-port="0" to-layer="2765" to-port="1"/>
		<edge from-layer="2765" from-port="2" to-layer="2766" to-port="2"/>
		<edge from-layer="2766" from-port="3" to-layer="2767" to-port="1"/>
		<edge from-layer="2767" from-port="2" to-layer="2927" to-port="0"/>
		<edge from-layer="2768" from-port="0" to-layer="2769" to-port="0"/>
		<edge from-layer="2769" from-port="1" to-layer="2770" to-port="1"/>
		<edge from-layer="2770" from-port="2" to-layer="2773" to-port="0"/>
		<edge from-layer="2771" from-port="0" to-layer="2772" to-port="0"/>
		<edge from-layer="2772" from-port="1" to-layer="2773" to-port="1"/>
		<edge from-layer="2773" from-port="2" to-layer="2774" to-port="0"/>
		<edge from-layer="2774" from-port="1" to-layer="2777" to-port="0"/>
		<edge from-layer="2775" from-port="0" to-layer="2776" to-port="0"/>
		<edge from-layer="2776" from-port="1" to-layer="2777" to-port="1"/>
		<edge from-layer="2777" from-port="2" to-layer="2780" to-port="0"/>
		<edge from-layer="2778" from-port="0" to-layer="2779" to-port="0"/>
		<edge from-layer="2779" from-port="1" to-layer="2780" to-port="1"/>
		<edge from-layer="2780" from-port="2" to-layer="2787" to-port="0"/>
		<edge from-layer="2781" from-port="0" to-layer="2782" to-port="0"/>
		<edge from-layer="2782" from-port="1" to-layer="2783" to-port="1"/>
		<edge from-layer="2783" from-port="2" to-layer="2786" to-port="0"/>
		<edge from-layer="2784" from-port="0" to-layer="2785" to-port="0"/>
		<edge from-layer="2785" from-port="1" to-layer="2786" to-port="1"/>
		<edge from-layer="2786" from-port="2" to-layer="2787" to-port="1"/>
		<edge from-layer="2787" from-port="2" to-layer="2788" to-port="0"/>
		<edge from-layer="2788" from-port="2" to-layer="2827" to-port="0"/>
		<edge from-layer="2789" from-port="0" to-layer="2790" to-port="0"/>
		<edge from-layer="2790" from-port="1" to-layer="2791" to-port="1"/>
		<edge from-layer="2791" from-port="2" to-layer="2794" to-port="0"/>
		<edge from-layer="2792" from-port="0" to-layer="2793" to-port="0"/>
		<edge from-layer="2793" from-port="1" to-layer="2794" to-port="1"/>
		<edge from-layer="2794" from-port="2" to-layer="2795" to-port="0"/>
		<edge from-layer="2794" from-port="2" to-layer="2826" to-port="0"/>
		<edge from-layer="2795" from-port="1" to-layer="2799" to-port="0"/>
		<edge from-layer="2795" from-port="1" to-layer="2822" to-port="0"/>
		<edge from-layer="2795" from-port="1" to-layer="2802" to-port="0"/>
		<edge from-layer="2795" from-port="1" to-layer="2811" to-port="0"/>
		<edge from-layer="2796" from-port="0" to-layer="2799" to-port="1"/>
		<edge from-layer="2797" from-port="0" to-layer="2799" to-port="2"/>
		<edge from-layer="2798" from-port="0" to-layer="2799" to-port="3"/>
		<edge from-layer="2799" from-port="4" to-layer="2820" to-port="0"/>
		<edge from-layer="2800" from-port="0" to-layer="2802" to-port="1"/>
		<edge from-layer="2801" from-port="0" to-layer="2802" to-port="2"/>
		<edge from-layer="2802" from-port="3" to-layer="2803" to-port="0"/>
		<edge from-layer="2803" from-port="1" to-layer="2805" to-port="0"/>
		<edge from-layer="2804" from-port="0" to-layer="2805" to-port="1"/>
		<edge from-layer="2805" from-port="2" to-layer="2806" to-port="0"/>
		<edge from-layer="2806" from-port="1" to-layer="2808" to-port="0"/>
		<edge from-layer="2807" from-port="0" to-layer="2808" to-port="1"/>
		<edge from-layer="2808" from-port="2" to-layer="2818" to-port="0"/>
		<edge from-layer="2809" from-port="0" to-layer="2811" to-port="1"/>
		<edge from-layer="2810" from-port="0" to-layer="2811" to-port="2"/>
		<edge from-layer="2811" from-port="3" to-layer="2812" to-port="0"/>
		<edge from-layer="2812" from-port="1" to-layer="2814" to-port="0"/>
		<edge from-layer="2813" from-port="0" to-layer="2814" to-port="1"/>
		<edge from-layer="2814" from-port="2" to-layer="2815" to-port="0"/>
		<edge from-layer="2815" from-port="1" to-layer="2817" to-port="0"/>
		<edge from-layer="2816" from-port="0" to-layer="2817" to-port="1"/>
		<edge from-layer="2817" from-port="2" to-layer="2818" to-port="1"/>
		<edge from-layer="2818" from-port="2" to-layer="2819" to-port="0"/>
		<edge from-layer="2819" from-port="1" to-layer="2820" to-port="1"/>
		<edge from-layer="2820" from-port="2" to-layer="2826" to-port="1"/>
		<edge from-layer="2820" from-port="2" to-layer="2821" to-port="0"/>
		<edge from-layer="2821" from-port="1" to-layer="2823" to-port="0"/>
		<edge from-layer="2822" from-port="1" to-layer="2823" to-port="1"/>
		<edge from-layer="2823" from-port="2" to-layer="2825" to-port="0"/>
		<edge from-layer="2824" from-port="0" to-layer="2825" to-port="1"/>
		<edge from-layer="2825" from-port="2" to-layer="2826" to-port="2"/>
		<edge from-layer="2826" from-port="3" to-layer="2827" to-port="1"/>
		<edge from-layer="2827" from-port="2" to-layer="2828" to-port="0"/>
		<edge from-layer="2828" from-port="1" to-layer="2842" to-port="1"/>
		<edge from-layer="2828" from-port="1" to-layer="2831" to-port="0"/>
		<edge from-layer="2829" from-port="0" to-layer="2830" to-port="0"/>
		<edge from-layer="2830" from-port="1" to-layer="2831" to-port="1"/>
		<edge from-layer="2831" from-port="2" to-layer="2834" to-port="0"/>
		<edge from-layer="2832" from-port="0" to-layer="2833" to-port="0"/>
		<edge from-layer="2833" from-port="1" to-layer="2834" to-port="1"/>
		<edge from-layer="2834" from-port="2" to-layer="2835" to-port="0"/>
		<edge from-layer="2835" from-port="1" to-layer="2838" to-port="0"/>
		<edge from-layer="2836" from-port="0" to-layer="2837" to-port="0"/>
		<edge from-layer="2837" from-port="1" to-layer="2838" to-port="1"/>
		<edge from-layer="2838" from-port="2" to-layer="2841" to-port="0"/>
		<edge from-layer="2839" from-port="0" to-layer="2840" to-port="0"/>
		<edge from-layer="2840" from-port="1" to-layer="2841" to-port="1"/>
		<edge from-layer="2841" from-port="2" to-layer="2842" to-port="0"/>
		<edge from-layer="2842" from-port="2" to-layer="2843" to-port="0"/>
		<edge from-layer="2843" from-port="1" to-layer="2846" to-port="0"/>
		<edge from-layer="2843" from-port="1" to-layer="2857" to-port="1"/>
		<edge from-layer="2844" from-port="0" to-layer="2845" to-port="0"/>
		<edge from-layer="2845" from-port="1" to-layer="2846" to-port="1"/>
		<edge from-layer="2846" from-port="2" to-layer="2849" to-port="0"/>
		<edge from-layer="2847" from-port="0" to-layer="2848" to-port="0"/>
		<edge from-layer="2848" from-port="1" to-layer="2849" to-port="1"/>
		<edge from-layer="2849" from-port="2" to-layer="2850" to-port="0"/>
		<edge from-layer="2850" from-port="1" to-layer="2853" to-port="0"/>
		<edge from-layer="2851" from-port="0" to-layer="2852" to-port="0"/>
		<edge from-layer="2852" from-port="1" to-layer="2853" to-port="1"/>
		<edge from-layer="2853" from-port="2" to-layer="2856" to-port="0"/>
		<edge from-layer="2854" from-port="0" to-layer="2855" to-port="0"/>
		<edge from-layer="2855" from-port="1" to-layer="2856" to-port="1"/>
		<edge from-layer="2856" from-port="2" to-layer="2857" to-port="0"/>
		<edge from-layer="2857" from-port="2" to-layer="2858" to-port="0"/>
		<edge from-layer="2858" from-port="1" to-layer="2872" to-port="1"/>
		<edge from-layer="2858" from-port="1" to-layer="2861" to-port="0"/>
		<edge from-layer="2859" from-port="0" to-layer="2860" to-port="0"/>
		<edge from-layer="2860" from-port="1" to-layer="2861" to-port="1"/>
		<edge from-layer="2861" from-port="2" to-layer="2864" to-port="0"/>
		<edge from-layer="2862" from-port="0" to-layer="2863" to-port="0"/>
		<edge from-layer="2863" from-port="1" to-layer="2864" to-port="1"/>
		<edge from-layer="2864" from-port="2" to-layer="2865" to-port="0"/>
		<edge from-layer="2865" from-port="1" to-layer="2868" to-port="0"/>
		<edge from-layer="2866" from-port="0" to-layer="2867" to-port="0"/>
		<edge from-layer="2867" from-port="1" to-layer="2868" to-port="1"/>
		<edge from-layer="2868" from-port="2" to-layer="2871" to-port="0"/>
		<edge from-layer="2869" from-port="0" to-layer="2870" to-port="0"/>
		<edge from-layer="2870" from-port="1" to-layer="2871" to-port="1"/>
		<edge from-layer="2871" from-port="2" to-layer="2872" to-port="0"/>
		<edge from-layer="2872" from-port="2" to-layer="2873" to-port="0"/>
		<edge from-layer="2873" from-port="1" to-layer="2876" to-port="0"/>
		<edge from-layer="2873" from-port="1" to-layer="2887" to-port="1"/>
		<edge from-layer="2874" from-port="0" to-layer="2875" to-port="0"/>
		<edge from-layer="2875" from-port="1" to-layer="2876" to-port="1"/>
		<edge from-layer="2876" from-port="2" to-layer="2879" to-port="0"/>
		<edge from-layer="2877" from-port="0" to-layer="2878" to-port="0"/>
		<edge from-layer="2878" from-port="1" to-layer="2879" to-port="1"/>
		<edge from-layer="2879" from-port="2" to-layer="2880" to-port="0"/>
		<edge from-layer="2880" from-port="1" to-layer="2883" to-port="0"/>
		<edge from-layer="2881" from-port="0" to-layer="2882" to-port="0"/>
		<edge from-layer="2882" from-port="1" to-layer="2883" to-port="1"/>
		<edge from-layer="2883" from-port="2" to-layer="2886" to-port="0"/>
		<edge from-layer="2884" from-port="0" to-layer="2885" to-port="0"/>
		<edge from-layer="2885" from-port="1" to-layer="2886" to-port="1"/>
		<edge from-layer="2886" from-port="2" to-layer="2887" to-port="0"/>
		<edge from-layer="2887" from-port="2" to-layer="2888" to-port="0"/>
		<edge from-layer="2888" from-port="1" to-layer="2891" to-port="0"/>
		<edge from-layer="2888" from-port="1" to-layer="3093" to-port="0"/>
		<edge from-layer="2888" from-port="1" to-layer="3293" to-port="0"/>
		<edge from-layer="2888" from-port="1" to-layer="3203" to-port="1"/>
		<edge from-layer="2889" from-port="0" to-layer="2890" to-port="0"/>
		<edge from-layer="2890" from-port="1" to-layer="2891" to-port="1"/>
		<edge from-layer="2891" from-port="2" to-layer="2894" to-port="0"/>
		<edge from-layer="2892" from-port="0" to-layer="2893" to-port="0"/>
		<edge from-layer="2893" from-port="1" to-layer="2894" to-port="1"/>
		<edge from-layer="2894" from-port="2" to-layer="2926" to-port="0"/>
		<edge from-layer="2894" from-port="2" to-layer="2895" to-port="0"/>
		<edge from-layer="2895" from-port="1" to-layer="2911" to-port="0"/>
		<edge from-layer="2895" from-port="1" to-layer="2899" to-port="0"/>
		<edge from-layer="2895" from-port="1" to-layer="2922" to-port="0"/>
		<edge from-layer="2895" from-port="1" to-layer="2902" to-port="0"/>
		<edge from-layer="2896" from-port="0" to-layer="2899" to-port="1"/>
		<edge from-layer="2897" from-port="0" to-layer="2899" to-port="2"/>
		<edge from-layer="2898" from-port="0" to-layer="2899" to-port="3"/>
		<edge from-layer="2899" from-port="4" to-layer="2920" to-port="0"/>
		<edge from-layer="2900" from-port="0" to-layer="2902" to-port="1"/>
		<edge from-layer="2901" from-port="0" to-layer="2902" to-port="2"/>
		<edge from-layer="2902" from-port="3" to-layer="2903" to-port="0"/>
		<edge from-layer="2903" from-port="1" to-layer="2905" to-port="0"/>
		<edge from-layer="2904" from-port="0" to-layer="2905" to-port="1"/>
		<edge from-layer="2905" from-port="2" to-layer="2906" to-port="0"/>
		<edge from-layer="2906" from-port="1" to-layer="2908" to-port="0"/>
		<edge from-layer="2907" from-port="0" to-layer="2908" to-port="1"/>
		<edge from-layer="2908" from-port="2" to-layer="2918" to-port="0"/>
		<edge from-layer="2909" from-port="0" to-layer="2911" to-port="1"/>
		<edge from-layer="2910" from-port="0" to-layer="2911" to-port="2"/>
		<edge from-layer="2911" from-port="3" to-layer="2912" to-port="0"/>
		<edge from-layer="2912" from-port="1" to-layer="2914" to-port="0"/>
		<edge from-layer="2913" from-port="0" to-layer="2914" to-port="1"/>
		<edge from-layer="2914" from-port="2" to-layer="2915" to-port="0"/>
		<edge from-layer="2915" from-port="1" to-layer="2917" to-port="0"/>
		<edge from-layer="2916" from-port="0" to-layer="2917" to-port="1"/>
		<edge from-layer="2917" from-port="2" to-layer="2918" to-port="1"/>
		<edge from-layer="2918" from-port="2" to-layer="2919" to-port="0"/>
		<edge from-layer="2919" from-port="1" to-layer="2920" to-port="1"/>
		<edge from-layer="2920" from-port="2" to-layer="2921" to-port="0"/>
		<edge from-layer="2920" from-port="2" to-layer="2926" to-port="1"/>
		<edge from-layer="2921" from-port="1" to-layer="2923" to-port="0"/>
		<edge from-layer="2922" from-port="1" to-layer="2923" to-port="1"/>
		<edge from-layer="2923" from-port="2" to-layer="2925" to-port="0"/>
		<edge from-layer="2924" from-port="0" to-layer="2925" to-port="1"/>
		<edge from-layer="2925" from-port="2" to-layer="2926" to-port="2"/>
		<edge from-layer="2926" from-port="3" to-layer="2927" to-port="1"/>
		<edge from-layer="2927" from-port="2" to-layer="3069" to-port="0"/>
		<edge from-layer="2928" from-port="0" to-layer="2929" to-port="0"/>
		<edge from-layer="2929" from-port="1" to-layer="2930" to-port="1"/>
		<edge from-layer="2930" from-port="2" to-layer="2933" to-port="0"/>
		<edge from-layer="2931" from-port="0" to-layer="2932" to-port="0"/>
		<edge from-layer="2932" from-port="1" to-layer="2933" to-port="1"/>
		<edge from-layer="2933" from-port="2" to-layer="2934" to-port="0"/>
		<edge from-layer="2934" from-port="1" to-layer="2937" to-port="0"/>
		<edge from-layer="2935" from-port="0" to-layer="2936" to-port="0"/>
		<edge from-layer="2936" from-port="1" to-layer="2937" to-port="1"/>
		<edge from-layer="2937" from-port="2" to-layer="2940" to-port="0"/>
		<edge from-layer="2938" from-port="0" to-layer="2939" to-port="0"/>
		<edge from-layer="2939" from-port="1" to-layer="2940" to-port="1"/>
		<edge from-layer="2940" from-port="2" to-layer="2941" to-port="0"/>
		<edge from-layer="2941" from-port="1" to-layer="2944" to-port="0"/>
		<edge from-layer="2942" from-port="0" to-layer="2943" to-port="0"/>
		<edge from-layer="2943" from-port="1" to-layer="2944" to-port="1"/>
		<edge from-layer="2944" from-port="2" to-layer="2947" to-port="0"/>
		<edge from-layer="2945" from-port="0" to-layer="2946" to-port="0"/>
		<edge from-layer="2946" from-port="1" to-layer="2947" to-port="1"/>
		<edge from-layer="2947" from-port="2" to-layer="2961" to-port="0"/>
		<edge from-layer="2948" from-port="0" to-layer="2949" to-port="0"/>
		<edge from-layer="2949" from-port="1" to-layer="2950" to-port="1"/>
		<edge from-layer="2950" from-port="2" to-layer="2953" to-port="0"/>
		<edge from-layer="2951" from-port="0" to-layer="2952" to-port="0"/>
		<edge from-layer="2952" from-port="1" to-layer="2953" to-port="1"/>
		<edge from-layer="2953" from-port="2" to-layer="2954" to-port="0"/>
		<edge from-layer="2954" from-port="1" to-layer="2957" to-port="0"/>
		<edge from-layer="2955" from-port="0" to-layer="2956" to-port="0"/>
		<edge from-layer="2956" from-port="1" to-layer="2957" to-port="1"/>
		<edge from-layer="2957" from-port="2" to-layer="2960" to-port="0"/>
		<edge from-layer="2958" from-port="0" to-layer="2959" to-port="0"/>
		<edge from-layer="2959" from-port="1" to-layer="2960" to-port="1"/>
		<edge from-layer="2960" from-port="2" to-layer="2961" to-port="1"/>
		<edge from-layer="2961" from-port="2" to-layer="2968" to-port="0"/>
		<edge from-layer="2962" from-port="0" to-layer="2963" to-port="0"/>
		<edge from-layer="2963" from-port="1" to-layer="2964" to-port="1"/>
		<edge from-layer="2964" from-port="2" to-layer="2967" to-port="0"/>
		<edge from-layer="2965" from-port="0" to-layer="2966" to-port="0"/>
		<edge from-layer="2966" from-port="1" to-layer="2967" to-port="1"/>
		<edge from-layer="2967" from-port="2" to-layer="2968" to-port="1"/>
		<edge from-layer="2968" from-port="2" to-layer="2969" to-port="0"/>
		<edge from-layer="2969" from-port="2" to-layer="2970" to-port="0"/>
		<edge from-layer="2970" from-port="1" to-layer="2973" to-port="0"/>
		<edge from-layer="2970" from-port="1" to-layer="2984" to-port="1"/>
		<edge from-layer="2971" from-port="0" to-layer="2972" to-port="0"/>
		<edge from-layer="2972" from-port="1" to-layer="2973" to-port="1"/>
		<edge from-layer="2973" from-port="2" to-layer="2976" to-port="0"/>
		<edge from-layer="2974" from-port="0" to-layer="2975" to-port="0"/>
		<edge from-layer="2975" from-port="1" to-layer="2976" to-port="1"/>
		<edge from-layer="2976" from-port="2" to-layer="2977" to-port="0"/>
		<edge from-layer="2977" from-port="1" to-layer="2980" to-port="0"/>
		<edge from-layer="2978" from-port="0" to-layer="2979" to-port="0"/>
		<edge from-layer="2979" from-port="1" to-layer="2980" to-port="1"/>
		<edge from-layer="2980" from-port="2" to-layer="2983" to-port="0"/>
		<edge from-layer="2981" from-port="0" to-layer="2982" to-port="0"/>
		<edge from-layer="2982" from-port="1" to-layer="2983" to-port="1"/>
		<edge from-layer="2983" from-port="2" to-layer="2984" to-port="0"/>
		<edge from-layer="2984" from-port="2" to-layer="2985" to-port="0"/>
		<edge from-layer="2985" from-port="1" to-layer="2988" to-port="0"/>
		<edge from-layer="2985" from-port="1" to-layer="2999" to-port="1"/>
		<edge from-layer="2986" from-port="0" to-layer="2987" to-port="0"/>
		<edge from-layer="2987" from-port="1" to-layer="2988" to-port="1"/>
		<edge from-layer="2988" from-port="2" to-layer="2991" to-port="0"/>
		<edge from-layer="2989" from-port="0" to-layer="2990" to-port="0"/>
		<edge from-layer="2990" from-port="1" to-layer="2991" to-port="1"/>
		<edge from-layer="2991" from-port="2" to-layer="2992" to-port="0"/>
		<edge from-layer="2992" from-port="1" to-layer="2995" to-port="0"/>
		<edge from-layer="2993" from-port="0" to-layer="2994" to-port="0"/>
		<edge from-layer="2994" from-port="1" to-layer="2995" to-port="1"/>
		<edge from-layer="2995" from-port="2" to-layer="2998" to-port="0"/>
		<edge from-layer="2996" from-port="0" to-layer="2997" to-port="0"/>
		<edge from-layer="2997" from-port="1" to-layer="2998" to-port="1"/>
		<edge from-layer="2998" from-port="2" to-layer="2999" to-port="0"/>
		<edge from-layer="2999" from-port="2" to-layer="3000" to-port="0"/>
		<edge from-layer="3000" from-port="1" to-layer="3014" to-port="1"/>
		<edge from-layer="3000" from-port="1" to-layer="3003" to-port="0"/>
		<edge from-layer="3001" from-port="0" to-layer="3002" to-port="0"/>
		<edge from-layer="3002" from-port="1" to-layer="3003" to-port="1"/>
		<edge from-layer="3003" from-port="2" to-layer="3006" to-port="0"/>
		<edge from-layer="3004" from-port="0" to-layer="3005" to-port="0"/>
		<edge from-layer="3005" from-port="1" to-layer="3006" to-port="1"/>
		<edge from-layer="3006" from-port="2" to-layer="3007" to-port="0"/>
		<edge from-layer="3007" from-port="1" to-layer="3010" to-port="0"/>
		<edge from-layer="3008" from-port="0" to-layer="3009" to-port="0"/>
		<edge from-layer="3009" from-port="1" to-layer="3010" to-port="1"/>
		<edge from-layer="3010" from-port="2" to-layer="3013" to-port="0"/>
		<edge from-layer="3011" from-port="0" to-layer="3012" to-port="0"/>
		<edge from-layer="3012" from-port="1" to-layer="3013" to-port="1"/>
		<edge from-layer="3013" from-port="2" to-layer="3014" to-port="0"/>
		<edge from-layer="3014" from-port="2" to-layer="3015" to-port="0"/>
		<edge from-layer="3015" from-port="1" to-layer="3018" to-port="0"/>
		<edge from-layer="3015" from-port="1" to-layer="3029" to-port="1"/>
		<edge from-layer="3016" from-port="0" to-layer="3017" to-port="0"/>
		<edge from-layer="3017" from-port="1" to-layer="3018" to-port="1"/>
		<edge from-layer="3018" from-port="2" to-layer="3021" to-port="0"/>
		<edge from-layer="3019" from-port="0" to-layer="3020" to-port="0"/>
		<edge from-layer="3020" from-port="1" to-layer="3021" to-port="1"/>
		<edge from-layer="3021" from-port="2" to-layer="3022" to-port="0"/>
		<edge from-layer="3022" from-port="1" to-layer="3025" to-port="0"/>
		<edge from-layer="3023" from-port="0" to-layer="3024" to-port="0"/>
		<edge from-layer="3024" from-port="1" to-layer="3025" to-port="1"/>
		<edge from-layer="3025" from-port="2" to-layer="3028" to-port="0"/>
		<edge from-layer="3026" from-port="0" to-layer="3027" to-port="0"/>
		<edge from-layer="3027" from-port="1" to-layer="3028" to-port="1"/>
		<edge from-layer="3028" from-port="2" to-layer="3029" to-port="0"/>
		<edge from-layer="3029" from-port="2" to-layer="3030" to-port="0"/>
		<edge from-layer="3030" from-port="1" to-layer="3132" to-port="0"/>
		<edge from-layer="3030" from-port="1" to-layer="3033" to-port="0"/>
		<edge from-layer="3030" from-port="1" to-layer="3298" to-port="1"/>
		<edge from-layer="3030" from-port="1" to-layer="3206" to-port="0"/>
		<edge from-layer="3031" from-port="0" to-layer="3032" to-port="0"/>
		<edge from-layer="3032" from-port="1" to-layer="3033" to-port="1"/>
		<edge from-layer="3033" from-port="2" to-layer="3036" to-port="0"/>
		<edge from-layer="3034" from-port="0" to-layer="3035" to-port="0"/>
		<edge from-layer="3035" from-port="1" to-layer="3036" to-port="1"/>
		<edge from-layer="3036" from-port="2" to-layer="3037" to-port="0"/>
		<edge from-layer="3036" from-port="2" to-layer="3068" to-port="0"/>
		<edge from-layer="3037" from-port="1" to-layer="3044" to-port="0"/>
		<edge from-layer="3037" from-port="1" to-layer="3053" to-port="0"/>
		<edge from-layer="3037" from-port="1" to-layer="3041" to-port="0"/>
		<edge from-layer="3037" from-port="1" to-layer="3064" to-port="0"/>
		<edge from-layer="3038" from-port="0" to-layer="3041" to-port="1"/>
		<edge from-layer="3039" from-port="0" to-layer="3041" to-port="2"/>
		<edge from-layer="3040" from-port="0" to-layer="3041" to-port="3"/>
		<edge from-layer="3041" from-port="4" to-layer="3062" to-port="0"/>
		<edge from-layer="3042" from-port="0" to-layer="3044" to-port="1"/>
		<edge from-layer="3043" from-port="0" to-layer="3044" to-port="2"/>
		<edge from-layer="3044" from-port="3" to-layer="3045" to-port="0"/>
		<edge from-layer="3045" from-port="1" to-layer="3047" to-port="0"/>
		<edge from-layer="3046" from-port="0" to-layer="3047" to-port="1"/>
		<edge from-layer="3047" from-port="2" to-layer="3048" to-port="0"/>
		<edge from-layer="3048" from-port="1" to-layer="3050" to-port="0"/>
		<edge from-layer="3049" from-port="0" to-layer="3050" to-port="1"/>
		<edge from-layer="3050" from-port="2" to-layer="3060" to-port="0"/>
		<edge from-layer="3051" from-port="0" to-layer="3053" to-port="1"/>
		<edge from-layer="3052" from-port="0" to-layer="3053" to-port="2"/>
		<edge from-layer="3053" from-port="3" to-layer="3054" to-port="0"/>
		<edge from-layer="3054" from-port="1" to-layer="3056" to-port="0"/>
		<edge from-layer="3055" from-port="0" to-layer="3056" to-port="1"/>
		<edge from-layer="3056" from-port="2" to-layer="3057" to-port="0"/>
		<edge from-layer="3057" from-port="1" to-layer="3059" to-port="0"/>
		<edge from-layer="3058" from-port="0" to-layer="3059" to-port="1"/>
		<edge from-layer="3059" from-port="2" to-layer="3060" to-port="1"/>
		<edge from-layer="3060" from-port="2" to-layer="3061" to-port="0"/>
		<edge from-layer="3061" from-port="1" to-layer="3062" to-port="1"/>
		<edge from-layer="3062" from-port="2" to-layer="3063" to-port="0"/>
		<edge from-layer="3062" from-port="2" to-layer="3068" to-port="1"/>
		<edge from-layer="3063" from-port="1" to-layer="3065" to-port="0"/>
		<edge from-layer="3064" from-port="1" to-layer="3065" to-port="1"/>
		<edge from-layer="3065" from-port="2" to-layer="3067" to-port="0"/>
		<edge from-layer="3066" from-port="0" to-layer="3067" to-port="1"/>
		<edge from-layer="3067" from-port="2" to-layer="3068" to-port="2"/>
		<edge from-layer="3068" from-port="3" to-layer="3069" to-port="1"/>
		<edge from-layer="3069" from-port="2" to-layer="3070" to-port="0"/>
		<edge from-layer="3070" from-port="1" to-layer="3083" to-port="0"/>
		<edge from-layer="3070" from-port="1" to-layer="3071" to-port="0"/>
		<edge from-layer="3071" from-port="1" to-layer="3079" to-port="0"/>
		<edge from-layer="3071" from-port="1" to-layer="3075" to-port="0"/>
		<edge from-layer="3072" from-port="0" to-layer="3075" to-port="1"/>
		<edge from-layer="3073" from-port="0" to-layer="3075" to-port="2"/>
		<edge from-layer="3074" from-port="0" to-layer="3075" to-port="3"/>
		<edge from-layer="3075" from-port="4" to-layer="3077" to-port="0"/>
		<edge from-layer="3076" from-port="0" to-layer="3077" to-port="1"/>
		<edge from-layer="3077" from-port="2" to-layer="3083" to-port="1"/>
		<edge from-layer="3077" from-port="2" to-layer="3078" to-port="0"/>
		<edge from-layer="3078" from-port="1" to-layer="3080" to-port="0"/>
		<edge from-layer="3079" from-port="1" to-layer="3080" to-port="1"/>
		<edge from-layer="3080" from-port="2" to-layer="3082" to-port="0"/>
		<edge from-layer="3081" from-port="0" to-layer="3082" to-port="1"/>
		<edge from-layer="3082" from-port="2" to-layer="3083" to-port="2"/>
		<edge from-layer="3083" from-port="3" to-layer="3313" to-port="0"/>
		<edge from-layer="3084" from-port="0" to-layer="3085" to-port="0"/>
		<edge from-layer="3085" from-port="1" to-layer="3086" to-port="1"/>
		<edge from-layer="3086" from-port="2" to-layer="3089" to-port="0"/>
		<edge from-layer="3087" from-port="0" to-layer="3088" to-port="0"/>
		<edge from-layer="3088" from-port="1" to-layer="3089" to-port="1"/>
		<edge from-layer="3089" from-port="2" to-layer="3090" to-port="0"/>
		<edge from-layer="3090" from-port="2" to-layer="3129" to-port="0"/>
		<edge from-layer="3091" from-port="0" to-layer="3092" to-port="0"/>
		<edge from-layer="3092" from-port="1" to-layer="3093" to-port="1"/>
		<edge from-layer="3093" from-port="2" to-layer="3096" to-port="0"/>
		<edge from-layer="3094" from-port="0" to-layer="3095" to-port="0"/>
		<edge from-layer="3095" from-port="1" to-layer="3096" to-port="1"/>
		<edge from-layer="3096" from-port="2" to-layer="3097" to-port="0"/>
		<edge from-layer="3096" from-port="2" to-layer="3128" to-port="0"/>
		<edge from-layer="3097" from-port="1" to-layer="3124" to-port="0"/>
		<edge from-layer="3097" from-port="1" to-layer="3113" to-port="0"/>
		<edge from-layer="3097" from-port="1" to-layer="3104" to-port="0"/>
		<edge from-layer="3097" from-port="1" to-layer="3101" to-port="0"/>
		<edge from-layer="3098" from-port="0" to-layer="3101" to-port="1"/>
		<edge from-layer="3099" from-port="0" to-layer="3101" to-port="2"/>
		<edge from-layer="3100" from-port="0" to-layer="3101" to-port="3"/>
		<edge from-layer="3101" from-port="4" to-layer="3122" to-port="0"/>
		<edge from-layer="3102" from-port="0" to-layer="3104" to-port="1"/>
		<edge from-layer="3103" from-port="0" to-layer="3104" to-port="2"/>
		<edge from-layer="3104" from-port="3" to-layer="3105" to-port="0"/>
		<edge from-layer="3105" from-port="1" to-layer="3107" to-port="0"/>
		<edge from-layer="3106" from-port="0" to-layer="3107" to-port="1"/>
		<edge from-layer="3107" from-port="2" to-layer="3108" to-port="0"/>
		<edge from-layer="3108" from-port="1" to-layer="3110" to-port="0"/>
		<edge from-layer="3109" from-port="0" to-layer="3110" to-port="1"/>
		<edge from-layer="3110" from-port="2" to-layer="3120" to-port="0"/>
		<edge from-layer="3111" from-port="0" to-layer="3113" to-port="1"/>
		<edge from-layer="3112" from-port="0" to-layer="3113" to-port="2"/>
		<edge from-layer="3113" from-port="3" to-layer="3114" to-port="0"/>
		<edge from-layer="3114" from-port="1" to-layer="3116" to-port="0"/>
		<edge from-layer="3115" from-port="0" to-layer="3116" to-port="1"/>
		<edge from-layer="3116" from-port="2" to-layer="3117" to-port="0"/>
		<edge from-layer="3117" from-port="1" to-layer="3119" to-port="0"/>
		<edge from-layer="3118" from-port="0" to-layer="3119" to-port="1"/>
		<edge from-layer="3119" from-port="2" to-layer="3120" to-port="1"/>
		<edge from-layer="3120" from-port="2" to-layer="3121" to-port="0"/>
		<edge from-layer="3121" from-port="1" to-layer="3122" to-port="1"/>
		<edge from-layer="3122" from-port="2" to-layer="3128" to-port="1"/>
		<edge from-layer="3122" from-port="2" to-layer="3123" to-port="0"/>
		<edge from-layer="3123" from-port="1" to-layer="3125" to-port="0"/>
		<edge from-layer="3124" from-port="1" to-layer="3125" to-port="1"/>
		<edge from-layer="3125" from-port="2" to-layer="3127" to-port="0"/>
		<edge from-layer="3126" from-port="0" to-layer="3127" to-port="1"/>
		<edge from-layer="3127" from-port="2" to-layer="3128" to-port="2"/>
		<edge from-layer="3128" from-port="3" to-layer="3129" to-port="1"/>
		<edge from-layer="3129" from-port="2" to-layer="3168" to-port="0"/>
		<edge from-layer="3130" from-port="0" to-layer="3131" to-port="0"/>
		<edge from-layer="3131" from-port="1" to-layer="3132" to-port="1"/>
		<edge from-layer="3132" from-port="2" to-layer="3135" to-port="0"/>
		<edge from-layer="3133" from-port="0" to-layer="3134" to-port="0"/>
		<edge from-layer="3134" from-port="1" to-layer="3135" to-port="1"/>
		<edge from-layer="3135" from-port="2" to-layer="3136" to-port="0"/>
		<edge from-layer="3135" from-port="2" to-layer="3167" to-port="0"/>
		<edge from-layer="3136" from-port="1" to-layer="3143" to-port="0"/>
		<edge from-layer="3136" from-port="1" to-layer="3152" to-port="0"/>
		<edge from-layer="3136" from-port="1" to-layer="3140" to-port="0"/>
		<edge from-layer="3136" from-port="1" to-layer="3163" to-port="0"/>
		<edge from-layer="3137" from-port="0" to-layer="3140" to-port="1"/>
		<edge from-layer="3138" from-port="0" to-layer="3140" to-port="2"/>
		<edge from-layer="3139" from-port="0" to-layer="3140" to-port="3"/>
		<edge from-layer="3140" from-port="4" to-layer="3161" to-port="0"/>
		<edge from-layer="3141" from-port="0" to-layer="3143" to-port="1"/>
		<edge from-layer="3142" from-port="0" to-layer="3143" to-port="2"/>
		<edge from-layer="3143" from-port="3" to-layer="3144" to-port="0"/>
		<edge from-layer="3144" from-port="1" to-layer="3146" to-port="0"/>
		<edge from-layer="3145" from-port="0" to-layer="3146" to-port="1"/>
		<edge from-layer="3146" from-port="2" to-layer="3147" to-port="0"/>
		<edge from-layer="3147" from-port="1" to-layer="3149" to-port="0"/>
		<edge from-layer="3148" from-port="0" to-layer="3149" to-port="1"/>
		<edge from-layer="3149" from-port="2" to-layer="3159" to-port="0"/>
		<edge from-layer="3150" from-port="0" to-layer="3152" to-port="1"/>
		<edge from-layer="3151" from-port="0" to-layer="3152" to-port="2"/>
		<edge from-layer="3152" from-port="3" to-layer="3153" to-port="0"/>
		<edge from-layer="3153" from-port="1" to-layer="3155" to-port="0"/>
		<edge from-layer="3154" from-port="0" to-layer="3155" to-port="1"/>
		<edge from-layer="3155" from-port="2" to-layer="3156" to-port="0"/>
		<edge from-layer="3156" from-port="1" to-layer="3158" to-port="0"/>
		<edge from-layer="3157" from-port="0" to-layer="3158" to-port="1"/>
		<edge from-layer="3158" from-port="2" to-layer="3159" to-port="1"/>
		<edge from-layer="3159" from-port="2" to-layer="3160" to-port="0"/>
		<edge from-layer="3160" from-port="1" to-layer="3161" to-port="1"/>
		<edge from-layer="3161" from-port="2" to-layer="3162" to-port="0"/>
		<edge from-layer="3161" from-port="2" to-layer="3167" to-port="1"/>
		<edge from-layer="3162" from-port="1" to-layer="3164" to-port="0"/>
		<edge from-layer="3163" from-port="1" to-layer="3164" to-port="1"/>
		<edge from-layer="3164" from-port="2" to-layer="3166" to-port="0"/>
		<edge from-layer="3165" from-port="0" to-layer="3166" to-port="1"/>
		<edge from-layer="3166" from-port="2" to-layer="3167" to-port="2"/>
		<edge from-layer="3167" from-port="3" to-layer="3168" to-port="1"/>
		<edge from-layer="3168" from-port="2" to-layer="3169" to-port="0"/>
		<edge from-layer="3169" from-port="1" to-layer="3170" to-port="0"/>
		<edge from-layer="3169" from-port="1" to-layer="3182" to-port="0"/>
		<edge from-layer="3170" from-port="1" to-layer="3178" to-port="0"/>
		<edge from-layer="3170" from-port="1" to-layer="3174" to-port="0"/>
		<edge from-layer="3171" from-port="0" to-layer="3174" to-port="1"/>
		<edge from-layer="3172" from-port="0" to-layer="3174" to-port="2"/>
		<edge from-layer="3173" from-port="0" to-layer="3174" to-port="3"/>
		<edge from-layer="3174" from-port="4" to-layer="3176" to-port="0"/>
		<edge from-layer="3175" from-port="0" to-layer="3176" to-port="1"/>
		<edge from-layer="3176" from-port="2" to-layer="3182" to-port="1"/>
		<edge from-layer="3176" from-port="2" to-layer="3177" to-port="0"/>
		<edge from-layer="3177" from-port="1" to-layer="3179" to-port="0"/>
		<edge from-layer="3178" from-port="1" to-layer="3179" to-port="1"/>
		<edge from-layer="3179" from-port="2" to-layer="3181" to-port="0"/>
		<edge from-layer="3180" from-port="0" to-layer="3181" to-port="1"/>
		<edge from-layer="3181" from-port="2" to-layer="3182" to-port="2"/>
		<edge from-layer="3182" from-port="3" to-layer="3313" to-port="1"/>
		<edge from-layer="3183" from-port="0" to-layer="3184" to-port="0"/>
		<edge from-layer="3184" from-port="1" to-layer="3185" to-port="1"/>
		<edge from-layer="3185" from-port="2" to-layer="3188" to-port="0"/>
		<edge from-layer="3186" from-port="0" to-layer="3187" to-port="0"/>
		<edge from-layer="3187" from-port="1" to-layer="3188" to-port="1"/>
		<edge from-layer="3188" from-port="2" to-layer="3189" to-port="0"/>
		<edge from-layer="3189" from-port="1" to-layer="3192" to-port="0"/>
		<edge from-layer="3190" from-port="0" to-layer="3191" to-port="0"/>
		<edge from-layer="3191" from-port="1" to-layer="3192" to-port="1"/>
		<edge from-layer="3192" from-port="2" to-layer="3195" to-port="0"/>
		<edge from-layer="3193" from-port="0" to-layer="3194" to-port="0"/>
		<edge from-layer="3194" from-port="1" to-layer="3195" to-port="1"/>
		<edge from-layer="3195" from-port="2" to-layer="3202" to-port="0"/>
		<edge from-layer="3196" from-port="0" to-layer="3197" to-port="0"/>
		<edge from-layer="3197" from-port="1" to-layer="3198" to-port="1"/>
		<edge from-layer="3198" from-port="2" to-layer="3201" to-port="0"/>
		<edge from-layer="3199" from-port="0" to-layer="3200" to-port="0"/>
		<edge from-layer="3200" from-port="1" to-layer="3201" to-port="1"/>
		<edge from-layer="3201" from-port="2" to-layer="3202" to-port="1"/>
		<edge from-layer="3202" from-port="2" to-layer="3203" to-port="0"/>
		<edge from-layer="3203" from-port="2" to-layer="3242" to-port="0"/>
		<edge from-layer="3204" from-port="0" to-layer="3205" to-port="0"/>
		<edge from-layer="3205" from-port="1" to-layer="3206" to-port="1"/>
		<edge from-layer="3206" from-port="2" to-layer="3209" to-port="0"/>
		<edge from-layer="3207" from-port="0" to-layer="3208" to-port="0"/>
		<edge from-layer="3208" from-port="1" to-layer="3209" to-port="1"/>
		<edge from-layer="3209" from-port="2" to-layer="3210" to-port="0"/>
		<edge from-layer="3209" from-port="2" to-layer="3241" to-port="0"/>
		<edge from-layer="3210" from-port="1" to-layer="3237" to-port="0"/>
		<edge from-layer="3210" from-port="1" to-layer="3226" to-port="0"/>
		<edge from-layer="3210" from-port="1" to-layer="3217" to-port="0"/>
		<edge from-layer="3210" from-port="1" to-layer="3214" to-port="0"/>
		<edge from-layer="3211" from-port="0" to-layer="3214" to-port="1"/>
		<edge from-layer="3212" from-port="0" to-layer="3214" to-port="2"/>
		<edge from-layer="3213" from-port="0" to-layer="3214" to-port="3"/>
		<edge from-layer="3214" from-port="4" to-layer="3235" to-port="0"/>
		<edge from-layer="3215" from-port="0" to-layer="3217" to-port="1"/>
		<edge from-layer="3216" from-port="0" to-layer="3217" to-port="2"/>
		<edge from-layer="3217" from-port="3" to-layer="3218" to-port="0"/>
		<edge from-layer="3218" from-port="1" to-layer="3220" to-port="0"/>
		<edge from-layer="3219" from-port="0" to-layer="3220" to-port="1"/>
		<edge from-layer="3220" from-port="2" to-layer="3221" to-port="0"/>
		<edge from-layer="3221" from-port="1" to-layer="3223" to-port="0"/>
		<edge from-layer="3222" from-port="0" to-layer="3223" to-port="1"/>
		<edge from-layer="3223" from-port="2" to-layer="3233" to-port="0"/>
		<edge from-layer="3224" from-port="0" to-layer="3226" to-port="1"/>
		<edge from-layer="3225" from-port="0" to-layer="3226" to-port="2"/>
		<edge from-layer="3226" from-port="3" to-layer="3227" to-port="0"/>
		<edge from-layer="3227" from-port="1" to-layer="3229" to-port="0"/>
		<edge from-layer="3228" from-port="0" to-layer="3229" to-port="1"/>
		<edge from-layer="3229" from-port="2" to-layer="3230" to-port="0"/>
		<edge from-layer="3230" from-port="1" to-layer="3232" to-port="0"/>
		<edge from-layer="3231" from-port="0" to-layer="3232" to-port="1"/>
		<edge from-layer="3232" from-port="2" to-layer="3233" to-port="1"/>
		<edge from-layer="3233" from-port="2" to-layer="3234" to-port="0"/>
		<edge from-layer="3234" from-port="1" to-layer="3235" to-port="1"/>
		<edge from-layer="3235" from-port="2" to-layer="3241" to-port="1"/>
		<edge from-layer="3235" from-port="2" to-layer="3236" to-port="0"/>
		<edge from-layer="3236" from-port="1" to-layer="3238" to-port="0"/>
		<edge from-layer="3237" from-port="1" to-layer="3238" to-port="1"/>
		<edge from-layer="3238" from-port="2" to-layer="3240" to-port="0"/>
		<edge from-layer="3239" from-port="0" to-layer="3240" to-port="1"/>
		<edge from-layer="3240" from-port="2" to-layer="3241" to-port="2"/>
		<edge from-layer="3241" from-port="3" to-layer="3242" to-port="1"/>
		<edge from-layer="3242" from-port="2" to-layer="3243" to-port="0"/>
		<edge from-layer="3243" from-port="1" to-layer="3244" to-port="0"/>
		<edge from-layer="3243" from-port="1" to-layer="3256" to-port="0"/>
		<edge from-layer="3244" from-port="1" to-layer="3252" to-port="0"/>
		<edge from-layer="3244" from-port="1" to-layer="3248" to-port="0"/>
		<edge from-layer="3245" from-port="0" to-layer="3248" to-port="1"/>
		<edge from-layer="3246" from-port="0" to-layer="3248" to-port="2"/>
		<edge from-layer="3247" from-port="0" to-layer="3248" to-port="3"/>
		<edge from-layer="3248" from-port="4" to-layer="3250" to-port="0"/>
		<edge from-layer="3249" from-port="0" to-layer="3250" to-port="1"/>
		<edge from-layer="3250" from-port="2" to-layer="3251" to-port="0"/>
		<edge from-layer="3250" from-port="2" to-layer="3256" to-port="1"/>
		<edge from-layer="3251" from-port="1" to-layer="3253" to-port="0"/>
		<edge from-layer="3252" from-port="1" to-layer="3253" to-port="1"/>
		<edge from-layer="3253" from-port="2" to-layer="3255" to-port="0"/>
		<edge from-layer="3254" from-port="0" to-layer="3255" to-port="1"/>
		<edge from-layer="3255" from-port="2" to-layer="3256" to-port="2"/>
		<edge from-layer="3256" from-port="3" to-layer="3313" to-port="2"/>
		<edge from-layer="3257" from-port="0" to-layer="3258" to-port="0"/>
		<edge from-layer="3258" from-port="1" to-layer="3259" to-port="1"/>
		<edge from-layer="3259" from-port="2" to-layer="3262" to-port="0"/>
		<edge from-layer="3260" from-port="0" to-layer="3261" to-port="0"/>
		<edge from-layer="3261" from-port="1" to-layer="3262" to-port="1"/>
		<edge from-layer="3262" from-port="2" to-layer="3263" to-port="0"/>
		<edge from-layer="3263" from-port="1" to-layer="3266" to-port="0"/>
		<edge from-layer="3264" from-port="0" to-layer="3265" to-port="0"/>
		<edge from-layer="3265" from-port="1" to-layer="3266" to-port="1"/>
		<edge from-layer="3266" from-port="2" to-layer="3269" to-port="0"/>
		<edge from-layer="3267" from-port="0" to-layer="3268" to-port="0"/>
		<edge from-layer="3268" from-port="1" to-layer="3269" to-port="1"/>
		<edge from-layer="3269" from-port="2" to-layer="3270" to-port="0"/>
		<edge from-layer="3270" from-port="1" to-layer="3273" to-port="0"/>
		<edge from-layer="3271" from-port="0" to-layer="3272" to-port="0"/>
		<edge from-layer="3272" from-port="1" to-layer="3273" to-port="1"/>
		<edge from-layer="3273" from-port="2" to-layer="3276" to-port="0"/>
		<edge from-layer="3274" from-port="0" to-layer="3275" to-port="0"/>
		<edge from-layer="3275" from-port="1" to-layer="3276" to-port="1"/>
		<edge from-layer="3276" from-port="2" to-layer="3290" to-port="0"/>
		<edge from-layer="3277" from-port="0" to-layer="3278" to-port="0"/>
		<edge from-layer="3278" from-port="1" to-layer="3279" to-port="1"/>
		<edge from-layer="3279" from-port="2" to-layer="3282" to-port="0"/>
		<edge from-layer="3280" from-port="0" to-layer="3281" to-port="0"/>
		<edge from-layer="3281" from-port="1" to-layer="3282" to-port="1"/>
		<edge from-layer="3282" from-port="2" to-layer="3283" to-port="0"/>
		<edge from-layer="3283" from-port="1" to-layer="3286" to-port="0"/>
		<edge from-layer="3284" from-port="0" to-layer="3285" to-port="0"/>
		<edge from-layer="3285" from-port="1" to-layer="3286" to-port="1"/>
		<edge from-layer="3286" from-port="2" to-layer="3289" to-port="0"/>
		<edge from-layer="3287" from-port="0" to-layer="3288" to-port="0"/>
		<edge from-layer="3288" from-port="1" to-layer="3289" to-port="1"/>
		<edge from-layer="3289" from-port="2" to-layer="3290" to-port="1"/>
		<edge from-layer="3290" from-port="2" to-layer="3297" to-port="0"/>
		<edge from-layer="3291" from-port="0" to-layer="3292" to-port="0"/>
		<edge from-layer="3292" from-port="1" to-layer="3293" to-port="1"/>
		<edge from-layer="3293" from-port="2" to-layer="3296" to-port="0"/>
		<edge from-layer="3294" from-port="0" to-layer="3295" to-port="0"/>
		<edge from-layer="3295" from-port="1" to-layer="3296" to-port="1"/>
		<edge from-layer="3296" from-port="2" to-layer="3297" to-port="1"/>
		<edge from-layer="3297" from-port="2" to-layer="3298" to-port="0"/>
		<edge from-layer="3298" from-port="2" to-layer="3299" to-port="0"/>
		<edge from-layer="3299" from-port="1" to-layer="3312" to-port="0"/>
		<edge from-layer="3299" from-port="1" to-layer="3300" to-port="0"/>
		<edge from-layer="3300" from-port="1" to-layer="3308" to-port="0"/>
		<edge from-layer="3300" from-port="1" to-layer="3304" to-port="0"/>
		<edge from-layer="3301" from-port="0" to-layer="3304" to-port="1"/>
		<edge from-layer="3302" from-port="0" to-layer="3304" to-port="2"/>
		<edge from-layer="3303" from-port="0" to-layer="3304" to-port="3"/>
		<edge from-layer="3304" from-port="4" to-layer="3306" to-port="0"/>
		<edge from-layer="3305" from-port="0" to-layer="3306" to-port="1"/>
		<edge from-layer="3306" from-port="2" to-layer="3312" to-port="1"/>
		<edge from-layer="3306" from-port="2" to-layer="3307" to-port="0"/>
		<edge from-layer="3307" from-port="1" to-layer="3309" to-port="0"/>
		<edge from-layer="3308" from-port="1" to-layer="3309" to-port="1"/>
		<edge from-layer="3309" from-port="2" to-layer="3311" to-port="0"/>
		<edge from-layer="3310" from-port="0" to-layer="3311" to-port="1"/>
		<edge from-layer="3311" from-port="2" to-layer="3312" to-port="2"/>
		<edge from-layer="3312" from-port="3" to-layer="3313" to-port="3"/>
		<edge from-layer="3313" from-port="4" to-layer="3316" to-port="0"/>
		<edge from-layer="3314" from-port="0" to-layer="3315" to-port="0"/>
		<edge from-layer="3315" from-port="1" to-layer="3316" to-port="1"/>
		<edge from-layer="3316" from-port="2" to-layer="3319" to-port="0"/>
		<edge from-layer="3317" from-port="0" to-layer="3318" to-port="0"/>
		<edge from-layer="3318" from-port="1" to-layer="3319" to-port="1"/>
		<edge from-layer="3319" from-port="2" to-layer="3320" to-port="0"/>
		<edge from-layer="3320" from-port="1" to-layer="3323" to-port="0"/>
		<edge from-layer="3321" from-port="0" to-layer="3322" to-port="0"/>
		<edge from-layer="3322" from-port="1" to-layer="3323" to-port="1"/>
		<edge from-layer="3323" from-port="2" to-layer="3326" to-port="0"/>
		<edge from-layer="3324" from-port="0" to-layer="3325" to-port="0"/>
		<edge from-layer="3325" from-port="1" to-layer="3326" to-port="1"/>
		<edge from-layer="3326" from-port="2" to-layer="3327" to-port="0"/>
	</edges>
	<meta_data>
		<MO_version value="2022.1.0-6910-173f328c53d"/>
		<Runtime_version value="2022.1.0-6910-173f328c53d"/>
		<legacy_path value="False"/>
		<cli_parameters>
			<caffe_parser_path value="DIR"/>
			<compress_fp16 value="True"/>
			<data_type value="FP32"/>
			<disable_nhwc_to_nchw value="False"/>
			<disable_omitting_optional value="False"/>
			<disable_resnet_optimization value="False"/>
			<disable_weights_compression value="False"/>
			<enable_concat_optimization value="False"/>
			<enable_flattening_nested_params value="False"/>
			<enable_ssd_gluoncv value="False"/>
			<extensions value="DIR"/>
			<framework value="onnx"/>
			<freeze_placeholder_with_value value="{}"/>
			<generate_deprecated_IR_V7 value="False"/>
			<input value="input.1"/>
			<input_model value="DIR/facial-landmarks-98-detection-0001.onnx"/>
			<input_model_is_text value="False"/>
			<input_shape value="[1,3,64,64]"/>
			<k value="DIR/CustomLayersMapping.xml"/>
			<keep_shape_ops value="True"/>
			<layout value="input.1(nchw)"/>
			<layout_values value="{'input.1': {'source_layout': 'nchw', 'target_layout': None, 'is_input': True}}"/>
			<legacy_ir_generation value="False"/>
			<legacy_mxnet_model value="False"/>
			<log_level value="ERROR"/>
			<mean_scale_values value="{'input.1': {'mean': None, 'scale': array([255.])}}"/>
			<mean_values value="()"/>
			<model_name value="facial-landmarks-98-detection-0001"/>
			<output_dir value="DIR"/>
			<placeholder_data_types value="{}"/>
			<placeholder_shapes value="{'input.1': (1, 3, 64, 64)}"/>
			<progress value="False"/>
			<remove_memory value="False"/>
			<remove_output_softmax value="False"/>
			<reverse_input_channels value="True"/>
			<save_params_from_nd value="False"/>
			<scale_values value="input.1[255.0]"/>
			<silent value="False"/>
			<source_layout value="()"/>
			<static_shape value="False"/>
			<stream_output value="False"/>
			<target_layout value="()"/>
			<transform value=""/>
			<use_legacy_frontend value="False"/>
			<use_new_frontend value="False"/>
			<unset unset_cli_parameters="batch, counts, disable_fusing, disable_gfusing, finegrain_fusing, input_checkpoint, input_meta_graph, input_proto, input_symbol, mean_file, mean_file_offsets, move_to_preprocess, nd_prefix_name, output, pretrained_model_name, saved_model_dir, saved_model_tags, scale, tensorboard_logdir, tensorflow_custom_layer_libraries, tensorflow_custom_operations_config_update, tensorflow_object_detection_api_pipeline_config, tensorflow_use_custom_operations_config, transformations_config"/>
		</cli_parameters>
	</meta_data>
</net>
